data/results/output_net_28000.pth (torch, 38313 bytes, 8 tensors)

layers.0.weight f4 [64, 5]
0	0xbdca189a	-0.098679736
1	0xbe231fcd	-0.159301
2	0x3c418800	0.01181221
3	0xbe848e6f	-0.25889918
4	0xbe6a97fb	-0.22909538
5	0x3ea699fa	0.3253935
6	0xbef0512c	-0.4693693
7	0xbd984907	-0.07435804
8	0x3d5b21a5	0.053498883
9	0xbec40363	-0.38283834
10	0x3e91bf41	0.28466228
11	0xbde635bc	-0.11240718
12	0xbd831cc3	-0.0640197
13	0xbe9a6a23	-0.301591
14	0x3e84fa6c	0.25972307
15	0x3ec642e0	0.38722897
16	0x3eb17a93	0.3466383
17	0xbe3325bd	-0.17494865
18	0xbd8251f2	-0.06363286
19	0x3e961bd9	0.2931812
20	0x3cff9797	0.031200213
21	0x3e772693	0.24135809
22	0x3e7a9a45	0.24472912
23	0xbe7adfae	-0.2449939
24	0xbeac3bd1	-0.33639386
25	0x3ec02410	0.37527514
26	0xbe73762b	-0.23775546
27	0xbe7f6642	-0.24941352
28	0x3d9723bf	0.07379865
29	0xbce0607e	-0.027389761
30	0xbe3b7a9a	-0.18308488
31	0xbe713a21	-0.2355733
32	0x3d783469	0.060596857
33	0xbe2db18e	-0.16962263
34	0xbec77104	-0.38953412
35	0x3d4013d7	0.04689392
36	0x3d46711b	0.04844771
37	0xbea55917	-0.32294533
38	0x3e6be295	0.23035653
39	0xbeaca31d	-0.33718196
40	0x3e021aca	0.12705532
41	0x3b5949df	0.0033155603
42	0xbdfa604e	-0.122254
43	0xbe7b865e	-0.24562976
44	0xbda1b7df	-0.07896399
45	0x3c911bf9	0.017713534
46	0x3cfe26ae	0.031024303
47	0xbda93f66	-0.082640454
48	0x3e30f98e	0.17282698
49	0x3d64432b	0.05572812
50	0xbec8da93	-0.3922926
51	0xbe639242	-0.22223762
52	0xbe045d37	-0.12926184
53	0x3e072eb5	0.13201411
54	0xbde60d7d	-0.112330414
55	0x3ea2e1fc	0.31813037
56	0x3dc128e4	0.094316274
57	0x3e7dd052	0.24786499
58	0x3d319a99	0.043360326
59	0xbcd17541	-0.025568606
60	0x3e67aca4	0.22624451
61	0xbd93e1ef	-0.07220828
62	0xbcad26ce	-0.021136668
63	0xbd9ae504	-0.075632125
64	0x3e99409e	0.29932112
65	0x3dd257ee	0.102706775
66	0x3d948feb	0.07254013
67	0x3e95e379	0.2927511
68	0xbe60981d	-0.21933027
69	0xbeb7efae	-0.3592505
70	0xbe011adc	-0.12607902
71	0x3df1f0a0	0.11813474
72	0x3d32aa9c	0.043619737
73	0xbe32bce4	-0.17454869
74	0x3e99706b	0.2996858
75	0xbc9bd333	-0.019021606
76	0x3e814d16	0.25254124
77	0xbcb9d924	-0.022686549
78	0xbd805e41	-0.062679775
79	0xbe3537f5	-0.17697127
80	0xbebe2303	-0.37136087
81	0x3de11738	0.10990757
82	0xbdd502c6	-0.104009196
83	0x3e5a5a59	0.21323527
84	0xbe1c132c	-0.15241688
85	0xbeba59a8	-0.36396527
86	0xbe8a00c7	-0.26953718
87	0x3dfe7230	0.12424123
88	0x3d27a43f	0.04092812
89	0xbe734f5a	-0.23760739
90	0x3e299c40	0.16563511
91	0x3ebe6a35	0.37190405
92	0xbd807fca	-0.06274374
93	0x3ebfda22	0.3747111
94	0xbd9330b6	-0.07187025
95	0x3ece0279	0.4023626
96	0xbea65575	-0.32487074
97	0x3e8dd6d0	0.2770295
98	0x3e82ac86	0.2552225
99	0xbdb01c09	-0.08599097
100	0x3cb5bb81	0.022184135
101	0x3ecbf918	0.3983848
102	0x3e94e2e1	0.29079345
103	0x3e95130a	0.29116088
104	0x3ee639cc	0.4496597
105	0x3ed9c261	0.42531112
106	0xbe82d27b	-0.2555121
107	0x3e24c0ec	0.16089219
108	0xbd4c36e0	-0.04985702
109	0x3eea20e5	0.45728222
110	0x3e29176a	0.16512838
111	0xbdb769f0	-0.08955753
112	0x3e4b6f31	0.19866635
113	0x3e332092	0.17492893
114	0x3dd613db	0.10453006
115	0xbe0493df	-0.12947033
116	0x3e821223	0.25404462
117	0xbe28dafd	-0.16489787
118	0x3d6ae2df	0.057345267
119	0x3f015ceb	0.50532407
120	0x3e7d1f84	0.24719054
121	0x3b81b627	0.003958482
122	0x3eb57c2e	0.35446304
123	0xbe26f64e	-0.16304895
124	0x3ea28dfd	0.31748953
125	0xbde916d0	-0.11381304
126	0x3e9776a2	0.29582697
127	0x3e39ca6a	0.18143621
128	0xbda6aa5d	-0.08137963
129	0xbeaa77f0	-0.3329463
130	0x3ea757ad	0.3268408
131	0xbedfe8af	-0.4373221
132	0x3b49cb7f	0.003079146
133	0xbd3dab3c	-0.04630588
134	0xbeb0d7e9	-0.34539726
135	0x3df39cbd	0.1189513
136	0xbe4cb342	-0.19990256
137	0xbe3b13ad	-0.18269224
138	0x3eac94ad	0.3370718
139	0x3d4f2acd	0.050577927
140	0x3e046301	0.12928392
141	0xbce898b6	-0.02839313
142	0x3e422290	0.18958497
143	0x3e9bb86f	0.3041415
144	0x3d662a5c	0.05619274
145	0xbe03d448	-0.12873948
146	0x3ea1663f	0.3152332
147	0x3e221bc7	0.15830909
148	0xbead9d71	-0.3390918
149	0xbe52bc7e	-0.20579717
150	0x3ce526a0	0.02797252
151	0xbf1292d7	-0.5725531
152	0xbeafbf30	-0.34325552
153	0x3da1ada6	0.07894449
154	0xbda3f419	-0.08005542
155	0x3d16f45f	0.036854144
156	0x3beaa599	0.007160854
157	0x3e9a543f	0.301424
158	0x3c2f34b3	0.010693717
159	0x3e257e27	0.16161405
160	0xbe96c71c	-0.29448783
161	0x3d72f68c	0.059317157
162	0x3d97ca08	0.07411581
163	0x3cafa8c3	0.021442777
164	0x3eb19bc9	0.34689167
165	0x3e6dcc76	0.23222527
166	0x3c932d2c	0.017965876
167	0xbe2337ba	-0.15939227
168	0x3e3f2f0b	0.18670289
169	0xbe84b042	-0.25915724
170	0x3e9a1c44	0.3009969
171	0x3df6fe11	0.12060178
172	0xbe94181b	-0.2892464
173	0x3d90acfb	0.070642434
174	0x3dcebb6a	0.1009434
175	0xbeb3f92a	-0.35151035
176	0xbec4faea	-0.38472682
177	0xbe31fb9b	-0.17381136
178	0x3d921026	0.07131986
179	0xbe7b583d	-0.24545379
180	0x3eb8b7df	0.36077783
181	0x3eaf8e12	0.3428808
182	0x3e6fd433	0.23420791
183	0x3dfd4c46	0.12368064
184	0x3dc83335	0.09775392
185	0x3cb86fc2	0.022514228
186	0xbe12ea05	-0.14347084
187	0xbe70e890	-0.23526216
188	0x3e6b605b	0.22985975
189	0x3e607f36	0.21923527
190	0xbe1c9d89	-0.1529447
191	0x3e946f8f	0.28991362
192	0x3daa6589	0.083201475
193	0x3e6d0ac0	0.23148632
194	0xbe21dff9	-0.15808095
195	0xbe8e9dde	-0.27854818
196	0x3e23ede1	0.16008712
197	0x3d9b9efc	0.07598683
198	0xbe9182e3	-0.2842017
199	0xba22de3a	-0.0006212924
200	0x3cc1abc9	0.023641484
201	0xbe05ba59	-0.13059367
202	0xbe01c45f	-0.12672566
203	0xbed02a0a	-0.40657073
204	0xbea95e45	-0.33079734
205	0xbe7adf92	-0.24499348
206	0x3d2618f0	0.040551126
207	0xbe005705	-0.12533195
208	0x3e6f4f51	0.233701
209	0xbefcabf3	-0.49349937
210	0xbde4fc47	-0.111809306
211	0x3d6d97ec	0.058006212
212	0x3e6b110c	0.22955722
213	0xbe6d4d71	-0.23174073
214	0x3e7e2ddd	0.24822183
215	0x3ecea356	0.4035899
216	0x3dd1cbc6	0.10243945
217	0x3defce68	0.11709291
218	0xbdcc038b	-0.09961613
219	0xbc2a3c4b	-0.0103903515
220	0x3ed52ac0	0.41634178
221	0xbd166072	-0.03671307
222	0xbde1d5d8	-0.110271156
223	0x3e66c056	0.22534308
224	0x3e09c5a4	0.134543
225	0x3d846844	0.064651996
226	0x3f1de43b	0.6167638
227	0xbdb9ee2f	-0.09078633
228	0x3db855e5	0.09000758
229	0x3e0e75e4	0.13912159
230	0xbcb0e3c1	-0.021592977
231	0xbd175dcd	-0.03695469
232	0x3e1cd706	0.153164
233	0x3e02af09	0.12762083
234	0x3da2ba22	0.07945658
235	0x3d96c02e	0.07360874
236	0x3e437815	0.19088776
237	0x3e7a24e9	0.24428143
238	0xbdedcfb7	-0.11611884
239	0x3d5a8120	0.0533458
240	0x3eb7f071	0.3592563
241	0x3e3c4335	0.18385012
242	0xbe75e42c	-0.24012822
243	0x3e69b6a0	0.22823572
244	0xbe2c990d	-0.16855259
245	0xbe6c0093	-0.23047094
246	0x3e035729	0.12826218
247	0xbd46c39e	-0.0485264
248	0x3e523a2f	0.20530008
249	0x3a6d7a09	0.0009059017
250	0x3e9dc0b5	0.30811086
251	0xbd186b7b	-0.037211876
252	0x3e897b11	0.26851705
253	0x3d95f5e7	0.07322293
254	0xbe9b57d6	-0.3034045
255	0x3e51ce94	0.2048896

layers.0.bias f4 [64]
0	0xbc85c844	-0.016330846
1	0x3a57767b	0.0008219254
2	0x3d065d2b	0.032803696
3	0xbc5705ba	-0.013123924
4	0xbbdbcc92	-0.0067077363
5	0x3d33ec46	0.0439265
6	0xbd80d557	-0.06290691
7	0xbd5823ad	-0.052768398
8	0x3c894278	0.016755328
9	0x3d36f723	0.04466928
10	0xbd56eadb	-0.05247007
11	0x3c816285	0.015794048
12	0x3bf3f7bb	0.0074453033
13	0xbd51980f	-0.051170405
14	0x3d2de121	0.042451028
15	0x3c66f282	0.014095904
16	0x3c7e883f	0.015535413
17	0xbbc7da35	-0.0060990104
18	0xbcb462fa	-0.022019852
19	0xbd101c37	-0.035183158
20	0xbeca76d2	-0.39543778
21	0x3a7fbf2b	0.0009755964
22	0xbd00e7ad	-0.031470943
23	0x3d79f263	0.061022174
24	0xbc19858f	-0.009370222
25	0x3ca754d2	0.020426188
26	0x3cd7975f	0.026317297
27	0x3ca0b245	0.019616256
28	0xbd02a6a2	-0.031897195
29	0x3d3252ab	0.04353587
30	0xbd07dbbd	-0.033168543
31	0xbcae200f	-0.021255521
32	0xbc2e6fbc	-0.010646757
33	0xbce0f03f	-0.027458308
34	0x3bc710f9	0.0060750213
35	0xbd0b236d	-0.03396933
36	0x3bee29f1	0.0072681834
37	0xb7dea170	-2.6539637e-05
38	0x3b9650dc	0.004587276
39	0x3c76ef59	0.015071713
40	0x3ddee3e9	0.10883314
41	0x3dbe73fc	0.09299466
42	0x3d54b6b0	0.051932037
43	0x3bd3d088	0.006464068
44	0xbd2ba4e5	-0.041905303
45	0x3dd980dc	0.10620281
46	0x3df5dd48	0.12005097
47	0xbbdce4ff	-0.0067411656
48	0x3d50ab20	0.050944448
49	0xbdeda06e	-0.11602865
50	0xbcf45071	-0.029823514
51	0x3c4248d3	0.011858183
52	0xbd4c75cb	-0.049917024
53	0x3b819fae	0.003955803
54	0x3b6ef635	0.0036462669
55	0x3b652c81	0.0034969153
56	0x3d492af8	0.049113244
57	0xbcb20c2d	-0.021734321
58	0x3c372452	0.011178093
59	0xbde48201	-0.11157609
60	0xbd2e45d0	-0.042547047
61	0xbc4bd065	-0.012439822
62	0xbc7ff4f3	-0.015622365
63	0x3c00f53a	0.007870967

layers.2.weight f4 [64, 64]
0	0xbda73d34	-0.081659704
1	0x3e6f7ba6	0.23387012
2	0x3e03223e	0.12806031
3	0x3da4c4a8	0.08045322
4	0xbd963336	-0.073339865
5	0x3e375791	0.17904498
6	0x3dd027f2	0.10163869
7	0x3d407314	0.046984747
8	0x3e641034	0.22271806
9	0xbe43a66a	-0.1910645
10	0xbd632fc5	-0.05546548
11	0xbe5a8de9	-0.21343197
12	0xbd1234d6	-0.03569492
13	0xbe5671a7	-0.20941792
14	0xbe0e0b83	-0.13871579
15	0xbd8c25d1	-0.068431504
16	0xbe1fb5ca	-0.15596691
17	0xbe59e38d	-0.2127821
18	0x3bc550cc	0.0060215946
19	0x3e49aebe	0.19695565
20	0x3d2d1b5e	0.042262428
21	0xbc9a48a2	-0.018833462
22	0x3e3722ff	0.17884444
23	0x3d1808f2	0.037117906
24	0xbd34b7f0	-0.04412073
25	0xbe408b63	-0.18803172
26	0x3e67a5c0	0.22621822
27	0xbca9c20f	-0.020722417
28	0xbe2ae237	-0.16687857
29	0x3bb04a33	0.005379939
30	0xbcaf17ea	-0.021373708
31	0xbe10ef9e	-0.14153907
32	0xbd32bcd9	-0.04363713
33	0x3e5fe638	0.21865165
34	0xbc90fb0b	-0.017697832
35	0x3d0f0d64	0.03492488
36	0xbe9e8c9e	-0.30966657
37	0x3e62d044	0.2214976
38	0xbe981b19	-0.29708174
39	0xbd7acf2b	-0.061232727
40	0x3d8e8d59	0.06960554
41	0xbe147945	-0.14499386
42	0x3bb2d8b5	0.0054579624
43	0xbcd0db55	-0.02549521
44	0xbdae5abe	-0.085134014
45	0xbe49b39c	-0.19697422
46	0x3e09c848	0.13455307
47	0xbeb002bb	-0.34377083
48	0xbdb86682	-0.09003927
49	0x3de4ca09	0.11171348
50	0xbdbce55d	-0.09223435
51	0xbd0c092c	-0.034188434
52	0xbc9cc12b	-0.019135078
53	0xbe093f06	-0.13402948
54	0x3e4141c9	0.18872751
55	0xbd7ffb0c	-0.062495276
56	0x3d693373	0.05693383
57	0xbe36b68d	-0.17843075
58	0xbd2151ce	-0.039384656
59	0x3e391228	0.18073332
60	0x3e2774b3	0.16353111
61	0x3d914a7b	0.07094284
62	0x3e2b0ad4	0.1670335
63	0x3e9ce7fd	0.30645743
64	0x3cff5813	0.031169927
65	0x3e6bd3a8	0.23029959
66	0x3e4c3a11	0.19944026
67	0xbe1a429a	-0.15064469
68	0x3dba559c	0.0909836
69	0x3e01e4e7	0.12684976
70	0x3d411bca	0.047145642
71	0xbe2ded60	-0.16985083
72	0xbccb9efd	-0.024856085
73	0x3e1c09da	0.15238133
74	0x3e23b1bd	0.1598577
75	0x3dfc2339	0.12311406
76	0xbe0d4380	-0.1379528
77	0xbe43a91a	-0.19107476
78	0xbdb6e566	-0.08930473
79	0xbe8f866b	-0.2803224
80	0x3df42222	0.11920573
81	0x3cada382	0.02119613
82	0xbe68cdcd	-0.22734757
83	0xbb6f0d65	-0.003647649
84	0xbdeb4a98	-0.11488837
85	0x3d21bc76	0.03948637
86	0x3dcba513	0.09943595
87	0xbe525b8e	-0.20542738
88	0x3cf1562e	0.029460039
89	0xbe0cc861	-0.13748313
90	0x3e6f6e74	0.23381978
91	0x3da7c511	0.08191884
92	0x3dc40d25	0.095728196
93	0xbe5c61b2	-0.21521643
94	0x3e8beb5d	0.27328005
95	0x3e03ab65	0.1285835
96	0x3e1b1c41	0.15147497
97	0xbc2007de	-0.009767501
98	0xbce919aa	-0.02845462
99	0x3eb04a1f	0.3443155
100	0xbe8ee5c5	-0.27909675
101	0xbc691a6f	-0.014227494
102	0x3b36602a	0.0027828314
103	0xbe1f7f68	-0.15575945
104	0x3e6da8c3	0.23208909
105	0x3e23c874	0.15994436
106	0x3e1ce4e6	0.15321693
107	0x3da07362	0.078345075
108	0x3d460663	0.048345935
109	0xbe1b0655	-0.15139134
110	0x3e0db33a	0.13837901
111	0xbe05e68c	-0.13076228
112	0xbd011dca	-0.03152255
113	0xbd439046	-0.04774501
114	0x3cd182ef	0.02557513
115	0xbe6337cd	-0.22189255
116	0x3d1c75b5	0.03819819
117	0x3e0e2594	0.13881522
118	0x3dd87e82	0.105710045
119	0xbd57216a	-0.0525221
120	0xbb965efb	-0.0045889593
121	0xbe50e12b	-0.20398395
122	0xbe689267	-0.22712098
123	0xbe09747a	-0.13423339
124	0xbe4c5980	-0.19956017
125	0xbe1274d9	-0.14302386
126	0x3e29e418	0.16590917
127	0x3ea3bcb4	0.31979907
128	0xbc921c34	-0.017835714
129	0x3e4569bb	0.19278614
130	0x3e893209	0.26795986
131	0x3ede2eaa	0.43394977
132	0x3dd988b3	0.106217764
133	0x3e9a288c	0.3010906
134	0x3e06890d	0.13138218
135	0xbe3d2c95	-0.18474038
136	0x3dec289a	0.11531182
137	0x3d504481	0.05084658
138	0xbeb69c35	-0.35666052
139	0xbd884159	-0.06653089
140	0x3eb9c0cc	0.36279905
141	0xbd63d4d8	-0.055622905
142	0xbdb00c1a	-0.08596058
143	0xbcd06aa5	-0.025441477
144	0xbe86958a	-0.26285964
145	0xbebcc6b6	-0.36870354
146	0xbe3326ee	-0.17495319
147	0xbe187646	-0.14888868
148	0xbded4f6a	-0.11587413
149	0x3ec48519	0.38382795
150	0x3d296672	0.041357465
151	0xbdf6d555	-0.120524086
152	0x3e8f0c2f	0.27938983
153	0xbd32055c	-0.043462142
154	0x3d273299	0.040819738
155	0xbdc7ee53	-0.097622536
156	0xbe338b63	-0.1753364
157	0xbd63b15f	-0.055589076
158	0x3e3cfe0c	0.18456286
159	0xbdf33bf0	-0.118766665
160	0xbb9656f5	-0.004588003
161	0x3e337807	0.17526256
162	0x3ae87c0b	0.0017737163
163	0xbd923c32	-0.071403876
164	0x3dc3991f	0.0955069
165	0x3e4e2376	0.20130715
166	0xbe7d2a85	-0.24723251
167	0xbde74d5d	-0.11294053
168	0x3dbd9fb3	0.09258976
169	0xbe027915	-0.12741502
170	0x3e64271f	0.22280549
171	0x3e865c0a	0.26242095
172	0x3e7b04c0	0.2451353
173	0x3e2d0e0f	0.16899894
174	0xbddc2897	-0.107499294
175	0x3e27b77b	0.16378586
176	0x3e5fd596	0.2185882
177	0xbe6c81a1	-0.23096325
178	0xbd6e5b64	-0.058192626
179	0x3dfabdbb	0.122432195
180	0x3dfc2e48	0.12313515
181	0xbe059938	-0.1304673
182	0xbdf3e77d	-0.11909387
183	0xbe3e113a	-0.18561259
184	0x3d93159f	0.07181858
185	0xbdcb7704	-0.0993481
186	0x3d9a994f	0.075487725
187	0xbc4aeec4	-0.012386028
188	0x3eb40571	0.351604
189	0x3e870285	0.2636911
190	0x3ebe8c18	0.37216258
191	0x3d9e684c	0.07734737
192	0xbe6b1b7d	-0.22959705
193	0x3ddcbceb	0.10778221
194	0x3e429d2c	0.19005269
195	0x3e8cfe58	0.275378
196	0xbdbac109	-0.0911885
197	0xbda99fa9	-0.08282406
198	0xbe95493f	-0.29157445
199	0x3e846d6f	0.2586474
200	0x3d8ed368	0.06973916
201	0xbd85b4a3	-0.06528594
202	0x3d5951a0	0.05305636
203	0x3e8b88a9	0.272527
204	0x3e087c0c	0.1332857
205	0x3d0ed8c5	0.034874696
206	0xbe41fe2d	-0.18944617
207	0xbdc71e7a	-0.0972261
208	0xbe45b266	-0.19306335
209	0xbeabeaa8	-0.33577466
210	0x3dc263b6	0.094916746
211	0xbb8baa5f	-0.004262253
212	0xbda4889c	-0.08033869
213	0x3d44c0e1	0.048035506
214	0x3dcaf488	0.09909922
215	0x3e7e9357	0.24860893
216	0xbe090145	-0.1337939
217	0xbc46949f	-0.012120395
218	0xbe0a46ea	-0.13503614
219	0x3e46c5ba	0.19411364
220	0xbe07eb85	-0.13273437
221	0xbe5b8b94	-0.21439964
222	0x3d3fae7b	0.046797257
223	0xbdbe3c92	-0.092888966
224	0x3d08e2cf	0.033419427
225	0x3d07a61b	0.033117395
226	0x3dac5fa0	0.084166765
227	0xbe6daa3f	-0.23209475
228	0x3e6a2b5b	0.22868101
229	0xbcdf29e1	-0.02724165
230	0x3e525480	0.20540047
231	0xbe6df854	-0.23239261
232	0x3e028030	0.12744212
233	0xbe3147b5	-0.1731251
234	0x3e043dab	0.1291415
235	0x3e821fcc	0.25414884
236	0x3ef86382	0.48513418
237	0x3e93454a	0.287638
238	0x3e4be9b0	0.19913363
239	0xbe3b12a2	-0.18268827
240	0x3dcf8014	0.10131851
241	0x3e0b5dbc	0.13609976
242	0xbce60756	-0.02807967
243	0xbd989c82	-0.074517265
244	0xbe210ed2	-0.1572831
245	0x3e6c68ab	0.23086803
246	0x3e5a1aac	0.21299237
247	0x3e0a61f4	0.13513929
248	0x3dfef0bc	0.1244826
249	0x3e598761	0.21243049
250	0xbda8a408	-0.082344115
251	0xbe747dde	-0.2387614
252	0x3e9b870f	0.3037648
253	0x3e46a385	0.19398315
254	0xbe7a5537	-0.2444657
255	0xbea827ea	-0.32842952

layers.2.bias f4 [64]
0	0xbd087448	-0.03331402
1	0x3ceedb2d	0.029157246
2	0x3c17e8b8	0.009271793
3	0x3c871c18	0.016492888
4	0x3990172d	0.00027483088
5	0xbceb5e83	-0.02873159
6	0xbda4aa18	-0.08040255
7	0x3d56b486	0.052418254
8	0x3d0796c0	0.03310275
9	0xbe2ff3d6	-0.1718286
10	0xbd29c980	-0.04145193
11	0x3da5dbaa	0.08098538
12	0x3d7d2b4e	0.061808877
13	0xbcb3bc6e	-0.021940436
14	0x3c920417	0.017824216
15	0xbcdba515	-0.026812116
16	0x3e047359	0.12934627
17	0x3d715332	0.05891723
18	0xbbcfe9bb	-0.0063450015
19	0xbd05ed73	-0.032697152
20	0xbd05589e	-0.032555215
21	0x3cce95dd	0.025217945
22	0x3d5138b1	0.051079456
23	0xbca2d612	-0.019877467
24	0x3d329cd6	0.0436066
25	0x3ce86c90	0.02837208
26	0x3c64dc31	0.013968513
27	0x3c039d09	0.008033046
28	0x3cd17f63	0.025573438
29	0x3dc47d2c	0.09594187
30	0xbd2cef28	-0.042220265
31	0x3d12af7b	0.035811882
32	0x3d5fbdba	0.054624297
33	0x3d9977f5	0.07493583
34	0xbcf28427	-0.02960403
35	0xbcb6269b	-0.022235205
36	0x3bef97d7	0.007311802
37	0xbbccaf05	-0.00624645
38	0xbb3df50a	-0.0028985166
39	0x3baf45ee	0.0053489124
40	0xbc1b06d3	-0.009462076
41	0xbc50d4df	-0.012746065
42	0xbd888f23	-0.06667926
43	0xbb6a94b1	-0.0035794193
44	0x3c7e0aa1	0.015505464
45	0x3b8e2ba0	0.0043386966
46	0xbc9486a4	-0.018130608
47	0xbcd92b09	-0.026509779
48	0xbd10ea5c	-0.035379753
49	0xbc961b1f	-0.01832348
50	0x3c96d243	0.018410807
51	0x3d2211e1	0.039567832
52	0xbd784a47	-0.06061771
53	0x3cdbead9	0.026845383
54	0xbd13f2b7	-0.036120143
55	0x3dc52d0b	0.09627732
56	0xbd22e1c3	-0.039766084
57	0xbc81684a	-0.0157968
58	0xbd9bc805	-0.0760651
59	0x3ce34c70	0.02774641
60	0xbc08efb0	-0.008357927
61	0x3bd8cc8f	0.006616182
62	0x3dbeee53	0.093228005
63	0xbb84a2eb	-0.0040477416

layers.4.weight f4 [64, 64]
0	0xbe6aba28	-0.22922575
1	0xbd2ce451	-0.042209927
2	0x3e5a55ab	0.21321742
3	0xbd943870	-0.07237327
4	0x3de79577	0.11307805
5	0xbe4d06a4	-0.20022064
6	0xbdb02db9	-0.08602471
7	0xbdb00b41	-0.085958965
8	0x3e2e3840	0.17013645
9	0xbe92ccc8	-0.2867186
10	0x3e9b76aa	0.3036397
11	0x3e23c694	0.1599372
12	0x3dc8326b	0.097752415
13	0xbdb9b105	-0.09066967
14	0xbe446bba	-0.1918172
15	0x3de48216	0.111576244
16	0xbe9c2d90	-0.3050351
17	0x3c709684	0.014684323
18	0xbe30480a	-0.1721498
19	0x3c9f2db9	0.019430982
20	0xbdbe42c5	-0.09290079
21	0xbe46d888	-0.19418538
22	0x3d5ace9c	0.053419694
23	0xbe445f01	-0.19176866
24	0xbe161d67	-0.14659654
25	0xbdbb37ad	-0.09141479
26	0xbd4b6cd4	-0.049664333
27	0xbe40b741	-0.18819906
28	0x3d97e3af	0.07416474
29	0x3ea04c5b	0.31308255
30	0x3e3f712b	0.18695514
31	0xbce32b31	-0.027730556
32	0xbe6cb3b1	-0.23115422
33	0x3e2a09ae	0.16605255
34	0xbe3eba21	-0.1862569
35	0xbe2c1898	-0.16806257
36	0xbe7c2d29	-0.24626602
37	0xbdc88d15	-0.09792534
38	0xbe0c809d	-0.13720937
39	0xbdcca443	-0.09992268
40	0x3d9068e0	0.07051253
41	0xbdddd1cb	-0.108310305
42	0x3d32b3e8	0.043628603
43	0x3e8d955a	0.2765301
44	0x3d7d5107	0.06184485
45	0x3e81c8dc	0.25348556
46	0xbe4635d8	-0.19356477
47	0xbd678255	-0.05652078
48	0xbce092a3	-0.027413672
49	0x3d6a3bdf	0.057186004
50	0x3e2f856f	0.17140745
51	0x3cae5ca8	0.021284416
52	0xbe2f8780	-0.17141533
53	0xbd54e0c2	-0.05197216
54	0xbcc6eaca	-0.024281878
55	0xbe9c8e5f	-0.3057737
56	0x3c622fcb	0.01380534
57	0x3dc5b3cc	0.09653434
58	0xbe088cf3	-0.13335018
59	0xbdc4bf0e	-0.09606753
60	0xbe0a6f45	-0.13519008
61	0xbe492b93	-0.19645528
62	0xbd9801b7	-0.07422202
63	0x3e0f6ab1	0.14005543
64	0x3e347dc8	0.17626107
65	0xbc9b261d	-0.018939072
66	0x3e1378e9	0.14401592
67	0x3d04383a	0.032280184
68	0x3e940904	0.28913128
69	0xbc36d07d	-0.011158106
70	0x3dff823b	0.12476011
71	0x3e174320	0.147717
72	0xbc813862	-0.015773956
73	0x3dc413e2	0.09574105
74	0x3d147490	0.036243975
75	0xbd939edf	-0.07208037
76	0x3df81679	0.12113661
77	0x3e056463	0.13026576
78	0xbded4aea	-0.11586554
79	0xbdc03cb4	-0.09386578
80	0xbe794635	-0.24343188
81	0xbe03c686	-0.128687
82	0xbe1d0deb	-0.1533734
83	0xbe590784	-0.21194273
84	0x3d95442b	0.07288393
85	0xbe4fa274	-0.20276815
86	0xbe467215	-0.19379456
87	0xbe4de37e	-0.20106313
88	0x3cc41884	0.023937471
89	0x3e37916c	0.17926568
90	0xbd21a972	-0.039468236
91	0xbe532b83	-0.20622067
92	0x3d317fa9	0.043334637
93	0x3c742a20	0.0149026215
94	0x3e26561b	0.16243784
95	0xbcfcb839	-0.030849563
96	0x3e634993	0.22196035
97	0x3d9ad8fa	0.07560916
98	0x3e314d2d	0.17314596
99	0xbe18144d	-0.14851494
100	0xbdd6a877	-0.10481351
101	0x3bc90726	0.0061348854
102	0x3e6012f1	0.21882226
103	0xbdc9bc71	-0.098503955
104	0x3e302719	0.17202415
105	0xbe3ea8fe	-0.18619153
106	0xbd835700	-0.06413078
107	0xbd964fd1	-0.073394425
108	0xbda00897	-0.078141384
109	0xbcdf7940	-0.027279496
110	0x3d9bc9d1	0.07606853
111	0x3e46d70e	0.19417974
112	0x3dee70d9	0.11642618
113	0xbd6a3656	-0.057180725
114	0x3dd0697e	0.10176371
115	0xbe1ddca1	-0.15416194
116	0xbdbe0c41	-0.09279681
117	0x3e57f8d2	0.21091011
118	0x3e2658ee	0.16244861
119	0xbc0cda17	-0.008596919
120	0x3e052691	0.13002993
121	0xbe0575cc	-0.13033217
122	0x3e1995bf	0.1499853
123	0xbdb7ac80	-0.08968449
124	0xbdfed946	-0.12443785
125	0xbe162e9e	-0.1466622
126	0xbc047855	-0.00808533
127	0x3e7950c9	0.24347223
128	0x3dd66b93	0.10469737
129	0xbdf5fa67	-0.12010651
130	0xbdcfa0c8	-0.101380885
131	0xbe1a542f	-0.15071176
132	0x3e570e16	0.21001467
133	0xbe6f45dd	-0.23366494
134	0x3cefea9a	0.029286671
135	0xbcc860e1	-0.024460258
136	0x3e0265c9	0.1273414
137	0x3d01007a	0.031494595
138	0xbdc26a4c	-0.09492931
139	0xbaac3bdf	-0.0013140402
140	0x3e616d1e	0.22014281
141	0xbd157e50	-0.036497414
142	0x3e7ef647	0.24898635
143	0xbe225c0d	-0.15855427
144	0x3e376053	0.17907839
145	0x3da903b8	0.082526624
146	0xbe13a585	-0.1441861
147	0xbdb461c6	-0.08807711
148	0x3e19e6aa	0.15029398
149	0xbca5e98c	-0.020252965
150	0x3e88608f	0.26636168
151	0xbe3be353	-0.18348436
152	0x3dc7fce8	0.09765035
153	0xbe1ad456	-0.15120062
154	0xbe467b76	-0.19383034
155	0x3d3768b2	0.04477758
156	0x3da580c8	0.08081204
157	0xbdf876b2	-0.12132014
158	0x3dfac1fd	0.122440316
159	0xbe142348	-0.14466584
160	0xbda00546	-0.07813506
161	0xbd9fe55c	-0.07807419
162	0xbdef4319	-0.1168272
163	0xbe665173	-0.22492008
164	0xbe8b1d79	-0.27170923
165	0xbdc07759	-0.09397764
166	0xbe2ffd39	-0.1718644
167	0xbe40c375	-0.18824561
168	0x3e288ebc	0.16460699
169	0xbe80aa39	-0.2512987
170	0x3d76e66c	0.06027834
171	0x3cac5ed1	0.021041306
172	0x3e2db7d2	0.16964653
173	0x3d036330	0.032077014
174	0x3d6c9a14	0.057764128
175	0xbe15e3e5	-0.14637716
176	0xbcb4f0b9	-0.022087442
177	0x3e4084c9	0.18800654
178	0xbe21f58c	-0.15816325
179	0x3da40aeb	0.08009895
180	0xbcfed6bc	-0.031108253
181	0xbe2a841f	-0.16651963
182	0xbe54cd43	-0.20781426
183	0x3dea2f28	0.114347756
184	0xbd16d325	-0.036822457
185	0x3e27bc3c	0.163804
186	0xbe3bdc98	-0.18345869
187	0xbe035cce	-0.12828371
188	0xbeb6c12a	-0.35694247
189	0xbdb3ad6f	-0.08773314
190	0xbe10b4f8	-0.14131534
191	0x3d2f88a6	0.042854927
192	0xbe06adc9	-0.13152231
193	0x3e607541	0.21919729
194	0xbd861cd9	-0.06548471
195	0xbe1ccba5	-0.15312059
196	0xbc469ac1	-0.012121857
197	0x3e6b9bd6	0.23008665
198	0x3e598f7d	0.21246143
199	0xbe4d77a2	-0.20065168
200	0xbe21a576	-0.15785775
201	0xbdfc44e4	-0.12317827
202	0xbceecbb0	-0.02914986
203	0xbdd00be8	-0.10158521
204	0xbd1fa5de	-0.038976543
205	0x3e110f1d	0.14165922
206	0x3d58d750	0.052939713
207	0x3dfb146d	0.12259755
208	0x3d5b9d4c	0.053616807
209	0xbe00bb8b	-0.12571542
210	0xbb5416c0	-0.0032362193
211	0x3dcacbc5	0.09902147
212	0x3e043bc4	0.12913424
213	0x3e2d8112	0.16943768
214	0xbdbb330e	-0.09140597
215	0xbd620fb5	-0.05519076
216	0x3e7679c5	0.24069889
217	0x3e144559	0.14479579
218	0xbe6baabb	-0.23014347
219	0xbe4225ba	-0.18959704
220	0xbdcc671c	-0.09980604
221	0x3e673af1	0.22581078
222	0xbe00f0cd	-0.12591858
223	0xbdf23577	-0.11826604
224	0x3d87adc5	0.06624941
225	0xbdc57fa6	-0.09643488
226	0x3df9d9e4	0.121997625
227	0x3ce9f439	0.028558837
228	0x3e2170c1	0.15765668
229	0x3d24fd6d	0.04028075
230	0xbdcc3583	-0.09971144
231	0xbda05aec	-0.07829842
232	0x3d1e9f4a	0.03872613
233	0xbe249634	-0.16072923
234	0x3e4b3b43	0.19846825
235	0x3dd9b1bc	0.10629603
236	0xbe1be240	-0.15223026
237	0xbe2c2b27	-0.16813336
238	0xbe58eda3	-0.21184401
239	0x3d9c508b	0.0763255
240	0xbd2adaec	-0.041712686
241	0x3d0e247b	0.03470276
242	0x3e23586b	0.15951698
243	0x3d616a10	0.05503279
244	0xbd1472e9	-0.0362424
245	0xbe5c9fa3	-0.21545272
246	0x3aadfa48	0.0013273442
247	0xbd03a8f3	-0.032143544
248	0x3e098823	0.13430838
249	0xbe13fd07	-0.14451991
250	0x3db9c078	0.090699136
251	0xbc9e0a9e	-0.019292172
252	0xbddc0be1	-0.10744453
253	0xbdfbb528	-0.12290412
254	0x3da0a40f	0.07843792
255	0xbd159975	-0.0365233

layers.4.bias f4 [64]
0	0xbd1392f5	-0.03602882
1	0xbcd71bbb	-0.02625834
2	0x39d138ef	0.00039906005
3	0x3b9b57fd	0.0047407136
4	0xbdcba20c	-0.09943017
5	0xbc4615f7	-0.012090198
6	0x3d8e696a	0.069537
7	0xbb60ffbd	-0.003433212
8	0x3c9041b5	0.017609457
9	0x3bf92717	0.007603537
10	0x3c110d9f	0.008853345
11	0xbd4a3a91	-0.04937226
12	0xbc5e1cfd	-0.013556716
13	0xbd4272f9	-0.047472928
14	0xbc2e4e62	-0.010638805
15	0x3d0d1a16	0.034448706
16	0x3cfec2e9	0.0310988
17	0x3da5b470	0.08091056
18	0x3c949884	0.018139131
19	0x3d2b3903	0.041802417
20	0xbc0e3de4	-0.008681748
21	0x3b5a54e3	0.0033314757
22	0x3b8dd03b	0.0043278015
23	0xbc2971d7	-0.010342083
24	0xbb257f8a	-0.002525302
25	0xbd3d30d8	-0.04618916
26	0x3a2984d6	0.00064666325
27	0xbb067c55	-0.0020520885
28	0x3c5df4a3	0.0135470955
29	0x3cc332e9	0.023827987
30	0x3b098b83	0.0020987696
31	0x3d367d08	0.044552833
32	0xbcbc0114	-0.022949733
33	0xbc822332	-0.015885923
34	0xbc8a6fed	-0.016899073
35	0x3be81d2a	0.0070835548
36	0xbd678aa0	-0.056528687
37	0xbc0c5e73	-0.00856744
38	0xbd2b730e	-0.04185777
39	0xbbcd05e4	-0.0062568057
40	0xbcc9d4d0	-0.02463761
41	0xbb31643e	-0.0027067806
42	0xbd0b4ae1	-0.034006957
43	0xbdb03b8e	-0.08605109
44	0x3dea93a3	0.11453941
45	0xbdb67c43	-0.0891042
46	0x3abe8f85	0.0014538622
47	0x3ce78b4b	0.028264662
48	0xbdb0b698	-0.08628577
49	0xbcd666f6	-0.026172142
50	0x3b278c20	0.0025565699
51	0x3d255341	0.0403626
52	0xbbbf3f74	-0.0058364216
53	0xbd2efef9	-0.04272363
54	0x3d9a9d40	0.07549524
55	0xbcb95643	-0.02262414
56	0xbc7553cc	-0.014973592
57	0x3c372672	0.0111786
58	0x3d5ba094	0.053619936
59	0x3d3f224f	0.04666358
60	0xbc8e87e9	-0.017398791
61	0xbe1b5c6b	-0.15171973
62	0xbe017aa5	-0.12644441
63	0x3c4f15be	0.012639461

layers.6.weight f4 [2, 64]
0	0xbeb6f380	-0.3573265
1	0xbe4d49de	-0.2004771
2	0x3e84f788	0.259701
3	0xbc39a99a	-0.01133194
4	0x3d7f048c	0.062260196
5	0xbe65b186	-0.22431001
6	0xbe14f008	-0.1454469
7	0x3d53bedb	0.051695686
8	0x3e9e2981	0.3089104
9	0xbcdf900d	-0.027290368
10	0x3d525fbd	0.051360834
11	0xbe9849f1	-0.29743913
12	0xbe5f7a07	-0.21823893
13	0xbe6bb799	-0.23019256
14	0x3e56eca8	0.20988715
15	0x3e3fbff2	0.18725565
16	0x3e7ae079	0.24499692
17	0xbd86a797	-0.06574934
18	0x3e905398	0.28188777
19	0x3e03140e	0.12800619
20	0xbc9460f6	-0.01811264
21	0x3e49b1dd	0.19696756
22	0x3e7edeb8	0.24889648
23	0x3e81ae2a	0.2532819
24	0x3db089d2	0.08620037
25	0xbde74498	-0.1129238
26	0x3e78536c	0.24250573
27	0x38d5ac0a	0.00010188676
28	0x3d87e2c3	0.06635048
29	0x3e6340ef	0.22192739
30	0x3e559161	0.20856239
31	0xbe047710	-0.12936044
32	0x3e9aca6c	0.3023256
33	0x3e8728cb	0.2639831
34	0xbe24b28b	-0.16083734
35	0x3d57a6e4	0.052649394
36	0xbe3241f0	-0.17407966
37	0xbd1b5436	-0.037922107
38	0xbe4c04de	-0.19923732
39	0x3eba5b29	0.36397675
40	0xbea1c666	-0.31596678
41	0xbba7beab	-0.005119165
42	0xbe69e8aa	-0.2284266
43	0x3c778e84	0.015109662
44	0xbeab6c2d	-0.3348097
45	0xbe876ff8	-0.26452613
46	0x3e98c736	0.29839486
47	0x3d1681da	0.03674493
48	0x3e67340e	0.22578451
49	0xbe8af5f7	-0.2714078
50	0xbe17e11b	-0.14831965
51	0x3e9b01d1	0.30274823
52	0xbe249045	-0.1607066
53	0xbe477a45	-0.19480236
54	0x3e92788c	0.28607595
55	0xbe84c118	-0.2592857
56	0x3e4a312f	0.19745325
57	0xbe9cd840	-0.30633736
58	0x3dee49c1	0.11635161
59	0x3a3618f5	0.0006946468
60	0xbe9578de	-0.29193777
61	0x3eb1d9d2	0.34736496
62	0xbe0f8e97	-0.14019237
63	0xbe3f6fcd	-0.18694992
64	0x3e9ac0fe	0.30225366
65	0xbea6ac6f	-0.3255343
66	0xbba0368f	-0.0048893164
67	0x3ef2e481	0.4743996
68	0xbe9f548f	-0.311192
69	0xbe4eb0a6	-0.20184574
70	0x3d3d1770	0.04616493
71	0xbec87b46	-0.3915655
72	0x3e9a8170	0.30176878
73	0xbd0ec4d0	-0.034855664
74	0xbea76471	-0.32693818
75	0xbd52fb3c	-0.051509127
76	0xbe876ee8	-0.26451802
77	0x3eacfba9	0.3378575
78	0x3e885725	0.26628986
79	0x3e397b32	0.18113402
80	0x3c2f2a3d	0.010691223
81	0x3ee13d57	0.4399211
82	0x3eb19472	0.34683567
83	0x3e3541e5	0.17700918
84	0xbec141b3	-0.37745437
85	0xbe092c7f	-0.1339588
86	0xbeb4725b	-0.35243496
87	0x3df7aeb8	0.12093872
88	0x3e697c1d	0.22801252
89	0x3e7094e3	0.23494296
90	0xbe0a75c7	-0.13521491
91	0xbd9f2c56	-0.07772128
92	0x3e92aaf1	0.28646043
93	0x3e62f862	0.22165063
94	0x3eb45e45	0.35228172
95	0xbe7fb092	-0.249697
96	0x3eb41c1d	0.351777
97	0xbe8f3afa	-0.27974683
98	0x3e43705c	0.1908583
99	0xbe3a744b	-0.18208425
100	0xbeadbc0d	-0.33932534
101	0x3eb03766	0.34417266
102	0x3be24cb4	0.0069061164
103	0x3e087240	0.13324833
104	0xbdf32a93	-0.11873355
105	0xbde8e115	-0.11371056
106	0xbdea6ade	-0.114461645
107	0xbe855940	-0.26044655
108	0x3eac2f4d	0.33629838
109	0xbe685953	-0.22690324
110	0xbb764334	-0.0037576677
111	0xbe3a757b	-0.18208878
112	0xbec061e2	-0.3757468
113	0x3e59f46b	0.21284644
114	0x3eb42588	0.35184884
115	0xbd8c683c	-0.06855819
116	0xbea8c71b	-0.32964405
117	0x3c256fa4	0.010097418
118	0xbe69874e	-0.22805521
119	0xbdce81c8	-0.100833476
120	0xbe8282f3	-0.2549053
121	0xbcc7da64	-0.024396129
122	0x3b9875ea	0.0046527283
123	0xbe9be656	-0.3044917
124	0xbe97b077	-0.2962682
125	0xbd6cb1c8	-0.057786733
126	0x3ea20b68	0.31649327
127	0xbd802e13	-0.06258788

layers.6.bias f4 [2]
0	0x3d11fb66	0.035640143
1	0x3c24f5e4	0.0100683905
