data/results/output_net_20000.pth (torch, 38313 bytes, 8 tensors)

layers.0.weight f4 [64, 5]
-0.1119649 -0.15399756 0.01831031 -0.24971941 -0.20977843 0.31504983 -0.4559076 -0.06916689
0.057602096 -0.37580034 0.2787294 -0.11139942 -0.04380034 -0.3029738 0.24636097 0.37383384
0.3337957 -0.16877204 -0.05936709 0.2898047 0.03368668 0.22466585 0.24293378 -0.24155264
-0.31917349 0.35837388 -0.22287707 -0.2347227 0.08071619 -0.023296453 -0.17562953 -0.2256006
0.07234071 -0.1466248 -0.3525892 0.044014864 0.024648072 -0.31760737 0.22839117 -0.31074014
0.115571074 0.013909227 -0.121141054 -0.2391296 -0.07853674 0.021343743 0.021027874 -0.084920876
0.15951523 0.048438977 -0.38770226 -0.2075742 -0.12747152 0.12677693 -0.117843196 0.31411594
0.080095425 0.24424648 0.044598114 -0.016630303 0.22396345 -0.080722846 -0.015174192 -0.07171477
0.28923005 0.10230816 0.050215047 0.2954358 -0.21184088 -0.34119666 -0.12373382 0.124567896
0.042881403 -0.17318907 0.28611398 -0.0152659835 0.23881507 -0.017605297 -0.05915968 -0.16102052
-0.3513396 0.12111425 -0.10645144 0.20391442 -0.15479471 -0.3543097 -0.25116652 0.12614106
0.05029261 -0.23068763 0.16894257 0.33964014 -0.056158494 0.37113014 -0.071738705 0.39017913
-0.3170347 0.26053387 0.24070965 -0.066081576 0.08366261 0.28894752 0.33485425 0.26490182
0.42007205 0.41867176 -0.26646554 0.15995178 -0.043578316 0.41823882 0.15788783 -0.091447406
0.1922926 0.16929707 0.098931946 -0.123646215 0.2634179 -0.17492166 0.05367341 0.47693768
0.2352427 -0.008316068 0.34376177 -0.14427766 0.2932108 -0.111674584 0.28326103 0.18143916
-0.07825011 -0.32177502 0.32091197 -0.42552572 0.002061179 -0.045588702 -0.34365824 0.10799208
-0.19838339 -0.18239185 0.31316328 0.045398872 0.13760868 -0.045246523 0.18669908 0.3005272
0.044681177 -0.12668619 0.28334057 0.1560151 -0.33121353 -0.17983963 0.012309788 -0.48166063
-0.33467978 0.06885474 -0.102549784 0.03317451 0.0020638506 0.29872745 0.0061167805 0.14868498
-0.28230193 0.063135065 0.071005784 0.0069149565 0.33315924 0.22806986 0.013661237 -0.1585335
0.18594605 -0.24726261 0.29217258 0.11610714 -0.2905145 0.070360154 0.09761536 -0.34864205
-0.3711508 -0.17281201 0.0704526 -0.24479444 0.36464515 0.32342398 0.2470565 0.1304716
0.09991419 0.021378208 -0.11611761 -0.2317024 0.21827756 0.19967838 -0.14962965 0.2727403
0.083246574 0.23018423 -0.14577164 -0.26956445 0.166785 0.07226217 -0.27320403 -0.001033394
0.006030658 -0.12013373 -0.12769178 -0.39306396 -0.315228 -0.22385606 0.04481855 -0.12495479
0.2184601 -0.44489914 -0.11222511 0.066562735 0.22917809 -0.22743021 0.23605365 0.3946969
0.0994193 0.12006689 -0.09517621 -0.01031419 0.41397426 -0.042313475 -0.11365809 0.21262065
0.11683889 0.059797283 0.5847617 -0.08640028 0.096304156 0.14619136 -0.013216887 -0.016620182
0.12876585 0.114432 0.076104514 0.075876966 0.18935992 0.24468522 -0.11017902 0.04687595
0.36117637 0.17332691 -0.2388629 0.22209589 -0.16912664 -0.23099658 0.09356726 -0.050944228
0.19416648 0.0031265914 0.30308422 -0.04769696 0.2642398 0.07054538 -0.2936963 0.2078397
00000000: da4d e5bd 89b1 1dbe 81ff 953c 72b6 7fbe
00000010: 28d0 56be 364e a13e b96c e9be 5fa7 8dbd
00000020: 2df0 6b3d e768 c0be 9fb5 8e3e 6125 e4bd
00000030: fc67 33bd 621f 9bbe 0d46 7c3e 2667 bf3e
00000040: 45e7 aa3e 94d2 2cbe e82a 73bd 4861 943e
00000050: 0bfb 093d ce0e 663e a2c3 783e 9359 77be
00000060: b56a a3be c87c b73e e339 64be 265b 70be
00000070: 884e a53d 34d8 bebc 3ad8 33be d803 67be
00000080: 5e27 943d d024 16be 9286 b4be ee48 343d
00000090: c1ea c93c 6f9d a2be 60df 693e 5519 9fbe
000000a0: 87b0 ec3d 87e3 633c cd18 f8bd 64de 74be
000000b0: dfd7 a0bd 13d9 ae3c a642 ac3c ffea adbd
000000c0: f657 233e f367 463d e980 c6be 558e 54be
000000d0: e587 02be d0d1 013e c657 f1bd ced3 a03e
000000e0: 1209 a43d c01b 7a3e 83ac 363d 463c 88bc
000000f0: ad56 653e 0552 a5bd 2d9d 78bc 31df 92bd
00000100: f615 943e f186 d13d 4bae 4d3d 5c43 973e
00000110: d1ec 58be 54b1 aebe 2868 fdbd 741d ff3d
00000120: 69a4 2f3d 7a58 31be 887d 923e 2d1e 7abc
00000130: f08b 743e fc38 90bc 6c51 72bd 90e2 24be
00000140: c9e2 b3be bf0a f83d 3603 dabd f1ce 503e
00000150: 8182 1ebe 1568 b5be e698 80be 1f2b 013e
00000160: a0ff 4d3d 6139 6cbe 48ff 2c3e 50e5 ad3e
00000170: 7306 66bd c504 be3e beeb 92bd 8fc5 c73e
00000180: 5f52 a2be b264 853e 977c 763e c755 87bd
00000190: 4d57 ab3d eef0 933e 0472 ab3e 36a1 873e
000001a0: af13 d73e 255c d63e 2c6e 88be 66ca 233e
000001b0: 2d7f 32bd 6623 d63e 59ad 213e c748 bbbd
000001c0: 5ae8 443e 365c 2d3e d59c ca3d 3a3a fdbd
000001d0: b6de 863e aa1e 33be a6d8 5b3d 2d31 f43e
000001e0: 76e3 703e 1e40 08bc 8b01 b03e 86bd 13be
000001f0: ba1f 963e a5b5 e4bd 9707 913e 30cb 393e
00000200: 9841 a0bd b2bf a4be 934e a43e 82de d9be
00000210: d814 073b 38bb 3abd f9f3 afbe f42a dd3d
00000220: 0425 4bbe eec4 3abe f056 a03e 2bf4 393d
00000230: 4ae9 0c3e 6b54 39bd 0b2e 3f3e b3de 993e
00000240: 9c03 373d 06ba 01be 0412 913e 6cc2 1f3e
00000250: d294 a9be e127 38be feae 493c 399c f6be
00000260: 265b abbe b703 8d3d 9f05 d2bd ffe1 073d
00000270: ab41 073b cef2 983e 466f c83b e040 183e
00000280: e189 90be f54c 813d 7b6b 913d dc96 e23b
00000290: d993 aa3e 258b 693e 62d3 5f3c 9b56 22be
000002a0: a468 3e3e 6932 7dbe a597 953e 95c9 ed3d
000002b0: 51be 94be fc18 903d 90ea c73d 3681 b2be
000002c0: 7a07 bebe a2f5 30be 7449 903d 65ab 7abe
000002d0: c5b2 ba3e d497 a53e 61fc 7c3e 599a 053e
000002e0: d09f cc3d 5a21 af3c 12cf edbd 6543 6dbe
000002f0: 2784 5f3e 7d78 4c3e 8438 19be 9ea4 8b3e
00000300: 2e7d aa3d 6ab5 6b3e 2945 15be 5a04 8abe
00000310: b0c9 2a3e 30fe 933d 66e1 8bbe f372 87ba
00000320: d39c c53b ac08 f6bd a2c1 02be ae3f c9be
00000330: 9065 a1be 863a 65be a893 373d 4ce8 ffbd
00000340: 01b4 5f3e d2c9 e3be 47d6 e5bd 0b52 883d
00000350: a9ad 6a3e 77e3 68be 0cb8 713e b615 ca3e
00000360: 599c cb3d a1e5 f53d bfeb c2bd d9fc 28bc
00000370: 6ff4 d33e e550 2dbd 93c5 e8bd 3ab9 593e
00000380: 3a49 ef3d ffed 743d f1b2 153f a1f2 b0bd
00000390: 1d3b c53d 30b3 153e a48b 58bc 0c27 88bc
000003a0: 32db 033e 535b ea3d afdc 9b3d 6265 9b3d
000003b0: 91e7 413e c38e 7a3e 8aa5 e1bd ff00 403d
000003c0: 1cec b83e 9c7c 313e 7a98 74be 1b6d 633e
000003d0: 892f 2dbe 5e8a 6cbe 31a0 bf3d e5aa 50bd
000003e0: 94d3 463e 80e7 4c3b db2d 9b3e e35d 43bd
000003f0: 704a 873e 197a 903d 5d5f 96be eed3 543e

layers.0.bias f4 [64]
-0.009554733 -0.0012019456 0.036417685 -0.012861821 -0.0058023585 0.038074635 -0.042938102 -0.05358922
0.011739737 0.03593792 -0.0522267 0.018472064 0.0058210515 -0.046606053 0.04023263 0.01287795
0.0061042444 -0.0058714026 -0.029387437 -0.022035047 -0.3067062 0.007955109 -0.025111865 0.058853358
-0.009306903 0.018631421 0.026546769 0.009254391 -0.043624222 0.04299822 -0.0321993 -0.02637465
-0.016431168 -0.025121203 0.00017445887 -0.032573085 -0.0054456014 -0.004444968 0.00019238585 0.019330582
0.10312003 0.06305803 0.048281416 0.0020415273 -0.046955064 0.09584551 0.08109974 -0.007464144
0.047835846 -0.09435669 -0.026169421 0.010662296 -0.044969857 -0.008172989 -0.010143805 0.0022269345
0.046995953 -0.017042989 0.015052911 -0.098018214 -0.044646353 0.0090832785 -0.0035340912 0.010074125
00000000: 748b 1cbc 9a8a 9dba b62a 153d 63ba 52bc
00000010: b621 bebb 26f4 1b3d dddf 2fbd 5f80 5bbd
00000020: 0758 403c a433 133d aaeb 55bd ba52 973c
00000030: 85be be3b fde5 3ebd f8ca 243d 0afe 523c
00000040: 1d06 c83b e564 c0bb ecbd f0bc d882 b4bc
00000050: 9808 9dbe 2556 023c 66b7 cdbc 3810 713d
00000060: fb7b 18bc eca0 983c 9c78 d93c bb9f 173c
00000070: 50af 32bd e71e 303d 6ae3 03bd a60f d8bc
00000080: a89a 86bc fbca cdbc f2ee 3639 5b6b 05bd
00000090: 0471 b2bb 18a7 91bb 2fbb 4939 2b5b 9e3c
000000a0: 9830 d33d 9224 813d bcc2 453d 25cb 053b
000000b0: f453 40bd a74a c43d 9f17 a63d c795 f4bb
000000c0: 85ef 433d 153e c1bd 4161 d6bc e9b0 2e3c
000000d0: 5032 38bd 00e8 05bc 3432 26bc c3f1 113b
000000e0: d47e 403d bd9d 8bbc 7ca0 763c c6bd c8bd
000000f0: 18df 36bd 08d2 143c 369c 67bb f10d 253c

layers.2.weight f4 [64, 64]
-0.078052685 0.2165687 0.123900816 0.074679546 -0.056960028 0.16067845 0.10364958 0.038625527
0.22356673 -0.19636826 -0.052997265 -0.2192808 -0.045985207 -0.20851614 -0.12828217 -0.052775856
-0.14387278 -0.20746699 0.00042081915 0.18992668 0.03904568 -0.042145416 0.17124614 0.042754382
-0.05355497 -0.1606425 0.20923156 -0.037213318 -0.17233595 0.021884255 -0.04217156 -0.14324671
-0.031640757 0.19387355 -0.02453844 0.0367991 -0.31113222 0.20165956 -0.28908738 -0.043487143
0.074027345 -0.13244262 0.02267193 -0.03307839 -0.10646703 -0.18917824 0.14011241 -0.3308018
-0.09971471 0.11224858 -0.098742746 -0.03437647 -0.023783213 -0.12771857 0.18687883 -0.060348332
0.06538529 -0.19102001 -0.034380462 0.17434649 0.15916005 0.07078307 0.15825123 0.30621055
0.03184504 0.22183181 0.19771822 -0.14451975 0.10468815 0.12467984 0.046117872 -0.13996457
-0.02281563 0.14872508 0.15677682 0.121130064 -0.14212205 -0.18326586 -0.09292523 -0.2669986
0.12036675 0.015825523 -0.22050068 -0.006963272 -0.11246312 0.034058347 0.096158594 -0.20529824
0.02472437 -0.1208537 0.22600347 0.074419945 0.09380701 -0.20933963 0.26292402 0.1251675
0.14841786 0.007532889 -0.023180377 0.33762068 -0.27661183 -0.022848008 0.0067427 -0.1527874
0.2318876 0.16245249 0.13660733 0.08185493 0.053653646 -0.14016019 0.12636848 -0.12521908
-0.024374012 -0.044709966 0.023668269 -0.2147212 0.03714487 0.14309151 0.106025316 -0.04545589
-0.0017573136 -0.20897703 -0.2201745 -0.13918865 -0.19205184 -0.14593846 0.14973132 0.30315867
-0.03182925 0.2033806 0.24006811 0.37882024 0.14435676 0.29044554 0.1263715 -0.17312984
0.101235986 0.0785089 -0.3864473 -0.046671897 0.32178625 -0.028295824 -0.109608755 -0.011868045
-0.24657145 -0.33460602 -0.154388 -0.13649537 -0.11227529 0.3794162 0.053786524 -0.14576061
0.2842005 0.011799485 0.052719485 -0.086910576 -0.16221803 -0.055511568 0.15769674 -0.10782957
-0.02294855 0.1958988 -0.019568877 -0.09079202 0.112209894 0.16825396 -0.21631587 -0.12590495
0.08526255 -0.09648364 0.20767036 0.28496736 0.25238103 0.19586474 -0.075315505 0.18205737
0.23897766 -0.22426894 -0.038730633 0.12100081 0.13352102 -0.09581817 -0.13151944 -0.21847633
0.06446552 -0.09193537 0.06400486 -0.011998775 0.29431823 0.23283726 0.33782166 0.044541698
-0.2266895 0.11070587 0.18587248 0.26298985 -0.07793289 -0.088601016 -0.28031546 0.2498151
0.0664774 -0.07962933 0.057142727 0.2823736 0.123801336 0.053250182 -0.19515872 -0.09979927
-0.1933273 -0.32379648 0.094656646 0.008749911 -0.07368833 0.044593543 0.10508657 0.23603277
-0.12586984 0.0132026775 -0.13248314 0.18342741 -0.12696175 -0.21203305 0.044341613 -0.08632619
0.03432569 0.028727606 0.070772305 -0.22743501 0.23176122 -0.04616103 0.2081522 -0.2322284
0.12384881 -0.17758454 0.13523927 0.25475284 0.47715598 0.27216032 0.19900073 -0.1718755
0.088064715 0.13860813 -0.01239811 -0.08295114 -0.15443808 0.23145545 0.2092247 0.122028746
0.12015061 0.21682061 -0.09172278 -0.2298907 0.28300336 0.19286697 -0.23655856 -0.3230655
00000000: 16da 9fbd 2fc4 5d3e b6bf fd3d 97f1 983d
00000010: eb4e 69bd e488 243e 3b46 d43d cd35 1e3d
00000020: adee 643e c314 49be a913 59bd 258b 60be
00000030: fc5a 3cbd 4185 55be 675c 03be 7f2b 58bd
00000040: 6353 13be 3a72 54be 64a1 dc39 247c 423e
00000050: 5dee 1f3d aca0 2cbd 265b 2f3e 381f 2f3d
00000060: 755c 5bbd 787f 24be cc40 563e fe6c 18bd
00000070: d678 30be 9c46 b33c 16bc 2cbd 44af 12be
00000080: bd99 01bd ca86 463e d704 c9bc a7ba 163d
00000090: b94c 9fbe d87f 4e3e 4303 94be 931f 32bd
000000a0: a69b 973d 0a9f 07be 7cba b93c 357d 07bd
000000b0: 630b dabd f1b7 41be a179 0f3e db5e a9be
000000c0: 3a37 ccbd 95e2 e53d a339 cabd 57ce 0cbd
000000d0: 03d5 c2bc a8c8 02be 2a5d 3f3e d02f 77bd
000000e0: b9e8 853d c09a 43be 87d2 0cbd e387 323e
000000f0: dafa 223e b7f6 903d 9c0c 223e a1c7 9c3e
00000100: f26f 023d e127 633e a576 4a3e fcfc 13be
00000110: be66 d63d 2558 ff3d 18e6 3c3d df52 0fbe
00000120: d8e7 babc 634b 183e 1a8a 203e 0a13 f83d
00000130: 7188 11be 0caa 3bbe 954f bebd 0ab4 88be
00000140: d882 f63d 87a4 813c eeca 61be 292c e4bb
00000150: 1053 e6bd c480 0b3d ccee c43d b439 52be
00000160: c38a ca3c 2582 f7bd 746d 673e 7c69 983d
00000170: e41d c03d 215d 56be fa9d 863e e92b 003e
00000180: dafa 173e 74d6 f63b c6e4 bdbc 9edc ac3e
00000190: 11a0 8dbe bf2b bbbc def1 dc3b 4d74 1cbe
000001a0: f173 6d3e f259 263e cbe2 0b3e 8fa3 a73d
000001b0: edc3 5b3d 2786 0fbe bd66 013e 6e39 00be
000001c0: 02ac c7bc cc21 37bd f5e3 c13c e0df 5bbe
000001d0: 3825 183d 9586 123e cd23 d93d f52f 3abd
000001e0: a955 e6ba 13fe 55be 6d75 61be 7887 0ebe
000001f0: 3da9 44be e470 15be 2b53 193e 9d37 9b3e
00000200: 635f 02bd 0143 503e 6ad4 753e baf4 c13e
00000210: 42d2 133e 47b5 943e 8867 013e f348 31be
00000220: d054 cf3d 46c9 a03d 6cdc c5be 082b 3fbd
00000230: 2bc1 a43e a5cc e7bc 8e7a e0bd 3072 42bc
00000240: 3a7d 7cbe 7b51 abbe e317 1ebe 71c5 0bbe
00000250: 96f0 e5bd d742 c23e 424f 5c3d 4542 15be
00000260: ba82 913e a152 413c 63f0 573d 2cfe b1bd
00000270: 7c1c 26be 1960 63bd 417b 213e c0d5 dcbd
00000280: 99fe bbbc b299 483e e94e a0bc 2bf1 b9bd
00000290: 4dce e53d c44a 2c3e e881 5dbe 3aed 00be
000002a0: 229e ae3d 3799 c5bd 8aa7 543e 3ee7 913e
000002b0: 1638 813e c490 483e 043f 9abd 3f6d 3a3e
000002c0: 8fb6 743e c2a6 65be 03a4 1ebd 46cf f73d
000002d0: bcb9 083e 513c c4bd 08ad 06be 42b8 5fbe
000002e0: 8006 843d 9c48 bcbd fb14 833d 8396 44bc
000002f0: e1b0 963e e46c 6e3e f6f6 ac3e 5b71 363d
00000300: 4b21 68be c2b9 e23d 5b55 3e3e 9ba6 863e
00000310: 479b 9fbd 7374 b5bd 8285 8fbe 88cf 7f3e
00000320: 4e25 883d b414 a3bd 7e0e 6a3d 4693 903e
00000330: 8e8b fd3d dd1c 5a3d b0d7 47be 8f63 ccbd
00000340: 97f7 45be a7c8 a5be 58db c13d c95b 0f3c
00000350: e8e9 96bd b8a7 363d a137 d73d 93b2 713e
00000360: 06e4 00be 0b50 583c a9a9 07be 65d4 3b3e
00000370: 4302 02be 311f 59be 8d9f 353d c9cb b0bd
00000380: 1899 0c3d 2856 eb3c 12f1 903d b9e4 68be
00000390: d052 6d3e 5913 3dbd da25 553e 48cd 6dbe
000003a0: 72a4 fd3d b9d8 35be 2a7c 0a3e f76e 823e
000003b0: ca4d f43e 9958 8b3e d9c6 4b3e 2200 30be
000003c0: 465b b43d 4aef 0d3e 7121 4bbc 4ae2 a9bd
000003d0: 0425 1ebe a802 6d3e 003f 563e 35ea f93d
000003e0: 8611 f63d 3906 5e3e 27d9 bbbd 7868 6bbe
000003f0: d1e5 903e eb7e 453e 683c 72be d768 a5be

layers.2.bias f4 [64]
-0.022102412 0.02340693 0.012364932 0.0068245763 0.003797944 -0.034155376 -0.09934314 0.044314258
0.024244608 -0.1591026 -0.030340534 0.07198348 0.05025977 -0.0210237 0.019599129 -0.033066005
0.06753035 0.046842035 -0.012087756 -0.027943062 -0.032824557 0.022177503 0.045670517 -0.02209413
0.02474862 0.024328895 0.007957854 0.0040168795 0.02983847 0.086172566 -0.03661393 0.005687406
0.044929188 0.07441053 -0.02460508 -0.018001556 -0.00045011673 -0.005814256 -0.0023135932 0.004735936
-0.0076009636 -0.014753543 -0.057992253 -0.0003909327 0.012364989 0.0066989353 -0.008971008 -0.021703819
-0.0341659 -0.027204532 0.01293171 0.036323387 -0.035534453 0.024229301 -0.033360347 0.08260926
-0.037471358 -0.016898656 -0.07226381 0.021702327 -0.012783979 0.0051275194 0.08324607 0.0019585607
00000000: 1e10 b5bc e4bf bf3c 4996 4a3c b2a0 df3b
00000010: ede6 783b 82e6 0bbd 6b74 cbbd de82 353d
00000020: a19c c63c cbeb 22be b68c f8bc 136c 933d
00000030: 30dd 4d3d e539 acbc 5a8e a03c 3870 07bd
00000040: 5a4d 8a3d 6fdd 3f3d b90b 46bc d9e8 e4bc
00000050: 0b73 06bd 98ad b53c 0211 3b3d c0fe b4bc
00000060: 9ebd ca3c 644d c73c a961 023c 07a0 833b
00000070: cf6f f43c 3e7b b03d 7df8 15bd 6b5d ba3b
00000080: ab07 383d 8c64 983d 9890 c9bc 0078 93bc
00000090: a5fd ebb9 8485 bebb a79f 17bb e92f 9b3b
000000a0: 8111 f9bb d8b8 71bc 4989 6dbd 19f6 ccb9
000000b0: 8696 4a3c be82 db3b 22fb 12bc 35cc b1bc
000000c0: 8bf1 0bbd 0adc debc 86df 533c d5c7 143d
000000d0: 938c 11bd 877c c63c dca4 08bd 0b2f a93d
000000e0: 917b 19bd 0d6f 8abc 0cff 93bd 14c9 b13c
000000f0: e573 51bc c004 a83b ea7c aa3d 325b 003b

layers.4.weight f4 [64, 64]
-0.2278329 -0.03915833 0.2170017 -0.06970082 0.11131383 -0.18804885 -0.10099502 -0.0659933
0.21706507 -0.2672863 0.2825974 0.1628477 0.09888225 -0.08002184 -0.19789906 0.11564737
-0.27370805 0.03900017 -0.15800896 0.01993545 -0.09718492 -0.19178298 0.06423179 -0.18174449
-0.13846466 -0.083210096 -0.034642365 -0.20028144 0.06332861 0.3112043 0.17165165 -0.03115139
-0.23348445 0.16921325 -0.17744344 -0.15897967 -0.2536155 -0.08590036 -0.1314693 -0.10192772
0.07417014 -0.10015206 0.02691708 0.27736816 0.057726394 0.23214711 -0.18911384 -0.046010837
-0.03876886 0.03361857 0.16768938 0.051232304 -0.16870542 -0.050339084 -0.021891743 -0.28901383
0.01590711 0.09782501 -0.13718365 -0.09387813 -0.12995902 -0.16342188 -0.07760729 0.12732743
0.16594033 -0.028112035 0.14008604 0.039435066 0.28029627 -0.009320216 0.11891523 0.15318617
-0.028969998 0.10854891 0.029581355 -0.06653385 0.11697017 0.120260976 -0.10952411 -0.10308071
-0.23199373 -0.15773106 -0.15594126 -0.20965523 0.077512555 -0.19949435 -0.18919249 -0.19640423
0.02874532 0.17969328 -0.02668713 -0.19553837 0.037209455 0.018142898 0.15827994 -0.019965628
0.2356782 0.07480838 0.17298593 -0.14023766 -0.08220662 0.0050482554 0.21417533 -0.08546878
0.17372477 -0.1663476 -0.069634564 -0.08555626 -0.07340976 -0.024135035 0.06543893 0.19696927
0.06799441 -0.06793424 0.10561369 -0.14449818 -0.09419356 0.20558935 0.15847658 -0.004072138
0.122143544 -0.12956862 0.1452844 -0.07898711 -0.12422032 -0.12627247 -0.009710924 0.24425182
0.11345325 -0.10473344 -0.09712603 -0.14427298 0.22170044 -0.22822797 0.031073065 -0.024976991
0.11907217 0.024495374 -0.08935244 0.0031297696 0.2246111 -0.0323564 0.24005678 -0.13609844
0.17691053 0.06900903 -0.13273628 -0.09627194 0.14609176 -0.018552084 0.25813946 -0.19624802
0.10662101 -0.14137353 -0.18245105 0.03610591 0.084196255 -0.11212688 0.11700327 -0.14654751
-0.07462891 -0.0668709 -0.1174729 -0.22310662 -0.23351113 -0.09691414 -0.169995 -0.19492832
0.16328168 -0.17267597 0.064404935 0.03288683 0.16460152 0.025501091 0.06005849 -0.14583063
-0.02417265 0.18236692 -0.16500866 0.05968148 -0.037250075 -0.15499909 -0.2009977 0.119347505
-0.035145126 0.16571623 -0.1861808 -0.13728975 -0.3252948 -0.09451956 -0.14312574 0.046255656
-0.1307476 0.21114749 -0.06456664 -0.15055795 -0.012480544 0.24054614 0.21005847 -0.20314986
-0.1660853 -0.116872855 -0.03511227 -0.10117981 -0.039872535 0.13724041 0.0554717 0.12134113
0.05453639 -0.12356962 -0.003328096 0.09888991 0.12924784 0.16828828 -0.090145715 -0.053613536
0.23952807 0.14455849 -0.2314098 -0.18798046 -0.10091197 0.22367716 -0.11679307 -0.11623687
0.06740794 -0.09745472 0.12426629 0.032178372 0.16076502 0.041777562 -0.104631275 -0.07172177
0.043134756 -0.15879594 0.20229512 0.10313513 -0.14955896 -0.1753004 -0.2144379 0.08208062
-0.038539585 0.030266836 0.16121976 0.06771576 -0.03693061 -0.21561298 0.00047679694 -0.032591637
0.13175108 -0.14573042 0.096338116 -0.017908527 -0.10757997 -0.11779946 0.08215722 -0.034240734
00000000: 074d 69be 7c64 20bd b235 5e3e 4ebf 8ebd
00000010: 81f8 e33d e18f 40be 7ad6 cebd 7f27 87bd
00000020: 4e46 5e3e c0d9 88be 9bb0 903e 8cc1 263e
00000030: c782 ca3d 7ee2 a3bd 0da6 4abe 87d8 ec3d
00000040: 7623 8cbe a4be 1f3d 1acd 21be ab4f a33c
00000050: e308 c7bd c262 44be f58b 833d 3a1b 3abe
00000060: aec9 0dbe 0e6a aabd 27e5 0dbd 9416 4dbe
00000070: 6eb2 813d 2c56 9f3e 73c5 2f3e 3331 ffbc
00000080: 8c16 6fbe 3d46 2d3e bcb3 35be 91cb 22be
00000090: e4d9 81be 87ec afbd e39f 06be 7bbf d0bd
000000a0: 84e6 973d 861c cdbd 3581 dc3c 3303 8e3e
000000b0: 8372 6c3d f9b7 6d3e 0fa7 41be dc75 3cbd
000000c0: 19cc 1ebd a0b3 093d c4b6 2b3e f7d8 513d
000000d0: 1dc1 2cbe 5b30 4ebd 5056 b3bc 9ff9 93be
000000e0: a14f 823c 7b58 c83d df79 0cbe 2d43 c0bd
000000f0: fa13 05be 1158 27be 92f0 9ebd 1f62 023e
00000100: 43ec 293e 364b e6bc b772 0f3e aa86 213d
00000110: fe82 8f3e d2b3 18bc d489 f33d d6dc 1c3e
00000120: 7d52 edbc e44e de3d 9954 f23c e642 88bd
00000130: 0e8e ef3d 634b f63d 2d4e e0bd fb1b d3bd
00000140: c48f 6dbe 4084 21be 11af 1fbe dcaf 56be
00000150: e7be 9e3d 3f48 4cbe adbb 41be 311e 49be
00000160: 4e7b eb3c 8401 383e f89e dabc 363b 48be
00000170: f168 183d 6aa0 943c 2314 223e f58e a3bc
00000180: a055 713e 2335 993d 3923 313e 769a 0fbe
00000190: f25b a8bd d66b a53b c750 5b3e 410a afbd
000001a0: e8e4 313e 0657 2abe 919c 8ebd 1f38 afbd
000001b0: db57 96bd d6b6 c5bc d904 863d 50b2 493e
000001c0: a740 8b3d 1b21 8bbd fe4b d83d 55f7 13be
000001d0: 8ee8 c0bd 0486 523e af47 223e 926f 85bb
000001e0: 6526 fa3d a3ad 04be 6fc5 143e fec3 a1bd
000001f0: 3967 febd 924d 01be 911a 1fbc 261d 7a3e
00000200: 2d5a e83d 7c7e d6bd 03ea c6bd 4cbc 13be
00000210: 7105 633e 98b4 69be f18c fe3c 8c9c ccbc
00000220: 1cdc f33d 86aa c83c 69fe b6bd d21c 4d3b
00000230: 7400 663e 2588 04bd 72d1 753e 645d 0bbe
00000240: 0928 353e 9b54 8d3d 05ec 07be 392a c5bd
00000250: 1499 153e 8afa 97bc db2a 843e 3ef5 48be
00000260: 1e5c da3d 39c4 10be 73d4 3abe cae3 133d
00000270: 166f ac3d c7a2 e5bd 699f ef3d 8d10 16be
00000280: 0bd7 98bd 9cf3 88bd a295 f0bd 1076 64be
00000290: 8b1d 6fbe ec7a c6bd 2b13 2ebe 4a9b 47be
000002a0: 5033 273e f8d1 30be bce6 833d 57b4 063d
000002b0: 4d8d 283e aae7 d03c e4ff 753d a054 15be
000002c0: b905 c6bc 65be 3a3e 08f8 28be 9174 743d
000002d0: 8993 18bd 15b8 1ebe 57d2 4dbe 776c f43d
000002e0: 56f4 0fbd 84b1 293e 2ea6 3ebe af95 0cbe
000002f0: 0a8d a6be 7993 c1bd 8e8f 12be 9276 3d3d
00000300: b3e2 05be 0c37 583e 843b 84bd dd2b 1abe
00000310: 327b 4cbc ba51 763e 9119 573e 8406 50be
00000320: 4412 2abe 095b efbd e2d1 0fbd 5c37 cfbd
00000330: 6251 23bd c088 0c3e 4b36 633d b381 f83d
00000340: 8d61 5f3d 1212 fdbd 2f1c 5abb cb86 ca3d
00000350: 8c59 043e c353 2c3e 519e b8bd de99 5bbd
00000360: d946 753e 2407 143e b1f6 6cbe f37d 40be
00000370: efaa cebd a00b 653e 3531 efbd 990d eebd
00000380: 2d0d 8a3d 5796 c7bd 537f fe3d 78cd 033d
00000390: 969f 243e f31e 2b3d ec48 d6bd dde2 92bd
000003a0: 12ae 303d 679b 22be 7426 4f3e 8338 d33d
000003b0: fc25 19be f381 33be 9c95 5bbe e219 a83d
000003c0: afdb 1dbd 28f2 f73c cb16 253e 8fae 8a3d
000003d0: 8d44 17bd a6c9 5cbe 9afa f939 cf7e 05bd
000003e0: c1e9 063e 5b3a 15be eb4c c53d e7b4 92bc
000003f0: e352 dcbd d840 f1bd 0b42 a83d 0340 0cbd

layers.4.bias f4 [64]
-0.029228803 -0.017021852 0.008765681 0.0039728796 -0.06481707 -0.017142149 0.050459452 -0.0021804655
0.016136048 0.010110414 0.009827938 -0.04489488 -0.010576444 -0.034588754 -0.009230819 0.028555991
0.021962078 0.07653125 0.014828775 0.037623085 -0.007706379 -0.00036021555 0.0061282893 -0.009807034
-0.00374475 -0.039890043 -0.0020139879 -0.0029894412 0.014624118 0.02054622 -0.005435321 0.018797489
-0.02124399 -0.011073859 -0.014444173 0.0071000536 -0.048104893 -0.007216647 -0.035668984 -0.0058505335
-0.024209088 0.0011421018 -0.02710033 -0.079853125 0.08773356 -0.06833641 0.011665505 0.052714963
-0.085074924 -0.017878534 0.003966478 0.030849392 -0.0020034013 -0.02963354 0.04994149 -0.014353026
-0.010076548 0.011089199 0.041574713 0.047529932 -0.013677951 -0.082287095 -0.090080276 0.0008044433
00000000: 3e71 efbc 6971 8bbc ee9d 0f3c ee2e 823b
00000010: d0be 84bd b16d 8cbc 92ae 4e3d 24e6 0ebb
00000020: bf2f 843c 26a6 253c 5c05 213c b2e3 37bd
00000030: d248 2dbc f0ac 0dbd dc3c 17bc 41ee e93c
00000040: d1e9 b33c 6abc 9c3d 64f4 723c aa1a 1a3d
00000050: cb85 fcbb 50db bcb9 d1cf c83b afad 20bc
00000060: 7b6a 75bb be63 23bd 1cfd 03bb 80ea 43bb
00000070: ff99 6f3c 8c50 a83c c71a b2bb 31fd 993c
00000080: e007 aebc 226f 35bc 41a7 6cbc 91a7 e83b
00000090: a309 45bd 9f79 ecbb a419 12bd d5b5 bfbb
000000a0: 2352 c6bc 94b2 953a 8301 debc 098a a3bd
000000b0: a7ad b33d f6f3 8bbd ad20 3f3c a5eb 573d
000000c0: c33b aebd 0176 92bc 3bf9 813b ddb7 fc3c
000000d0: 7f4b 03bb 0ac2 f2bc 738f 4c3d f428 6bbc
000000e0: 1b18 25bc 79af 353c 3f4a 2a3d bfae 423d
000000f0: 7c19 60bc 2386 a8bd 027c b8bd 47e1 523a

layers.6.weight f4 [2, 64]
-0.33255458 -0.20059809 0.24716127 -0.00888729 0.09175471 -0.21638632 -0.12840074 0.045328073
0.3066757 -0.02281978 0.052960202 -0.29411694 -0.20757443 -0.24049115 0.20402437 0.18393329
0.23587859 -0.064284034 0.28287894 0.11975115 -0.008963346 0.19886565 0.23176916 0.25129327
0.08293182 -0.11334979 0.22170453 0.012271555 0.09030463 0.22345242 0.2072858 -0.13771084
0.3019622 0.27030003 -0.16094193 0.04705132 -0.17436025 -0.03061933 -0.19044933 0.35482043
-0.30727673 0.00073868403 -0.22355872 0.013075628 -0.344734 -0.25328338 0.28777325 0.03483004
0.23916994 -0.2523242 -0.13783413 0.3032373 -0.16671535 -0.18608777 0.27231443 -0.25555122
0.18020615 -0.28787336 0.105707586 0.0154731935 -0.2863923 0.33912733 -0.18575934 -0.17074795
0.30562252 -0.3199621 -0.003932438 0.47144064 -0.28812158 -0.20390221 0.04340953 -0.3796881
0.30106962 -0.022761438 -0.32925162 -0.05296391 -0.25248784 0.32509157 0.26500136 0.16942926
0.011504982 0.42851838 0.33363643 0.1737852 -0.36209995 -0.13068625 -0.3481193 0.12099233
0.22393794 0.23686686 -0.13628367 -0.08196878 0.25886542 0.21686248 0.3537272 -0.24999438
0.3469412 -0.2771027 0.18212344 -0.1735667 -0.33747357 0.33513582 0.007117557 0.12942693
-0.115981296 -0.102432504 -0.10573314 -0.25124413 0.31776607 -0.21317093 -0.0025662913 -0.18367055
-0.36752868 0.20571883 0.35372317 -0.07131886 -0.32264575 0.016434424 -0.22302108 -0.09475464
-0.24096121 -0.020364322 0.0044824574 -0.2981332 -0.29434785 -0.06314621 0.28717825 -0.06315233
00000000: 9844 aabe 9669 4dbe d817 7d3e ff9b 11bc
00000010: e5e9 bb3d 6094 5dbe 7c7b 03be eea9 393d
00000020: 9904 9d3e 8cf0 babc ccec 583d 7f96 96be
00000030: 648e 54be 5043 76be c4eb 503e 0259 3c3e
00000040: 288a 713e 59a7 83bd 82d5 903e 1740 f53d
00000050: ffda 12bc 70a3 4b3e e554 6d3e 83a9 803e
00000060: 28d8 a93d ef23 e8bd 8306 633e a20e 493c
00000070: a2f1 b83d b6d0 643e bb42 543e 1204 0dbe
00000080: ca9a 9a3e c464 8a3e f6cd 24be e3b8 403d
00000090: 7e8b 32be 64d5 fabc 2605 43be 06ab b53e
000000a0: 6053 9dbe 3fa4 413a 94ec 64be 293b 563c
000000b0: fa80 b0be 5cae 81be 0457 933e f2a9 0e3d
000000c0: f7e8 743e a330 81be 6424 0dbe eb41 9b3e
000000d0: 6eb7 2abe cb8d 3ebe cc6c 8b3e 9cd7 82be
000000e0: f687 383e 2364 93be 387d d83d 4783 7d3c
000000f0: 03a2 92be 19a2 ad3e b237 3ebe 8dd8 2ebe
00000100: 8e7a 9c3e 13d2 a3be aedb 80bb ab60 f13e
00000110: ac84 93be becb 50be 31ce 313d 7b66 c2be
00000120: cc25 9a3e 3276 babc ab93 a8be aff0 58bd
00000130: 1646 81be 6772 a63e 42ae 873e dd7e 2d3e
00000140: 647f 3c3c c366 db3e 65d2 aa3e bff4 313e
00000150: 2a65 b9be 9ed2 05be b13c b2be d4ca f73d
00000160: fd4f 653e 3a8d 723e f28d 0bbe 3fdf a7bd
00000170: 028a 843e 3311 5e3e bb1b b53e 87fe 7fbe
00000180: 47a2 b13e 68e0 8dbe 917e 3a3e 78bb 31be
00000190: 56c9 acbe ec96 ab3e 653a e93b 7e88 043e
000001a0: 9a87 edbd 22c8 d1bd 9e8a d8bd 12a3 80be
000001b0: 3cb2 a23e 7b49 5abe 392f 28bb 2214 3cbe
000001c0: b82c bcbe f5a7 523e 341b b53e 9f0f 92bd
000001d0: d331 a5be 7ca1 863c a35f 64be b80e c2bd
000001e0: 89be 76be 14d3 a6bc 94e1 923b eaa4 98be
000001f0: c3b4 96be cd52 81bd 0709 933e 0256 81bd

layers.6.bias f4 [2]
0.030745653 0.010063311
00000000: 4fde fb3c 96e0 243c
