data/results/output_net_24000.pth (torch, 38313 bytes, 8 tensors)

layers.0.weight f4 [64, 5]
000000 22 1d d8 bd d2 f2 22 be 2b 49 7a 3c 88 74 82 be
       -0.10552432 -0.15912941 0.015276234 -0.2547953
000010 44 8b 5f be 2e 22 a4 3e 37 a4 ec be c9 88 92 bd
       -0.2183047 0.32057327 -0.46219036 -0.07154996
000020 fc 6c 63 3d 22 39 c2 be 06 6b 90 3e 9f ea e1 bd
       0.055523857 -0.37934214 0.28206652 -0.110310785
000030 e9 8d 58 bd 8b d9 9a be f7 cb 81 3e 17 68 c3 3e
       -0.05286971 -0.30244097 0.25350925 0.38165352
000040 dc f7 ad 3e 2c a1 2f be cb 25 7d bd 0c 94 95 3e
       0.33978164 -0.17151326 -0.06180362 0.29214513
000050 89 a1 04 3d 96 cd 6e 3e 92 80 79 3e c3 64 79 be
       0.032380614 0.23320612 0.24365452 -0.24354844
000060 1d 21 a8 be ec e3 bb 3e 3f 2c 6a be ff 1f 7a be
       -0.32837763 0.36697328 -0.22868441 -0.24426268
000070 6d 1c 9c 3d 82 04 d1 bc 64 08 39 be 28 36 6e be
       0.07622609 -0.025514845 -0.18069607 -0.23262846
000080 18 b1 87 3d 80 67 20 be 3c e5 bd be 85 36 3a 3d
       0.06625575 -0.15664482 -0.37088954 0.04546215
000090 05 9a 0c 3d 9b 1e a4 be 72 19 6b 3e 9a 00 a7 be
       0.034326572 -0.320546 0.22958925 -0.32617646
0000a0 96 84 f8 3d 4b 9d 1a 3c ae fd f7 bd 4c 11 79 be
       0.12134664 0.009436916 -0.121089324 -0.24323004
0000b0 18 ef a3 bd 1b 36 a0 3c dd 03 d9 3c 8d 13 ab bd
       -0.08004588 0.01955705 0.0264911 -0.083533384
0000c0 bf 6f 2a 3e 8f 3d 52 3d fa 02 c8 be 19 2c 5d be
       0.1664419 0.051328238 -0.3906477 -0.21598853
0000d0 b3 d4 02 be 8e 4a 05 3e e7 36 eb bd 43 fb a1 3e
       -0.12776451 0.13016722 -0.11485081 0.3163701
0000e0 aa aa b2 3d 64 e4 7b 3e 49 8a 32 3d 9c 20 ab bc
       0.08723958 0.24598843 0.04358891 -0.020889573
0000f0 96 0a 67 3e 50 89 99 bd 63 97 97 bc 56 eb 97 bd
       0.22562632 -0.074968934 -0.018504804 -0.07417934
000100 68 e2 96 3e 28 0d d2 3d 3d e1 77 3d f2 5b 96 3e
       0.2946961 0.102564156 0.06051754 0.29367024
000110 15 64 5d be f5 4f b3 be 8d 27 00 be 4b 7d f9 3d
       -0.2162021 -0.3502194 -0.12515087 0.12182101
000120 f8 fb 2f 3d 7c 52 32 be ea c9 95 3e d9 0b 8e bc
       0.042964906 -0.17414278 0.2925561 -0.017339634
000130 5b 4d 7b 3e 6c ef a8 bc cd 19 7c bd d8 df 2c be
       0.24541228 -0.020621978 -0.061548043 -0.16882265
000140 d0 9e b9 be 14 3b ea 3d d0 95 d8 bd 9e aa 55 3e
       -0.36253977 0.114370495 -0.105754495 0.20865867
000150 01 d3 1d be 5b 77 b8 be 32 e0 86 be 0b 17 00 3e
       -0.15412523 -0.3602856 -0.26342922 0.1250879
000160 15 63 3c 3d 4c b0 70 be 5b 1a 2c 3e be 48 b6 3e
       0.04599293 -0.23504752 0.16806929 0.35602373
000170 9a b0 76 bd 73 13 bf 3e ca 14 93 bd 15 e7 ca 3e
       -0.060227014 0.37319526 -0.071816996 0.39629427
000180 06 df a3 be 0e f7 88 3e 78 1b 7e 3e 6e 1a a2 bd
       -0.3200609 0.26750988 0.24815166 -0.07915197
000190 51 7a 66 3d bc 0c b2 3e 08 66 a2 3e 6a d0 8f 3e
       0.056268994 0.3477534 0.3171847 0.28088695
0001a0 0c 62 e4 3e f6 aa d8 3e c9 01 84 be ae cc 24 3e
       0.44606054 0.42317933 -0.25782612 0.16093704
0001b0 a3 4c 41 bd cc 25 e1 3e ce 8a 25 3e ec d7 b8 bd
       -0.047192227 0.4397415 0.16166231 -0.09025559
0001c0 cf 74 47 3e 38 e4 2f 3e a6 2c d0 3d fc 16 03 be
       0.19478153 0.17176902 0.10164766 -0.12801737
0001d0 ed 54 84 3e 08 2a 2d be 24 fb 63 3d f1 e8 fb 3e
       0.25846043 -0.16910565 0.05565943 0.49201158
0001e0 e6 d5 79 3e c4 28 8d ba 9f d8 b3 3e d7 1d 1e be
       0.24398002 -0.0010769595 0.35126206 -0.1544107
0001f0 3d f2 9d 3e b4 f9 e6 bd 7b 14 94 3e 70 9c 39 3e
       0.30848876 -0.11278096 0.28921875 0.18126082
000200 63 2b a4 bd 3b 90 a7 be 5d e5 a5 3e 5c 79 dc be
       -0.08016088 -0.32727227 0.32401553 -0.4306134
000210 20 8b 2e 3b 9b 56 3c bd 55 5b b0 be ab ad e7 3d
       0.0026633218 -0.04598103 -0.3444468 0.113124214
000220 23 fe 4b be 31 3c 3a be 80 72 a6 3e 5b b7 3f 3d
       -0.19921164 -0.18187024 0.32509232 0.04680572
000230 96 06 09 3e 53 d1 15 bd db 3f 41 3e 2e 1f 9b 3e
       0.13381419 -0.03657658 0.18872015 0.30297226
000240 d2 a9 4e 3d d7 7f 02 be 70 24 99 3e ba f2 20 3e
       0.050454922 -0.1274408 0.29910612 0.15717593
000250 76 bd ab be 4d 4b 44 be cc 7c a8 3c 83 57 06 bf
       -0.33542985 -0.1916935 0.02056732 -0.5247728
000260 43 2d ad be 28 e2 99 3d 7e 96 bc bd 98 c4 11 3d
       -0.33823594 0.07513839 -0.092083916 0.035587877
000270 fd c0 c0 3b 40 8c 99 3e 7f 5d 0a 3c 20 bd 1f 3e
       0.005882381 0.29989815 0.008445143 0.15599489
000280 f4 ce 93 be c4 c7 7c 3d b6 55 93 3d 8f 90 74 3c
       -0.2886883 0.06171395 0.071940824 0.014927044
000290 04 ce ad 3e 0f c5 6b 3e fe 44 81 3c b7 a8 22 be
       0.3394624 0.2302439 0.015779968 -0.15884672
0002a0 61 cb 3e 3e a8 8e 81 be 8e 5f 98 3e 40 ad f2 3d
       0.1863227 -0.2530415 0.29760402 0.11849451
0002b0 d6 47 94 be 7a 02 90 3d 84 84 ca 3d cc 7b b3 be
       -0.28961056 0.07031722 0.098885566 -0.35055387
0002c0 0f 66 c1 be 27 04 31 be b5 b2 91 3d b8 28 7b be
       -0.37773177 -0.1728674 0.07114164 -0.24527252
0002d0 98 b3 b9 3e 16 5e ab 3e da 6f 74 3e e8 f7 01 3e
       0.36269832 0.3347022 0.23870793 0.12692225
0002e0 5d 6f ca 3d 14 80 b3 3c e9 33 04 be e4 35 6f be
       0.09884522 0.021911658 -0.12910427 -0.23360401
0002f0 9d 8c 66 3e fb f7 54 3e d9 13 1b be 6c 8c 8f 3e
       0.22514577 0.20797722 -0.1514429 0.2803682
000300 8a be a9 3d ab 34 6c 3e 14 58 1b be fd a8 8c be
       0.082882956 0.23066966 -0.15170318 -0.27472678
000310 76 12 27 3e 96 3e 97 3d ea 06 8f be a0 da 73 ba
       0.16315636 0.07384984 -0.27934963 -0.0009302292
000320 3a e2 86 3c 5d 82 00 be b9 2e 02 be 5e 7c cd be
       0.016465295 -0.1254973 -0.12713136 -0.40133947
000330 39 43 a6 be 06 85 71 be 87 76 2c 3d 64 b1 01 be
       -0.32473162 -0.235859 0.042105224 -0.12665325
000340 72 1a 67 3e 06 70 f1 be b6 04 e5 bd a9 ef 80 3d
       0.22568682 -0.4715578 -0.11182539 0.062957115
000350 26 cb 6a 3e 27 30 6b be 1f 5d 78 3e b7 a5 cc 3e
       0.22929057 -0.22967587 0.24254273 0.3997018
000360 94 b3 d0 3d a0 83 f1 3d 6f 05 c9 bd ea 79 22 bc
       0.10190502 0.117926836 -0.098154895 -0.009916762
000370 4c 6f d4 3e 26 a7 25 bd de e5 e3 bd 48 a8 60 3e
       0.41491163 -0.04044261 -0.11127828 0.21939194
000380 27 b0 00 3e 56 6e 82 3d 01 04 1a 3f 1d f1 b5 bd
       0.12567197 0.06368701 0.6016236 -0.08883879
000390 19 05 bd 3d 15 4c 13 3e 8b df 91 bc c6 fe f0 bc
       0.09229488 0.14384492 -0.017806789 -0.02941836
0003a0 4c 2c 10 3e 6b 25 fa 3d f8 55 9f 3d 78 db 98 3d
       0.14079398 0.12214168 0.07780069 0.07463735
0003b0 bf 4f 43 3e 6d 05 7a 3e fe 7e e8 bd ca 9f 4f 3d
       0.1907339 0.24416132 -0.11352347 0.050689496
0003c0 9f 88 b8 3e 14 8e 36 3e da 48 75 be 14 39 66 3e
       0.36041734 0.17827636 -0.23953572 0.22482711
0003d0 38 bf 2c be 57 e1 6a be a1 ce e4 3d 73 73 49 bd
       -0.16869819 -0.22937523 0.11172224 -0.049182367
0003e0 f3 4b 4e 3e 6a 00 32 3b 70 9c 9c 3e aa 76 2d bd
       0.2014616 0.0027160891 0.30588102 -0.042349495
0003f0 86 54 88 3e ad 0b 93 3d 52 df 98 be 3a 80 53 3e
       0.26626986 0.07179961 -0.2985788 0.20654383

layers.0.bias f4 [64]
000000 03 fc 63 bc 10 d5 82 b9 4d 71 12 3d 5e a1 47 bc
       -0.013915065 -0.00024954276 0.035752583 -0.012184469
000010 2b 01 d3 bb 0e 1e 32 3d 96 6c 5f bd 16 30 5a bd
       -0.006439348 0.043485694 -0.054546915 -0.053268515
000020 35 24 80 3c e7 31 26 3d 1f ee 58 bd 2d df 8c 3c
       0.015642265 0.040574934 -0.052961465 0.017196262
000030 de 47 f6 3b 92 17 4a bd 69 a3 2a 3d b0 ff 5e 3c
       0.0075158915 -0.049338885 0.041659746 0.013610765
000040 f9 8b 22 3c 1e 7f e2 bb e7 58 d0 bc b6 b1 ea bc
       0.009921067 -0.006912126 -0.025433017 -0.028649192
000050 90 32 b6 be 26 d8 92 3b 33 00 e2 bc 8a eb 78 3d
       -0.3558545 0.0044813333 -0.027587986 0.060771503
000060 0f a1 1f bc 09 c6 a0 3c 53 66 d6 3c 6e 3a 6b 3c
       -0.009742989 0.01962568 0.026171839 0.014357192
000070 89 54 18 bd 3d 9f 30 3d 94 3e 08 bd 3f b5 c4 bc
       -0.037189994 0.04312061 -0.033262804 -0.024012206
000080 8f 48 5b bc ec 24 d9 bc d2 5f 7a 3b 18 0c 0a bd
       -0.013383999 -0.026506864 0.0038204086 -0.03370294
000090 3d ca f9 3a 88 f1 ea ba 72 78 15 3b 09 1f 89 3c
       0.0019057464 -0.0017924765 0.0022807387 0.016738432
0000a0 17 03 d9 3d 29 ff 9f 3d cd 2f 4e 3d d0 bd a6 3b
       0.105962925 0.0781234 0.050338555 0.0050885454
0000b0 89 09 32 bd aa 81 d0 3d b7 4e ce 3d 0e 65 e1 bb
       -0.043466125 0.101809815 0.100736074 -0.0068785017
0000c0 fc c7 4c 3d c3 90 de bd f1 4e e7 bc 5c 3a 3c 3c
       0.049995407 -0.10867455 -0.028235884 0.011488523
0000d0 3b 24 43 bd ec 48 05 bb 6e 92 5f bb 8e 9d 50 3b
       -0.047641974 -0.0020337654 -0.0034114379 0.003183219
0000e0 5c f5 44 3d 68 95 9c bc 55 cf 4f 3c a2 a1 d8 bd
       0.048085555 -0.019114211 0.012683709 -0.10577704
0000f0 3c 9d 2a bd 24 85 a3 ba 85 77 21 bc 73 c4 0f 3c
       -0.041653857 -0.0012475592 -0.009855156 0.0087748645

layers.2.weight f4 [64, 64]
000000 df 75 a3 bd 6b d8 66 3e 96 0a 01 3e 68 a1 9e 3d
       -0.079814665 0.22543494 0.12601694 0.077456295
000010 89 b1 87 bd 9a 03 30 3e b9 32 d2 3d 8e bd 36 3d
       -0.06625659 0.17188874 0.10263581 0.044614367
000020 72 9a 64 3e 22 b0 43 be ea c0 5a bd d8 d2 5e be
       0.22324541 -0.19110158 -0.053406633 -0.21760118
000030 62 91 27 bd 58 a6 57 be 65 0c 09 be fe 63 78 bd
       -0.040910132 -0.21059549 -0.13383634 -0.060642235
000040 7d ce 18 be 4d 05 57 be 1f bf 5f 3b 99 0b 46 3e
       -0.14922519 -0.20998116 0.0034141017 0.19340362
000050 f2 70 22 3d 23 b6 fe bc ca f0 32 3e ea 2e 25 3d
       0.039658494 -0.031092709 0.17474666 0.040327944
000060 74 f4 50 bd 5e 41 33 be 82 3c 5f 3e da 81 e2 bc
       -0.05101438 -0.17505404 0.21800426 -0.027649809
000070 bf d6 2d be d2 b1 58 3c 66 6d f4 bc a6 dc 12 be
       -0.1697645 0.013225989 -0.029837321 -0.14341983
000080 33 3a 1c bd bf 4b 54 3e 8b fd a8 bc 13 64 17 3d
       -0.03814144 0.2073202 -0.020628711 0.036960673
000090 d5 8d 9f be ed f3 59 3e 6f 50 96 be 62 12 58 bd
       -0.31162897 0.21284457 -0.2935824 -0.052751906
0000a0 7b ec 93 3d 67 8e 0c be 18 a6 51 3c 6f 80 f9 bc
       0.072228394 -0.13726197 0.0127959475 -0.03045675
0000b0 8b 4d c5 bd 18 32 45 be 80 5d 0d 3e 0a 6f ae be
       -0.09633931 -0.1925739 0.13805199 -0.3406909
0000c0 95 6b c0 bd e2 26 e5 3d 9b 4e c4 bd a6 01 0a bd
       -0.0939552 0.11189057 -0.09585305 -0.03369298
0000d0 e9 de b4 bc 7a a6 05 be 4e 30 41 3e 9b 46 78 bd
       -0.022078948 -0.13051787 0.18866083 -0.06061421
0000e0 b2 d3 7c 3d 83 b7 3d be f5 ef 15 bd 20 2f 35 3e
       0.061725326 -0.18527035 -0.036605794 0.17693758
0000f0 2b 3f 25 3e 55 c7 8f 3d 58 1a 25 3e c2 09 9d 3e
       0.16137378 0.070204414 0.1612333 0.30671507
000100 07 f9 eb 3c e6 22 62 3e 4b 5d 4b 3e c1 85 16 be
       0.028805269 0.22083625 0.19859807 -0.1469946
000110 7a 21 c3 3d d6 e4 ff 3d 1d 12 25 3d e9 a8 24 be
       0.095278695 0.12494819 0.040300477 -0.16080059
000120 ab 99 cb bc 0e b8 1c 3e 97 aa 21 3e bd b2 fb 3d
       -0.024853548 0.15304586 0.15787731 0.12289951
000130 3f 83 0d be ed bf 42 be 61 9c b5 bd 95 dc 8c be
       -0.13819598 -0.19018526 -0.088677175 -0.2751204
000140 7e ce f4 3d 92 05 93 3c 2f de 64 be 2b c7 a5 bb
       0.11953448 0.017946992 -0.22350381 -0.005059143
000150 89 b6 e6 bd 53 1a 22 3d 2f 5e ca 3d 99 f5 4d be
       -0.112652846 0.039575886 0.09881245 -0.2011322
000160 e3 73 f7 3c be 7e 07 be 44 c3 67 3e c8 7e a1 3d
       0.030206626 -0.13231942 0.22633082 0.0788551
000170 78 b0 c3 3d 3d a4 5a be f1 a5 87 3e 27 3d 03 3e
       0.09555143 -0.21351714 0.2649379 0.12816297
000180 09 2f 1c 3e 71 f3 93 bb d6 28 d5 bc fe 3c ad 3e
       0.15252317 -0.0045151045 -0.026020449 0.33835596
000190 32 29 8d be d9 1d 83 bc a0 ea a1 3b b0 47 1e be
       -0.27570492 -0.016005443 0.0049412996 -0.15457034
0001a0 cb 4a 6c 3e 0a 03 21 3e 44 43 19 3e 8f 80 a3 3d
       0.23075406 0.15723816 0.14967066 0.07983505
0001b0 b3 e9 57 3d dd 4e 13 be 55 10 09 3e 98 e8 00 be
       0.052713107 -0.14385553 0.13385136 -0.12588727
0001c0 c9 11 ee bc 84 b9 3a bd 64 30 c2 3c fd 87 60 be
       -0.029061215 -0.045587078 0.023704715 -0.21926875
0001d0 fc 48 21 3d d5 11 10 3e 89 17 d6 3d 3a b4 35 bd
       0.039376244 0.14069302 0.10453708 -0.04436133
0001e0 59 91 9c bb ed 9b 51 be f6 97 65 be eb 38 0b be
       -0.004778069 -0.20469637 -0.2242125 -0.13595931
0001f0 8c 20 47 be 2f aa 13 be 53 8a 24 3e ef 18 a0 3e
       -0.1944601 -0.14420389 0.16068392 0.31269023
000200 a6 ac d6 bc 3a 76 4a 3e e1 5d 81 3e 2e b0 d2 3e
       -0.026205372 0.19771662 0.25266936 0.4115004
000210 1b 13 07 3e 8e 55 96 3e 35 94 01 3e 3e c3 37 be
       0.13190882 0.29362148 0.12654193 -0.17945573
000220 13 c8 db 3d aa 77 87 3d 81 fb c0 be 65 27 5e bd
       0.107315205 0.06614621 -0.37691882 -0.05423679
000230 49 23 ae 3e 5f 83 1c bd bc 7c ca bd 8e f9 8e bc
       0.34011295 -0.038211223 -0.098870724 -0.017452981
000240 9b e6 81 be d5 c9 b5 be 6b 02 27 be a4 03 11 be
       -0.2537125 -0.35505548 -0.16309516 -0.14161545
000250 fc 69 e9 bd 73 e1 c2 3e 76 c7 46 3d 18 4b 0a be
       -0.11397168 0.3806263 0.048530065 -0.13505208
000260 75 c8 90 3e dc 15 10 bc 8c f8 3e 3d 6c 4d bd bd
       0.28277937 -0.008794274 0.04662375 -0.09243283
000270 17 95 2b be 60 7f 60 bd 34 b0 2b 3e 86 07 e6 bd
       -0.16756092 -0.054808974 0.16766435 -0.11231904
000280 d0 55 7a bc bf fb 3e 3e cf 50 1a bc b5 0f ad bd
       -0.015279248 0.18650721 -0.00941868 -0.084502615
000290 57 d4 d9 3d c5 19 3a 3e 64 06 6b be aa 7d f5 bd
       0.10636204 0.18173893 -0.22951657 -0.11986859
0002a0 fa 0f b5 3d 1d eb e2 bd 00 7e 5c 3e 18 d6 8d 3e
       0.08840938 -0.110800005 0.2153244 0.27702403
0002b0 1f f4 7e 3e f9 9e 3f 3e 51 b5 b4 bd ca 6b 33 3e
       0.24897812 0.18712987 -0.08823646 0.17521587
0002c0 28 3f 6b 3e 7f f5 67 be bb 48 3e bd a0 05 f9 3d
       0.22973311 -0.22652243 -0.04645608 0.12159276
0002d0 c7 65 04 3e de 4d e4 bd 62 2c 01 be 23 00 52 be
       0.1292945 -0.111476645 -0.12614587 -0.20507865
0002e0 f2 26 8a 3d 5f cc c2 bd 34 15 8e 3d 4e c4 4f bc
       0.067457095 -0.09511637 0.06937638 -0.01268108
0002f0 b8 78 a4 3e c6 0e 7c 3e 67 2f b5 3e 15 e7 68 3d
       0.3212335 0.2461501 0.35387728 0.056861002
000300 ef 52 69 be d6 98 de 3d 9a 3e 41 3e 08 2c 8a 3e
       -0.22785543 0.10868995 0.18871537 0.26986718
000310 b2 53 ab bd 82 ea af bd f4 4d 92 be b3 02 81 3e
       -0.08365573 -0.08589651 -0.285751 0.25197372
000320 f6 26 8c 3d 8e c3 95 bd 01 29 5d 3d 16 f3 8d 3e
       0.06843369 -0.0731269 0.053994182 0.27724522
000330 10 5e 05 3e 34 f9 37 3d 4e 59 43 be 57 ac c9 bd
       0.13024163 0.044915393 -0.19077036 -0.09847324
000340 89 74 46 be 37 30 a9 be 38 74 c0 3d e9 ae d6 3a
       -0.19380392 -0.33044598 0.09397167 0.0016379032
000350 ba 0b 9f bd 99 21 42 3d d6 51 d0 3d 49 4a 78 3e
       -0.077659085 0.047395322 0.10171859 0.24247088
000360 00 a4 03 be a5 68 87 ba e6 39 09 be 78 74 3f 3e
       -0.1285553 -0.0010330869 -0.13400993 0.18696773
000370 80 9a 05 be ce 2c 59 be bc ff 38 3d 71 6c b7 bd
       -0.13047218 -0.21208498 0.045165762 -0.089562304
000380 20 f5 0b 3d b2 88 ef 3c 14 ae 9e 3d 6e 67 6c be
       0.034169316 0.029239986 0.077480465 -0.2308633
000390 c7 7b 6b 3e 58 b2 1c bd 21 37 53 3e 13 0b 6c be
       0.22996436 -0.03825602 0.20626499 -0.230511
0003a0 62 2d 01 3e d2 b1 35 be 00 f3 09 3e c6 5f 82 3e
       0.12614968 -0.17743614 0.13471603 0.25463694
0003b0 52 50 f5 3e 5a 14 8f 3e e6 1d 4c 3e 10 97 34 be
       0.47912842 0.27945215 0.1993328 -0.17635751
0003c0 7e 15 c0 3d 7a 24 0c 3e cc d8 a9 bc 3a 8f a1 bd
       0.09379099 0.1368579 -0.02073326 -0.078886464
0003d0 11 f8 1f be 5f e1 6b 3e 16 87 58 3e f9 27 03 3e
       -0.15621974 0.23035191 0.21145281 0.12808217
0003e0 7c ec fa 3d 05 c2 5b 3e 91 e8 b1 bd 70 1d 70 be
       0.12252137 0.21460731 -0.08686937 -0.2344873
0003f0 0b bb 95 3e 42 31 47 3e ce b9 74 be 8e 7c a6 be
       0.29244265 0.19452384 -0.23899004 -0.32516903

layers.2.bias f4 [64]
000000 73 a1 db bc 9e f0 d5 3c 8c e2 2d 3c fe 53 50 3c
       -0.026810383 0.026115712 0.010613095 0.012715338
000010 fa 0c 0a 3b f2 7d fe bc cd 69 b6 bd af 23 46 3d
       0.0021064864 -0.031065915 -0.08906899 0.048373874
000020 2e 7d f2 3c 89 7a 2c be a9 fc 0f bd 82 2d 9e 3d
       0.029600706 -0.16843618 -0.035153065 0.07723524
000030 1b 20 64 3d bc e3 b1 bc 1f 4b 97 3c 6f 3c f3 bc
       0.05569468 -0.021715038 0.018468438 -0.029691903
000040 7e 1a c7 3d e1 76 58 3d 62 9e 17 bc 71 f3 fd bc
       0.0972185 0.052847747 -0.00925407 -0.030999871
000050 db 99 03 bd e0 13 c4 3c 58 c9 46 3d c4 56 ac bc
       -0.03212915 0.023935258 0.04853186 -0.021037467
000060 dd c2 11 3d 45 4d d8 3c 2f dd 3b 3c be 4d d1 3b
       0.035586227 0.026404032 0.0114663085 0.0063874414
000070 0c e9 e4 3c 5c 26 bc 3d a0 bc 21 bd 41 e8 b3 3c
       0.027943157 0.09187004 -0.039486527 0.021961333
000080 5f 13 53 3d 66 cf 98 3d cf 2c d5 bc 9e 4d a5 bc
       0.051532146 0.07461433 -0.026022343 -0.020178612
000090 cb 4e 91 3b 1a b3 c5 bb 86 27 1e bb fe b4 c2 3b
       0.0044344417 -0.0060333135 -0.0024132445 0.005941986
0000a0 52 f5 0b bc 71 dc 62 bc cc 68 7e bd b6 a3 25 bb
       -0.008542376 -0.013846503 -0.06211166 -0.0025274581
0000b0 cf 4e 6f 3c 27 77 b3 3b 4d 3d 67 bc dd 4d c2 bc
       0.014606192 0.0054768506 -0.014113736 -0.023718769
0000c0 4c 8d 0e bd dc 52 b6 bc 0a 03 84 3c 39 f9 1c 3d
       -0.03480272 -0.022256307 0.01611473 0.038323615
0000d0 0c 40 47 bd 29 b8 d2 3c 79 dd 0c bd 28 2e b8 3d
       -0.048645064 0.02572258 -0.0343909 0.089931786
0000e0 66 09 22 bd 8c c2 88 bc aa 1d 98 bd 8e 81 cf 3c
       -0.039559744 -0.01669433 -0.07427533 0.025330331
0000f0 70 39 2f bc 66 ab cc 3b 4a b9 af 3d 88 c9 81 b8
       -0.0106948465 0.006246018 0.08580263 -6.1887375e-05

layers.4.weight f4 [64, 64]
000000 0c 20 6d be 41 81 3e bd c4 66 60 3e b4 d2 8d bd
       -0.23156756 -0.046509985 0.21914202 -0.06924954
000010 06 ff e0 3d 98 0b 48 be b0 3d be bd 16 a1 9e bd
       0.10986142 -0.19535673 -0.0928911 -0.077455685
000020 ae 56 46 3e 9a 9f 90 be e9 a6 96 3e 92 4e 24 3e
       0.19369003 -0.28246766 0.29424217 0.16045597
000030 d8 bc c8 3d 06 8a b3 bd 87 d9 4d be 15 c6 ee 3d
       0.09801644 -0.0876656 -0.20102511 0.11658875
000040 bf a0 96 be c4 ff ef 3c c8 58 26 be 5a aa a3 3c
       -0.29419515 0.029296763 -0.16244805 0.01997869
000050 f6 a7 c0 bd 67 25 48 be bb ba 6d 3d 88 3f 42 be
       -0.09407036 -0.19545518 0.05803941 -0.18969548
000060 f8 28 11 be a3 65 b2 bd a5 08 36 bd a7 57 4f be
       -0.14175785 -0.08710792 -0.044441838 -0.2024828
000070 9f ae 93 3d fc 08 a2 3e 6d e6 39 3e ba 5b ea bc
       0.07211041 0.3164748 0.18154307 -0.028608192
000080 d2 04 72 be 38 a5 2a 3e 54 12 3e be 43 51 29 be
       -0.23634651 0.16664588 -0.18561679 -0.16534905
000090 4e 7e 82 be 1e 4b c6 bd 4b f3 0a be 22 11 c9 bd
       -0.25486988 -0.09682296 -0.13569371 -0.09817721
0000a0 3f f1 8e 3d b6 94 d4 bd e2 62 24 3d 8a 87 90 3e
       0.06979608 -0.10379927 0.040133364 0.28228408
0000b0 c7 dc 68 3d 6e 13 7f 3e 59 27 46 be dc 18 59 bd
       0.056851175 0.24909756 -0.19350947 -0.053002223
0000c0 13 95 cd bc 4f 8f 56 3d 9f 04 31 3e 18 cc 16 3d
       -0.025095498 0.052382763 0.17286919 0.036815733
0000d0 49 44 2e be 8b f4 56 bd a3 2d b2 bc 60 30 99 be
       -0.17018236 -0.052479308 -0.021750277 -0.2991972
0000e0 47 05 59 3c b4 b5 c5 3d 45 52 08 be 48 18 cc bd
       0.013245887 0.09653798 -0.13312633 -0.09965569
0000f0 33 33 06 be 8f 3e 3d be 73 86 99 bd 0d 71 0b 3e
       -0.13105468 -0.18480895 -0.07496347 0.13617344
000100 3e 49 32 3e 62 61 c0 bc 6e 96 14 3e ff bb 17 3d
       0.17410752 -0.023483936 0.1451051 0.03704452
000110 da 21 94 3e 05 33 18 bc 22 67 fa 3d 8f fe 18 3e
       0.28932077 -0.009289508 0.12226702 0.14940856
000120 06 9f c5 bc 04 41 cf 3d 4d f4 09 3d e0 ce 8b bd
       -0.02412368 0.101198226 0.03368025 -0.06826568
000130 e4 2c f4 3d 90 a3 fe 3d 71 8f e7 bd 91 6c c5 bd
       0.11922625 0.12433541 -0.11306656 -0.09639848
000140 0d 59 75 be ca d0 16 be 27 22 1e be 11 2b 58 be
       -0.23959751 -0.14728084 -0.15442716 -0.21110179
000150 71 18 9a 3d 5a 97 4f be 9a 40 45 be dc 39 4f be
       0.07524193 -0.2027258 -0.19262925 -0.20236915
000160 42 79 f2 3c fa 1b 38 3e 3a 8e 0d bd 74 03 50 be
       0.029598836 0.17979422 -0.034559466 -0.20313817
000170 5e e9 28 3d 8b 19 8a 3c 2e b3 24 3e aa fe ca bc
       0.04123818 0.016857883 0.16083977 -0.024779636
000180 b7 0f 6a 3e 0b 80 9a 3d cc 5e 31 3e 82 f3 12 be
       0.22857557 0.075439535 0.17321318 -0.14350703
000190 1c 14 be bd fb 77 c7 3b d6 a2 5c 3e 78 bb b9 bd
       -0.09281179 0.006087301 0.21546492 -0.0906896
0001a0 c3 07 33 3e ea 83 32 be 1f fc 85 bd 16 6b a1 bd
       0.1748343 -0.17433134 -0.06542229 -0.07881753
0001b0 e4 cc 9c bd f4 84 db bc 51 40 8f 3d 06 a9 48 3e
       -0.07656267 -0.026796795 0.06994689 0.19595727
0001c0 69 d1 c3 3d f0 51 7f bd d3 78 d7 3d 27 47 1a be
       0.09561426 -0.062334 0.10521092 -0.15066205
0001d0 5b 61 c0 bd 24 77 55 3e a9 40 25 3e f6 44 e4 bb
       -0.09393569 0.2084623 0.16137947 -0.0069662286
0001e0 63 98 fe 3d 07 a7 04 be 64 bc 18 3e 78 84 ae bd
       0.12431409 -0.12954341 0.14915615 -0.0852136
0001f0 2f e8 fa bd 37 8d 0c be 9e 4c ff bb 47 e2 7a 3e
       -0.12251317 -0.13725744 -0.007791116 0.2450038
000200 57 6e e3 3d 89 1e e4 bd c0 0e c9 bd 28 2b 16 be
       0.1110503 -0.111386366 -0.098172665 -0.146649
000210 30 cf 5e 3e e8 8e 6b be 73 ca ef 3c e8 b0 af bc
       0.21758723 -0.23003733 0.02927134 -0.02144666
000220 dd 84 f6 3d 38 b3 d1 3c 7f 0d bf bd cd 77 ba 3a
       0.120370604 0.025598153 -0.09328746 0.0014226377
000230 a1 9c 64 3e fc 09 0b bd e2 4b 7c 3e af e5 15 be
       0.22325374 -0.03394507 0.24638322 -0.14638399
000240 c5 d4 37 3e 0b e7 97 3d 4c 16 0e be ab 45 bf bd
       0.17952259 0.07417115 -0.13875693 -0.0933946
000250 e8 6a 16 3e 92 e7 a0 bc 0d f5 86 3e 06 ff 42 be
       0.14689219 -0.019641671 0.26358834 -0.19042596
000260 36 c0 d2 3d 34 64 15 be 0b e8 3f be 20 8e 25 3d
       0.102905676 -0.14589006 -0.18740861 0.040418744
000270 53 88 a7 3d c6 ef ed bd 7c ba f3 3d ac 1a 15 be
       0.08180299 -0.11617999 0.119008034 -0.14560956
000280 1a fc 98 bd b5 3d 92 bd 1e dc ef bd 2c 16 65 be
       -0.074699596 -0.07140676 -0.11711906 -0.22371739
000290 8d 73 80 be f6 4d c0 bd 9d 6c 2e be ad 8b 44 be
       -0.25088158 -0.0938987 -0.1703362 -0.19193907
0002a0 3f 25 29 3e 35 fa 59 be b3 6a 7d 3d 39 a2 da 3c
       0.16518115 -0.21286853 0.061869334 0.026688682
0002b0 0a aa 2d 3e 8b 41 d7 3c 45 3e 71 3d 5a 92 15 be
       0.16959396 0.02627637 0.058897275 -0.1460661
0002c0 63 2d d6 bc ed da 3b 3e a5 fd 25 be 5d 69 8b 3d
       -0.026144689 0.18345232 -0.16210039 0.06807206
0002d0 dc 3a 10 bd 0d 75 23 be a0 08 52 be 0e b0 f1 3d
       -0.035212383 -0.1596262 -0.20511103 0.11801158
0002e0 8c 2b 14 bd f0 1d 28 3e fb b7 3d be de a4 08 be
       -0.036174342 0.1641767 -0.18527214 -0.13344142
0002f0 44 f4 b0 be 8b 17 bb bd d6 04 12 be e9 34 3a 3d
       -0.3456136 -0.0913535 -0.14259657 0.045460615
000300 42 f6 05 be b8 57 5d 3e c9 d1 83 bd ae d2 1b be
       -0.13082221 0.21615493 -0.06436498 -0.15217087
000310 6d ab 3c bc c2 e3 71 3e 75 a6 58 3e 47 45 4e be
       -0.0115154805 0.23622039 0.21157248 -0.20143615
000320 ef 1f 27 be dc b7 f8 bd 0d 94 04 bd 3d 4b cf bd
       -0.16320775 -0.121444434 -0.032367755 -0.101217724
000330 92 36 21 bd 19 67 0f 3e 40 d1 5f 3d fc 92 f9 3d
       -0.039358683 0.14004172 0.054642916 0.12186238
000340 03 4a 5b 3d eb ec ff bd 29 b9 6d bb eb b4 ca 3d
       0.05353738 -0.124963604 -0.0036273694 0.098977886
000350 63 05 04 3e 96 bb 2c 3e 1f 34 ba bd 6c f7 5f bd
       0.1289268 0.16868433 -0.090919726 -0.05467932
000360 95 43 76 3e 12 50 14 3e 96 71 6d be be 39 41 be
       0.24049218 0.1448367 -0.23187861 -0.18869683
000370 d0 27 ce bd 8d 39 66 3e fe 71 f8 bd ef 29 f1 bd
       -0.100661874 0.22482891 -0.12131117 -0.11775576
000380 e1 45 89 3d 75 a8 c6 bd 93 ac fc 3d 66 36 f7 3c
       0.067027815 -0.097000994 0.123376034 0.030177306
000390 71 86 23 3e 09 65 2a 3d 4a cc cf bd 34 22 9b bd
       0.15969254 0.04160026 -0.10146387 -0.07574883
0003a0 33 01 29 3d 30 6a 23 be d8 1e 4e 3e c2 f7 d6 3d
       0.04126091 -0.15958476 0.20128953 0.10496475
0003b0 4c 2a 1a be 6a 36 31 be cb 69 59 be 26 0c a2 3d
       -0.15055197 -0.17305914 -0.21231763 0.079124734
0003c0 e3 c3 32 bd 5c f6 03 3d 47 ee 23 3e cf 50 79 3d
       -0.043643843 0.03221737 0.16008864 0.06086808
0003d0 19 d7 15 bd a3 72 5c be d8 bf 8a 3a 4a 69 04 bd
       -0.036582086 -0.21528105 0.0010585738 -0.032326974
0003e0 60 a8 08 3e 42 6a 14 be d1 88 bf 3d e2 c2 9b bc
       0.1334548 -0.14493659 0.093522675 -0.019013826
0003f0 58 d0 dd bd 6f 51 f7 bd 4a c7 a4 3d db 3d 12 bd
       -0.10830754 -0.12076079 0.08045824 -0.03570352

layers.4.bias f4 [64]
000000 2b 90 0c bd dc 48 b3 bc fb 49 b9 3b a3 3a 93 3b
       -0.034317177 -0.021885328 0.005654571 0.004493074
000010 43 25 a9 bd 78 e5 64 bc fd 9b 78 3d ca 3d 31 bb
       -0.0825906 -0.013970725 0.060695637 -0.0027044886
000020 9a 2c 88 3c b9 4a 0c 3c bf cb 15 3c fc 6a 42 bd
       0.01662283 0.008562737 0.009142815 -0.04746531
000030 29 29 49 bc ef 1f 2b bd a3 31 27 bc d5 ac 03 3d
       -0.01227788 -0.0417785 -0.010204705 0.032147247
000040 d3 db d9 3c 09 4b a3 3d df 1e 7c 3c 50 95 24 3d
       0.026594078 0.07973296 0.01538822 0.040181458
000050 b4 93 0a bc b5 8a f8 39 ba ea 8e 3b 50 c5 28 bc
       -0.008458067 0.0004740559 0.0043614777 -0.010300949
000060 d0 c2 51 bb c0 bf 30 bd ca a1 58 ba 71 0d 2e bb
       -0.0032006986 -0.043151617 -0.00082638545 -0.0026558305
000070 ea ce 66 3c 7b 95 b5 3c d6 1a ac ba 18 68 0c 3d
       0.014087418 0.022166004 -0.0013130556 0.03427896
000080 8b a3 a4 bc b1 24 80 bc ad 00 7f bc a6 02 09 3c
       -0.020097515 -0.015642496 -0.015564126 0.008362448
000090 7a 3d 5e bd 3b 01 07 bc 2b 3d 1f bd 40 28 e5 bb
       -0.054257847 -0.008240039 -0.038876694 -0.0069933236
0000a0 24 95 c5 bc 55 25 a4 ba c6 4f f4 bc 47 fc ab bd
       -0.024118967 -0.0012523333 -0.029823195 -0.083977275
0000b0 64 ae d8 3d 08 a9 a1 bd 3a ce de 3b 7a 32 1f 3d
       0.10580137 -0.07893568 0.0067994865 0.038866498
0000c0 16 c2 af bd cc 0c b5 bc 26 a3 69 3b 77 9e 12 3d
       -0.08581941 -0.022100829 0.0035650223 0.035795655
0000d0 4c 18 75 bb f0 dc 1b bd 50 6a 84 3d c3 6e 94 bc
       -0.0037398515 -0.0380525 0.0646559 -0.018119222
0000e0 cb ea 5e bc 73 00 2a 3c 00 6b 42 3d 62 7b 41 3d
       -0.013605784 0.010376084 0.047465324 0.047236808
0000f0 32 11 82 bc fc 19 ef bd 36 a2 ea bd 11 e5 bd 3b
       -0.01587734 -0.11674878 -0.114567205 0.005795129

layers.6.weight f4 [2, 64]
000000 b6 91 b1 be 11 d5 4c be 3f 41 81 3e d0 98 22 bc
       -0.3468148 -0.20003153 0.2524509 -0.009924129
000010 bc d7 9f 3d ec 50 60 be bc 6e 0a be 82 cc 46 3d
       0.0780482 -0.21905869 -0.13518804 0.048534878
000020 52 bb 9d 3e 90 c1 d1 bc 67 52 58 3d af 22 97 be
       0.30806977 -0.025604993 0.05281296 -0.2951865
000030 de 55 5a be f8 92 6d be b3 5e 54 3e 42 6f 3d 3e
       -0.21321818 -0.23200595 0.2073925 0.18499473
000040 a0 b6 75 3e 8f aa 85 bd 6c 8b 90 3e d5 21 00 3e
       0.23995447 -0.06526672 0.2823137 0.12512906
000050 92 6f 69 bc 62 78 4a 3e ad 58 76 3e 6d 6f 81 3e
       -0.014247792 0.19772485 0.24057265 0.25280324
000060 5c af ad 3d b6 c7 e6 bd 5a ab 6c 3e af 94 b8 3b
       0.08480713 -0.112685606 0.2311224 0.005632959
000070 5a 7e 96 3d e0 bc 64 3e ef 79 54 3e ed d7 09 be
       0.073483184 0.22337675 0.20749639 -0.13461275
000080 6d 83 9a 3e 60 69 89 3e de 49 24 be ee cc 43 3d
       0.30178395 0.26838207 -0.16043803 0.047802858
000090 a4 f6 31 be 9a 30 12 bd 98 f6 47 be 09 40 b8 3e
       -0.17379242 -0.03569088 -0.19527662 0.35986355
0000a0 68 95 9f be ff e9 4e bb 77 b8 67 be 40 cd 56 3c
       -0.31168675 -0.0031572578 -0.22628962 0.013110459
0000b0 46 81 ad be 3d fc 82 be d5 b4 95 3e e7 35 13 3d
       -0.3388769 -0.25583068 0.29239526 0.035940077
0000c0 bc 34 6f 3e 19 95 85 be b2 29 12 be a2 de 9a 3e
       0.2335996 -0.26090315 -0.14273718 0.3024798
0000d0 c2 9f 28 be 61 9c 41 be ef 06 8f 3e 26 ed 83 be
       -0.16467193 -0.1890731 0.27934977 -0.25766867
0000e0 f6 6d 41 3e 2a ea 96 be d4 10 e2 3d 08 f5 11 3c
       0.18889603 -0.29475528 0.11038366 0.008908518
0000f0 68 20 94 be ba a2 ad 3e 8f a2 22 be 5d 0a 35 be
       -0.28930974 0.33913213 -0.15882324 -0.17679735
000100 e2 6f 9b 3e 9c b9 a5 be 46 10 77 bb 32 c2 f2 3e
       0.30358797 -0.3236817 -0.0037698909 0.47413784
000110 70 49 9a be 44 46 50 be be 38 3a 3d cf f6 c5 be
       -0.30134153 -0.20339304 0.04546427 -0.38664863
000120 0e 19 9a 3e 0f ed f5 bc 81 fd a7 be 54 ca 55 bd
       0.3009724 -0.030020265 -0.32810596 -0.05219491
000130 ee 35 84 be e2 15 aa 3e b8 a9 87 3e c9 76 33 3e
       -0.25822395 0.3321982 0.26496673 0.17525782
000140 e1 26 26 3c bc db de 3e 22 51 ae 3e 70 29 34 3e
       0.010141105 0.4352702 0.34046274 0.17593932
000150 58 cf bd be ae 49 07 be 04 3c b3 be a9 3e f7 3d
       -0.37072253 -0.132117 -0.35006726 0.12072498
000160 f0 84 67 3e 93 1f 71 3e f5 3b 0b be ab a8 a3 bd
       0.22609305 0.23547201 -0.1359709 -0.07991155
000170 3f 90 8b 3e ba 1d 61 3e 25 e3 b4 3e 6b 6e 7f be
       0.2725849 0.21983996 0.35329548 -0.24944465
000180 d3 37 b3 3e 34 ec 8e be 66 d8 3e 3e d9 2a 36 be
       0.35003528 -0.27914584 0.18637237 -0.17789783
000190 20 45 ad be 03 2d ae 3e 8c 43 e7 3b 21 84 06 3e
       -0.338418 0.34018716 0.0070576128 0.1313634
0001a0 b7 96 f0 bd 34 14 dd bd 81 1d e3 bd bb 2d 83 be
       -0.117474966 -0.10794869 -0.11089612 -0.25620827
0001b0 1d 6b a8 3e cd 83 61 be cb 4c 4b bb 83 b5 3a be
       0.3289422 -0.22022934 -0.0031021114 -0.18233304
0001c0 d1 87 be be 42 2f 56 3e d0 c4 b4 3e 68 8f 8e bd
       -0.37212995 0.20916465 0.35306406 -0.06960946
0001d0 61 5e a7 be b5 e3 40 3c cd 1f 67 be 30 af c6 bd
       -0.32689193 0.01177304 -0.22570725 -0.09701383
0001e0 f0 1b 7e be e3 91 b5 bc 5a 8f 6b 3b 7d aa 9a be
       -0.24815345 -0.02216429 0.0035943598 -0.30208197
0001f0 33 d1 96 be d9 d1 6d bd 09 eb 9c 3e 16 86 82 bd
       -0.2945648 -0.058061454 0.30648068 -0.06373231

layers.6.bias f4 [2]
000000 2d 13 07 3d 60 e2 28 3c
       0.03297727 0.010307878
