data/results/output_net_12000.pth (torch, 38313 bytes, 8 tensors)

layers.0.weight f4 [64, 5]
000000 8b 30 ed bd 39 75 0a be e2 6d 91 3c bc 85 71 be
       -0.115815245 -0.1352128 0.017752592 -0.23586172
000010 55 c1 46 be 30 10 98 3e 98 fe d9 be 13 30 83 bd
       -0.19409688 0.2969985 -0.42577052 -0.06405654
000020 5c 18 79 3d 6a 77 bb be 4f b9 82 3e d3 af df bd
       0.060814247 -0.36614543 0.25532004 -0.10922208
000030 63 04 d9 bc d6 80 9c be 85 cf 6a 3e df 3e b4 3e
       -0.02649135 -0.30567044 0.22930725 0.35204217
000040 98 4d a5 3e 23 e2 29 be 22 c1 5b bd d6 ce 91 3e
       0.32285762 -0.1659017 -0.053650983 0.28478116
000050 f3 dd 19 3d c2 fe 54 3e 5e fd 72 3e 36 3a 74 be
       0.037565183 0.20800307 0.23729464 -0.2385033
000060 bc 55 9c be c0 57 ad 3e 69 76 52 be 63 16 57 be
       -0.3053416 0.3385601 -0.20552982 -0.21004634
000070 c2 f6 be 3d 95 b2 c2 bc b2 d2 23 be f8 c8 48 be
       0.09324409 -0.023766795 -0.15998343 -0.19607913
000080 5e 3a 97 3d 9e 0b 01 be f5 e6 9e be ea ca 05 3d
       0.073841795 -0.12602088 -0.3103558 0.032664217
000090 12 ac bb 3c 32 c4 9a be 8f 6c 67 3e c6 86 8f be
       0.022909198 -0.3022781 0.22600006 -0.2803251
0000a0 f4 81 d1 3d 4c 52 60 3c cc 95 f2 bd 21 ad 66 be
       0.10229865 0.013691496 -0.11844978 -0.22526981
0000b0 53 00 93 bd 73 8f d8 3c 5e 78 7e 3c da 2b a0 bd
       -0.07177796 0.02643559 0.015531627 -0.07820864
0000c0 0c 87 15 3e fd c8 27 3d a7 d0 bf be f5 e4 3e be
       0.14602298 0.04096316 -0.37463877 -0.18642028
0000d0 f9 ea 00 be da d0 f5 3d d9 90 f5 bd 88 ca 9c 3e
       -0.12589635 0.12002726 -0.11990518 0.3062327
0000e0 c4 21 84 3d 1d 74 76 3e c8 fd 40 3d 1c 20 3d bc
       0.06451753 0.24067731 0.047117025 -0.0115433
0000f0 6d 71 57 3e ae 3c be bd c1 fe f8 bb 6c 4e 89 bd
       0.21039362 -0.092889175 -0.0075987284 -0.06704411
000100 88 63 8d 3e aa be cb 3d a5 34 0d 3d dd 66 97 3e
       0.27615 0.09948476 0.034474034 0.29570666
000110 a8 af 50 be 7c 46 a6 be 04 3a f2 bd b5 84 01 3e
       -0.20379508 -0.3247565 -0.11827472 0.1264828
000120 41 14 37 3d e5 ef 2e be ce 60 8d 3e 58 ec 09 bc
       0.04469705 -0.170837 0.2761292 -0.008418165
000130 81 f3 63 3e bb b4 8a bc a4 12 65 bd f2 d7 19 be
       0.22260858 -0.016931882 -0.05592598 -0.15023783
000140 28 51 a5 be 96 45 0b 3e d0 98 d8 bd af 1c 49 3e
       -0.3228848 0.13600764 -0.10576022 0.19639848
000150 a4 b6 18 be 54 d9 ae be 87 11 64 be 87 31 00 3e
       -0.14913422 -0.34150183 -0.22272311 0.12518893
000160 e7 8c 5f 3d 78 89 5d be 55 45 2c 3e 3d 14 a0 3e
       0.054577734 -0.21634471 0.16823323 0.3126544
000170 dd 5d 5d bd 17 65 b9 3e 65 e5 94 bd d0 fe ba 3e
       -0.054044593 0.36209938 -0.07270316 0.36522532
000180 90 2e 9f be 54 ea 82 3e b0 af 68 3e 86 a7 3b bc
       -0.31090212 0.25569403 0.2272327 -0.011453515
000190 d6 1b 12 3e 03 8e 04 3e db a8 a8 3e ba 9a 4f 3e
       0.14268431 0.12944798 0.32941326 0.20273867
0001a0 97 a4 ac 3e 5e 90 cd 3e c4 85 91 be c9 66 1b 3e
       0.33719322 0.40149206 -0.28422368 0.15175928
0001b0 59 1d 0f bd 21 3b bd 3e 6a aa 10 3e 94 8f b9 bd
       -0.034940097 0.36959174 0.14127508 -0.090605885
0001c0 fa f7 3e 3e a0 85 2b 3e 90 68 c4 3d ba f5 f2 bd
       0.18649283 0.16750193 0.09590256 -0.11863275
0001d0 c5 2b 89 3e 41 1e 41 be 51 6d 4b 3d 83 30 e8 3e
       0.26791206 -0.18859197 0.0496648 0.45349512
0001e0 58 72 56 3e c4 55 eb bc 99 84 a3 3e 20 99 fe bd
       0.20942056 -0.02872742 0.319371 -0.1243155
0001f0 9f 00 6d 3e d3 7c e0 bd da 9e 8b 3e 3a 26 38 3e
       0.23144768 -0.10961308 0.27269632 0.17983332
000200 01 18 99 bd 3e bf 9f be 6a a8 9e 3e 30 15 d3 be
       -0.074752815 -0.31200594 0.30987865 -0.41227102
000210 1a 55 ff 38 65 2b 38 bd 7c e4 ad be 17 97 be 3d
       0.00012175199 -0.04496326 -0.33963382 0.09306162
000220 94 0c 49 be 00 68 36 be ef df 98 3e 62 36 3b 3d
       -0.19633704 -0.1781311 0.29858348 0.04570616
000230 93 10 19 3e 6d b7 9e bd 3d 13 36 3e 07 bf 94 3e
       0.14947729 -0.077498294 0.17780776 0.29051992
000240 e6 c5 a4 3c 74 91 fa bd dd b2 7d 3e d6 5b 18 3e
       0.020113897 -0.12234774 0.24775262 0.14878783
000250 21 69 a6 be eb 81 2b be 0c e9 98 bb e2 a1 c3 be
       -0.32502082 -0.16748779 -0.004666453 -0.38209444
000260 dd 48 a6 be 39 a7 5a 3d e2 bb e6 bd 18 dc 3c 3d
       -0.32477465 0.053382132 -0.112663046 0.046108335
000270 9c 8d 9b bc 6e bc 96 3e 7c d4 65 b9 3c c8 00 3e
       -0.018988423 0.29440635 -0.00021918298 0.12576383
000280 d0 0d 87 be ff e0 74 3d b8 d4 97 3d 93 e2 1d bc
       -0.26377726 0.059784885 0.0741362 -0.009636539
000290 23 df a5 3e 13 c5 62 3e 3e ac 46 3c ce 7c 23 be
       0.32396802 0.2214549 0.012126027 -0.15965578
0002a0 59 51 3d 3e 62 54 72 be 64 dc 8f 3e b5 d8 eb 3d
       0.18488063 -0.23665002 0.28097832 0.11515943
0002b0 06 94 94 be 80 a2 92 3d 43 18 b8 3d ab ac ac be
       -0.29019183 0.07159901 0.089890026 -0.33725485
0002c0 ad 8f b7 be 47 c7 30 be 8c 70 8d 3d 17 4d 7a be
       -0.35851803 -0.17263518 0.06906232 -0.2444347
0002d0 99 c7 b7 3e d2 ab 92 3e 1d 70 86 3e 3b 29 06 3e
       0.35894468 0.28646713 0.2625741 0.13101666
0002e0 95 b8 b7 3d 3a 21 b0 3c 68 d3 b8 bd f6 73 62 be
       0.08970753 0.021500219 -0.090246975 -0.22114548
0002f0 72 cf 51 3e 90 63 45 3e 75 3b 15 be ac 79 85 3e
       0.2048929 0.19276261 -0.14573462 0.2606939
000300 9d 3e a8 3d 46 76 69 3e cc fb 0b be 70 2b 82 be
       0.082150675 0.22799024 -0.13670272 -0.25423765
000310 c9 5a 2d 3e 37 ea 8e 3d b2 5d 85 be cb 78 15 3a
       0.16929163 0.06978267 -0.26048046 0.00057018985
000320 8b f7 d6 bb 61 a0 c9 bd ab 05 fe bd e0 51 b6 be
       -0.006560271 -0.09845043 -0.12403425 -0.3560934
000330 d7 7d 96 be 03 d1 45 be 57 cf 64 3d 8a 72 f4 bd
       -0.29392883 -0.19318013 0.055861797 -0.11935909
000340 54 2f 52 3e 40 bc bd be 2b be d9 bd ff 02 8a 3d
       0.20525867 -0.37057686 -0.10631975 0.06738853
000350 30 ce 69 3e 09 5f 64 be 80 5d 64 3e 83 31 c0 3e
       0.2283256 -0.22301878 0.22301292 0.37537774
000360 d2 08 be 3d a6 82 04 3e 34 d7 af bd 1c f3 7a bc
       0.09279026 0.12940463 -0.085859686 -0.015316751
000370 b0 2c cb 3e dd d3 1b bd c2 1b e9 bd fb 01 53 3e
       0.3968253 -0.038043845 -0.113822475 0.20606224
000380 78 3f c9 3d 8e ab 55 3d e4 bb 0a 3f cf 07 a8 bd
       0.09826559 0.05216556 0.5419295 -0.08204614
000390 7b 7e d4 3d b0 9f 0f 3e 1b 07 60 3b aa f1 0a bc
       0.10375687 0.1402576 0.0034183923 -0.008480469
0003a0 2a ad f9 3d 4f d2 d6 3d 8f a7 7a 3d 8c 82 a1 3d
       0.121912315 0.10489332 0.061194953 0.07886228
0003b0 68 05 3b 3e 29 0d 79 3e bd 35 da bd 4c 06 1b 3d
       0.18263781 0.24321426 -0.10654781 0.037847802
0003c0 34 08 b8 3e 3c e9 27 3e af a0 6f be 26 57 62 3e
       0.35943758 0.16397566 -0.2340114 0.22103557
0003d0 11 99 2d be ed 17 6a be 90 bb 88 3d ec 3f 87 bd
       -0.16952921 -0.2286069 0.066764 -0.06603989
0003e0 33 3d 33 3e 08 ac a9 3c 54 27 98 3e 29 8a 6b bd
       0.17503814 0.020711914 0.29717505 -0.057504807
0003f0 67 9c 84 3e e9 6d 88 3d f1 93 92 be 1d 78 55 3e
       0.25900576 0.06661589 -0.28628495 0.20846601

layers.0.bias f4 [64]
000000 66 1e f2 3a 75 e3 b2 3a 20 17 0c 3d d2 4a 91 bc
       0.0018472194 0.001364811 0.03420174 -0.017735872
000010 0b 20 56 bb 95 c7 99 3c 6a 90 07 bc 76 f9 62 bd
       -0.0032672908 0.018771926 -0.008274177 -0.055413686
000020 68 e2 d9 3a 47 0f c4 3c 20 e6 4a bd fd 1f b1 3c
       0.001662326 0.023933066 -0.04953587 0.021621699
000030 8a 21 49 3b 64 9e 18 bd 3c 27 19 3d f6 97 48 3c
       0.0030690157 -0.037260428 0.037390932 0.012243262
000040 64 57 a8 ba c7 1d 08 bb bf 85 16 bd ec 92 59 bb
       -0.0012843427 -0.0020769702 -0.036748644 -0.0033199145
000050 d9 d2 42 be c5 8d d0 3c 08 b3 c7 bc 6b 92 3b 3d
       -0.19025744 0.025458226 -0.024377361 0.045793932
000060 dd 32 a8 3b b5 ff 66 3c d6 d4 01 3d ea 78 30 bb
       0.0051330165 0.014099051 0.031697117 -0.002692754
000070 30 7c 48 bd fc 14 26 3d 32 e5 c5 bc ff 6e c2 bc
       -0.04894656 0.040547356 -0.02415714 -0.023734568
000080 32 3c e2 bc 3c 51 b1 bc eb 9d 70 bb e9 f6 d9 bc
       -0.027616594 -0.02164518 -0.003671522 -0.026606994
000090 2c 00 62 bc a1 d0 5f bc fc f5 58 bb 9d 77 c6 3c
       -0.013793986 -0.013660581 -0.0033105602 0.024226958
0000a0 39 27 bf 3d e3 eb c0 3c c1 55 36 3d b5 67 9f b9
       0.09333653 0.02354998 0.044515375 -0.0003040411
0000b0 ba d1 5c bd 80 13 a4 3d 9a 9a 08 3d 93 ff 85 bb
       -0.05391095 0.08011532 0.033350565 -0.0040893047
0000c0 d8 fe 1b 3d 04 52 81 bd 76 53 a8 bc 2a 1f 1f 3c
       0.038084835 -0.06314471 -0.02054761 0.00971202
0000d0 d5 17 09 bd 80 72 a8 bc 50 e7 e6 bc 5e 8a 44 bb
       -0.033469994 -0.02056241 -0.02818647 -0.00299897
0000e0 e2 df 23 3d cd c1 0f bc 06 8a b0 3c 6a 6b 9a bd
       0.040008433 -0.008774233 0.02155019 -0.07540019
0000f0 7b 8b 53 bd 8c 34 e2 3c d5 6e 4f 3c 0f 62 5f 3c
       -0.05164669 0.027612947 0.012660702 0.013634219

layers.2.weight f4 [64, 64]
000000 b5 21 b2 bd f3 fd 4c 3e 38 7f f3 3d 9b 3e 9c 3d
       -0.08697835 0.20018749 0.118894994 0.076291285
000010 e6 f6 66 bd e9 16 11 3e b0 ce c5 3d 21 4f 0f 3d
       -0.056387804 0.14168896 0.09658563 0.034987573
000020 f1 51 61 3e 73 ca 42 be a5 54 67 bd 73 09 5c be
       0.22003914 -0.19022541 -0.056477208 -0.2148798
000030 49 f5 47 bd a8 d9 5d be 82 72 f7 bd 1e 49 34 bd
       -0.048817907 -0.2166506 -0.120823875 -0.044015042
000040 be 1f 0b be 5a 14 56 be 1d 42 4d 3c 97 48 42 3e
       -0.13586327 -0.20906201 0.01252797 0.18973003
000050 a0 ea 43 3d 31 d5 52 bd e2 f4 2f 3e 69 a5 4e 3d
       0.047831178 -0.051472846 0.17183259 0.050450716
000060 4d 71 57 bd b3 de 1b be 8a be 41 3e e2 07 2f bd
       -0.052598286 -0.15221672 0.18920341 -0.042732127
000070 6b 4a 2e be 79 2c cc 3c 15 f7 83 bd 1b 8d 0f be
       -0.17020576 0.02492355 -0.064436115 -0.14018671
000080 44 00 88 bc c9 d7 37 3e 58 39 c1 bc 6c 6e f3 3c
       -0.01660169 0.17953409 -0.023586914 0.02971574
000090 ba e1 98 be 6c c3 4e 3e 40 97 8d be 3a 07 1f bd
       -0.29859716 0.20191735 -0.27654457 -0.03882525
0000a0 1c b6 89 3d 47 15 06 be 83 2c 03 3d 77 ba 03 bd
       0.06724188 -0.13094054 0.03202487 -0.03216025
0000b0 4b 77 d9 bd 06 89 38 be 05 c4 13 3e f6 b9 9f be
       -0.106184565 -0.1802102 0.14430244 -0.31196564
0000c0 77 86 cc bd 82 be f2 3d ed f7 d5 bd 8d b4 06 bd
       -0.09986585 0.11852743 -0.10447679 -0.03288703
0000d0 c1 a2 7c bc 54 55 f1 bd ea 05 33 3e dc d7 50 bd
       -0.015419663 -0.11783853 0.17482725 -0.05098711
0000e0 19 35 82 3d 5c 33 44 be 7d f9 fc bc 54 34 30 3e
       0.06357784 -0.19160217 -0.030880684 0.17207462
0000f0 81 70 27 3e f7 51 88 3d 98 f1 11 3e 8b 25 99 3e
       0.1635151 0.066562586 0.14252317 0.29911456
000100 45 1c 13 3d 27 2d 74 3e 3f 06 4a 3e 45 ad 0b be
       0.03591563 0.23845349 0.19728945 -0.13640316
000110 d6 3a 11 3e 6c a3 f9 3d 47 4f 75 3d 66 4d ea bd
       0.141826 0.121893734 0.059890058 -0.11440544
000120 58 1b 96 bc ad 16 06 3e ad 72 11 3e 5b cf 0a 3e
       -0.018323585 0.13094588 0.14203902 0.13555662
000130 a2 fc 1c be e8 50 1a be 4b 93 da bd 50 b3 78 be
       -0.15330747 -0.15069926 -0.10672625 -0.24287152
000140 6a 7a eb 3d 97 56 04 3c aa f1 53 be 3c d8 d9 bb
       0.11497958 0.008077285 -0.20697656 -0.0066480916
000150 65 c8 dd bd cb 5f ce 3c 21 cd c2 3d 17 f6 65 be
       -0.10829238 0.025192162 0.095117815 -0.22457157
000160 05 7e de 3c 99 5f a0 bd b8 c2 72 3e 06 ba 64 3d
       0.0271597 -0.07830734 0.23707092 0.05584147
000170 93 cf c0 3d e8 53 45 be 40 66 74 3e be 7e 00 3e
       0.09414592 -0.19270289 0.2386713 0.12548348
000180 24 68 07 3e 1a 42 16 3d 33 a6 a4 bc 7e 0d a3 3e
       0.1322332 0.036684133 -0.020098781 0.3184623
000190 22 3e 85 be 2f 6f 60 bd 8e 76 69 3c 8f 77 1b be
       -0.26023966 -0.054793533 0.014249457 -0.15182327
0001a0 00 ec 6d 3e 33 d2 2f 3e 38 34 eb 3d 94 fd ce 3d
       0.23234558 0.17170028 0.11484569 0.1010696
0001b0 4b 0e 7e 3d 81 65 04 be 30 da f1 3d e0 da cc bd
       0.06202535 -0.12929346 0.11809194 -0.100026846
0001c0 7d 38 3f bc c9 eb 4b bd 56 58 13 3d 66 b3 53 be
       -0.011671183 -0.04978541 0.035972916 -0.20673904
0001d0 8a 19 22 3d c2 f3 15 3e 48 c7 ce 3d 3a c9 87 bd
       0.039575137 0.14643767 0.10096604 -0.06630178
0001e0 ad 6c ec 3a bd 2a 5a be 46 d6 5a be 26 d6 14 be
       0.0018037759 -0.21305366 -0.21370801 -0.14534816
0001f0 2b f2 45 be 89 0b 1a be 8d d5 07 3e 90 2b 8d 3e
       -0.19330661 -0.15043463 0.13265057 0.27572298
000200 b1 5a 13 bd f6 ea 50 3e 5f 0f 67 3e d7 66 b4 3e
       -0.035975162 0.2040213 0.22564457 0.3523471
000210 16 09 18 3e 1f 24 96 3e b8 aa 01 3e 23 d7 24 be
       0.14847216 0.29324433 0.1266278 -0.16097693
000220 a4 51 c8 3d 12 64 cc 3d aa 06 c4 be a8 d8 3f bd
       0.09781197 0.099800244 -0.38286334 -0.04683748
000230 5a 59 94 3e 93 21 ed bc dc c7 f5 bd 2f 4a eb 3a
       0.2897442 -0.028946673 -0.12001011 0.0017951186
000240 38 d4 60 be c7 39 a2 be cc 74 17 be da 14 0f be
       -0.21955955 -0.31684706 -0.14790648 -0.13972798
000250 53 6d ea bd 67 5e bb 3e 52 02 58 3d 79 ac 18 be
       -0.11446633 0.3659546 0.052736588 -0.14909543
000260 11 a6 8c 3e 7a 2a 08 3d 63 3c 4e 3d f7 38 9d bd
       0.2747045 0.033243634 0.050350558 -0.07676881
000270 a6 cc 25 be a3 6c 6a bd 0b 92 1c 3e f9 a5 e1 bd
       -0.16191348 -0.05723251 0.15290086 -0.11017985
000280 52 c1 f6 bc 9b 44 53 3e 80 08 b7 bc 29 48 b5 bd
       -0.03012148 0.2063164 -0.02234292 -0.08851654
000290 9c 76 e5 3d 80 50 2c 3e 7b 38 4f be 70 c8 05 be
       0.112042636 0.16827583 -0.2023639 -0.13064742
0002a0 e8 de ad 3d df 25 8c bd 33 b2 47 3e d4 6a 91 3e
       0.084897816 -0.06843161 0.19501571 0.28401816
0002b0 f1 ec 82 3e 8d bd 61 3e a3 69 8e bd 0a 60 38 3e
       0.25571397 0.22044964 -0.06953742 0.18005386
0002c0 99 46 7f 3e 00 f3 5f be 0c 28 19 bd 8f 12 fa 3d
       0.24929275 -0.21870041 -0.037391707 0.12210571
0002d0 ac cc 08 3e 00 14 9d bd 1d 4d 09 be 7e e0 5d be
       0.13359326 -0.0766983 -0.13408323 -0.21667668
0002e0 30 0e 8a 3d c0 6e c7 bd 70 7f 86 3d 05 d7 72 bc
       0.06740987 -0.09737921 0.065672755 -0.014821772
0002f0 7c 21 8e 3e a7 bc 61 3e ee 3d a1 3e ed 3b 0c 3d
       0.27759922 0.22044621 0.3149256 0.034236837
000300 aa 3b 65 be 2e c0 e4 3d 92 eb 34 3e 4d fe 74 3e
       -0.22386041 0.11169468 0.17667988 0.23925133
000310 79 83 94 bd 51 48 cb bd 06 14 8a be 12 2c 79 3e
       -0.07251639 -0.09925903 -0.26968402 0.24333218
000320 bf cf 77 3d c8 fe bc bd 9d 52 a4 3d 65 a0 8d 3e
       0.060500856 -0.09228283 0.0802357 0.27661434
000330 16 e3 cf 3d 8d c9 81 3d fa 93 4c be 42 c9 db bd
       0.10150735 0.06337271 -0.19978324 -0.10731746
000340 02 43 3e be 46 f0 98 be 43 68 bf 3d 6a 9a 81 3c
       -0.18580249 -0.29870814 0.09346058 0.0158207
000350 6e 2e 85 bd d9 d8 ba 3c 53 5f e2 3d d8 95 68 3e
       -0.065029964 0.02280848 0.11053338 0.22713411
000360 4e 15 00 be b3 1c 2e 3d d5 cd 07 be fd d4 33 3e
       -0.12508127 0.04250784 -0.13262112 0.17561717
000370 e7 f0 f6 bd b7 fa 59 be 33 27 2f 3d 98 e6 a0 bd
       -0.12057667 -0.21287046 0.042761993 -0.07856482
000380 77 8a 21 3d a0 eb a5 3c ad 64 42 3d bd cf 57 be
       0.03943869 0.020253956 0.047459293 -0.2107534
000390 c9 6f 6b 3e 03 b7 68 bd d6 ad 5a 3e 0a 66 69 be
       0.22991861 -0.05681516 0.21355376 -0.22792831
0003a0 a1 f1 f1 3d 36 24 2e be 55 f8 0e 3e 85 44 78 3e
       0.11813665 -0.17006001 0.13961919 0.24244888
0003b0 39 ab e1 3e fd 37 84 3e f2 c4 4d 3e 68 0a 2b be
       0.44075945 0.25823966 0.2009466 -0.16703188
0003c0 03 fe 84 3d 42 aa 14 3e b8 ec a1 bb 5e fb c7 bd
       0.064937614 0.14518073 -0.004941549 -0.09764741
0003d0 09 5d 1b be ba 2e 72 3e 00 ea 50 3e c3 9d e8 3d
       -0.15172209 0.23650637 0.20401764 0.11358216
0003e0 fd 65 ec 3d 81 a4 60 3e 5a 76 d4 bd d1 7d 5d be
       0.1154289 0.21937753 -0.10374136 -0.21630026
0003f0 c4 a2 87 3e 4a b2 40 3e 57 fb 6d be 63 6a 9b be
       0.26491368 0.18818012 -0.2324041 -0.30354604

layers.2.bias f4 [64]
000000 cb a3 b4 bc ac 26 8d 3c 3f af 8d 3c c1 07 ce bb
       -0.022050759 0.017230354 0.017295478 -0.0062875454
000010 96 26 26 3c ed 00 16 bd 36 fa d7 bd 7c 32 11 3d
       0.010141036 -0.036621977 -0.10545771 0.035448536
000020 df cf 94 3c 9b 43 fc bd 37 2a 8f bc 55 7b 79 3d
       0.018165527 -0.12317582 -0.017476184 0.060908634
000030 f1 8d 2a 3d 7f e8 9c bc a2 a9 ac 3c eb 09 22 bd
       0.041639272 -0.019153832 0.021076981 -0.03956024
000040 56 c3 b0 3c 0f 46 10 3d 0d d9 85 bc f6 1b 6b bc
       0.021577518 0.035223063 -0.01633885 -0.014349928
000050 ad cc 29 bd 35 ed 8c 3c fe fc 27 3d af 0f de bc
       -0.04145496 0.017202953 0.041012757 -0.027107088
000060 56 e5 66 3c c3 b5 a4 3c e7 32 79 bb ce 24 0e bb
       0.014092764 0.020106202 -0.0038024725 -0.0021689418
000070 7d 9e f4 3c 41 43 96 3d 28 89 f2 bc 00 f2 87 bc
       0.02986073 0.073370464 -0.029606417 -0.016594887
000080 f3 2c a1 3c 2a 5b 82 3d bf ea d0 bc dd 7b 76 bc
       0.019674754 0.063650444 -0.02550256 -0.01504418
000090 fe f4 20 bc 02 0b 7e bb 92 c9 c1 bb 5a e0 f3 ba
       -0.009824036 -0.0038763885 -0.0059139216 -0.0018606291
0000a0 7e ba be bb 74 f5 92 bc 0d 51 12 bd 32 4d d7 3b
       -0.0058205714 -0.017939307 -0.035721827 0.0065704817
0000b0 71 bf 44 3c 18 e5 0c 3c 11 3b 72 bb 05 53 9a bc
       0.012008534 0.008599542 -0.0036961476 -0.018838415
0000c0 74 77 ed bc 25 75 c9 bc 9c f8 9a 3b 7d af dd 3c
       -0.028987624 -0.024591992 0.0047293436 0.027061218
0000d0 a6 fb 42 bc 12 42 a3 3c cc 87 03 bd de f1 80 3d
       -0.011900818 0.019928966 -0.032111928 0.062961325
0000e0 86 1d 11 bd 2b 2e 31 bc ee 12 81 bd b8 9a 35 3c
       -0.035428546 -0.01081423 -0.06302439 0.011084251
0000f0 80 f4 88 bc 28 c6 54 bb 83 15 91 3d 36 4e ae 3a
       -0.01671815 -0.0032466743 0.07084181 0.0013298455

layers.4.weight f4 [64, 64]
000000 0d 95 58 be 6c b3 3e bc e3 fd 50 3e 7c a7 82 bd
       -0.21150608 -0.011639457 0.2040935 -0.06379601
000010 48 96 e2 3d 58 27 39 be eb 28 fb bd 53 94 1b bd
       0.1106382 -0.18081415 -0.12263664 -0.03798325
000020 81 19 34 3e bb f8 87 be 2a bf 80 3e b5 ec 1e 3e
       0.17587854 -0.26556954 0.25145847 0.15519984
000030 ba 2d db 3d 4a 6f 78 bd 6a 93 32 be 49 98 e0 3d
       0.10702081 -0.06065301 -0.17439047 0.10966546
000040 89 b8 73 be 7e 49 e0 3c 5f 7d 34 be 1c e9 09 3c
       -0.23800863 0.027378794 -0.1762595 0.008417394
000050 6c 31 e2 bd 93 2f 34 be 18 fb a6 3d b8 ab 30 be
       -0.11044583 -0.17596273 0.08153361 -0.17253006
000060 b7 4e 00 be 4c 4b 96 bd 79 9d 80 bc dc dc 38 be
       -0.12530027 -0.073385805 -0.015700089 -0.18053001
000070 67 bb 2a 3d 54 6d 97 3e 23 67 17 3e 6d 60 2f bd
       0.041682627 0.29575598 0.14785437 -0.04281657
000080 23 a3 55 be 63 3d 3d 3e 62 4c 2e be 3d 75 1a be
       -0.20863013 0.18480448 -0.17021325 -0.15083785
000090 5f 55 69 be 99 9c 97 bd 6a 19 f4 bd 5b e8 e4 bd
       -0.22786473 -0.074029155 -0.1191891 -0.11177131
0000a0 5d 06 a5 3d 66 87 aa bd b2 be a3 bb 3b 2c 81 3e
       0.08057854 -0.083266065 -0.004997098 0.25229058
0000b0 86 7f 92 3d 0f 8c 57 3e 84 f5 33 be 79 4a 1f bd
       0.071532294 0.21049522 -0.17574126 -0.038889382
0000c0 f0 fb 89 bd 56 11 26 3a 68 08 1e 3e 26 b7 b3 3d
       -0.067375064 0.0006334981 0.15432894 0.08775167
0000d0 4a ce 2f be 9f 02 fe bc 42 ab de bc f4 33 87 be
       -0.17168537 -0.03100711 -0.027181271 -0.26406825
0000e0 6b c1 ce 3c 34 f3 d4 3d 85 dd 20 be 77 0d b7 bd
       0.025238713 0.1039795 -0.15709503 -0.08938115
0000f0 ba 15 0d be f3 06 ea bd 6d cd a2 bd 8f f8 e3 3d
       -0.1377782 -0.11427107 -0.07949338 0.11131393
000100 17 45 fd 3d 19 62 22 bd 37 0f e7 3d c4 b6 f8 3c
       0.123666935 -0.039644334 0.11282199 0.030360587
000110 a0 ef 5d 3e 01 44 74 bc 93 b5 e5 3d df 91 24 3e
       0.21673441 -0.0149087915 0.11216273 0.1607127
000120 93 08 23 bc ad 95 f8 3d 3e 53 7c 3c d1 5b 8c bd
       -0.009950775 0.121379234 0.015400706 -0.0685345
000130 02 19 e9 3d 62 a8 f6 3d 67 40 dd bd ab 47 0a be
       0.11381723 0.12043835 -0.108032994 -0.13503902
000140 9c af 4d be 15 fc 17 be e0 10 24 be 30 32 50 be
       -0.20086521 -0.14842255 -0.16022062 -0.20331645
000150 ca 96 a5 3d dc 3c 38 be a9 d5 35 be e8 57 1f be
       0.08085401 -0.17991966 -0.17757286 -0.15560877
000160 e6 ce ca bb 35 f6 35 3e f7 3c 96 bc f3 54 31 be
       -0.006189215 0.17769702 -0.018339617 -0.17317562
000170 63 fa 9d 3c ed d0 4c 3c dc a6 18 3e ed 33 91 bc
       0.019284433 0.012500984 0.14907402 -0.017724955
000180 df d0 79 3e 42 b4 95 3d 0a 80 2d 3e 72 2a 11 be
       0.24396084 0.07309772 0.16943374 -0.14176348
000190 91 2b 95 bd 35 79 e7 3a 81 d9 5f 3e 88 3c af bd
       -0.072837 0.0017660024 0.21860315 -0.08556467
0001a0 d1 1b 22 3e 97 71 36 be 28 c0 bc bd 08 02 cb bd
       0.15830924 -0.17816769 -0.092163384 -0.09912497
0001b0 16 a3 87 bd a3 a3 f1 bb 99 90 87 3d a6 bf 46 3e
       -0.06622903 -0.0073742433 0.06619377 0.19409046
0001c0 2f bf b9 3c 7f 2d 92 bd 57 bc d6 3d 39 c6 fd bd
       0.022674171 -0.07137584 0.10485142 -0.123913236
0001d0 57 1b b3 bd ce e1 48 3e 04 d6 17 3e b6 0d ea 3a
       -0.08745449 0.19617388 0.14827734 0.0017856869
0001e0 6a f0 03 3e a8 f9 05 be 23 0c 05 3e 8d 66 81 bd
       0.1288468 -0.13083518 0.12992911 -0.06318388
0001f0 d2 40 0c be da 62 cb bd 9a 57 e6 bc 3b 08 6e 3e
       -0.13696602 -0.09930964 -0.028117944 0.23245327
000200 19 33 cb 3d 5a b9 c6 bd 31 a3 d6 bd 41 1c 18 be
       0.099218555 -0.09703322 -0.10480345 -0.14854528
000210 31 9f 4d 3e 1b cb 77 be 9c f2 08 3d 58 95 de bc
       0.20080258 -0.24198572 0.033434495 -0.027170822
000220 21 75 f8 3d 32 f0 14 3d 8b 7b be bd b9 ed 8c 3b
       0.121317156 0.03636188 -0.09300908 0.0043007997
000230 fe c3 62 3e 7b 59 dd bc 67 6c 64 3e 33 94 0a be
       0.22145078 -0.027020207 0.22306977 -0.13533096
000240 6d 99 3b 3e dc b7 a1 3d 90 b8 f5 bd 28 9b b8 bd
       0.18320246 0.078963965 -0.11998093 -0.09013969
000250 cb 80 19 3e 6f 98 eb bb ed 7d 81 3e 7e dc 41 be
       0.14990537 -0.0071898024 0.25291386 -0.18931767
000260 25 d6 c6 3d 3a 28 13 be cd 5e 30 be 98 3b 2d 3d
       0.097088136 -0.14370814 -0.17223664 0.04229316
000270 9f e0 ab 3d 6b 41 dd bd 33 28 e2 3d fa 9b 19 be
       0.083924524 -0.10803493 0.11042824 -0.15000907
000280 32 f9 98 bd 7d 4f 85 bd 03 45 e6 bd 5b 10 67 be
       -0.07469405 -0.06509302 -0.11243632 -0.22564833
000290 ce 7c 55 be 86 8d d7 bd a5 b6 2a be 35 19 50 be
       -0.2084839 -0.1052504 -0.16671236 -0.20322116
0002a0 85 d6 16 3e 5c 16 12 be 69 67 7c 3d 35 40 15 3d
       0.1473027 -0.14266342 0.061622057 0.036438186
0002b0 ff 30 1c 3e 01 24 cc 3c ea 51 87 3d b3 28 1b be
       0.15253066 0.024919512 0.06607421 -0.15152244
0002c0 d7 fa cd bc 59 78 39 3e b8 ab 30 be 8d e5 8b 3d
       -0.025144024 0.18112315 -0.17253006 0.06830893
0002d0 f2 c5 05 bd a5 d9 21 be bf 84 47 be fa cb f5 3d
       -0.03265948 -0.15805681 -0.19484232 0.12001796
0002e0 e5 51 eb bc c8 02 31 3e 59 6b 46 be 4a e1 02 be
       -0.028725574 0.17286217 -0.19376887 -0.12781253
0002f0 fe 99 9c be fd 9c b0 bd 3f cc 19 be e8 ea 25 3d
       -0.30586237 -0.08623693 -0.1501932 0.040507227
000300 47 b1 05 be 97 81 4e 3e 83 41 90 bd 9c 5b 14 be
       -0.13055907 0.20166622 -0.07043745 -0.14488071
000310 d0 58 9a bc 29 ad 75 3e d4 71 52 3e 8e 6c 4d be
       -0.018841177 0.23991837 0.20551234 -0.20060942
000320 cb 6c 30 be 7e d6 cc bd 50 73 45 bd 2a 63 d8 bd
       -0.17229001 -0.10001849 -0.048205674 -0.10565789
000330 8d 59 27 bd 7e 8a 07 3e 0d f0 6b 3d fb 59 f9 3d
       -0.040856887 0.13236424 0.057601977 0.121753655
000340 0b 01 8c 3d 77 eb f3 bd c0 0e 33 ba 9d f9 c9 3d
       0.068361364 -0.11910146 -0.0006830506 0.09862063
000350 a4 69 04 3e 92 3c 31 3e 6d 58 b0 bd df 82 44 bd
       0.12930924 0.17308262 -0.08610616 -0.04797637
000360 ed 5b 70 3e fe b1 13 3e 0a c2 60 be a7 a5 3d be
       0.23472567 0.14423367 -0.2194902 -0.18520223
000370 f6 ad dc bd ed 98 5f 3e dc 6e e9 bd 01 f8 ea bd
       -0.10775368 0.2183568 -0.11398098 -0.11473084
000380 35 ee 91 3d cc f9 c8 bd 42 1b fe 3d c7 c0 0e 3d
       0.071255125 -0.0981327 0.12407543 0.034851816
000390 e2 56 2e 3e 70 dc 1e 3d 53 8a da bd 0d 75 81 bd
       0.1702533 0.038784444 -0.106709145 -0.06321154
0003a0 54 ad 1f 3d 67 6f 1b be 1c 15 4a 3e 87 19 c3 3d
       0.038983658 -0.15179215 0.19734615 0.09526353
0003b0 cf 44 15 be 86 13 31 be 7a 23 60 be 99 e0 af 3d
       -0.1457703 -0.17292604 -0.21888533 0.085877605
0003c0 11 3f 51 bc 44 f6 d1 3c 93 88 24 3e 84 01 b2 3d
       -0.012771384 0.025630124 0.16067724 0.08691695
0003d0 00 77 18 bd 0a 84 5b be 0f 62 e6 b9 ea f8 e2 bc
       -0.037222862 -0.21437088 -0.00043942078 -0.027706582
0003e0 63 d8 03 3e 51 0a 16 be fa 66 b1 3d 57 a7 81 bc
       0.12875514 -0.14652373 0.08662219 -0.015826864
0003f0 00 13 c9 bd 2d 58 de bd 2a 6c a9 3d c7 a9 fc bc
       -0.09818077 -0.10856662 0.08272584 -0.030842675

layers.4.bias f4 [64]
000000 89 7d 36 bc e1 d0 0a bc f6 7d 5e 3c 78 fa 92 b9
       -0.011138328 -0.008472652 0.013579836 -0.00028033904
000010 ad 70 fa bc b1 ae ae bc 94 d6 b0 3c 10 46 16 bb
       -0.030571306 -0.021323534 0.021586694 -0.0022929944
000020 27 a1 80 3c 8b b7 8b 3c 0e 18 54 3c 5f b9 0e bd
       0.015701843 0.017055294 0.012945188 -0.034844752
000030 97 08 8a bb b5 78 ea bc 90 df a8 bb 7d c1 98 3c
       -0.00421245 -0.02862201 -0.005153604 0.01864695
000040 07 56 8a 3c ff ad 74 3d b2 36 82 3c 16 5f e7 3c
       0.016886724 0.059736248 0.015895221 0.028243583
000050 d4 0d 4d bb 31 0d 51 3b bb 9d 01 3c 0d cb 85 bb
       -0.003128876 0.0031898732 0.007911141 -0.0040830434
000060 ba ee cf bb 75 f3 f3 bc fb 57 f7 3a a9 eb bb 3a
       -0.006345597 -0.029779175 0.0018870825 0.00143372
000070 b5 57 9b 3c 12 59 83 3c 07 6e 0e bc bf 84 6d bb
       0.01896272 0.016033683 -0.008693225 -0.0036242453
000080 fc 15 92 bc 3a 30 91 3c 51 d4 88 bc 0e 6d 0c 3b
       -0.017832749 0.017723192 -0.016702803 0.0021427306
000090 44 d9 d8 bc 33 cd db bb 5d 64 d5 bc 0d ef ac 3a
       -0.026470788 -0.0067078113 -0.026048834 0.0013193801
0000a0 3b ed b4 bc 55 cb ef 3b f5 fb 8e bc 28 df 8c bd
       -0.022085777 0.0073179402 -0.017454127 -0.06878501
0000b0 36 ea f6 3c 34 c5 52 bd e6 58 3a 3c 04 f3 8d 3d
       0.030140977 -0.0514576 0.011373734 0.06931117
0000c0 8b 7a 95 bd e9 50 80 bc 6f 9c 86 3a 46 1c cc 3c
       -0.07298764 -0.015663581 0.001027001 0.024915826
0000d0 8f 1d 8d 3b 5a ef 56 bc 5a 39 b2 3c b3 17 37 bc
       0.004306502 -0.013118589 0.021755863 -0.011175084
0000e0 7e 6b 82 3b 5f 13 ed 3b 23 24 0c 3d 1a 3c 2b 3d
       0.003980099 0.007234975 0.03421415 0.041805364
0000f0 10 7d 19 bc 66 81 da bc db 2d 33 bd e9 f2 26 bc
       -0.009368196 -0.02667303 -0.043744903 -0.01018975

layers.6.weight f4 [2, 64]
000000 a6 7f 9c be 06 1a 4a be 97 fc 78 3e d4 53 29 bc
       -0.30566138 -0.1973649 0.24315105 -0.010334928
000010 68 c6 c5 3d 9a ed 5e be d5 90 f2 bd f5 e7 36 3d
       0.096569836 -0.21770325 -0.11844031 0.044654805
000020 fe e5 9a 3e df 2d 58 bb 10 5f 38 3d 6f ce 96 be
       0.30253595 -0.0032986326 0.045012534 -0.2945437
000030 99 77 4c be 5a be 7e be 95 d9 4b 3e 20 f7 39 3e
       -0.19967498 -0.24877301 0.1990722 0.18160677
000040 32 eb 6e 3e 34 32 6b bd 0c a2 8e 3e 93 84 e9 3d
       0.23331907 -0.057420924 0.27858007 0.1140224
000050 4a dc 22 3b f5 e9 4c 3e fb 9a 4b 3e 59 bd 7c 3e
       0.002485054 0.20011123 0.19883339 0.24681605
000060 d8 8c aa 3d 49 41 ec bd 6d d3 42 3e b3 82 6d 3c
       0.08327645 -0.1153589 0.19025965 0.014496493
000070 10 90 e4 3d 7a 83 62 3e 47 1e 5b 3e 5a ee 0d be
       0.1116029 0.22120467 0.21398269 -0.13860455
000080 78 f0 9d 3e 3f da 88 3e ce 78 23 be 51 ee 85 3d
       0.30847526 0.2672901 -0.15964052 0.06539596
000090 99 bd 3f be 9d c2 72 bc cf 25 3e be ca 10 ae 3e
       -0.1872467 -0.014816907 -0.1856911 0.33997184
0000a0 96 34 99 be d9 b0 fe 3b b0 fe 5b be a2 0a 71 3c
       -0.29922932 0.0077725467 -0.21483874 0.014712008
0000b0 62 35 b5 be 8d 94 8a be 6c f3 8f 3e e8 25 0c 3d
       -0.3539229 -0.2706646 0.28115404 0.034215838
0000c0 be 9c 77 3e 13 77 79 be 7c 68 05 be df 8b 99 3e
       0.24180886 -0.2436183 -0.13028139 0.29989526
0000d0 cf a9 26 be c8 41 37 be 4f 9b 80 3e f8 55 81 be
       -0.16275714 -0.17896187 0.2511849 -0.252609
0000e0 48 5d 2a 3e 6e 9f 8f be 34 c2 ca 3d b8 01 a7 3c
       0.16637146 -0.28051323 0.099003226 0.020386562
0000f0 00 60 90 be e4 94 b2 3e d2 53 4d be 2a 5b 31 be
       -0.28198242 0.3487922 -0.20051506 -0.17319933
000100 28 67 9e 3e 96 43 9e be e2 46 ea bb b8 55 e9 3e
       0.30938077 -0.3091094 -0.007149563 0.4557321
000110 50 78 86 be 78 00 52 be a7 78 dc 3c b3 5a b8 be
       -0.26263666 -0.20507991 0.026913 -0.36006698
000120 1c 04 99 3e 50 be c5 bb b6 ee a8 be 03 34 5c bd
       0.29885948 -0.00603465 -0.32994622 -0.05376054
000130 3a 7a 77 be 88 72 9f 3e 74 1d 87 3e 27 2d 1c 3e
       -0.2416772 0.31142068 0.26389658 0.15251599
000140 37 8a 50 3c 67 d0 d1 3e b0 3f a1 3e 3a ab 29 3e
       0.0127282655 0.4097931 0.31493902 0.16569224
000150 79 7f a5 be 9f 70 01 be d6 23 ae be 2a 70 f2 3d
       -0.32323816 -0.12640618 -0.34011716 0.118378
000160 e2 07 62 3e 07 5b 6f 3e 25 14 03 be 4d eb b0 bd
       0.2207332 0.23374568 -0.12800653 -0.0863863
000170 3f 54 74 3e 33 20 56 3e 38 2f b0 3e d3 ed 70 be
       0.23860262 0.2091072 0.34411025 -0.23528223
000180 36 4a ab 3e 89 d0 85 be 8a a8 2a 3e 11 e0 29 be
       0.33455056 -0.26135662 0.16665855 -0.16589381
000190 4a e6 aa be 3e 99 a5 3e 5f 5e dd 3b d6 df 03 3e
       -0.33378822 0.32343477 0.0067556347 0.12878355
0001a0 2e 34 ec bd 4a db be bd 40 b0 c0 bd 40 1d 79 be
       -0.1153339 -0.0931917 -0.09408617 -0.24327564
0001b0 3e f3 94 3e 02 20 47 be 6e 77 6e ba 03 31 38 be
       0.2909183 -0.19445804 -0.0009096776 -0.17987446
0001c0 a7 e0 b7 be 3e d5 47 3e 08 5d b3 3e 47 32 9b bd
       -0.35913584 0.19514939 0.35031915 -0.07577949
0001d0 11 98 a1 be d2 ba d2 3c eb 72 5a be f8 75 c3 bd
       -0.3156133 0.025723848 -0.213329 -0.09543985
0001e0 08 08 6f be 03 43 a4 bc 7d 3f 03 3c 0a 5a 94 be
       -0.23342907 -0.020051485 0.008010742 -0.28974944
0001f0 df 22 96 be 33 86 a4 bd 7c ec 85 3e 3f 11 68 bd
       -0.2932348 -0.08033409 0.26156986 -0.056657072

layers.6.bias f4 [2]
000000 08 d8 d5 3c 86 8b 8c 3b
       0.026103988 0.0042890934
