data/results/output_net_8000.pth (torch, 38303 bytes, 8 tensors)

layers.0.weight f4 [64, 5]
-0.11554364 -0.1282722 0.018741349 -0.2270902 -0.18690133 0.2861307 -0.40370134 -0.060159948
0.061245106 -0.36255455 0.23312949 -0.10683274 -0.02079079 -0.30685768 0.22275668 0.3387573
0.3190967 -0.16437809 -0.050992556 0.2829908 0.04153405 0.1996135 0.23400217 -0.23892288
-0.3014661 0.33144644 -0.19341911 -0.20046167 0.09665189 -0.02447451 -0.14978914 -0.1919061
0.081980295 -0.10605 -0.2963206 0.023182001 0.015804384 -0.2931159 0.22724931 -0.27486095
0.09499548 0.01633201 -0.118053086 -0.21679683 -0.070746206 0.029974837 0.014342362 -0.073493645
0.13820966 0.038032893 -0.36909968 -0.17814319 -0.12518686 0.11802277 -0.119442075 0.30222884
0.059704546 0.23921627 0.04707555 -0.0097897 0.20057032 -0.09318216 -0.0035496978 -0.06706075
0.27091864 0.09901693 0.023053609 0.29577348 -0.20129621 -0.3194405 -0.11400954 0.12715887
0.04452629 -0.16958252 0.2722732 -0.002775789 0.2133736 -0.02139604 -0.057380937 -0.1494924
-0.31072426 0.13818291 -0.104984 0.19325879 -0.14526607 -0.33832747 -0.22474632 0.12757803
0.0592321 -0.21164285 0.16898698 0.29375085 -0.05798666 0.34896144 -0.07412438 0.3494627
-0.30961233 0.25604105 0.22246346 0.021848524 0.1521636 0.08849828 0.3110829 0.17919214
0.29071388 0.3911164 -0.2806213 0.14746271 -0.030344825 0.3539891 0.13044678 -0.08525417
0.18453847 0.1647576 0.096261874 -0.12119153 0.27295175 -0.2032699 0.043629896 0.44443452
0.19555233 -0.032558255 0.3081437 -0.11251637 0.18784425 -0.10760403 0.26853278 0.17900755
-0.074314 -0.3081586 0.30496186 -0.40274116 -0.0009959259 -0.046629496 -0.33752802 0.0801439
-0.19560303 -0.17415008 0.2906293 0.049773514 0.15349957 -0.09631736 0.1746659 0.2847431
0.006769545 -0.11762195 0.23207143 0.14449488 -0.32055756 -0.1689414 -0.021153815 -0.35071215
-0.3186222 0.04328305 -0.10802739 0.058006685 -0.026588505 0.29130158 -0.005524214 0.123387925
-0.25613707 0.05799634 0.075124525 -0.0172749 0.3225306 0.21700259 0.013083585 -0.16058314
0.1825421 -0.23124412 0.27826726 0.117140085 -0.29129732 0.071894415 0.08414012 -0.3303373
-0.35276708 -0.17259717 0.06972845 -0.2442104 0.35521492 0.26584792 0.26402885 0.12674905
0.08487937 0.020739999 -0.07989201 -0.21571147 0.19701234 0.19395803 -0.14426383 0.25727102
0.08359638 0.22348951 -0.13102944 -0.2444811 0.16940354 0.06885706 -0.2520985 0.001147844
-0.00031694796 -0.07129678 -0.111709826 -0.33098885 -0.29178956 -0.17361325 0.05187365 -0.11685375
0.19469815 -0.34301087 -0.10114933 0.06884391 0.22725457 -0.21922822 0.21737944 0.36548948
0.09266458 0.13100095 -0.083307534 -0.017826362 0.36948237 -0.03198382 -0.11060747 0.200574
0.09379304 0.05749866 0.5043833 -0.08499918 0.10495011 0.13413842 0.015053902 -0.006966238
0.12636101 0.1041531 0.055861373 0.08047987 0.17985396 0.24176635 -0.105273984 0.03390995
0.35667887 0.15980816 -0.2320372 0.21837667 -0.17058463 -0.22754744 0.0580708 -0.0721964
0.16581176 0.02912841 0.2951135 -0.06074438 0.25681794 0.062415298 -0.28245813 0.20885864
00000000: 25a2 ecbd ca59 03be 7587 993c 558a 68be
00000010: 1063 3fbe b97f 923e f1b1 cebe 476a 76bd
00000020: 26dc 7a3d c0a0 b9be 7fb9 6e3e 20cb dabd
00000030: 7251 aabc 731c 9dbe 541a 643e 9971 ad3e
00000040: a560 a33e bb52 28be 92dd 50bd 2ce4 903e
00000050: 9c1f 2a3d 7b67 4c3e 449e 6f3e 33a8 74be
00000060: c459 9abe 59b3 a93e a90f 46be d345 4dbe
00000070: 6df1 c53d c57e c8bc 5362 19be 0883 44be
00000080: 49e5 a73d be30 d9bd 55b7 97be 2ee8 bd3c
00000090: 3278 813c 4a13 96be 0bb4 683e 93ba 8cbe
000000a0: fd8c c23d b5ca 853c d1c5 f1bd fdff 5dbe
000000b0: 63e3 90bd ca8d f53c 3afc 6a3c d683 96bd
000000c0: d586 0d3e 61c8 1b3d a2fa bcbe 2b6b 36be
000000d0: fc30 00be ecb5 f13d 0c9e f4bd bdbd 9a3e
000000e0: c18c 743d 1cf5 743e 4bd2 403d fa64 20bc
000000f0: 4e62 4d3e 4ad6 bebd 0ca2 68bb 2657 89bd
00000100: d9b5 8a3e 63c9 ca3d ecda bc3c 9f6f 973e
00000110: 9820 4ebe b58d a3be d57d e9bd ef35 023e
00000120: 3361 363d 0aa7 2dbe 6567 8b3e 03ea 35bb
00000130: 9c7e 5a3e c046 afbc 4608 6bbd 8914 19be
00000140: 4017 9fbe d27f 0d3e da01 d7bd a2e5 453e
00000150: a1c0 14be 4239 adbe e623 66be d1a3 023e
00000160: 5c9d 723d e7b8 58be ec0a 2d3e 8366 963e
00000170: 6c83 6dbd 13ab b23e 86ce 97bd c6ec b23e
00000180: 8285 9ebe d017 833e 76cd 633e adfb b23c
00000190: c6d0 1b3e 963e b53d 4246 9f3e 257e 373e
000001a0: 73d8 943e 6940 c83e 98ad 8fbe 7700 173e
000001b0: b695 f8bc 0f3e b53e d793 053e bd99 aebd
000001c0: a7f7 3c3e 37b6 283e f224 c53d 4433 f8bd
000001d0: 55c0 8b3e fc25 50be 43b5 323d ec8c e33e
000001e0: df3e 483e ce5b 05bd 03c5 9d3e fc6e e6bd
000001f0: 3e5a 403e 805f dcbd 217d 893e c14d 373e
00000200: f031 98bd f7c6 9dbe f623 9c3e 1734 cebe
00000210: ba89 82ba 92fe 3ebd 79d0 acbe 7c22 a43d
00000220: 294c 48be 6654 32be 5dcd 943e 50df 4b3d
00000230: fe2e 1d3e 0942 c5bd 9edb 323e d9c9 913e
00000240: 0fd3 dd3b c7e3 f0bd 22a4 6d3e 77f6 133e
00000250: 1f20 a4be f9fe 2cbe c44a adbc 8b90 b3be
00000260: 7322 a3be 9149 313d 773d ddbd 6b98 6d3d
00000270: 23d0 d9bc 7b25 953e 7704 b5bb cfb2 fc3d
00000280: 6624 83be 928d 6d3d e3da 993d 1784 8dbc
00000290: bb22 a53e ed35 5e3e 885c 563c e86f 24be
000002a0: 51ec 3a3e 42cb 6cbe 0c79 8e3e 24e7 ef3d
000002b0: ec24 95be 613d 933d a851 ac3d f821 a9be
000002c0: e39d b4be 50bd 30be cacd 8e3d 4b12 7abe
000002d0: bbde b53e 381d 883e ca2e 873e 81ca 013e
000002e0: 3cd5 ad3d eee6 a93c 6c9e a3bd 78e3 5cbe
000002f0: 9abd 493e ef9c 463e e6b9 13be 07b9 833e
00000300: 9434 ab3d 6fda 643e 952c 06be 4159 7abe
00000310: 1f78 2d3e ee04 8d3d 0e13 81be 4173 963a
00000320: 092c a6b9 0c04 92bd 1fc8 e4bd 5f77 a9be
00000330: 7165 95be acc7 31be 7779 543d 0551 efbd
00000340: f45e 473e 1f9f afbe 6127 cfbd 09fe 8c3d
00000350: 6cb5 683e 5d7d 60be b798 5e3e 7021 bb3e
00000360: edc6 bd3d 1d25 063e 249d aabd 9708 92bc
00000370: cb2c bd3e 7701 03bd 2b86 e2bd 4563 4d3e
00000380: 9116 c03d b783 6b3d 441f 013f 0d14 aebd
00000390: 15f0 d63d 955b 093e a4a4 763c 0a45 e4bb
000003a0: c864 013e 384e d53d e5ce 643d a1d2 a43d
000003b0: a32b 383e 9991 773e e399 d7bd 29e5 0a3d
000003c0: 9d9e b63e c0a4 233e 299b 6dbe 229e 5f3e
000003d0: bdad 2ebe 3202 69be a6db 6d3d b5db 93bd
000003e0: 8fca 293e b49e ee3c 1e19 973e 19cf 78bd
000003f0: a47d 833e 2fa7 7f3d 5a9e 90be 0adf 553e

layers.0.bias f4 [64]
0.0082115065 0.0042501152 0.032571994 -0.018067433 -0.0016374913 0.009689191 0.012580231 -0.05057154
-0.00052783545 0.018582324 -0.048751798 0.02544366 0.0028694817 -0.031762272 0.03430659 0.014870242
-0.005541947 -0.0037728467 -0.04082986 0.0080014095 -0.13920306 0.04045436 -0.02331197 0.035380103
0.011265237 0.012127042 0.03391543 -0.0063944072 -0.043204084 0.0347692 -0.016954092 -0.021634027
-0.03483177 -0.018132824 -0.004312207 -0.024636168 -0.010493677 -0.016773403 -0.003636902 0.023860106
0.0798662 0.0058345688 0.039685916 0.0030104949 -0.04983253 0.06814844 0.0144087905 -0.0022028307
0.03342491 -0.056160346 -0.016837541 0.01307316 -0.025314959 -0.026995962 -0.03094698 -0.0064686914
0.035351116 -0.0016513402 0.020874484 -0.06370426 -0.0445101 0.03555537 0.02014471 0.0131768845
00000000: 8e89 063c 8d44 8b3b 366a 053d 2702 94bc
00000010: 17a1 d6ba 6abf 1e3c 501d 4e3c 1a24 4fbd
00000020: 705e 0aba f539 983c f7af 47bd 396f d03c
00000030: ea0d 3c3b 2819 02bd 1185 0c3d 51a2 733c
00000040: 3999 b5bb dd41 77bb 363d 27bd 5818 033c
00000050: 3f8b 0ebe 79b3 253d bff8 bebc baea 103d
00000060: d491 383c 80b0 463c e8ea 0a3d 2d88 d1bb
00000070: c4f6 30bd 266a 0e3d 4fe3 8abc d839 b1bc
00000080: c2ab 0ebd 4a8b 94bc 6a4d 8dbb cad1 c9bc
00000090: aced 2bbc 6068 89bc 1759 6ebb 4576 c33c
000000a0: e490 a33d e92f bf3b b38d 223d b94b 453b
000000b0: 321d 4cbd 6991 8b3d d912 6c3c 5e5d 10bb
000000c0: 8fe8 083d 6408 66bd e2ee 89bc cf30 563c
000000d0: 5161 cfbc a326 ddbc 8584 fdbc 51f7 d3bb
000000e0: 55cc 103d c871 d8ba f700 ab3c 6177 82bd
000000f0: 3950 36bd 82a2 113d 8506 a53c dce3 573c

layers.2.weight f4 [64, 64]
-0.09864856 0.19445197 0.10996243 0.076349676 -0.06381279 0.13374938 0.09080033 0.04093607
0.21260326 -0.17093505 -0.05638279 -0.20539147 -0.051989514 -0.22592798 -0.12140219 -0.040507168
-0.12454721 -0.2091219 0.03486295 0.19487992 0.05548019 -0.055515673 0.17710468 0.054477375
-0.054714706 -0.1509669 0.17944515 -0.03672334 -0.1632921 0.018445978 -0.07427837 -0.13830236
-0.010612951 0.1838576 -0.020746306 0.027651723 -0.28789046 0.21139933 -0.2597624 -0.044485815
0.05724965 -0.12596811 0.029197749 -0.034114145 -0.097047955 -0.17442295 0.15168433 -0.30727255
-0.08859255 0.12814662 -0.10607912 -0.029624129 -0.0049452074 -0.10179273 0.16151573 -0.043284025
0.059114736 -0.18779017 -0.029676476 0.16997227 0.16615371 0.05435986 0.11397196 0.29063883
0.028966114 0.2198267 0.19841136 -0.12149995 0.16564739 0.10142096 0.04246448 -0.14264086
-0.018050896 0.11719277 0.12444949 0.14802027 -0.15500692 -0.13695113 -0.09348354 -0.22237918
0.11287887 -0.0029651772 -0.19941474 -0.015557589 -0.098733835 0.017895859 0.09528779 -0.21901852
0.050052848 -0.043771237 0.22245967 0.025660235 0.092054196 -0.17111596 0.18410756 0.13649599
0.13816994 0.02658268 -0.023495702 0.27603835 -0.2373425 -0.077239685 0.024138793 -0.13461024
0.22830059 0.15727064 0.14184019 0.11321914 0.05489287 -0.09771967 0.12105801 -0.05196349
-0.016858771 -0.051993404 0.037825584 -0.20798014 0.050608423 0.14778043 0.08791087 -0.067383714
-0.0010796711 -0.21098661 -0.20939231 -0.1479068 -0.18862776 -0.151074 0.13451736 0.2620746
-0.033979323 0.20480505 0.21775235 0.31602508 0.15803145 0.29109213 0.13291232 -0.15580939
0.097428694 0.1023283 -0.37246132 -0.048958924 0.2687844 -0.024259893 -0.12569878 0.008153722
-0.19580764 -0.28498292 -0.1473003 -0.14328997 -0.118094735 0.35448685 0.05041236 -0.15231782
0.26795772 0.052913945 0.04985763 -0.07642699 -0.16310063 -0.05459519 0.15379553 -0.11302022
-0.034090966 0.20928842 -0.031559672 -0.082260154 0.10999618 0.16037774 -0.19570076 -0.13009995
0.08732818 -0.051789872 0.18956786 0.27934808 0.25351965 0.21844432 -0.069858305 0.1771337
0.24726185 -0.21456482 -0.036975652 0.12062181 0.13073488 -0.06787384 -0.13298409 -0.22038342
0.07089488 -0.10292462 0.06711504 -0.015727159 0.26186916 0.21615915 0.3058695 0.032269742
-0.22017507 0.10993989 0.17666714 0.23346192 -0.06847347 -0.10546061 -0.26663736 0.23293932
0.060936883 -0.10212326 0.087295964 0.26200095 0.097369745 0.0659683 -0.19246942 -0.107098185
-0.18475473 -0.29109457 0.08736442 0.007101841 -0.06540488 0.010083488 0.10812442 0.22775675
-0.12374932 0.056907896 -0.13347816 0.15738827 -0.12326617 -0.20512025 0.04174346 -0.07718444
0.042770933 0.009634964 0.036695063 -0.20726989 0.22546558 -0.06358488 0.2132686 -0.20551318
0.11927978 -0.17661665 0.150165 0.23570982 0.3904933 0.25530937 0.19983102 -0.16370569
0.050184604 0.1459115 -0.011469291 -0.103319325 -0.15419424 0.23482437 0.20504268 0.11187425
0.116520606 0.21678925 -0.10506169 -0.2128514 0.261685 0.19122687 -0.22174016 -0.29232478
00000000: 4208 cabd 6b1e 473e fc33 e13d 385d 9c3d
00000010: 48b0 82bd 99f5 083e 86f5 b93d 95ac 273d
00000020: abb4 593e 9909 2fbe a4f1 66bd 2452 52be
00000030: f5f2 54bd aa59 67be b6a1 f8bd d8ea 25bd
00000040: 9c12 ffbd 0d24 56be 74cc 0e3d 9a8e 473e
00000050: 323f 633d 6764 63bd ee5a 353e ab23 5f3d
00000060: 871c 60bd 1197 1abe 78c0 373e 376b 16bd
00000070: 0b36 27be 051c 973c 421f 98bd 229f 0dbe
00000080: f1e1 2dbc 2b45 3c3e 28f4 a9bc de85 e23c
00000090: 6166 93be 1179 583e 94ff 84be c236 36bd
000000a0: 9c7e 6a3d c9fd 00be 1e30 ef3c 46bb 0bbd
000000b0: 14c1 c6bd ee9b 32be 2353 1b3e d452 9dbe
000000c0: 0370 b5bd de38 033e 0240 d9bd 4dae f2bc
000000d0: 680b a2bb b578 d0bd 6164 253e 974a 31bd
000000e0: 4b22 723d 114c 40be 151c f3bc 360d 2e3e
000000f0: 3324 2a3e 72a8 5e3d 226a e93d 9dce 943e
00000100: 584a ed3c 401a 613e 592c 4b3e f7d4 f8bd
00000110: 789f 293e cbb5 cf3d 3cef 2d3d 7210 12be
00000120: 79df 93bc c302 f03d 60df fe3d a092 173e
00000130: 22ba 1ebe eb3c 0cbe 4c74 bfbd 5eb7 63be
00000140: 092d e73d 6b53 42bb 6133 4cbe 42e5 7ebc
00000150: f734 cabd 569a 923c 3f26 c33d 6446 60be
00000160: 3704 4d3d 7849 33bd 78cc 633e 6a35 d23c
00000170: e986 bc3d 0639 2fbe b186 3c3e 9bc5 0b3e
00000180: 6c7c 0d3e ecc3 d93c 0f7a c0bc e654 8d3e
00000190: ea09 73be d72f 9ebd b8be c53c 44d7 09be
000001a0: a1c7 693e 8e0b 213e 8e3e 113e 70df e73d
000001b0: 59d7 603d 4021 c8bd 43ed f73d abd7 54bd
000001c0: 681b 8abc 09f7 54bd 00ef 1a3d bff8 54be
000001d0: c74a 4f3d c153 173e 9d0a b43d 7900 8abd
000001e0: c083 8dba e00c 58be f06a 56be e174 17be
000001f0: a327 41be 25b3 1abe ebbe 093e a42e 863e
00000200: e72d 0bbd 6ab8 513e 79fa 5e3e 0ace a13e
00000210: ffd2 213e 070a 953e 2b1a 083e 7f8c 1fbe
00000220: b288 c73d 8091 d13d 40b3 bebe 2789 48bd
00000230: 1c9e 893e afbc c6bc 2eb7 00be 3097 053c
00000240: cc81 48be 48e9 91be e4d5 16be 9bba 12be
00000250: a7db f1bd 4d7f b53e 317d 4e3d 34f9 1bbe
00000260: c131 893e 4bbc 583d 8437 4c3d c185 9cbd
00000270: da03 27be 359f 5fbd 937c 1d3e 2577 e7bd
00000280: f8a2 0bbd b44f 563e b744 01bd 0378 a8bd
00000290: ad45 e13d 103a 243e c865 48be ec38 05be
000002a0: 1ed9 b23d 9e21 54bd 141e 423e b606 8f3e
000002b0: 54cd 813e deaf 5f3e df11 8fbd 8962 353e
000002c0: 3632 7d3e e1b6 5bbe c873 17bd 9108 f73d
000002d0: 5ddf 053e 7101 8bbd fb2c 08be 31ac 61be
000002e0: 5631 913d 25ca d2bd 9c73 893d 3ed6 80bc
000002f0: b713 863e d358 5d3e ed9a 9c3e 472d 043d
00000300: 9375 61be 2a28 e13d 3be8 343e a410 6f3e
00000310: d23b 8cbd bbfb d7bd b184 88be a587 6e3e
00000320: f498 793d 0026 d1bd 3ac8 b23d fd24 863e
00000330: ca69 c73d 631a 873d b416 45be 4b56 dbbd
00000340: 5830 3dbe 590a 95be 1eec b23d 8fb6 e83b
00000350: fef2 85bd 3735 253c 5670 dd3d 1139 693e
00000360: 4970 fdbd 4118 693d 80ae 08be 642a 213e
00000370: f972 fcbd 0b0b 52be 31fb 2a3d e012 9ebd
00000380: 9330 2f3d f8db 1d3c 904d 163d 8f3e 54be
00000390: 73e0 663e ca38 82bd 1563 5a3e 0c72 52be
000003a0: f548 f43d ffda 34be dbc4 193e ea5d 713e
000003b0: bdee c73e e9b7 823e 81a0 4c3e 77a2 27be
000003c0: 5f8e 4d3d d369 153e b1e9 3bbc 1599 d3bd
000003d0: 18e5 1dbe cd75 703e b5f6 513e 541e e53d
000003e0: 5ba2 ee3d 00fe 5d3e 952a d7bd b8f5 59be
000003f0: 94fb 853e fad0 433e da0f 63be 98ab 95be

layers.2.bias f4 [64]
-0.020751162 0.013477154 0.0202781 -0.00765857 0.013487526 -0.03458941 -0.09593244 0.026566114
0.018872226 -0.10675259 -0.009970493 0.056507293 0.041137245 -0.01980505 0.018151337 -0.03777074
0.014597365 0.025632195 -0.016664976 -0.00889382 -0.0399401 0.012651679 0.03782357 -0.027703803
0.0111987535 0.01631506 -0.010269831 -0.004431633 0.028916754 0.06608845 -0.02354916 -0.027188642
0.007589869 0.052150007 -0.022456154 -0.016002038 -0.013325012 -0.006398827 -0.0059295213 -0.00034179562
-0.0029353932 -0.019902272 -0.015706908 0.010932613 0.013104998 0.010326211 -0.0034640073 -0.018260939
-0.023814745 -0.019753776 0.00027474173 0.023100523 -0.004396959 0.021187175 -0.028446142 0.048590116
-0.034930896 -0.005683115 -0.05576406 0.0028380132 -0.01973119 -0.010379203 0.039744083 0.0041425102
00000000: 57fe a9bc 48cf 5c3c 421e a63c bef4 fabb
00000010: c9fa 5c3c a0ad 0dbd 3a78 c4bd 2ea1 d93c
00000020: ed99 9a3c 1aa1 dabd 475b 23bc 3174 673d
00000030: 877f 283d 333e a2bc 1db2 943c 7eb5 1abd
00000040: c929 6f3c 9cfa d13c fd84 88bc 63b7 11bc
00000050: 3b98 23bd fd48 4f3c e3ec 1a3d 16f3 e2bc
00000060: fa7a 373c 29a7 853c cb42 28bc 3b37 91bb
00000070: d4e2 ec3c 6259 873d 2bea c0bc b7ba debc
00000080: 70b4 f83b 3f9b 553d f8f5 b7bc b516 83bc
00000090: 2751 5abc 40ad d1bb 6e4c c2bb 0833 b3b9
000000a0: ba5f 40bb 170a a3bc c6ab 80bc b41e 333c
000000b0: 58b6 563c 452f 293c 6604 63bb f797 95bc
000000c0: 2417 c3bc acd2 a1bc 360b 9039 4f3d bd3c
000000d0: 5e14 90bb ba90 ad3c e207 e9bc 6e06 473d
000000e0: b313 0fbd 6d39 babb db68 64bd f6fd 393b
000000f0: 4ea3 a1bc 880d 2abc b1ca 223d e5bd 873b

layers.4.weight f4 [64, 64]
-0.21401 0.0015396974 0.19514339 -0.061528184 0.09683305 -0.18600492 -0.13343838 -0.023708519
0.122631386 -0.27145725 0.23931697 0.14718844 0.11490499 -0.051612917 -0.17420253 0.10759581
-0.22042552 0.029638993 -0.1829404 0.0012181012 -0.119622424 -0.1629957 0.09181644 -0.16934708
-0.12294936 -0.067233145 -0.020621441 -0.17486091 0.034106333 0.29778892 0.13691661 -0.051785003
-0.20872936 0.19697456 -0.17256342 -0.15499562 -0.22519507 -0.08300005 -0.1117851 -0.115897305
0.073059805 -0.082221866 -0.024145199 0.23696591 0.074098654 0.2201792 -0.16894232 -0.04470264
-0.06413967 0.00039008708 0.14775021 0.111055166 -0.17250238 -0.021102948 -0.029500002 -0.25165135
0.03626724 0.106668055 -0.17123051 -0.09347498 -0.14499193 -0.09832142 -0.08041204 0.09840448
0.095559135 -0.040964752 0.0963235 0.025090186 0.18356265 -0.0174327 0.11251186 0.15688726
0.0055125454 0.13092297 0.016912386 -0.0682516 0.1085232 0.1197866 -0.11528866 -0.1445438
-0.18501802 -0.1390786 -0.15657997 -0.19466306 0.08667181 -0.17005998 -0.17786212 -0.1416872
-0.021132885 0.17664383 -0.015617244 -0.16923194 0.010856802 0.007249553 0.14631006 -0.013942121
0.24496268 0.06716225 0.16772185 -0.1416529 -0.07191277 -0.0007101119 0.21939847 -0.08713864
0.14521396 -0.1833269 -0.10371338 -0.10334742 -0.06820488 0.0048869704 0.06744889 0.1936824
0.027571967 -0.0710469 0.10567378 -0.11952128 -0.083145306 0.18672068 0.14783345 0.0028601678
0.13304071 -0.1288766 0.12434543 -0.055788238 -0.13416435 -0.09062814 -0.037107028 0.22410475
0.0861257 -0.09565444 -0.11108913 -0.149769 0.18472612 -0.2426489 0.03270516 -0.026693825
0.11522447 0.04284659 -0.09922531 0.006348596 0.2136685 -0.025698561 0.21844552 -0.13656911
0.20124577 0.086142935 -0.11189621 -0.08276449 0.15690799 0.0008555818 0.24923024 -0.17881657
0.08782503 -0.14845382 -0.16118069 0.05145861 0.07709136 -0.10894065 0.10797518 -0.14698319
-0.068996236 -0.06711392 -0.10293635 -0.22256339 -0.17623332 -0.10432859 -0.1675374 -0.2049782
0.1367187 -0.08105184 0.056033492 0.028039496 0.14816052 0.017659253 0.0686706 -0.14098305
-0.037846077 0.17278711 -0.176605 0.08087986 -0.026751433 -0.1627756 -0.18890135 0.12063122
-0.024508607 0.18008213 -0.20021701 -0.117520966 -0.2901698 -0.072140895 -0.15606189 0.035793684
-0.12710954 0.19716732 -0.07386148 -0.14343996 -0.020537788 0.23811445 0.20190012 -0.19377454
-0.1773892 -0.09315741 -0.05633349 -0.10896152 -0.039053366 0.13372716 0.060552433 0.121436484
0.07497852 -0.11855629 -0.00045898245 0.094918855 0.12700662 0.17689376 -0.08094144 -0.044936683
0.23222108 0.14378041 -0.21161762 -0.18311161 -0.11402871 0.21410488 -0.117429115 -0.11759841
0.073353834 -0.095189214 0.12396303 0.034266435 0.17434126 0.036052983 -0.10500987 -0.061339475
0.039554656 -0.14656861 0.19355975 0.09098385 -0.14251448 -0.17210092 -0.21903498 0.08590962
-0.0048757168 0.024500966 0.16135415 0.09545386 -0.03818114 -0.21021856 -0.0017646723 -0.02221071
0.12873343 -0.14729166 0.07982131 -0.016729383 -0.09744805 -0.10475008 0.08067454 -0.027869761
00000000: 7025 5bbe accf c93a abd3 473e fa04 7cbd
00000010: 6850 c63d 1378 3ebe 12a4 08be 5e38 c2bc
00000020: 2a26 fb3d 72fc 8abe 820f 753e 91b8 163e
00000030: 4f53 eb3d 1168 53bd 2662 32be 315b dc3d
00000040: 3ab7 61be 79cd f23c ba54 3bbe b2a8 9f3a
00000050: 9afc f4bd 58e8 26be 420a bc3d 5269 2dbe
00000060: e0cc fbbd 88b1 89bd 4cee a8bc bd0e 33be
00000070: 15b3 0b3d ca77 983e de33 0c3e 831c 54bd
00000080: 26bd 55be b3b3 493e 77b4 30be 2cb7 1ebe
00000090: 8999 66be eefb a9bd 96ef e4bd 915b edbd
000000a0: 61a0 953d f063 a8bd 27cc c5bc 31a7 723e
000000b0: 09c1 973d a876 613e 37ff 2cbe 1e1a 37bd
000000c0: a95b 83bd 9a84 cc39 d54b 173e e470 e33d
000000d0: 77a4 30be 17e0 acbc fda9 f1bc 72d8 80be
000000e0: f58c 143d c874 da3d 0d57 2fbe cf6f bfbd
000000f0: c478 14be be5c c9bd 11af a4bd 4a88 c93d
00000100: 82b4 c33d a8ca 27bd 4145 c53d ef89 cd3c
00000110: d9f7 3b3e 06cf 8ebc 9e6c e63d 0ea7 203e
00000120: 95a2 b43b ac10 063e d88b 8a3c 7fc7 8bbd
00000130: 6941 de3d ad52 f53d 761c ecbd 4a03 14be
00000140: 5d75 3dbe 9f6a 0ebe 8056 20be c155 47be
00000150: fd80 b13d 3424 2ebe 7d21 36be 7316 11be
00000160: df1e adbc 1fe2 343e 78df 7fbc 234b 2dbe
00000170: bae0 313c a98d ed3b 4ed2 153e 7e6d 64bc
00000180: 7fd7 7a3e 5d8c 893d 47bf 2b3e 750d 11be
00000190: 0147 93bd ce26 3aba fea9 603e be75 b2bd
000001a0: f8b2 143e 0cba 3bbe ae67 d4bd d0a7 d3bd
000001b0: 00af 8bbd e122 a03b a522 8a3d ae54 463e
000001c0: 9bde e13c 0981 91bd 7f6b d83d 93c7 f4bd
000001d0: 1648 aabd b533 3f3e a761 173e a771 3b3b
000001e0: d33b 083e 3af8 03be d1a8 fe3d 3582 64bd
000001f0: 6162 09be 3f9b b9bd 8afd 17bd b77b 653e
00000200: ac62 b03d 7ae6 c3bd b382 e3bd 0b5d 19be
00000210: d828 3d3e f478 78be d9f5 053d 02ad dabc
00000220: cffa eb3d e87f 2f3d a436 cbbd e207 d03b
00000230: eacb 5a3e ca85 d2bc 2fb0 5f3e c6d8 0bbe
00000240: 5f13 4e3e b56b b03d d729 e5bd 6e80 a9bd
00000250: 7dac 203e 1f49 603a 3636 7f3e b11b 37be
00000260: 9cdd b33d 4704 18be 8d0c 25be 43c6 523d
00000270: 13e2 9d3d 471c dfbd 1722 dd3d c382 16be
00000280: e64d 8dbd 0673 89bd 4bd0 d2bd a8e7 63be
00000290: 8276 34be 3aaa d5bd ed8e 2bbe cee5 51be
000002a0: fdff 0b3e 82fe a5bd 6083 653d 16b3 e53c
000002b0: 64b7 173e 23aa 903c 2ca3 8c3d dc5d 10be
000002c0: 7d04 1bbd 1bef 303e f1d7 34be 57a4 a53d
000002d0: d225 dbbc a6ae 26be 5b6f 41be 800d f73d
000002e0: 46c6 c8bc 7367 383e b005 4dbe d5ae f0bd
000002f0: 2391 94be 9bbe 93bd b0ce 1fbe 669c 123d
00000300: 0129 02be 3be6 493e b044 97bd ede1 12be
00000310: dd3e a8bc 46d4 733e e8be 4e3e d56c 46be
00000320: 84a5 35be 50c9 bebd f2bd 66bd 3827 dfbd
00000330: 6cf6 1fbd c6ef 083e d405 783d b1b3 f83d
00000340: 578e 993d a4cd f2bd 95a3 f0b9 d164 c23d
00000350: 060e 023e a323 353e a0c4 a5bd 870f 38bd
00000360: 5dcb 6d3e 2c3b 133e 4ab2 58be 9c81 3bbe
00000370: e287 e9bd 4f3e 5b3e ad7e f0bd 6fd7 f0bd
00000380: 893a 963d 90f2 c2bd 54e0 fd3d f65a 0c3d
00000390: 8486 323e 4bac 133d 6a0f d7bd 1a3f 7bbd
000003a0: 1004 223d 1516 16be 8734 463e be55 ba3d
000003b0: 51ef 11be 393b 30be b54a 60be 62f1 af3d
000003c0: 7ac4 9fbb 40b6 c83c 063a 253e 507d c33d
000003d0: d463 1cbd 8943 57be 944c e7ba 3cf3 b5bc
000003e0: b2d2 033e a0d3 16be 5b79 a33d 0f0c 89bc
000003f0: d892 c7bd 3687 d6bd b138 a53d 204f e4bc

layers.4.bias f4 [64]
0.0016694404 -0.003642139 0.019074684 -0.0040547606 -0.022314575 -0.019709677 0.013560805 0.0023171557
0.015124822 0.019481162 0.015274885 -0.026997177 0.00063301274 -0.032499082 -0.0065801623 0.013974512
0.015666476 0.045618773 0.017098371 0.020649243 0.0017928001 0.0065359613 0.006580541 -0.0008957469
-0.008226226 -0.024989815 0.007943114 0.005732168 0.021336181 0.011783458 -0.0065329727 -0.004423052
-0.012442198 0.033034336 -0.02185071 0.00041264773 -0.019513693 -0.008505657 -0.020135049 0.0012532603
-0.018058278 0.012797176 -0.011499447 -0.060100947 0.011160048 -0.041283622 0.004790294 0.062162213
-0.0582544 -0.017197121 -0.0039000788 0.026529444 0.00988525 -0.012679433 0.011922253 -0.009880709
0.009518736 0.0028617952 0.032649796 0.038171206 -0.005768428 -0.0067016194 -0.042087227 -0.019880824
00000000: 20d1 da3a f4b0 6ebb 8342 9c3c ccdd 84bb
00000010: 0ecd b6bc 3076 a1bc 232e 5e3c 6cdb 173b
00000020: 1ace 773c f596 9f3c 8343 7a3c 2f29 ddbc
00000030: c4f0 253a c21d 05bd 679e d7bb 5af5 643c
00000040: fb56 803c c0da 3a3d e211 8c3c 9a28 a93c
00000050: 64fc ea3a 9e2b d63b 94a1 d73b 8fd0 6aba
00000060: 4bc7 06bc 71b7 ccbc d623 023c e9d4 bb3b
00000070: 37c9 ae3c 680f 413c 8c12 d6bb 40ef 90bb
00000080: 5cda 4bbc 034f 073d 4300 b3bc a458 d839
00000090: 2edb 9fbc 505b 0bbc 42f2 a4bc 7044 a43a
000000a0: f4ee 93bc 3fab 513c 2d68 3cbc 692c 76bd
000000b0: a2d8 363c 0419 29bd e6f7 9c3b ce9d 7e3d
000000c0: 2a9c 6ebd fae0 8cbc 7798 7fbb 4754 d93c
000000d0: bef5 213c 66bd 4fbc 8e55 433c b3e2 21bc
000000e0: 79f4 1b3c f58c 3b3b cbbb 053d 6959 1c3d
000000f0: 1505 bdbb 4299 dbbb a863 2cbd 1cdd a2bc

layers.6.weight f4 [2, 64]
-0.29376763 -0.19538613 0.23989336 -0.015170502 0.094983056 -0.21487246 -0.10041011 0.04537232
0.29994652 0.00583408 0.04090563 -0.2965309 -0.19842464 -0.2477631 0.19828074 0.18059565
0.2332174 -0.050270446 0.2737235 0.11445554 0.009697932 0.2023646 0.18238187 0.24536434
0.08502809 -0.11660591 0.17773677 0.0094787385 0.09804662 0.22195996 0.21560456 -0.13992806
0.3121025 0.26576385 -0.15897514 0.07728638 -0.20209369 -0.012401029 -0.18266961 0.3315225
-0.29236996 0.0104947025 -0.21100292 0.010879349 -0.35561922 -0.2765682 0.2803201 0.044081073
0.23972668 -0.23879081 -0.12764235 0.29622155 -0.16227508 -0.173654 0.2441922 -0.2523917
0.16311097 -0.27689338 0.09718466 0.019911418 -0.28159007 0.35349524 -0.19866838 -0.18087846
0.3093249 -0.30286965 -0.008636112 0.44129118 -0.2526412 -0.20427132 0.02030247 -0.35265294
0.29679856 0.0004198471 -0.32850724 -0.05496087 -0.23588026 0.30379626 0.26208016 0.14678453
0.0122489305 0.38856983 0.30614176 0.15983215 -0.3066778 -0.12098669 -0.32621643 0.118591875
0.22032493 0.23031195 -0.11914447 -0.089571096 0.23475818 0.2022103 0.3345881 -0.21743517
0.3257217 -0.24599199 0.15343732 -0.16320051 -0.33467627 0.3155494 0.0064191106 0.12910101
-0.11270231 -0.087381594 -0.09163655 -0.23762402 0.28511232 -0.1900528 0.0007957238 -0.16935372
-0.35489905 0.19047838 0.34608793 -0.07689398 -0.31193557 0.025414847 -0.2086399 -0.09601454
-0.2274754 -0.021686692 0.008746742 -0.28772253 -0.29274654 -0.081595026 0.25711295 -0.05096803
00000000: b668 96be 4d13 48be 9ba6 753e b28d 78bc
00000010: 7a86 c23d 8707 5cbe d1a3 cdbd 53d8 393d
00000020: 9792 993e cf2b bf3b a98c 273d e6d2 97be
00000030: d42f 4bbe 9cb5 7dbe 1b0a 4b3e 11ee 383e
00000040: 8bd0 6e3e 62e8 4dbd 7d25 8c3e ab67 ea3d
00000050: 13e4 1e3c aa38 4f3e 50c2 3a3e ca40 7b3e
00000060: 3523 ae3d 14cf eebd a100 363e b64c 1b3c
00000070: abcc c83d 7949 633e 71c7 5c3e 4d49 0fbe
00000080: e6cb 9f3e 3312 883e 61ca 22be 5248 9e3d
00000090: a6f1 4ebe af2d 4bbc be0d 3bbe 51bd a93e
000000a0: 84b1 95be f9f1 2b3c 2611 58be 4c3f 323c
000000b0: b913 b6be 599a 8dbe 1e86 8f3e 5b8e 343d
000000c0: e97a 753e 9485 74be adb4 02be 5aaa 973e
000000d0: 702b 26be 5bd2 31be 850d 7a3e 7c39 81be
000000e0: 9006 273e f8c4 8dbe c008 c73d 451d a33c
000000f0: 932c 90be 54fd b43e b96f 4bbe 3438 39be
00000100: d55f 9e3e bb11 9bbe 7b7e 0dbc ebf0 e13e
00000110: 305a 81be 802c 51be 5e51 a63c ed8e b4be
00000120: fbf5 973e ed1e dc39 1a32 a8be a61e 61bd
00000130: 988a 71be 2f8b 9b3e 5f2f 863e af4e 163e
00000140: bdaf 483c a0f2 c63e 9dbe 9c3e 0aab 233e
00000150: df04 9dbe dfc7 f7bd d705 a7be 4ce0 f23d
00000160: dc9c 613e e5d6 6b3e 0402 f4bd 0d71 b7bd
00000170: 7364 703e 3810 4f3e 224f ab3e 53a7 5ebe
00000180: ffc4 a63e 53e5 7bbe ac1e 1d3e 091e 27be
00000190: b05a abbe b18f a13e 6757 d23b 0e33 043e
000001a0: 78d0 e6bd 1ff5 b2bd f2ab bbbd b653 73be
000001b0: 3efa 913e 349d 42be 1f98 503a 106b 2dbe
000001c0: 54b5 b5be c40c 433e 7032 b13e 977a 9dbd
000001d0: 05b6 9fbe cc32 d03c b3a5 55be 45a3 c4bd
000001e0: 50ef 68be 4aa8 b1bc 7f4e 0f3c 5e50 93be
000001f0: e0e2 95be 4b1b a7bd 4fa4 833e dac3 50bd

layers.6.bias f4 [2]
0.022019103 -0.001983145
00000000: 6861 b43c a7f7 01bb
