data/results/output_net_4000.pth (torch, 38303 bytes, 8 tensors)

layers.0.weight f4 [64, 5]
0	0xbde57235	-0.11203424
1	0xbdfe3501	-0.124124534
2	0x3cb8a7ba	0.022540916
3	0xbe61af91	-0.2203963
4	0xbe35e03d	-0.17761321
5	0x3e88441a	0.26614457
6	0xbeb7dc52	-0.3591028
7	0xbd408c02	-0.04700852
8	0x3d872492	0.06598772
9	0xbeb3b58d	-0.3509945
10	0x3e40aa74	0.18815023
11	0xbdd19209	-0.10232932
12	0xbc5d974a	-0.01352484
13	0xbe9d5c56	-0.3073451
14	0x3e59ee58	0.21282327
15	0x3e9b6ae3	0.30354986
16	0x3ea185df	0.31547448
17	0xbe248595	-0.16066583
18	0xbd48cf9b	-0.049026113
19	0x3e8db167	0.2767441
20	0x3d43ab48	0.04777077
21	0x3e3e5009	0.18585218
22	0x3e6fd85f	0.23422383
23	0xbe73d265	-0.23810728
24	0xbe94a19e	-0.29029554
25	0x3e9d51dd	0.3072652
26	0xbe2769ba	-0.16348925
27	0xbe41af00	-0.18914413
28	0x3dd2cf2d	0.10293422
29	0xbce3963c	-0.027781598
30	0xbe13fbdb	-0.14451544
31	0xbe39a8dc	-0.18130821
32	0x3db2c17e	0.08728312
33	0xbdb2b8f1	-0.08726681
34	0xbe8b3d3d	-0.2719516
35	0x3c4dde43	0.012565198
36	0xbb9b15a5	-0.004732805
37	0xbe92da70	-0.2868228
38	0x3e686bfb	0.22697441
39	0xbe8de413	-0.2771307
40	0x3d9ddf71	0.07708634
41	0x3ca6bc3f	0.020353435
42	0xbdd8d911	-0.10588277
43	0xbe5419c8	-0.2071296
44	0xbd918377	-0.07105153
45	0x3d1b838f	0.03796726
46	0x3c4333e6	0.011914229
47	0xbd8fdc55	-0.07024447
48	0x3e0938ea	0.13400617
49	0x3d1cf9f1	0.0383243
50	0xbeb6d951	-0.35712674
51	0xbe2aabeb	-0.16667144
52	0xbe0544f4	-0.13014585
53	0x3de751cb	0.11294898
54	0xbdf6c977	-0.12050145
55	0x3e97299b	0.2952393
56	0x3d6a67f6	0.05722805
57	0x3e73af28	0.23797286
58	0x3d3f76ac	0.046744034
59	0xbc0c85b4	-0.008576799
60	0x3e372e9a	0.17888871
61	0xbdb45258	-0.08804768
62	0x3bc0574b	0.005869781
63	0xbd8e863b	-0.06959196
64	0x3e874f77	0.26427814
65	0x3dcde023	0.10052516
66	0x3bc97b9d	0.006148769
67	0x3e93f1c6	0.28895396
68	0xbe4d7038	-0.2006234
69	0xbe9cc033	-0.30615386
70	0xbdd5df7f	-0.10443019
71	0x3df819d6	0.12114303
72	0x3d3c1e53	0.045927357
73	0xbe2abac1	-0.16672803
74	0x3e89f768	0.26946568
75	0x3c151c66	0.009101009
76	0x3e4cb1c3	0.19989686
77	0xbcf87e30	-0.030333608
78	0xbd832155	-0.06402842
79	0xbe17ccc6	-0.14824209
80	0xbe9578a0	-0.29193592
81	0x3e0cac1f	0.13737534
82	0xbde04e13	-0.109523915
83	0x3e415607	0.18880473
84	0xbe12862c	-0.14308995
85	0xbea4b3e8	-0.32168508
86	0xbe696e3d	-0.22795959
87	0x3deca66f	0.11555182
88	0x3d8ba41e	0.06818412
89	0xbe4f3ae8	-0.20237315
90	0x3e399d13	0.18126325
91	0x3e8f6267	0.28004763
92	0xbda103b1	-0.07862032
93	0x3ea2a1ff	0.31764218
94	0xbdce670c	-0.100782484
95	0x3ea9af73	0.3314167
96	0xbe993339	-0.29921892
97	0x3e896c0d	0.2684025
98	0x3e66acde	0.22526881
99	0x3d2bb6d8	0.04192242
100	0x3e42355d	0.18965669
101	0xbb8e69a8	-0.0043460913
102	0x3e8b0d80	0.27158737
103	0x3e118ea8	0.14214575
104	0x3e364009	0.17797865
105	0x3eae74e9	0.3407357
106	0xbe825b7c	-0.25460422
107	0x3e1f9759	0.15585078
108	0xbc72c1a6	-0.014816677
109	0x3ea06254	0.31325018
110	0x3de70285	0.112797774
111	0xbd9355c8	-0.07194096
112	0x3e4425ab	0.19154994
113	0x3e24c7bc	0.16091818
114	0x3dc5a376	0.09650318
115	0xbe03c33e	-0.12867448
116	0x3e85f82b	0.261659
117	0xbe4f31da	-0.2023386
118	0x3d07799a	0.033074953
119	0x3ed56f27	0.41686365
120	0x3e1d680a	0.15371719
121	0xba68670a	-0.00088654517
122	0x3e9b06a4	0.30278504
123	0xbdcf6f50	-0.10128653
124	0x3e282303	0.16419606
125	0xbdd1b174	-0.102389246
126	0x3e85a553	0.26102695
127	0x3e37c95d	0.17947908
128	0xbd981c1c	-0.074272364
129	0xbe9a049b	-0.3008164
130	0x3e94a7f2	0.29034382
131	0xbec1f35e	-0.37880987
132	0x3bc8afad	0.006124458
133	0xbd3fda30	-0.04683894
134	0xbea7bf81	-0.32763293
135	0x3d7f6273	0.062349748
136	0xbe4851dd	-0.19562478
137	0xbe1fbc5d	-0.15599199
138	0x3e9102d0	0.28322458
139	0x3d6135f7	0.054983106
140	0x3e285dfe	0.16442105
141	0xbdfea4d6	-0.12433784
142	0x3e2a022f	0.16602395
143	0x3e8e8138	0.2783296
144	0xbca47d57	-0.020079298
145	0xbde121b7	-0.10992759
146	0x3e560775	0.20901282
147	0x3e0f9616	0.14022097
148	0xbea16ba5	-0.3152744
149	0xbe2d7451	-0.16938902
150	0xbd8f4fc1	-0.06997634
151	0xbe8c5883	-0.2741128
152	0xbea04b2b	-0.3130735
153	0x3d191216	0.037370764
154	0xbdd38c44	-0.10329488
155	0x3d8f9139	0.07010121
156	0xbd3c1185	-0.045915145
157	0x3e8d7709	0.2762988
158	0xbc4c6b00	-0.012476683
159	0x3de1100a	0.10989387
160	0xbe7bad08	-0.24577725
161	0x3d3f356b	0.046681803
162	0x3d8ac390	0.06775582
163	0xbce2d7fd	-0.027690882
164	0x3e9fe021	0.31225684
165	0x3e5517c9	0.20809855
166	0x3c9e2900	0.01930666
167	0xbe24643b	-0.1605386
168	0x3e374000	0.17895508
169	0xbe66f7be	-0.22555444
170	0x3e8d79a5	0.2763187
171	0x3df3814a	0.11889894
172	0xbe95bb27	-0.29244348
173	0x3d8d4b5a	0.06899138
174	0x3d9ebfc0	0.07751417
175	0xbea496b1	-0.32146218
176	0xbeae64e8	-0.3406136
177	0xbe31d0c5	-0.17364796
178	0x3d912e7e	0.07088946
179	0xbe7b5c3c	-0.24546903
180	0x3eb61ace	0.35567325
181	0x3e7c8537	0.24660192
182	0x3e87300e	0.2640385
183	0x3df7c33e	0.12097786
184	0x3d79d3a7	0.060992863
185	0x3c67115a	0.014103258
186	0xbd80fb35	-0.06297914
187	0xbe5725a5	-0.21010454
188	0x3e431176	0.1904963
189	0x3e428695	0.18996651
190	0xbe0f6f56	-0.14007315
191	0x3e7f1f04	0.24914175
192	0x3da2d196	0.079501316
193	0x3e5c9353	0.21540575
194	0xbdffa7cf	-0.12483179
195	0xbe68e3fa	-0.22743216
196	0x3e2a460b	0.16628282
197	0x3d87d3f3	0.06632223
198	0xbe79a9ae	-0.24381134
199	0x3b0b6074	0.0021267207
200	0x3c82c5ec	0.015963517
201	0x3c53f994	0.012937922
202	0xbd9aa94d	-0.07551823
203	0xbe9df660	-0.30852032
204	0xbe81b7ee	-0.2533564
205	0xbe01973e	-0.1265535
206	0x3d4078b5	0.046990115
207	0xbdef1bd5	-0.116752304
208	0x3e39c0ab	0.18139903
209	0xbea098f5	-0.31366697
210	0xbdc55acd	-0.096364595
211	0x3d852216	0.06500642
212	0x3e6836cf	0.22677158
213	0xbe5ac759	-0.21365108
214	0x3e5a42af	0.213145
215	0x3eb1d2b0	0.34731054
216	0x3dc44a4b	0.09584483
217	0x3e0e2ca0	0.1388421
218	0xbda11cfe	-0.07866858
219	0xbc83e178	-0.016098723
220	0x3ea41f5c	0.32055175
221	0xbcfdb2f4	-0.03096912
222	0xbdcac9dd	-0.099017836
223	0x3e47f5e0	0.19527388
224	0x3da96085	0.08270363
225	0x3d8687e2	0.06568886
226	0x3ecd8928	0.40143704
227	0xbdc3b316	-0.09555642
228	0x3de08d1e	0.10964416
229	0x3e0f14dc	0.13972801
230	0x3d017655	0.03160699
231	0xbc0c2875	-0.008554568
232	0x3e00f809	0.12594618
233	0x3dd29a6f	0.10283362
234	0x3d2ea1ae	0.04263466
235	0x3dae5fa7	0.08514338
236	0x3e31f660	0.17379141
237	0x3e763353	0.24043016
238	0xbdd63887	-0.104600005
239	0x3cfd5af2	0.030927155
240	0x3eaed58e	0.34147304
241	0x3e1a0049	0.15039171
242	0xbe6650bf	-0.2249174
243	0x3e5bbc6c	0.21458596
244	0xbe350fd4	-0.17681819
245	0xbe4f91ec	-0.20270509
246	0x3d4de8bf	0.050270792
247	0xbdb56aca	-0.08858259
248	0x3e198315	0.1499141
249	0x3d2d3794	0.04228933
250	0x3e959c41	0.29220775
251	0xbd7f0977	-0.062264886
252	0x3e81d5d1	0.2535844
253	0x3d672f14	0.05644138
254	0xbe8cdca4	-0.27512085
255	0x3e529e48	0.20568192

layers.0.bias f4 [64]
0	0x3c2d922d	0.010593933
1	0x3aed3092	0.001809614
2	0x3cf45a20	0.029828131
3	0xbc8dd060	-0.017311275
4	0xb991694f	-0.00027735016
5	0xbb463484	-0.0030243704
6	0x3cd9f3b5	0.026605466
7	0xbd207772	-0.039176412
8	0xbb07eac2	-0.0020739292
9	0x3c889005	0.016670236
10	0xbd3b497b	-0.045724373
11	0x3ced8f69	0.028999047
12	0x3b74e1ae	0.003736596
13	0xbcca4913	-0.024693048
14	0x3cf2a2ed	0.029618705
15	0x3cc4e138	0.024033174
16	0xbbe9f2f6	-0.007139559
17	0xbbc9d927	-0.00615992
18	0xbce36927	-0.027760101
19	0x3c8029f3	0.015645003
20	0xbd93f51f	-0.072244875
21	0x3d332291	0.043734137
22	0xbcb44091	-0.022003444
23	0x3c80d07a	0.01572441
24	0x3c4bec4d	0.012446475
25	0x3c48a72e	0.01224689
26	0x3d001785	0.03127243
27	0xbc154415	-0.00911047
28	0xbcfb0725	-0.030643055
29	0x3ce4a428	0.027910307
30	0xbc8e4102	-0.017364983
31	0xbc900b93	-0.017583644
32	0xbd15af33	-0.036544036
33	0xbc6e3fed	-0.014541608
34	0xbb64a4d3	-0.0034888282
35	0xbcc66810	-0.024219543
36	0xbb61324d	-0.0034362257
37	0xbc97311d	-0.018456036
38	0x3a9c8343	0.0011940975
39	0x3cb673ed	0.022272075
40	0x3d82949f	0.063760035
41	0x3b2a6115	0.0025997807
42	0x3d07d698	0.033163637
43	0x3b83a94f	0.004017986
44	0xbd39d813	-0.04537208
45	0x3d4f3f7d	0.050597657
46	0x3a6f2cb0	0.00091237854
47	0x3a3b3b8e	0.0007142358
48	0x3cee911a	0.029121924
49	0xbd302639	-0.043005202
50	0xbc333617	-0.010938189
51	0x3c58e27b	0.013237591
52	0xbc77534f	-0.015095546
53	0xbcf0c8af	-0.029392568
54	0xbd3cb728	-0.04607311
55	0xbbfae036	-0.0076561226
56	0x3cdfd7e2	0.02732462
57	0x3bebd326	0.0071968017
58	0x3c884cc0	0.01663816
59	0xbd1cf55e	-0.038319938
60	0xbcfc8a63	-0.030827707
61	0x3d1bf8e4	0.038079157
62	0x3ca1a8e8	0.019733861
63	0x3c55567f	0.013021111

layers.2.weight f4 [64, 64]
0	0xbde322b2	-0.11090602
1	0x3e3b557c	0.18294328
2	0x3db1b173	0.08676424
3	0x3d91a824	0.071121484
4	0xbd5cd1d6	-0.053911053
5	0x3dd48dc3	0.103786014
6	0x3db2d693	0.08732333
7	0x3d328202	0.043581016
8	0x3e4becef	0.19914602
9	0xbe2443e0	-0.16041517
10	0xbd53a7a7	-0.051673558
11	0xbe3c3037	-0.18377768
12	0xbd8e4057	-0.069458656
13	0xbe68391d	-0.22678037
14	0xbdf7d5fc	-0.12101361
15	0xbcc2075f	-0.023685155
16	0xbdcd5a55	-0.10026995
17	0xbe4f103e	-0.2022104
18	0x3d883562	0.06650807
19	0x3e4e9161	0.20172645
20	0x3d8cebdd	0.06880925
21	0xbd93fc4b	-0.072258554
22	0x3e3f4b31	0.18681027
23	0x3d6f1124	0.058365956
24	0xbd59b121	-0.05314744
25	0xbde33dc9	-0.11095769
26	0x3e275f54	0.16344959
27	0xbd4c3941	-0.04985929
28	0xbe1b372b	-0.15157764
29	0x3cd416bf	0.025889752
30	0xbdc825dd	-0.09772847
31	0xbe0344c9	-0.12819208
32	0xb99224f7	-0.0002787483
33	0x3e36aba2	0.1783891
34	0xbcfa17d7	-0.030528946
35	0x3cdc05d6	0.026858252
36	0xbe8aa544	-0.27079213
37	0x3e50b27e	0.2038059
38	0xbe6799ab	-0.22617213
39	0xbcfae69e	-0.030627545
40	0x3d39875c	0.045295104
41	0xbde6a169	-0.11261255
42	0x3d0d0bf1	0.034435216
43	0xbd23be12	-0.039976187
44	0xbde60693	-0.11231723
45	0xbe2755d3	-0.16341333
46	0x3e29ccc2	0.16582015
47	0xbe90e606	-0.28300494
48	0xbdbf3428	-0.0933612
49	0x3e139a97	0.1441444
50	0xbddaafec	-0.10678086
51	0xbd014038	-0.031555384
52	0x3c10adbd	0.008830485
53	0xbd90d4ac	-0.07071814
54	0x3e10ad02	0.14128497
55	0xbd171c43	-0.036892187
56	0x3d5915be	0.05299925
57	0xbe3be05a	-0.18347302
58	0xbcf5245e	-0.029924568
59	0x3e2e4f65	0.17022474
60	0x3e27346d	0.16328593
61	0x3cf1d245	0.02951921
62	0x3d8ae4c5	0.067819156
63	0x3e8dcfba	0.27697545
64	0x3b429974	0.0029693516
65	0x3e468760	0.19387579
66	0x3e3f5c96	0.18687662
67	0xbdd3bd21	-0.10338808
68	0x3e3e8a7d	0.18607517
69	0x3daa117f	0.08304118
70	0x3b68a0f3	0.0035496324
71	0xbe2117d7	-0.1573175
72	0xbcf30fdb	-0.029670646
73	0x3e03cc3b	0.12870876
74	0x3de8e437	0.113716535
75	0x3e2c2698	0.16811597
76	0xbe2ddcca	-0.16978756
77	0xbe073bb8	-0.13206375
78	0xbda5217a	-0.08063026
79	0xbe47dee7	-0.19518624
80	0x3e009e99	0.125605
81	0xbc52d9e2	-0.01286933
82	0xbe3151ec	-0.17316407
83	0xbd023ced	-0.031796385
84	0xbd9bfc48	-0.07616478
85	0xbc7133c7	-0.014721817
86	0x3dd9e259	0.106388755
87	0xbe4fc953	-0.20291643
88	0x3d9f6440	0.07782793
89	0x3d2132c8	0.03935507
90	0x3e49d98b	0.19711892
91	0xba867c5a	-0.0010260448
92	0x3dc8ce96	0.09805028
93	0xbe1c10e7	-0.15240823
94	0x3e04cea1	0.12969448
95	0x3e2134d3	0.15742807
96	0x3e192b04	0.14957815
97	0x3cc1f1bc	0.023674838
98	0xbcb7e3cf	-0.022447495
99	0x3e69988a	0.22812095
100	0xbe49e9b1	-0.19718052
101	0xbdb2eb9f	-0.087363474
102	0x3d3cf24c	0.04612951
103	0xbded1354	-0.11575952
104	0x3e583393	0.21113424
105	0x3e2657ec	0.16244477
106	0x3e22d036	0.15899739
107	0x3df607cd	0.12013207
108	0x3d5fa615	0.054601748
109	0xbd2497d1	-0.040183846
110	0x3e0c2fe1	0.1369014
111	0x3cceb8e6	0.02523465
112	0xbc39390e	-0.011305107
113	0xbd30dd07	-0.043179538
114	0x3d1eca2f	0.038767036
115	0xbe536305	-0.20643242
116	0x3da2d725	0.07951192
117	0x3e28dac8	0.16489708
118	0x3d6eb8eb	0.05828182
119	0xbd5c0f77	-0.053725686
120	0xbc6d7e07	-0.014495379
121	0xbe514b6f	-0.20438932
122	0xbe53ba15	-0.20676453
123	0xbe1dddc6	-0.15416631
124	0xbe35387f	-0.17697333
125	0xbe29f814	-0.1659854
126	0x3de40287	0.111332946
127	0x3e722ed5	0.23650678
128	0xbd07eeb2	-0.033186622
129	0x3e33b51d	0.17549558
130	0x3e435f86	0.19079408
131	0x3e6db37a	0.23212996
132	0x3e0d93ad	0.13825865
133	0x3e629067	0.22125398
134	0x3e143143	0.14471917
135	0xbe24f7d4	-0.16110164
136	0x3da82e38	0.082119405
137	0x3dd3fbc1	0.103507526
138	0xbe9a4b0e	-0.30135387
139	0xbd847436	-0.06467478
140	0x3e60d0d2	0.21954659
141	0xbd55a9ae	-0.052163772
142	0xbdf68644	-0.12037328
143	0xbb348ba5	-0.0027549055
144	0xbdd844c5	-0.10559992
145	0xbe3e915b	-0.18610136
146	0xbe1a6c2f	-0.15080331
147	0xbe1924c2	-0.14955428
148	0xbdef9105	-0.11697582
149	0x3ea55862	0.32293993
150	0x3d565e3c	0.052335963
151	0xbe10f66b	-0.14156501
152	0x3e84ff6a	0.25976115
153	0x3db8dcc9	0.090264864
154	0x3c8e7214	0.017388381
155	0xbd9b1dd2	-0.07574047
156	0xbe251b0c	-0.16123599
157	0xbd5c668f	-0.053808745
158	0x3e1d02d7	0.15333115
159	0xbde01d8f	-0.10943138
160	0xbba66be0	-0.0050787777
161	0x3e3398f5	0.17538817
162	0xbdcaabc7	-0.09896045
163	0xbd6a29a0	-0.057168603
164	0x3dcd39f7	0.100208215
165	0x3e285eff	0.16442488
166	0xbe32dfc8	-0.17468178
167	0xbdf05f2b	-0.11736902
168	0x3da27ec0	0.07934332
169	0xbcc3e34b	-0.023912093
170	0x3e51378a	0.20431343
171	0x3e5f0727	0.21780072
172	0x3e6bea02	0.23038486
173	0x3e55df9b	0.2088608
174	0xbd814c58	-0.063133895
175	0x3e2d1b73	0.16905002
176	0x3e391c73	0.18077259
177	0xbe2df9b6	-0.16989788
178	0xbd4d4d69	-0.050122652
179	0x3db93696	0.090436146
180	0x3e0572d6	0.13032088
181	0xbd21e2eb	-0.039523046
182	0xbe0dadb9	-0.13835801
183	0xbe50bedb	-0.20385306
184	0x3d8cc9e9	0.06874449
185	0xbdd99a51	-0.10625137
186	0x3d63b30a	0.055590667
187	0x3ac306b7	0.001487932
188	0x3e5fad3e	0.2184343
189	0x3e505a0e	0.20346853
190	0x3e92f189	0.28699902
191	0x3dc5894b	0.09645327
192	0xbe58a1c2	-0.21155456
193	0x3de25445	0.110512294
194	0x3e365fb2	0.17809942
195	0x3e64bcc5	0.22337635
196	0xbd6c5be0	-0.057704806
197	0xbde8fd26	-0.11376409
198	0xbe849893	-0.25897655
199	0x3e611738	0.21981514
200	0x3d848c0e	0.06472026
201	0xbdf4b94a	-0.119494036
202	0x3dc1ac1f	0.094566576
203	0x3e71995d	0.2359366
204	0x3db4e869	0.08833391
205	0x3d96d383	0.073645614
206	0xbe392ac4	-0.1808272
207	0xbdcedb22	-0.1010039
208	0xbe3ce77a	-0.18447676
209	0xbe8ffa45	-0.28120628
210	0x3d988b4b	0.07448443
211	0xbc42f496	-0.011899134
212	0xbd919ce7	-0.07110005
213	0xba2a0f64	-0.0006487279
214	0x3dce5f8c	0.10076818
215	0x3e67a669	0.22622074
216	0xbe005bd6	-0.12535033
217	0x3db72e35	0.0894436
218	0xbe05bd51	-0.130605
219	0x3e0153e7	0.12629662
220	0xbe080d56	-0.13286337
221	0xbe412468	-0.18861544
222	0x3d2c9b1d	0.042140115
223	0xbda294f7	-0.07938569
224	0x3d341a2d	0.043970276
225	0xbba5df94	-0.005062053
226	0x3cbf881b	0.02338033
227	0xbe4dd75b	-0.20101683
228	0x3e5ca5c9	0.21547617
229	0xbda039a8	-0.07823497
230	0x3e5930f6	0.21210083
231	0xbe1b7e3f	-0.15184878
232	0x3e00562e	0.12532875
233	0xbe3a9833	-0.18222122
234	0x3e298fa1	0.16558696
235	0x3e68316f	0.22675107
236	0x3ea34221	0.3188639
237	0x3e804a64	0.25056756
238	0x3e4755a5	0.19466265
239	0xbe244cf1	-0.16044976
240	0x3d01c54c	0.031682298
241	0x3e14057f	0.14455222
242	0xbcc5b1ab	-0.02413257
243	0xbddce4e4	-0.10785845
244	0xbe258acd	-0.1616623
245	0x3e6d6771	0.23183991
246	0x3e5779ab	0.21042506
247	0x3dd99e63	0.10625913
248	0x3dfa8681	0.12232686
249	0x3e56a3f9	0.20960988
250	0xbdd19bd7	-0.10234802
251	0xbe59437b	-0.21217148
252	0x3e81bd0c	0.25339544
253	0x3e4992f2	0.19684961
254	0xbe548e8f	-0.20757507
255	0xbe8efe3b	-0.27928337

layers.2.bias f4 [64]
0	0xbcd1fce8	-0.02563329
1	0x3b802f6a	0.003911902
2	0x3c8bac07	0.017049802
3	0xbb6d69de	-0.0036226432
4	0x3c51a801	0.012796403
5	0xbcf36be9	-0.029714542
6	0xbd8b6557	-0.068064384
7	0x3c550038	0.01300054
8	0x3cb7f7dc	0.022457056
9	0xbda4ba02	-0.08043291
10	0xbb0a5374	-0.002110687
11	0x3d707b5c	0.058711395
12	0x3d29c5ab	0.041448276
13	0xbcaa6973	-0.020802235
14	0x3c4d0ceb	0.012515287
15	0xbd08d6f3	-0.033408117
16	0x3c9559cd	0.018231297
17	0x3befb523	0.0073152944
18	0xbc9abe1b	-0.018889477
19	0xbb487b44	-0.003059105
20	0xbcf640c4	-0.03006018
21	0x3c2973f2	0.010342585
22	0x3cffdf88	0.031234518
23	0xbce4a6fc	-0.027911656
24	0x3972e971	0.00023165882
25	0x3c40bc9d	0.011763719
26	0xbc90b0ae	-0.017662372
27	0xbb9051bf	-0.004404276
28	0x3cd4eaa7	0.025990797
29	0x3d4512bc	0.04811357
30	0xbcb367f4	-0.021900155
31	0xbcfbd35d	-0.030740434
32	0x3b0d04d7	0.0021517777
33	0x3d255fc7	0.040374544
34	0xbc5d1dcb	-0.013495873
35	0xbc8ffa1d	-0.017575318
36	0xbc70a23e	-0.014687119
37	0xbc0466a8	-0.008081116
38	0xbc0b1c33	-0.00849061
39	0x3b0796d6	0.002068927
40	0xbb7a89c5	-0.003822909
41	0xbcb3d9f6	-0.021954518
42	0xbc7882d0	-0.015167907
43	0x3c631406	0.013859754
44	0x3c4649f7	0.0121025955
45	0x3c42f510	0.011899248
46	0xbbd24cca	-0.0064178454
47	0xbc9618e4	-0.018322416
48	0xbc2a1851	-0.010381774
49	0xbc771979	-0.015081757
50	0x38e11e1d	0.00010734445
51	0x3ca97329	0.020684795
52	0xbb89b537	-0.0042025107
53	0x3ca81f32	0.020522688
54	0xbcabb0b0	-0.020958275
55	0x3d0e2aeb	0.0347089
56	0xbcf795f6	-0.030222874
57	0xba2b2d87	-0.00065299164
58	0xbd4bbf50	-0.049742997
59	0x394df77e	0.00019642522
60	0xbc995dbe	-0.018721458
61	0xbc21c96e	-0.009874685
62	0xbbbeed28	-0.005826611
63	0x3c0609ea	0.008181075

layers.4.weight f4 [64, 64]
0	0xbe2c205d	-0.1680922
1	0x3d0347ef	0.032051023
2	0x3e2193fc	0.15779108
3	0xbdba0cfa	-0.09084506
4	0x3e031776	0.12801918
5	0xbe26dd89	-0.16295446
6	0xbe19eff1	-0.15032937
7	0xbb0fc6d0	-0.002193857
8	0x3c8dc35b	0.017305067
9	0xbe7d2eee	-0.24724934
10	0x3e59afb1	0.21258427
11	0x3e28d7f0	0.16488624
12	0x3df61669	0.12015993
13	0xbc28fd11	-0.010314242
14	0xbe1336aa	-0.14376321
15	0x3dc6a8c6	0.0970016
16	0xbe4fc143	-0.20288567
17	0x3d17dace	0.037073903
18	0xbe520e1d	-0.20513196
19	0xbc32020a	-0.010864744
20	0xbe06e5f6	-0.1317366
21	0xbe0d824f	-0.1381924
22	0x3de2fccc	0.110833734
23	0xbe22ca97	-0.15897594
24	0xbdfc8c0c	-0.12331399
25	0xbdbde38a	-0.09271915
26	0xbd5e7584	-0.05431129
27	0xbded5dc2	-0.115901485
28	0x3c97bb5e	0.01852196
29	0x3e777722	0.2416654
30	0x3dd5dbf7	0.104423456
31	0xbdaa6bd1	-0.083213456
32	0xbe45990f	-0.19296668
33	0x3e4bd77f	0.19906424
34	0xbdfbe5f9	-0.12299723
35	0xbe10dba1	-0.14146282
36	0xbe49a008	-0.19689953
37	0xbd17bfa5	-0.037048
38	0xbde21086	-0.11038308
39	0xbe20796b	-0.15671317
40	0x3e02f993	0.12790518
41	0xbdb68696	-0.08912389
42	0xbd311101	-0.043229107
43	0x3e3e6bbe	0.18595788
44	0x3dbf2b3f	0.093344204
45	0x3e146e5f	0.14495228
46	0xbe188b38	-0.14896858
47	0xbcf9ba1f	-0.030484257
48	0xbdce8244	-0.1008344
49	0xbcd4a49d	-0.0259574
50	0x3e33e15e	0.1756644
51	0x3e0decf5	0.13859923
52	0xbe26e2c2	-0.16297439
53	0xba8e0936	-0.0010836485
54	0xbd243b50	-0.040095627
55	0xbe733164	-0.2374931
56	0x3d5f6229	0.054536972
57	0x3e0142c1	0.12623121
58	0xbe37bc7f	-0.17943
59	0xbdc6587b	-0.09684845
60	0xbe33a4ad	-0.17543288
61	0xbdc3e2c9	-0.0956474
62	0xbe01cfbb	-0.12676899
63	0x3d8f900c	0.07009897
64	0x3d9b0452	0.075691834
65	0xbd27a0ae	-0.04092472
66	0x3da54bf7	0.0807113
67	0x3ca2a1a9	0.019852476
68	0x3e2b3cfd	0.16722484
69	0xbc95cde9	-0.018286662
70	0x3deb414a	0.11487062
71	0x3e1dac7f	0.15397833
72	0x3c2e18d8	0.01062604
73	0x3e093001	0.13397218
74	0x3cb7719b	0.022393038
75	0xbd8fa261	-0.07013393
76	0x3dd29c17	0.10283678
77	0x3df9ac33	0.121910475
78	0xbdfe546f	-0.12418448
79	0xbe1465b8	-0.14491928
80	0xbe364ec1	-0.1780348
81	0xbe085f41	-0.13317586
82	0xbe12fce0	-0.14354277
83	0xbe3bfff5	-0.18359359
84	0x3dbef96c	0.09324917
85	0xbe2308dd	-0.1592135
86	0xbe39802c	-0.181153
87	0xbe09680d	-0.13418598
88	0xbcf1c4ff	-0.02951288
89	0x3e373775	0.17892249
90	0xbc000064	-0.007812593
91	0xbe2ebbac	-0.17063779
92	0xbcbe6882	-0.023243193
93	0x3b3bd288	0.0028659422
94	0x3e11054d	0.14162178
95	0xbc20d4a9	-0.009816327
96	0x3e79d978	0.24399364
97	0x3d757735	0.059928138
98	0x3e2a429a	0.16626969
99	0xbe0f8063	-0.1401382
100	0xbd7a303b	-0.061081152
101	0xbaaed8c9	-0.0013339753
102	0x3e62a116	0.22131762
103	0xbdba49c6	-0.090961024
104	0x3defda1d	0.11711524
105	0xbe36398f	-0.17795394
106	0xbde7977f	-0.113081925
107	0xbdd15797	-0.102217846
108	0xbd9635eb	-0.07334503
109	0x3c7432b7	0.0149046695
110	0x3d9444dd	0.07239697
111	0x3e47ce33	0.19512253
112	0x3d4ba9cf	0.04972249
113	0xbd90a1d7	-0.070621185
114	0x3dd376b6	0.10325377
115	0xbdfa2ddc	-0.12215778
116	0xbda2e9f0	-0.07954776
117	0x3e36f60c	0.17867297
118	0x3e20d485	0.1570607
119	0x3be03957	0.006842773
120	0x3e127cbf	0.143054
121	0xbdf30839	-0.11866803
122	0x3df3c8c4	0.119035274
123	0xbd5de7fe	-0.054176323
124	0xbdfed649	-0.124432154
125	0xbdae6efc	-0.08517262
126	0xbd18a7f4	-0.037269548
127	0x3e5c1d83	0.21495633
128	0x3d69e21d	0.057100404
129	0xbdc78a2b	-0.0974315
130	0xbdf26d50	-0.11837256
131	0xbe15049e	-0.14552543
132	0x3e228ae7	0.158733
133	0xbe678e21	-0.22612812
134	0x3d073896	0.03301295
135	0xbd27e6f3	-0.040991735
136	0x3df45cae	0.1193174
137	0x3d4ba109	0.049714122
138	0xbdd186e7	-0.10230809
139	0x3c0ebf22	0.008712562
140	0x3e485093	0.19561987
141	0xbcffb152	-0.031212483
142	0x3e4f8c40	0.20268345
143	0xbe189fdd	-0.14904733
144	0x3e690bc3	0.22758393
145	0x3dbaae0a	0.091152266
146	0xbdc92250	-0.09820998
147	0xbd88633b	-0.06659552
148	0x3e331aba	0.17490664
149	0x3bd7d27b	0.0065863705
150	0x3e6fa26e	0.23401806
151	0xbe24a32c	-0.1607787
152	0x3da23e31	0.07922018
153	0xbe1d1ac1	-0.15342237
154	0xbe0fef2c	-0.1405608
155	0x3d84159b	0.064494334
156	0x3d84c8fd	0.06483648
157	0xbde0c111	-0.109743245
158	0x3de8fe8b	0.11376675
159	0xbe043897	-0.12912212
160	0xbd7af2f4	-0.061266854
161	0xbda2379c	-0.07920763
162	0xbdb1fb8c	-0.08690557
163	0xbe574d62	-0.21025613
164	0xbdfd2dab	-0.12362226
165	0xbdcf0032	-0.10107459
166	0xbe335426	-0.17512569
167	0xbe4b37a3	-0.19845442
168	0x3df7df85	0.1210318
169	0x3aa81f29	0.0012826669
170	0x3d4c792b	0.049920242
171	0x3c1d65ec	0.00960682
172	0x3e06f037	0.13177572
173	0x3c085bd4	0.008322675
174	0x3d8c8e4b	0.06863078
175	0xbde4945e	-0.11161111
176	0xbd3810ca	-0.044937886
177	0x3e1f0d96	0.15532526
178	0xbe33bf96	-0.17553553
179	0x3dc63b0d	0.09679232
180	0xbc847985	-0.016171226
181	0xbe370d47	-0.17876159
182	0xbe327293	-0.17426519
183	0x3df054a9	0.11734898
184	0xbca862a1	-0.020554842
185	0x3e44f311	0.19233347
186	0xbe51d7ce	-0.20492479
187	0xbdd0c785	-0.10194305
188	0xbe7fd43b	-0.24983303
189	0xbd3fec15	-0.046856005
190	0xbe2ff388	-0.17182744
191	0x3ceeb959	0.029141115
192	0xbdf6246c	-0.12018666
193	0x3e48ca1d	0.1960835
194	0xbd9d6282	-0.076848045
195	0xbe15a4dc	-0.1461367
196	0xbc917ff6	-0.017761212
197	0x3e6e6fa1	0.2328477
198	0x3e4c558a	0.19954506
199	0xbe41e011	-0.18933131
200	0xbe3ef804	-0.18649298
201	0xbdac9f03	-0.084287666
202	0xbd858ead	-0.06521354
203	0xbde8f74c	-0.11375293
204	0xbd0e658a	-0.034764804
205	0x3e0f1684	0.13973433
206	0x3d8057e1	0.062667616
207	0x3df9d04b	0.12197932
208	0x3dab114a	0.08352907
209	0xbdf4308a	-0.119233206
210	0xbb1d5d94	-0.0024012076
211	0x3db42670	0.08796394
212	0x3df954ad	0.12174354
213	0x3e39364d	0.1808712
214	0xbd9a973f	-0.07548379
215	0xbd353928	-0.04424396
216	0x3e6d7d91	0.23192431
217	0x3e10e134	0.14148408
218	0xbe4d9b45	-0.20078762
219	0xbe38a4ff	-0.18031691
220	0xbdee32bc	-0.116307706
221	0x3e548f76	0.20757851
222	0xbdff2b59	-0.1245944
223	0xbe02dcd3	-0.1277955
224	0x3d964eaa	0.07339223
225	0xbdba9fc4	-0.09112504
226	0x3dffb946	0.1248651
227	0x3cf4746b	0.029840669
228	0x3e2fe99e	0.17178962
229	0x3cec7aee	0.028867211
230	0xbdd0ce2b	-0.101955734
231	0xbd8037ba	-0.06260629
232	0x3d52e4a1	0.05148757
233	0xbe162280	-0.14661598
234	0x3e419ff1	0.18908669
235	0x3daf2373	0.08551683
236	0xbe0c6716	-0.13711199
237	0xbe30f947	-0.17282592
238	0xbe5c47d0	-0.2151177
239	0x3da9432b	0.082647644
240	0x3c4f016f	0.012634619
241	0x3cd711ab	0.026253542
242	0x3e2648e5	0.16238745
243	0x3dd6c452	0.10486664
244	0xbd201286	-0.039080165
245	0xbe5084ff	-0.20363234
246	0xbba99ebe	-0.0051763942
247	0xbc9d9d67	-0.019240094
248	0x3e043cde	0.12913844
249	0xbe1af75c	-0.15133423
250	0x3d90b654	0.07066026
251	0xbca6680a	-0.020313282
252	0xbdd97041	-0.10617114
253	0xbdd32894	-0.10310474
254	0x3da16c15	0.07881943
255	0xbccc6523	-0.02495057

layers.4.bias f4 [64]
0	0x3ca48ea8	0.020087555
1	0xba9ca282	-0.0011950287
2	0x3c79de44	0.015250746
3	0xbb8d61a3	-0.0043146177
4	0xbc336338	-0.010948949
5	0xbc80bf1f	-0.015716134
6	0x3cab1a1d	0.020886475
7	0x3b9690b2	0.0045948857
8	0x3c7a861c	0.015290763
9	0x3c4ff902	0.012693645
10	0x3c4c798d	0.012480152
11	0xbc850c05	-0.016241083
12	0x3bcd1a01	0.0062592034
13	0xbd07f7fd	-0.033195484
14	0xbbf772e3	-0.0075515374
15	0x3c20f62e	0.009824319
16	0x3c0ea434	0.008706141
17	0x3cf91fce	0.030410673
18	0x3c82c3f5	0.01596258
19	0x3c4e90b2	0.01260774
20	0x3b0c4b89	0.0021407327
21	0x3b0e40e8	0.0021706168
22	0x393cc4b5	0.00018002356
23	0x3b7cec08	0.0038592834
24	0xbbd69f4d	-0.006549752
25	0xbca4118e	-0.020027902
26	0x3b4afa20	0.003097184
27	0x3bba2408	0.005680565
28	0x3ce74649	0.028231757
29	0x3c243497	0.010022304
30	0xbbd0e8a5	-0.0063753896
31	0xbb6da50c	-0.0036261706
32	0xbc5b9d73	-0.013404238
33	0x3cf253f5	0.02958105
34	0xbc84928f	-0.016183166
35	0xba98fdaf	-0.0011672283
36	0xbc914f03	-0.017737871
37	0xbbc8f97c	-0.0061332565
38	0xbc2309ce	-0.009951068
39	0xbac1a75e	-0.0014774611
40	0xbc54cdbb	-0.012988503
41	0x3c433975	0.011915554
42	0xbb708de5	-0.003670567
43	0xbd3c0601	-0.045904163
44	0xbc0de1ec	-0.008659821
45	0xbcfb876a	-0.030704219
46	0xbb4d659d	-0.0031341084
47	0x3d3d80e3	0.046265494
48	0xbd115dcf	-0.035489853
49	0xbbfae26a	-0.007656385
50	0xbb50fd87	-0.0031889395
51	0x3cad6aee	0.021169152
52	0x3c08770b	0.008329163
53	0xbc893e61	-0.016753377
54	0xb9b5bef7	-0.0003466529
55	0xbc23381d	-0.009962109
56	0x3b99d502	0.004694582
57	0x3b420650	0.0029605813
58	0x3cd20ac3	0.025639897
59	0x3cd3597f	0.025799511
60	0xbb09b10e	-0.0021010074
61	0xbb9df651	-0.004820623
62	0xbd2e16ee	-0.042502336
63	0xbc8da4d7	-0.017290516

layers.6.weight f4 [2, 64]
0	0xbe8bf983	-0.273388
1	0xbe44a340	-0.192029
2	0x3e6d413c	0.23169416
3	0xbc3d9aed	-0.011572582
4	0x3dba144f	0.09085905
5	0xbe55b4e2	-0.20869783
6	0xbda66a8c	-0.08125791
7	0x3d2c4569	0.042058382
8	0x3e975a1f	0.29560944
9	0x3c1d6c89	0.009608396
10	0x3d093fdc	0.033508167
11	0xbe97c47c	-0.29642093
12	0xbe46e982	-0.19425014
13	0xbe7b1303	-0.24518971
14	0x3e4da2e5	0.2008167
15	0x3e38133b	0.17976086
16	0x3e711bdc	0.23545784
17	0xbd4e9caf	-0.050442394
18	0x3e85e9a8	0.26154828
19	0x3df1a5e5	0.1179922
20	0x3c4c2db9	0.012462073
21	0x3e50d578	0.20393932
22	0x3e1c5b21	0.15269138
23	0x3e7939a7	0.24338399
24	0x3db43572	0.087992564
25	0xbdef65fc	-0.11689374
26	0x3e1de30d	0.15418644
27	0x3bfe5de7	0.007762659
28	0x3d8cb35c	0.068701476
29	0x3e645564	0.22298199
30	0x3e5f3e34	0.21801072
31	0xbe0d547a	-0.13801757
32	0x3e98bf9d	0.2983369
33	0x3e88499e	0.26618665
34	0xbe1b2fac	-0.15154904
35	0x3da6bd48	0.08141571
36	0xbe57cc6e	-0.21074077
37	0xbc29e084	-0.01036847
38	0xbe34275b	-0.17593138
39	0x3ea4f18e	0.32215542
40	0xbe922f7f	-0.28551862
41	0x3c5bdc47	0.013419217
42	0xbe599283	-0.21247296
43	0x3bc0b4cd	0.005880928
44	0xbeb111b0	-0.34583807
45	0xbe898373	-0.268581
46	0x3e9045ca	0.28178245
47	0x3d149da3	0.036283147
48	0x3e7b1e7e	0.2452335
49	0xbe72bb5a	-0.23704281
50	0xbdf9895d	-0.12184403
51	0x3e962fa6	0.29333228
52	0xbe20731e	-0.15668914
53	0xbe29716f	-0.16547178
54	0x3e726a5d	0.23673387
55	0xbe80eb98	-0.25179744
56	0x3e1889ef	0.14896367
57	0xbe8c2423	-0.2737132
58	0x3dc5b2db	0.096532546
59	0x3c8e887c	0.017399065
60	0xbe914864	-0.28375542
61	0x3eaa5302	0.33266455
62	0xbe495733	-0.1966217
63	0xbe330397	-0.17481838
64	0x3e9f22e0	0.31081295
65	0xbe96d6a5	-0.29460636
66	0xbc0936d7	-0.008374891
67	0x3ecf6364	0.40505517
68	0xbe7c1086	-0.24615678
69	0xbe5492de	-0.2075915
70	0x3c8aac82	0.016927961
71	0xbead69d7	-0.33869812
72	0x3e97360b	0.2953342
73	0x3c28258a	0.010262856
74	0xbea5d2d9	-0.32387426
75	0xbd6c0823	-0.057624947
76	0xbe5b5ac7	-0.21421348
77	0x3e96ae94	0.29430068
78	0x3e83aa62	0.2571593
79	0x3e10049f	0.14064263
80	0x3c3fae41	0.01169926
81	0x3eb1a992	0.34699684
82	0x3e945f7b	0.28979096
83	0x3e185914	0.1487773
84	0xbe98450d	-0.29740182
85	0xbdec95ca	-0.115520075
86	0xbe8fd9b4	-0.28095782
87	0x3df2e901	0.11860848
88	0x3e5d83a2	0.21632245
89	0x3e6738cd	0.22580262
90	0xbde6d540	-0.11271143
91	0xbdbe4910	-0.09291279
92	0x3e6159ff	0.22006987
93	0x3e3df4f4	0.18550473
94	0x3ea4f499	0.32217863
95	0xbe558a95	-0.20853646
96	0x3ea2a123	0.31763563
97	0xbe6db302	-0.23212817
98	0x3dc86c63	0.09786298
99	0xbe22641e	-0.15858504
100	0xbea833e5	-0.32852092
101	0x3e9aeb79	0.30257776
102	0xbaaa6ca2	-0.0013002346
103	0x3e01175d	0.12606569
104	0xbdea66cb	-0.114453875
105	0xbda3d692	-0.079999104
106	0xbdbcf71c	-0.0922682
107	0xbe6c6f09	-0.23089232
108	0x3e91c6e0	0.28472042
109	0xbe3e49d0	-0.18582845
110	0x3be831d2	0.007086017
111	0xbe1d389e	-0.15353629
112	0xbeae2539	-0.34012774
113	0x3e3de58d	0.18544598
114	0x3ead50ed	0.33850804
115	0xbd98d6cf	-0.074628465
116	0xbe99eea9	-0.30064896
117	0x3ccbd0e0	0.024879873
118	0xbe4e418c	-0.20142192
119	0xbdc0e672	-0.09418954
120	0xbe5f22f7	-0.21790682
121	0xbcdda8d5	-0.027058044
122	0x3bb118f5	0.0054045864
123	0xbe912619	-0.2834938
124	0xbe93b1bb	-0.28846535
125	0xbdc8cb29	-0.09804375
126	0x3e82d7c2	0.25555235
127	0xbd2578c0	-0.04039836

layers.6.bias f4 [2]
0	0x3c486b52	0.012232618
1	0xbb879418	-0.004137527
