data/results/output_net_32000.pth (torch, 38313 bytes, 8 tensors)

layers.0.weight f4 [64, 5]
000000 dc f5 bb bd a0 c7 20 be 8e ad d5 3b d4 98 86 be
       -0.09177753 -0.15701151 0.0065209335 -0.26288474
000010 d3 97 76 be 58 c0 a9 3e 88 e9 f4 be e1 50 a0 bd
       -0.24081354 0.3315456 -0.4783442 -0.078279264
000020 8e a7 4e 3d 47 97 c7 be 69 03 95 3e 20 ee ec bd
       0.05045276 -0.38982603 0.29104164 -0.11568856
000030 53 7d a0 bd 0d 32 99 be b5 80 87 3e 5e c3 ca 3e
       -0.07836404 -0.29920998 0.26465383 0.39602178
000040 fb e0 b5 3e d3 fa 38 be 8c fa 85 bd 29 b1 95 3e
       0.3552321 -0.18064432 -0.06541929 0.29236725
000050 e9 66 f8 3c bc 8b 7e 3e cf b9 7c 3e b2 aa 7c be
       0.030322509 0.24857992 0.24680255 -0.2467449
000060 75 e2 b0 be 23 fd c4 3e ba d2 7e be 6f 06 82 be
       -0.34547773 0.38474378 -0.24885073 -0.25395533
000070 4f 44 91 3d 05 ed e6 bc 48 39 3e be 9a 01 73 be
       0.07093107 -0.028189192 -0.18576539 -0.2373108
000080 77 37 5d 3d 5b a8 3e be d5 3f d5 be 04 64 4d 3d
       0.054007974 -0.1861891 -0.41650262 0.05014421
000090 5e 15 7c 3d 8c 4b a7 be 12 e5 6b 3e fa e3 b1 be
       0.061543815 -0.32674825 0.23036602 -0.34744245
0000a0 ee 4c 07 3e b3 03 ec ba 4f c9 ff bd 28 ce 7c be
       0.1321294 -0.0018006474 -0.124895684 -0.24688017
0000b0 ad fe 99 bd a2 03 84 3c 61 6d 0f 3d c7 8a a9 bd
       -0.07519279 0.016115014 0.03501642 -0.08278423
0000c0 96 a7 39 3e 9d 12 7e 3d 3e db ca be cf 36 66 be
       0.18130335 0.06202947 -0.39620394 -0.22481845
0000d0 c1 be 07 be 11 0d 09 3e 20 db e0 bd fc f4 a4 3e
       -0.1325636 0.1338389 -0.10979295 0.32218158
0000e0 07 fd cd 3d f5 66 80 3e c1 80 2e 3d 8c 46 fa bc
       0.10058027 0.2507855 0.042603258 -0.030551217
0000f0 6f f5 69 3e 1e a2 90 bd 16 30 d1 bc b2 fb 9f bd
       0.22847532 -0.070621714 -0.025535624 -0.07811679
000100 72 df 9b 3e 4b c7 d4 3d fe ad ac 3d 3b b9 95 3e
       0.30443913 0.103895746 0.08431624 0.29242882
000110 45 40 64 be b3 61 bd be 60 1c 03 be 2b 17 eb 3d
       -0.22290142 -0.369886 -0.12803793 0.11479028
000120 7a ef 36 3d cb b3 32 be a8 0a 9d 3e 5b 9e a9 bc
       0.044661976 -0.17451398 0.30672193 -0.020705393
000130 b5 e6 85 3e b8 1a cb bc 16 b1 81 bd 5b 42 3e be
       0.26152578 -0.024793014 -0.063326046 -0.1858
000140 ed df c5 be de f8 db 3d 2a 3e d1 bd 7c 54 60 3e
       -0.38647404 0.10740827 -0.10216935 0.21907228
000150 2e 59 18 be 9a dd bd be 0c 07 8b be 62 96 00 3e
       -0.1487777 -0.3708313 -0.27153814 0.12557366
000160 68 00 13 3d e9 d8 73 be 9f e6 25 3e bf 26 c6 3e
       0.03588906 -0.23813213 0.16201256 0.38701436
000170 32 48 84 bd 9d 09 c1 3e 98 8b 90 bd 43 15 d3 3e
       -0.06459083 0.37702647 -0.070578754 0.4122716
000180 48 ab ac be ca c0 96 3e cc d3 86 3e f2 08 c6 bd
       -0.33724427 0.2944396 0.26333463 -0.09669675
000190 63 a8 57 bc a4 19 f1 3e 56 13 82 3e 9e bf 98 3e
       -0.013162705 0.47089875 0.25405377 0.29833692
0001a0 35 7c e6 3e 76 05 db 3e 90 61 83 be 2b d8 24 3e
       0.45016637 0.42777604 -0.25660372 0.16098087
0001b0 36 15 59 bd d2 6e f2 3e ff 8f 2f 3e 2a 2d b8 bd
       -0.052998744 0.47350174 0.17144774 -0.08992989
0001c0 e7 88 52 3e c2 8e 36 3e 8e bf da 3d 26 22 07 be
       0.20560037 0.17827895 0.106810674 -0.1319662
0001d0 70 e4 80 3e 87 ba 26 be 83 df 6e 3d 30 fc 04 3f
       0.25174284 -0.16282092 0.058318626 0.5194731
0001e0 f7 61 7d 3e 29 cb 2c 3c 26 a5 b8 3e 29 a8 31 be
       0.24744402 0.010546484 0.36063498 -0.17349304
0001f0 13 0e a5 3e 65 57 eb bd fc 93 9a 3e 9c 7d 3a 3e
       0.322373 -0.114912786 0.30191028 0.18211979
000200 f0 ea a8 bd 2d 86 ad be 87 98 a9 3e ee 96 e3 be
       -0.08247936 -0.3389143 0.33124182 -0.44451088
000210 80 e4 49 3b b0 eb 42 bd 2b 74 b1 be 77 4a 02 3e
       0.0030806363 -0.04758805 -0.34658942 0.12723719
000220 71 48 4d be 9b a9 3f be 5b 9b b5 3e 88 94 63 3d
       -0.20047165 -0.18717043 0.3547009 0.055561572
000230 36 cc f6 3d 3e a9 a4 bc d0 4b 44 3e 20 7a 9c 3e
       0.12050669 -0.020100232 0.19169545 0.30561924
000240 6a 19 83 3d c1 55 06 be 4c c3 aa 3e 26 7b 23 3e
       0.06401332 -0.1311865 0.33352125 0.15964946
000250 8e 10 b0 be 45 b9 63 be 35 11 1a 3d 52 f5 20 bf
       -0.3438763 -0.22238643 0.037614066 -0.6287433
000260 b9 ab b3 be a7 4f a8 3d 51 cb 8e bd e4 52 1c 3d
       -0.3509195 0.082183175 -0.06972373 0.03816499
000270 39 5f 14 3c 1f 51 9d 3e a3 29 5f 3c 6d 00 2e 3e
       0.009055906 0.30725953 0.013620767 0.1699235
000280 56 3b 9a be 6e ff 6f 3d 1a 2b a0 3d 2e 4c e1 3c
       -0.30123395 0.058593206 0.07820721 0.027502146
000290 8b 1a b6 3e 21 be 71 3e d7 aa 9f 3c bc 07 24 be
       0.35567126 0.23607685 0.019490642 -0.16018575
0002a0 9d 91 3f 3e 85 9f 87 be a2 60 9c 3e 7f 62 fa 3d
       0.18707891 -0.2648889 0.30542475 0.12225818
0002b0 a1 aa 94 be c7 dd 92 3d e9 f7 d1 3d 86 6a b4 be
       -0.2903643 0.07171207 0.10252363 -0.3523752
0002c0 e8 e6 c8 be b6 34 34 be ec bc 91 3d b7 0b 7b be
       -0.39238667 -0.17598233 0.07116112 -0.24516188
0002d0 53 94 b8 3e ec 9a b2 3e 8f 68 6f 3e 64 97 f5 3d
       0.36050662 0.3488382 0.2337973 0.11991766
0002e0 15 d9 ca 3d 85 d9 ba 3c b7 fd 22 be 29 d2 73 be
       0.09904686 0.0228088 -0.15917097 -0.23810638
0002f0 df 84 71 3e 14 a5 6d 3e cf 7a 1d be d1 75 99 3e
       0.23585843 0.23207504 -0.15378879 0.299727
000300 65 36 ac 3d 36 ad 6e 3e 0d b1 27 be fc d5 90 be
       0.084088124 0.23308262 -0.16376133 -0.28288257
000310 6e e0 22 3e 51 89 9f 3d 41 3e 94 be 6f d7 9b 39
       0.15905926 0.07789863 -0.28953746 0.00029724414
000320 e5 66 09 3d 34 4e 0d be 51 27 03 be 3e 32 d1 be
       0.033545393 -0.13799363 -0.12807967 -0.40858644
000330 cb 04 ab be 22 41 81 be d8 ac 13 3d 7a ed fa bd
       -0.33402094 -0.25245005 0.03605351 -0.12252326
000340 00 4c 78 3e 75 40 04 bf 37 61 e7 bd 48 03 58 3d
       0.24247742 -0.51660854 -0.11297839 0.052737504
000350 dc ce 6b 3e 04 8e 6f be da de 80 3e d4 82 d1 3e
       0.2302813 -0.23394018 0.25170022 0.40920126
000360 bb 07 ce 3d 58 97 ed 3d f1 25 d1 bd b6 84 38 bc
       0.10060068 0.11601132 -0.10212315 -0.0112621095
000370 d8 fd d6 3e 35 77 07 bd 3c 1f e2 bd fd ec 6c 3e
       0.41990542 -0.03307267 -0.11041114 0.23137279
000380 27 7f 16 3e d7 9c 85 3d 70 20 21 3f e6 ea be bd
       0.14696942 0.065240555 0.6294012 -0.09322147
000390 5d ea b4 3d 53 08 06 3e eb 09 ef bc ec b2 3a bd
       0.08833764 0.13089113 -0.029179534 -0.04558079
0003a0 ba 92 2c 3e 1e 0e 09 3e 3f f9 a2 3d 93 6d 93 3d
       0.16852847 0.13384292 0.07957696 0.07198634
0003b0 ae 67 43 3e 0e 02 7c 3e 35 9a f3 bd d7 21 61 3d
       0.1908252 0.24610159 -0.11894647 0.054963913
0003c0 6c bb b8 3e 09 1d 43 3e 7b ef 77 be 7c 04 6e 3e
       0.36080492 0.19054045 -0.24212448 0.23243898
0003d0 db 9a 2c be ad fb 6d be 65 8b 17 3e 9d c1 56 bd
       -0.16855948 -0.23240538 0.14799269 -0.052430738
0003e0 a9 ea 56 3e 0a 7c 40 bb cc f3 9f 3e 27 83 07 bd
       0.20987953 -0.0029370808 0.3124069 -0.03308406
0003f0 95 34 8b 3e 9d 9a 99 3d 77 7a 9d be 5e 90 50 3e
       0.27188554 0.07500193 -0.30757496 0.20367572

layers.0.bias f4 [64]
000000 b1 c1 a4 bc 83 73 12 3b 6e d2 d9 3c 38 7e 84 bc
       -0.02011189 0.0022346682 0.026589599 -0.016173467
000010 41 81 e5 bb 55 b6 26 3d 3a 01 93 bd 6f 42 53 bd
       -0.0070039337 0.04070123 -0.07177968 -0.051577028
000020 52 07 75 3c 12 71 51 3d 9a c5 52 bd 51 8b 6c 3c
       0.014955359 0.051133223 -0.05145798 0.0144375125
000030 48 d5 da 3b 11 99 5b bd bf 28 30 3d 5d 06 6c 3c
       0.006678257 -0.053612772 0.04300761 0.014405814
000040 d5 c8 c7 3c e4 84 9b bb c1 df 86 bc 33 d2 37 bd
       0.024387756 -0.0047460664 -0.016464116 -0.044878196
000050 96 96 e3 be 8b 9e be bb 98 61 10 bd c5 24 80 3d
       -0.44450825 -0.0058172396 -0.035249323 0.06257013
000060 82 1e 2f bc 51 9e ae 3c 76 ef e1 3c 10 f4 fb 3c
       -0.010688426 0.021315726 0.027580004 0.030756027
000070 2b 99 df bc e6 05 34 3d 90 b3 02 bd 0b 00 95 bc
       -0.027294716 0.043950938 -0.031909525 -0.018188497
000080 1b a2 cc bb eb 64 e7 bc 20 9d 01 3c 0c c8 0b bd
       -0.0062449104 -0.028246364 0.007910997 -0.034126326
000090 12 b8 3e 3c e3 f0 26 3b e3 cf 0c 3c 0c af 5c 3c
       0.0116405655 0.002547317 0.008594486 0.013469469
0000a0 ae ca e1 3d 01 ef e2 3d c0 f5 59 3d 1a 31 fe 3b
       0.11024986 0.110807426 0.05321288 0.007757318
0000b0 1b 50 23 bd 32 d0 e4 3d fb bd 11 3e df 62 03 bc
       -0.039871316 0.111725226 0.14232628 -0.008019178
0000c0 41 da 57 3d 72 df ff bd 36 6e ff bc 22 6b 41 3c
       0.052698378 -0.12493791 -0.031180482 0.011805328
0000d0 66 e6 5c bd 08 5f 49 3c a0 14 2e 3c a7 6e 5b 3b
       -0.053930663 0.012290724 0.010625035 0.0033482702
0000e0 4c d8 50 3d a4 30 d8 bc 35 c6 15 3c 1f b9 f4 bd
       0.050987527 -0.026390381 0.0091414945 -0.119493715
0000f0 c9 4d 46 bd f4 9b d7 bc e2 44 c4 bc 51 90 d2 3b
       -0.048414025 -0.026319481 -0.023958627 0.0064258953

layers.2.weight f4 [64, 64]
000000 2e f6 a6 bd 16 16 77 3e f7 a4 04 3e d2 55 a8 3d
       -0.08152424 0.24129519 0.12953554 0.08219494
000010 63 20 9f bd 53 eb 3c 3e e9 83 d3 3d 6e 58 45 3d
       -0.07769849 0.18449144 0.10327894 0.048180036
000020 b8 26 63 3e 59 c7 4a be b2 f0 66 bd 4d 1f 58 be
       0.22182739 -0.19802608 -0.05638189 -0.2110569
000030 5f c2 03 bd d8 1a 52 be 0b b9 12 be 7e 5e 9a bd
       -0.03216779 -0.20518053 -0.14328401 -0.07537554
000040 ca b4 26 be 88 4b 5b be 47 34 f0 3b 13 08 4c 3e
       -0.16279903 -0.21415532 0.0073304507 0.19924955
000050 7a 89 3f 3d f7 af 22 bc 68 1c 3b 3e 62 71 07 3d
       0.046761967 -0.009929649 0.18272555 0.033067115
000060 79 5a 1b bd bb f0 4b be 7b c1 6f 3e 63 80 87 bc
       -0.03792808 -0.1991605 0.2341365 -0.016540712
000070 fd 0b 28 be d8 d1 d0 ba 63 d1 59 bc b0 6c 0e be
       -0.16410823 -0.0015931679 -0.013294551 -0.13908648
000080 eb 1d 48 bd 94 4f 69 3e dd 7d 88 bc 0b d5 0b 3d
       -0.048856657 0.22784263 -0.016661579 0.03413872
000090 bc 97 9e be c6 eb 67 3e db 16 9a be d7 02 8b bd
       -0.3097514 0.22648534 -0.30095562 -0.06787651
0000a0 fa 67 87 3d ee 2d 1c be 83 7c 0a ba ae 8c b1 bc
       0.06611629 -0.15251896 -0.0005282836 -0.021673527
0000b0 4e 43 9d bd 01 95 4f be 43 93 01 3e de a7 b0 be
       -0.07678853 -0.20271684 0.12653832 -0.34503073
0000c0 9d 9f b7 bd 86 ff e6 3d b0 99 b6 bd d5 01 13 bd
       -0.08965991 0.11279206 -0.08916032 -0.03589042
0000d0 af 15 87 bc 3a cd 0d be 2e fe 40 3e b2 cb 86 bd
       -0.016489832 -0.13847819 0.18846962 -0.065818205
0000e0 a8 4b 55 3d 02 e5 30 be eb f5 2d bd 46 f9 3d 3e
       0.052074105 -0.1727486 -0.042470854 0.18552122
0000f0 c2 af 28 3e 73 52 95 3d ec 40 34 3e 30 39 9d 3e
       0.16473296 0.072911166 0.1760289 0.30707693
000100 c3 3a 19 3d 8b fe 80 3e f4 4f 4e 3e b1 d8 1e be
       0.037409555 0.251942 0.20147687 -0.15512349
000110 aa 82 bc 3d c6 02 07 3e c9 7b 82 3d 01 37 2d be
       0.0920461 0.13184652 0.063712664 -0.16915514
000120 59 8c bb bc a4 f4 16 3e 27 d2 24 3e d6 86 00 3e
       -0.022894071 0.1474176 0.16095792 0.12551436
000130 84 86 0d be bc ff 3c be 33 6e c0 bd 37 4e 91 be
       -0.13820845 -0.1845693 -0.09396019 -0.28379986
000140 a2 2a f0 3d cb 17 ce 3c a6 73 6e be a9 f2 a9 ba
       0.117268816 0.02515783 -0.23286304 -0.0012965995
000150 b0 d8 f5 bd f8 57 1f 3d a1 3c cb 3d 3a 01 61 be
       -0.120042205 0.038902253 0.099236734 -0.21973124
000160 05 a1 dc 3c 39 ff 0f be c2 35 80 3e 8f 06 ac 3d
       0.026932249 -0.14062203 0.25041014 0.083996885
000170 d4 3a c2 3d 35 a3 5c be 5b 7f 94 3e 8a b7 02 3e
       0.09483877 -0.21546634 0.29003415 0.12765327
000180 87 83 14 3e 85 02 88 bb 66 da fc bc 02 38 b4 3e
       0.14503299 -0.004150691 -0.03086586 0.3519898
000190 13 f9 90 be 47 a1 90 bc 79 b8 a3 ba 06 8c 21 be
       -0.2831503 -0.017655028 -0.001249089 -0.15776071
0001a0 b3 af 71 3e 86 70 2b 3e 27 38 1a 3e da 84 a2 3d
       0.2360218 0.16742143 0.15060483 0.07935496
0001b0 c1 21 35 3d 4f cd 25 be e0 64 12 3e 38 e6 0b be
       0.044221643 -0.161916 0.14296293 -0.1366204
0001c0 c7 c1 01 bd 54 ab 57 bd a9 69 fe 3c 08 c6 64 be
       -0.03167894 -0.052653626 0.031056242 -0.22341168
0001d0 51 69 0e 3d da cb 0a 3e 6e 1a e0 3d fd 67 91 bd
       0.034768406 0.13554326 0.10942541 -0.07099912
0001e0 78 37 14 bb 56 50 51 be 53 7c 6b be 8d 7b 08 be
       -0.002261607 -0.20440802 -0.22996645 -0.13328381
0001f0 c4 0b 56 be fd bb 10 be 51 48 2f 3e 1e 10 a6 3e
       -0.20902926 -0.14134212 0.1711743 0.3243417
000200 60 93 d0 bb 2c 45 44 3e 49 6b 90 3e a9 d9 e6 3e
       -0.0063652247 0.19167012 0.28206852 0.45087937
000210 72 fb c3 3d ed aa 9c 3e f5 5d 16 3e 06 59 3c be
       0.09569444 0.30599156 0.1468428 -0.18393335
000220 8a aa fe 3d 12 38 b5 3c e5 de ac be 95 fc 9e bd
       0.124348715 0.022121463 -0.33763805 -0.0776302
000230 e6 f8 c1 3e c1 72 77 bd 67 06 9e bd f0 9d e5 bc
       0.37885207 -0.060412172 -0.07716065 -0.028029412
000240 4f 0d 8c be bc 0a c0 be cd 15 3e be 50 a6 1d be
       -0.27353904 -0.3750819 -0.18563004 -0.15395474
000250 0e 33 eb bd 8e 19 c6 3e 53 5d 0e 3d c2 ed eb bd
       -0.11484347 0.38691372 0.03475697 -0.11519958
000260 32 5e 8d 3e 9e 3a 8f bd 81 9c 1c 3d 1c 1a de bd
       0.27610928 -0.06993602 0.03823519 -0.10844824
000270 3c 50 3b be 30 3d 5c bd 72 60 4c 3e 42 58 ff bd
       -0.18292326 -0.05376929 0.19958666 -0.12468006
000280 c2 01 d2 b9 1e 01 2e 3e 35 dd 22 3c 60 51 6a bd
       -0.0004005563 0.16992614 0.009940435 -0.05720651
000290 4f 13 ad 3d f0 8e 50 3e dc 39 87 be 65 f1 d8 bd
       0.084509484 0.20367026 -0.2641133 -0.10592917
0002a0 f6 b2 c4 3d ba 79 10 be 64 50 67 3e 9e a8 80 3e
       0.096044466 -0.14108935 0.2258926 0.25128645
0002b0 28 87 77 3e c7 a9 1a 3e b6 84 0b be 56 5a 1f 3e
       0.24172652 0.15103827 -0.13624844 0.15561804
0002c0 9e d5 59 3e b2 aa 70 be 5d c2 88 bd e1 5f 00 3e
       0.21272895 -0.23502615 -0.06677697 0.12536575
0002d0 20 c5 f0 3d 42 77 18 be 34 4f e9 bd 03 89 39 be
       0.117563486 -0.14889243 -0.1139206 -0.18118672
0002e0 86 87 9c 3d 91 58 d3 bd 74 ec a7 3d 6f a3 37 bc
       0.076430365 -0.10319627 0.08199397 -0.011208399
0002f0 4e 2d bf 3e 18 20 90 3e be 9c c5 3e e2 25 b5 3d
       0.37339252 0.28149486 0.38596147 0.08845116
000300 d4 aa 6c be b5 64 e3 3d b6 2c 44 3e 7c a4 90 3e
       -0.23112041 0.11103193 0.19157681 0.28250492
000310 03 3b c9 bd 02 22 9b bd ce 71 97 be f5 a7 8b 3e
       -0.09825709 -0.07574846 -0.29579014 0.2727658
000320 bd 61 93 3d 45 8a 62 bd 04 ea 52 3d 02 ae 89 3e
       0.071963765 -0.055307645 0.051492706 0.2689057
000330 cb 35 0b 3e b6 f4 dc 3c 01 ae 47 be bb 23 c2 bd
       0.13594739 0.026972156 -0.19499971 -0.09479471
000340 30 ab 45 be db d2 af be b1 08 c9 3d 15 de 1f bc
       -0.19303584 -0.34340557 0.09816111 -0.009757538
000350 00 e9 ab bd 8b 5f 41 3d 80 c4 c4 3d 49 7f 80 3e
       -0.083940506 0.047210258 0.09607792 0.2509711
000360 9e 04 12 be e6 5c e1 bc 90 dc 07 be a8 88 55 3e
       -0.14259574 -0.027510118 -0.13267732 0.20852911
000370 82 40 0a be 8b 6c 60 be 77 87 52 3d be 86 c9 bd
       -0.1350117 -0.21916406 0.05139872 -0.09840153
000380 7f 20 ee 3c 83 c0 38 3d d8 f4 c3 3d 26 8b 6c be
       0.02906823 0.04510547 0.095681846 -0.23099956
000390 94 f7 68 3e f7 01 71 bc 70 2e 51 3e 3f 48 77 be
       0.22750694 -0.014709941 0.20427871 -0.24148653
0003a0 d2 65 04 3e a3 76 27 be b7 c5 e9 3d 69 38 83 3e
       0.12929466 -0.1635385 0.11414664 0.25628975
0003b0 fb df ff 3e 90 4f 96 3e 60 76 49 3e 22 42 46 be
       0.4997557 0.29357576 0.19674063 -0.19361165
0003c0 b9 3c ef 3d 76 d6 09 3e 5b 3a 05 bd d5 7d 88 bd
       0.11681504 0.13460717 -0.032526355 -0.066646256
0003d0 84 b1 22 be 7b 06 6e 3e cc b0 5c 3e 5c 65 0f 3e
       -0.1588803 0.2324466 0.21551818 0.1400351
0003e0 86 91 02 3e d6 45 56 3e c1 72 9c bd 96 e8 7a be
       0.12750825 0.20925078 -0.07639075 -0.24502787
0003f0 b1 3c a1 3e a2 23 43 3e 2b 3a 84 be c2 d1 ac be
       0.31491616 0.19056562 -0.2582563 -0.33753783

layers.2.bias f4 [64]
000000 94 8c 31 bd a9 bb 0b 3d 5d 3c 9c 3b d2 87 a7 3c
       -0.043346956 0.034114514 0.004767938 0.020450506
000010 bf d8 04 bb fd 99 dc bc 2f 60 8f bd 7e 3b 71 3d
       -0.0020270792 -0.026928896 -0.070007674 0.058894627
000020 01 9c 0b 3d 00 5f 33 be 94 03 47 bd b7 d2 b0 3d
       0.034084324 -0.17516708 -0.048587397 0.08633941
000030 b8 b3 93 3d f9 64 b1 bc db e8 82 3c 8c 06 af bc
       0.07212013 -0.021654593 0.015980175 -0.021365426
000040 14 76 1f 3e 07 e6 84 3d bf 19 fd ba 2b 2c 0a bd
       0.15572387 0.06489187 -0.0019310041 -0.033733528
000050 10 de 07 bd 9e e1 e3 3c 0c fc 66 3d c0 e1 94 bc
       -0.03317076 0.027817544 0.056392714 -0.018174052
000060 2b e3 56 3d a0 5e 06 3d 6b 64 93 3c 5a 3b 1b 3c
       0.052462738 0.032805085 0.017992219 0.0094746
000070 ac c0 b8 3c 0e 8e d0 3d 00 d8 38 bd 91 46 64 3d
       0.02255281 0.10183345 -0.04512787 0.05573136
000080 29 f2 6c 3d 63 23 9f 3d da 55 14 bd ea 4c ca bc
       0.05784813 0.07770421 -0.036214687 -0.024694879
000090 14 d3 19 3c e2 89 b7 bb 46 aa 90 bb c4 af 8a 3b
       0.009388704 -0.0056011537 -0.0044148294 0.0042323787
0000a0 00 05 3f bc ae 24 35 bc 0f 41 97 bd e1 c3 a3 bb
       -0.011658907 -0.011056108 -0.07385456 -0.004997716
0000b0 3d ce 73 3c bf e7 41 3b 4e d8 d3 bc 75 36 01 bd
       0.014880714 0.0029587594 -0.025859978 -0.031546075
0000c0 8d 6c 18 bd 49 5b 74 bc 36 16 a3 3c f7 14 26 3d
       -0.037212897 -0.014914342 0.019908052 0.040547337
0000d0 c6 db 95 bd 39 64 dc 3c c8 e4 22 bd 01 e2 d7 3d
       -0.07317309 0.026903259 -0.039768964 0.10541154
0000e0 c4 7e 19 bd 7a 86 82 bc 85 0a a0 bd 5e 31 fe 3c
       -0.03747441 -0.015933264 -0.078145064 0.0310294
0000f0 80 28 aa bb bb 2a 03 3c e8 83 de 3d a2 68 37 bc
       -0.0051928163 0.008005793 0.10865003 -0.01119438

layers.4.weight f4 [64, 64]
000000 3e f8 61 be 3a ac 10 bd db a3 49 3e 4f f7 a6 bd
       -0.22067353 -0.035320498 0.19691412 -0.08152639
000010 0d af f0 3d fa 84 50 be a6 12 a6 bd 64 ab be bd
       0.11752138 -0.20363227 -0.08109026 -0.09310034
000020 68 75 16 3e 68 94 86 be 90 9d a0 3e c9 bc 25 3e
       0.14693224 -0.262851 0.3137021 0.16185297
000030 aa dd ca 3d 33 a4 ba bd 45 b8 2d be a2 39 cf 3d
       0.0990556 -0.0911335 -0.16964824 0.101184145
000040 9d fe 9f be 5f 7e cd 3a 91 45 3d be c9 b4 8b 3c
       -0.31248942 0.001567792 -0.18483569 0.017053979
000050 8b d4 be bd 1a f9 41 be 5c 16 50 3d bc ca 42 be
       -0.09317883 -0.18942681 0.050802574 -0.1902265
000060 62 5e 1f be 11 df c5 bd 01 8c 56 bd f7 32 21 be
       -0.15563348 -0.09661687 -0.052379612 -0.15742098
000070 3b 87 8f 3d 89 02 9d 3e 80 84 43 3e aa 09 ea bc
       0.07008215 0.30665997 0.19093513 -0.028569061
000080 65 33 5c be aa 19 2c 3e 95 59 3c be 4e 64 2d be
       -0.2150398 0.16806665 -0.18393548 -0.16932794
000090 d5 40 67 be 89 dc b9 bd 9f bc 0b be ec a0 d8 bd
       -0.22583325 -0.09075267 -0.13646172 -0.105775684
0000a0 3d dd 95 3d 3d 36 eb bd 7f d1 25 3d 5c 39 89 3e
       0.073175885 -0.114849545 0.040482994 0.26801574
0000b0 45 10 9a 3d c7 6c 80 3e d3 6d 44 be 2f 3c 6d bd
       0.075226344 0.2508299 -0.1918252 -0.057918724
0000c0 a4 18 49 bd d2 11 5d 3d 30 4d 25 3e 06 67 9f 3b
       -0.049095765 0.053972073 0.16142726 0.0048645763
0000d0 07 2f 33 be 20 52 4e bd 9c 1e 03 bd c0 bd 9e be
       -0.17498408 -0.05037129 -0.032011613 -0.31004143
0000e0 89 f6 95 3c f9 4c bf 3d 41 1f 0b be f5 71 b1 bd
       0.018306034 0.09340853 -0.13586141 -0.08664314
0000f0 28 e9 0f be 9d 2a 4d be 1d 72 94 bd 68 b5 14 3e
       -0.14053786 -0.20035787 -0.07248328 0.14522326
000100 f5 85 2e 3e d4 d6 82 bc 0b 50 0c 3e 4d 36 e6 3c
       0.17043288 -0.015971579 0.13702409 0.028102065
000110 20 6c 8e 3e b8 98 82 bc ea 72 00 3e 6f c0 17 3e
       0.27816868 -0.015941963 0.12543836 0.14819501
000120 31 19 ca bb 33 ba bd 3d 5e 6d 1e 3d 3b d7 9c bd
       -0.006167554 0.0926403 0.03867852 -0.076582395
000130 77 05 fc 3d 8d c1 0a 3e 4b bf f4 bd 45 99 bf bd
       0.1230573 0.13550396 -0.11950549 -0.09355406
000140 32 17 7d be fb ce d3 bd b0 e1 1b be a5 d4 59 be
       -0.2471588 -0.10342213 -0.15222812 -0.21272524
000150 4b d3 8f 3d b0 b9 4d be a7 4a 45 be ef 92 48 be
       0.07022723 -0.20090365 -0.19266759 -0.195873
000160 b8 35 78 3c b1 b3 36 3e a6 e7 28 bd 3f dc 54 be
       0.015149526 0.17841984 -0.041236542 -0.20787142
000170 fd 6a 3c 3d 51 3d 57 3c 76 61 27 3e 8d 64 19 bd
       0.04600047 0.013137178 0.16345772 -0.03744941
000180 4d 03 5c 3e 64 fd 9a 3d 99 ad 2f 3e 08 41 1e be
       0.21485634 0.07567862 0.17156066 -0.15454495
000190 fc fb f9 bd 81 d5 98 3b bc 81 64 3e ea 3e d9 bd
       -0.12206265 0.0046641235 0.22315115 -0.10607703
0001a0 63 fa 28 3e 27 bc 52 be 5b cb 7e bd 92 ad 91 bd
       0.16501765 -0.20579587 -0.062205654 -0.07113184
0001b0 b4 b5 a3 bd 70 9a c0 bc cb 44 a6 3d 2a 5b 43 3e
       -0.079936415 -0.023511142 0.0811859 0.19077745
0001c0 4f da 0b 3e 6d 2f 57 bd df 2c c7 3d 67 ca 1d be
       0.13657497 -0.052535463 0.09725355 -0.15409242
0001d0 57 fe bc bd 23 bc 5a 3e 43 4b 25 3e bd fb 0e bc
       -0.09228199 0.21360831 0.16141991 -0.008727011
0001e0 c5 45 0c 3e 94 15 08 be 3a 79 17 3e 16 7b bb bd
       0.1369849 -0.13289481 0.14792338 -0.09154336
0001f0 13 54 04 be 0d 43 1c be d3 4b 1e bc 0f 7b 78 3e
       -0.12922697 -0.15259953 -0.009661633 0.24265693
000200 36 2d c2 3d 45 d4 07 be c8 50 d9 bd 4e 4f 1d be
       0.094812796 -0.13264568 -0.10611111 -0.15362284
000210 9f db 4a 3e 77 23 71 be 12 a0 ea 3c e6 70 ec bc
       0.19810341 -0.23548685 0.02864078 -0.028862428
000220 33 96 11 3e b8 2b 2c 3d 83 8f c3 bd 01 de 68 bb
       0.14217453 0.04203388 -0.09548857 -0.0035532715
000230 39 02 5d 3e 9e 99 27 bd 41 6b 81 3e 24 87 32 be
       0.21582879 -0.040917985 0.2527714 -0.17434365
000240 66 78 33 3e 10 d6 b7 3d 63 0b 1b be 93 b3 a6 bd
       0.17526397 0.08976376 -0.15141062 -0.0813972
000250 b9 92 1f 3e 10 bc b0 bc d7 28 8a 3e 9a f3 32 be
       0.15583314 -0.02157405 0.26984283 -0.17475739
000260 73 95 bc 3d 13 4d 21 be f6 6f 50 be 42 60 49 3d
       0.09208193 -0.15752058 -0.2035521 0.049164064
000270 0d c3 a6 3d 09 28 02 be 43 f6 02 3e 1a ca 12 be
       0.08142672 -0.12710585 0.12789254 -0.14334908
000280 05 33 a7 bd fc 64 b1 bd 03 62 ee bd b1 00 66 be
       -0.08164028 -0.08661839 -0.11639788 -0.22461201
000290 7b 70 95 be d2 60 bf bd 33 96 33 be d4 ed 3a be
       -0.29187378 -0.09344639 -0.17537765 -0.18254787
0002a0 4b c1 27 3e 65 45 94 be 9f ad 78 3d 76 bc 46 3c
       0.16382329 -0.28959194 0.060712453 0.0121298935
0002b0 06 04 2d 3e 1c 0b 28 3d 18 37 65 3d c1 df 14 be
       0.16896066 0.04102622 0.055960745 -0.1453848
0002c0 eb 5d 7a bc cf 9e 46 3e 0d 25 1c be a9 b2 c9 3d
       -0.015281181 0.19396518 -0.15248509 0.0984853
0002d0 14 05 d7 bc 2b d8 33 be 32 10 58 be 75 66 e4 3d
       -0.026247539 -0.1756293 -0.21099928 0.11152355
0002e0 49 10 1d bd fe 8b 27 3e 1a e1 37 be c0 6d f6 bd
       -0.03834561 0.16361997 -0.17956963 -0.12032652
0002f0 25 7f ba be a9 d9 a7 bd fe d7 0c be 7f 86 24 3d
       -0.3642513 -0.08195812 -0.1375427 0.040167328
000300 cb 02 0a be bd 9c 5f 3e b1 fc 8b bd 9e ed 1e be
       -0.13477628 0.21837135 -0.068353064 -0.15520331
000310 24 62 7e bc ae 0b 65 3e 11 e3 5a 3e 94 56 4f be
       -0.015526328 0.22367737 0.21375681 -0.2024787
000320 7e 1c 18 be b4 46 fb bd f7 c9 b8 bc 4a 88 ce bd
       -0.14854619 -0.12269345 -0.022557242 -0.10084589
000330 bf 1c 1e bd 36 50 10 3e e8 00 4d 3d b5 14 fc 3d
       -0.038601633 0.14093098 0.050049692 0.12308637
000340 7b 26 47 3d af 31 00 be 3f 3b 19 bb 02 ea ca 3d
       0.048620682 -0.12518953 -0.002338126 0.09907915
000350 ff c5 05 3e f1 87 2e 3e 7b ea bd bd 97 0e 62 bd
       0.13063811 0.17044045 -0.09273239 -0.055189695
000360 7c ca 75 3e 17 d6 13 3e e6 cc 69 be a1 af 43 be
       0.24003023 0.14437138 -0.22832069 -0.19109966
000370 58 3f c5 bd da b2 68 3e bb 50 03 be f5 b1 ee bd
       -0.096312225 0.22724476 -0.12823765 -0.11655036
000380 20 0a 84 3d 7c 70 c3 bd fe ba f6 3d 2f c1 e6 3c
       0.06447244 -0.09542939 0.12047385 0.028168289
000390 9b c2 1b 3e 6e 6b 1d 3d a2 10 cf bd 83 66 a1 bd
       0.15210955 0.03843253 -0.10110594 -0.07880881
0003a0 4c 73 10 3d b9 82 27 be 09 c8 45 3e 6c 91 d9 3d
       0.035266206 -0.1635846 0.19314589 0.1062344
0003b0 ec 6f 20 be 12 1d 25 be 07 11 5b be 93 55 96 3d
       -0.15667695 -0.1612437 -0.21393214 0.07340541
0003c0 f1 6e 05 bd a4 29 1a 3d fa 9a 23 3e f4 8c 52 3d
       -0.032576505 0.037637368 0.15977088 0.051403955
0003d0 5d 17 12 bd 5c 0f 5e be 30 5b ee 3a 90 da 05 bd
       -0.035666812 -0.21685547 0.0018185135 -0.03267914
0003e0 a0 c7 09 3e 28 8a 13 be 1f 02 b9 3d 5d 98 93 bc
       0.13455057 -0.14408171 0.09033608 -0.018016988
0003f0 bc dd d4 bd 48 b2 fb bd 6c 84 9e 3d 6b 9f 1a bd
       -0.10393855 -0.12289864 0.07740101 -0.03774969

layers.4.bias f4 [64]
000000 d6 05 12 bd e5 b2 f9 bc d3 35 c3 bb 27 70 af 3b
       -0.035650097 -0.030480811 -0.005957344 0.005353946
000010 b9 fd fd bd 31 b8 1f bc c6 f6 9d 3d f4 77 a2 bb
       -0.124019094 -0.0097485045 0.07713084 -0.004958147
000020 fe 0f a1 3c c2 4e ce 3b 09 18 ff 3b e4 90 54 bd
       0.019660946 0.0062960098 0.0077848476 -0.05189599
000030 97 89 85 bc b8 97 55 bd 3f 58 4e bc 2e 0c 10 3d
       -0.01630096 -0.052146643 -0.012594282 0.035167865
000040 fc 2b 17 3d 03 2d a9 3d 6a 84 c5 3c 6c 09 36 3d
       0.03690718 0.082605384 0.024110992 0.04444258
000050 85 a6 19 bc aa b9 ce 3b 32 b5 a8 3b 88 b3 2a bc
       -0.00937808 0.006308754 0.0051485533 -0.01041878
000060 39 cc 46 ba 73 19 4c bd 37 97 3c 3b b2 a1 0b bb
       -0.0007583532 -0.049828958 0.0028776655 -0.0021306095
000070 99 14 40 3c 66 f8 d9 3c 16 4f d5 3b 35 e7 4b 3d
       0.011723661 0.026607703 0.006509672 0.049781043
000080 1e cb 02 bd 68 8f 78 bc e1 5b 96 bc 48 ea 01 3b
       -0.03193199 -0.015170909 -0.018354358 0.001982348
000090 49 60 81 bd 19 9d e8 bb 81 6e 3b bd b9 c2 82 bb
       -0.06317193 -0.0070988056 -0.04575968 -0.003990498
0000a0 60 ab d6 bc 52 e7 8e bb aa 23 2f bd 7d 3b b3 bd
       -0.026204765 -0.0043610716 -0.04275862 -0.08751581
0000b0 c8 8e f9 3d 1e d8 c9 bd 75 89 eb bb 47 69 a3 3c
       0.121854365 -0.09855674 -0.007188017 0.019947661
0000c0 d5 43 b6 bd 5f 4e 01 bd 0a 49 b0 3a 3e 46 39 3d
       -0.08899657 -0.03156888 0.0013449502 0.045233004
0000d0 0b 88 21 bc 52 5e 33 bd 3f cc b4 3d 7e 2c e3 bc
       -0.009859095 -0.043791123 0.08828019 -0.027731176
0000e0 24 3d 89 bc 45 38 49 3c 2f 97 77 3d 6b 62 3e 3d
       -0.016752787 0.012281482 0.060446914 0.046480577
0000f0 2c b3 9e bc 13 c3 46 be 92 ae 08 be b9 e7 77 3c
       -0.019372545 -0.19410352 -0.13347843 0.015130931

layers.6.weight f4 [2, 64]
000000 71 4b bb be d2 cb 4f be fd a7 89 3e 50 c3 53 bc
       -0.36580995 -0.20292595 0.26885977 -0.012924984
000010 f9 65 2f 3d 97 56 6c be fe a7 21 be c6 70 5b 3d
       0.042821858 -0.23079906 -0.1578674 0.053574346
000020 15 00 9f 3e ae 3e fc bc c4 23 4a 3d 6b 6a 9a be
       0.3105475 -0.030791607 0.049350515 -0.30159315
000030 55 a1 64 be 2b fc 70 be dc 77 57 3e 0d 76 44 3e
       -0.22327168 -0.23533694 0.21041816 0.19185658
000040 dd 5d 80 3e 74 9a 85 bd 0e dc 8f 3e 61 c5 01 3e
       0.25071612 -0.065236 0.28097576 0.1267295
000050 7d 7b b7 bc 56 3a 49 3e 23 0b 87 3e a8 a0 81 3e
       -0.022397751 0.1965116 0.26375684 0.25317883
000060 3b d0 b1 3d 45 0c e8 bd 3d 54 83 3e 24 0e 64 bb
       0.08682295 -0.11330465 0.25650206 -0.0034798468
000070 75 a7 82 3d f6 f6 62 3e ea 6e 54 3e 15 0b 00 be
       0.06379596 0.2216452 0.20745435 -0.12504227
000080 52 1c 9a 3e 10 96 84 3e e2 de 25 be 6b d5 74 3d
       0.30099732 0.2589574 -0.16198304 0.059773844
000090 51 56 31 be 32 43 1c bd 59 85 50 be 6b 7d bf 3e
       -0.17318083 -0.03815002 -0.20363368 0.37400374
0000a0 65 6b a4 be dc f9 cb bb fc 0d 6b be 2c 2a 90 3c
       -0.32113186 -0.006224854 -0.22954553 0.017598234
0000b0 22 1d ab be 6b a3 8e be cd 4c 9c 3e 04 5a 10 3d
       -0.33420664 -0.27859053 0.30527344 0.035242096
0000c0 15 f7 5b 3e 97 93 91 be b0 35 1d be 7e ac 9b 3e
       0.21480973 -0.28432915 -0.15352511 0.3040504
0000d0 c4 85 21 be f1 67 4f be 90 0a 97 3e 4d 96 84 be
       -0.15773684 -0.20254494 0.29500246 -0.2589592
0000e0 6d 92 54 3e bf 12 a4 be 43 fe fb 3d 6e 53 26 bc
       0.20758982 -0.32045552 0.12304356 -0.010151727
0000f0 96 f5 96 be 7e 0a ba 3e b9 ce 01 be ee 89 4b be
       -0.29484242 0.3633613 -0.12676515 -0.19876835
000100 fb 49 9a 3e 18 40 a7 be 1d c6 07 bc 68 3f f2 3e
       0.30134568 -0.32666087 -0.00828698 0.47314
000110 5d 2e a3 be 8e 84 4c be dd 8b 41 3d 78 7d ca be
       -0.3187131 -0.1997244 0.047252525 -0.3954885
000120 45 bf 9b 3e c0 ce 13 bd 62 6f a7 be b6 a4 52 bd
       0.30419365 -0.036085844 -0.32702166 -0.05142661
000130 79 6e 8b be 6b 62 af 3e 11 d0 89 3e e8 77 3f 3e
       -0.2723272 0.34254774 0.26916555 0.18698084
000140 72 45 57 3c 11 37 e3 3e 35 78 b5 3e 9d af 35 3e
       0.013139116 0.4437795 0.35443273 0.17742772
000150 50 ae c5 be cd 2f 0b be a5 ef b6 be 8d a0 fa 3d
       -0.38609552 -0.13592453 -0.3572971 0.12237654
000160 4c c8 6b 3e 5c 10 72 3e d1 84 0a be c3 89 9a bd
       0.23025626 0.23639053 -0.13527228 -0.07545807
000170 71 07 99 3e 7f dc 64 3e 8c f6 b3 3e db 0e 7d be
       0.2988849 0.22349738 0.35149038 -0.24712698
000180 9e c9 b5 3e 0c 1a 90 be 63 6a 4a 3e d6 a2 3e be
       0.35505384 -0.28144872 0.19767146 -0.18616804
000190 23 c3 ae be 17 a9 b2 3e 8c bd d4 3b 1c 6b 09 3e
       -0.34133253 0.3489463 0.0064923223 0.13419765
0001a0 c9 8c f6 bd 21 59 f7 bd 2b 6a f2 bd 12 4e 88 be
       -0.120385714 -0.12077547 -0.11836656 -0.26622063
0001b0 bc 82 af 3e 07 83 72 be 8a 06 c7 bb a2 8a 3c be
       0.3427943 -0.23682795 -0.0060737776 -0.18412259
0001c0 3d f2 c2 be f2 f9 5e 3e d2 36 b4 3e 6e c3 8b bd
       -0.38075438 0.21775034 0.35198075 -0.06824385
0001d0 9e 1a aa be 70 85 27 3c 11 a9 6b be 54 7a d7 bd
       -0.33223432 0.010224685 -0.23013712 -0.10521379
0001e0 ca e6 88 be 69 13 db bc 7f 92 0f 3c 59 e6 9d be
       -0.26738578 -0.026742654 0.008762955 -0.30839804
0001f0 52 c4 99 be 3d 75 72 bd c5 65 a5 3e 82 8c 78 bd
       -0.30032593 -0.05919384 0.32304206 -0.060680874

layers.6.bias f4 [2]
000000 af b3 21 3d a9 00 29 3c
       0.039478 0.010315099
