data/results/output_net_16000.pth (torch, 38313 bytes, 8 tensors)

layers.0.weight f4 [64, 5]
-0.11565541 -0.14362833 0.018382423 -0.24373968 -0.20172274 0.30645448 -0.44353557 -0.06654162
0.059528407 -0.370525 0.26864284 -0.11200365 -0.03400898 -0.3036123 0.23740213 0.361455
0.32757023 -0.16682445 -0.05655381 0.28690532 0.034917355 0.21555737 0.24063592 -0.23940769
-0.31057632 0.34733263 -0.21551068 -0.22091196 0.08691377 -0.02275968 -0.16767742 -0.2092711
0.07379446 -0.13715164 -0.33010682 0.039610412 0.023707505 -0.31137696 0.2267467 -0.29306066
0.10887571 0.014121415 -0.1205237 -0.23356336 -0.07412168 0.023388192 0.017155834 -0.08323982
0.15311836 0.04477211 -0.38054827 -0.1963738 -0.12759748 0.12266658 -0.12001829 0.31036985
0.07161405 0.24255624 0.046159945 -0.013517825 0.2183441 -0.08808448 -0.010890594 -0.069044776
0.2823399 0.100938745 0.04206068 0.2961027 -0.20705475 -0.33222905 -0.12144468 0.12571125
0.043829676 -0.17182271 0.28062245 -0.012216543 0.2310893 -0.015730578 -0.056537222 -0.15451361
-0.33625364 0.12999448 -0.10674164 0.19963177 -0.15323421 -0.34637874 -0.23519073 0.12573063
0.052912712 -0.22405842 0.16839671 0.32562214 -0.053501725 0.36739776 -0.073325306 0.37957627
-0.3139804 0.25701833 0.23371424 -0.040173896 0.114530414 0.1900441 0.33565995 0.23232189
0.3733627 0.4103262 -0.2786206 0.15703075 -0.03964438 0.39127132 0.15076613 -0.09237991
0.19006406 0.16824591 0.096688844 -0.11879564 0.26629722 -0.18087034 0.052044958 0.46290058
0.22149462 -0.01993846 0.33163866 -0.13560982 0.26606205 -0.110829405 0.27720913 0.18092169
-0.076095425 -0.316252 0.31574658 -0.41953465 0.0016309291 -0.04488191 -0.34159082 0.10247076
-0.19698872 -0.18083574 0.30437562 0.044896614 0.14262488 -0.06053558 0.18165801 0.29533067
0.03376851 -0.1256344 0.2650518 0.15315133 -0.32759586 -0.17045294 0.004802236 -0.42860693
-0.33026075 0.061396725 -0.1109699 0.03697392 -0.009179827 0.29671416 0.003345689 0.13594799
-0.27270457 0.061498236 0.07178377 -0.0015469977 0.32731095 0.22506608 0.012426816 -0.1588275
0.18552451 -0.24180417 0.28511414 0.11468806 -0.29028788 0.07057674 0.09518101 -0.34339294
-0.3640569 -0.17308475 0.069513716 -0.24440609 0.3628742 0.3076826 0.2565935 0.13240045
0.09713627 0.021377714 -0.102195114 -0.22678629 0.2109419 0.1945269 -0.14731476 0.26564965
0.08279837 0.22977781 -0.14124204 -0.26267383 0.16880654 0.071146466 -0.2668496 -0.000347608
-0.0037594973 -0.11062416 -0.12843111 -0.3767936 -0.3032862 -0.20908669 0.051809236 -0.12266309
0.21236159 -0.40973455 -0.11055289 0.06746236 0.22885686 -0.22519009 0.22911897 0.3856358
0.09567629 0.12452198 -0.090666525 -0.012097523 0.40861812 -0.041247748 -0.11454883 0.20823188
0.10675915 0.053541195 0.56493855 -0.08359716 0.10049975 0.14459053 -0.0049404874 -0.009083427
0.12050163 0.10706423 0.06919407 0.077213235 0.18599471 0.24451056 -0.10772805 0.042158302
0.3601994 0.16825771 -0.2364991 0.22112492 -0.16921501 -0.23036544 0.07786512 -0.058727954
0.18405697 0.0085667465 0.29994968 -0.053355068 0.26186138 0.06914537 -0.2894743 0.20785558
00000000: bedc ecbd 4e13 13be bc96 963c e596 79be
00000010: 6890 4ebe 9ae7 9c3e 1817 e3be f946 88bd
00000020: 0fd4 733d 74b5 bdbe 8e8b 893e 2b62 e5bd
00000030: 004d 0bbd 1273 9bbe 8b19 733e a110 b93e
00000040: 49b7 a73e 07d4 2abe f8a4 67bd 41e5 923e
00000050: 8005 0f3d 12bb 5c3e 4369 763e 4a27 75be
00000060: dc03 9fbe 95d5 b13e d5ae 5cbe bf36 62be
00000070: d9ff b13d 8272 babc a1b3 2bbe 2a4b 56be
00000080: 8d21 973d 7b71 0cbe c303 a9be 873e 223d
00000090: 3e36 c23c cd6c 9fbe 4930 683e 0c0c 96be
000000a0: 3afa de3d 825d 673c 21d5 f6bd 3c2b 6fbe
000000b0: 1bcd 97bd 9898 bf3c 648a 8c3c a479 aabd
000000c0: 0fcb 1c3e f662 373d 39d7 c2be 3716 49be
000000d0: eaa8 02be 9e38 fb3d 26cc f5bd cce8 9e3e
000000e0: 63aa 923d aa60 783e 3612 3d3d de79 5dbc
000000f0: 9995 5f3e a365 b4bd 766e 32bc 5967 8dbd
00000100: db8e 903e f9b8 ce3d d247 2c3d c69a 973e
00000110: 2906 54be ed19 aabe fdb7 f8bd 73ba 003e
00000120: bf86 333d 4bf2 2fbe bfad 8f3e e527 48bc
00000130: aca2 6c3e 6add 80bc 9393 67bd d138 1ebe
00000140: 7029 acbe 461d 053e 5c9b dabd 456c 4c3e
00000150: 6ee9 1cbe 8e58 b1be d7d5 70be 88bf 003e
00000160: 00bb 583d 926f 65be 3070 2c3e f2b7 a63e
00000170: a024 5bbd 8f1b bc3e 942b 96bd d257 c23e
00000180: 0ac2 a0be e897 833e c952 6f3e 628d 24bd
00000190: ec8e ea3d ec9a 423e 9fdb ab3e cae5 6d3e
000001a0: 6529 bf3e 4716 d23e 5ca7 8ebe abcc 203e
000001b0: 2562 22bd b754 c83e 7062 1a3e ae31 bdbd
000001c0: 27a0 423e a848 2c3e cd04 c63d 214b f3bd
000001d0: 1c58 883e 1336 39be 182d 553d 4e01 ed3e
000001e0: 7ccf 623e fb55 a3bc 8bcc a93e 4ddd 0abe
000001f0: 4939 883e 87fa e2bd 5bee 8d3e 8943 393e
00000200: ebd7 9bbd c8eb a1be 89a9 a13e 3fcd d6be
00000210: e6c4 d53a 18d6 37bd fee4 aebe 31dc d13d
00000220: 69b7 49be 012d 39be 1fd7 9b3e 83e5 373d
00000230: 420c 123e 28f4 77bd 8f04 3a3e 9535 973e
00000240: d950 0a3d 4ea6 00be dfb4 873e b4d3 1c3e
00000250: a5ba a7be 378b 2ebe 135c 9d3b 5e72 dbbe
00000260: f017 a9be 227b 7b3d 3044 e3bd f771 173d
00000270: fc66 16bc ebea 973e 5943 5b3b f335 0b3e
00000280: ef9f 8bbe 93e5 7b3d 5f03 933d a1c4 caba
00000290: 4d95 a73e b977 663e d899 4b3c ada3 22be
000002a0: 23fa 3d3e 839b 77be 7bfa 913e 93e1 ea3d
000002b0: 9da0 94be 8a8a 903d 43ee c23d 33d1 afbe
000002c0: aa65 babe 213d 31be 355d 8e3d 9745 7abe
000002d0: a6ca b93e 9388 9d3e 3960 833e fc93 073e
000002e0: 61ef c63d 5120 af3c ac4b d1bd aa3a 68be
000002f0: 2701 583e 0f32 473e aed9 16be 3b03 883e
00000300: 3192 a93d e04a 6b3e c1a1 10be 2f7d 86be
00000310: 9fdb 2c3e 3db5 913d 83a0 88be 283f b6b9
00000320: e661 76bb eb8e e2bd 7283 03be 17eb c0be
00000330: 5448 9bbe d21a 56be ec35 543d c936 fbbd
00000340: 5175 593e bac8 d1be 8e69 e2bd b529 8a3d
00000350: 7459 6a3e 3b98 66be 2a9e 6a3e 0e72 c53e
00000360: eef1 c33d 6105 ff3d 5faf b9bd b034 46bc
00000370: 6536 d13e 66f3 28bd 9498 eabd bd3a 553e
00000380: 8ba4 da3d 034e 5b3d d09f 103f fd34 abbd
00000390: d0d2 cd3d 8a0f 143e d0e3 a1bb a7d2 14bc
000003a0: 8fc9 f63d 7e44 db3d 9fb5 8d3d f921 9e3d
000003b0: 6675 3e3e fa60 7a3e 86a0 dcbd 2fae 2c3d
000003c0: 0e6c b83e c04b 2c3e d22c 72be 926e 623e
000003d0: b346 2dbe ebe4 6bbe bf77 9f3d b98c 70bd
000003e0: 6e79 3c3e 8a5b 0c3c 0193 993e d88a 5abd
000003f0: b212 863e 169c 8d3d fa35 94be 18d8 543e

layers.0.bias f4 [64]
-0.003975892 -0.0009750333 0.03493641 -0.015574375 -0.004627902 0.028496563 -0.026139282 -0.05491002
0.006569994 0.030220624 -0.050463695 0.01950973 0.0034306927 -0.04228565 0.038822517 0.012034875
0.002833903 -0.002709827 -0.033410244 -0.013192846 -0.24330364 0.014287679 -0.02495955 0.05297092
-0.0032176625 0.016790437 0.028335566 0.0028155833 -0.047311652 0.0427219 -0.029565053 -0.025879193
-0.020833885 -0.02368325 -0.002749293 -0.029650623 -0.012006441 -0.008862731 -0.0018126307 0.02226174
0.09938647 0.044566892 0.04668511 -0.0005138829 -0.052120935 0.08865932 0.05827503 -0.006434059
0.04306151 -0.07667026 -0.023687234 0.009305721 -0.0403575 -0.01332761 -0.019009946 8.0961065e-05
0.044388734 -0.014324919 0.018416071 -0.087459676 -0.049719844 0.018074453 0.0037955719 0.01222228
00000000: 3348 82bb 6199 7fba 7b19 0f3d aa2b 7fbc
00000010: a8a5 97bb a071 e93c 0c22 d6bc 54e9 60bd
00000020: 1b49 d73b 3e91 f73c 05b3 4ebd dfd2 9f3c
00000030: 79d5 603b b833 2dbd 5c04 1f3d ed2d 453c
00000040: 01b9 393b 5a97 31bb 2ed9 08bd cf26 58bc
00000050: 9724 79be df16 6a3c f877 ccbc 09f8 583d
00000060: 6bdf 52bb 198c 893c fd1f e83c a685 383b
00000070: ddc9 41bd 29fd 2e3d 6932 f2bc 9a00 d4bc
00000080: d3ab aabc 6003 c2bc 7c2d 34bb dde5 f2bc
00000090: aab6 44bc fd34 11bc cb95 edba 415e b63c
000000a0: 228b cb3d c68b 363d e338 3f3d 19b6 06ba
000000b0: c37c 55bd 0493 b53d ccb1 6e3d ccd4 d2bb
000000c0: 4461 303d 4c05 9dbd bb0b c2bc 0677 183c
000000d0: e84d 25bd 0c5c 5abc bfba 9bbc a4c9 a938
000000e0: f6d0 353d 11b3 6abc 4ddd 963c 0f1e b3bd
000000f0: 09a7 4bbd e010 943c 21bf 783b f53f 483c

layers.2.weight f4 [64, 64]
-0.08021597 0.2064859 0.12193265 0.07462582 -0.05245225 0.14759992 0.10130402 0.03334499
0.22288576 -0.19860537 -0.054640155 -0.21841188 -0.04861237 -0.20981887 -0.12285066 -0.047024984
-0.13971797 -0.20741746 0.0021938886 0.18795387 0.04210978 -0.049196314 0.17000705 0.046598233
-0.052664768 -0.15178254 0.19795188 -0.04383121 -0.1729467 0.026730105 -0.05611153 -0.14151625
-0.023197848 0.18124956 -0.026012544 0.0333051 -0.30612808 0.19650307 -0.28375316 -0.037607066
0.072688796 -0.13157663 0.03107418 -0.033226546 -0.11094015 -0.18464683 0.14145641 -0.31779614
-0.10362464 0.114136666 -0.102052115 -0.03470703 -0.021564012 -0.124321535 0.18238093 -0.05704575
0.065928265 -0.19303304 -0.03244191 0.17325117 0.1601434 0.07066789 0.15364301 0.30399343
0.03589916 0.23726602 0.19736135 -0.14218308 0.12056289 0.12667333 0.05834616 -0.11816667
-0.020317346 0.14163566 0.15218216 0.12589051 -0.14794406 -0.16758727 -0.1033269 -0.25777182
0.11793015 0.013323248 -0.21539554 -0.0058366256 -0.111996226 0.029584853 0.09517814 -0.21781021
0.022074169 -0.10223573 0.23603322 0.0699063 0.093626626 -0.20405978 0.26077065 0.123320505
0.13831072 0.027711995 -0.020643793 0.33428007 -0.2729872 -0.035840813 0.008689865 -0.15466352
0.23315476 0.17076388 0.1168389 0.08988206 0.058944628 -0.13952115 0.12040899 -0.12014923
-0.016495936 -0.046581592 0.02958147 -0.2100907 0.035858814 0.14468963 0.106288694 -0.056992263
0.00080649776 -0.21185824 -0.21732017 -0.14210674 -0.19314939 -0.14824335 0.13907078 0.29069644
-0.033855703 0.20259908 0.2320905 0.3577594 0.14787821 0.28758195 0.12758113 -0.16803795
0.098717235 0.08802398 -0.38438627 -0.046609413 0.30334723 -0.027763931 -0.11406021 -0.0049963314
-0.23220111 -0.31980595 -0.1512964 -0.13785121 -0.11286583 0.37276495 0.05369468 -0.14806001
0.2802696 0.024619855 0.050768986 -0.08378862 -0.16184908 -0.055056065 0.1533882 -0.10792694
-0.02519375 0.19980676 -0.02552251 -0.08980687 0.112031296 0.16333108 -0.20861395 -0.12733941
0.08474975 -0.081476845 0.20302735 0.2839406 0.25256914 0.206839 -0.070528366 0.1824186
0.24268967 -0.22115874 -0.03818448 0.12049113 0.13380314 -0.08558395 -0.13329016 -0.21977049
0.065493286 -0.09401556 0.06379832 -0.012930891 0.28134608 0.22617006 0.3259597 0.040223572
-0.22552614 0.112405024 0.18097052 0.25138864 -0.074398845 -0.09295224 -0.27412894 0.24876754
0.063342735 -0.08576815 0.06705071 0.2838664 0.11223058 0.059999853 -0.20020531 -0.10327253
-0.19006273 -0.3122832 0.09540626 0.015101627 -0.06859688 0.036114447 0.1087777 0.22976604
-0.12539771 0.029761197 -0.13164064 0.18223569 -0.122728266 -0.21389623 0.044030793 -0.08245512
0.035797037 0.027168503 0.06083884 -0.21863592 0.23203477 -0.0519775 0.21112287 -0.23424652
0.12051716 -0.17278157 0.13475592 0.25064096 0.4698885 0.26399377 0.19948232 -0.16940454
0.07881794 0.1419033 -0.005591097 -0.08929006 -0.15240425 0.23434702 0.20626931 0.11663893
0.117302954 0.21891448 -0.097893015 -0.22336055 0.27309573 0.18961546 -0.2360456 -0.3162446
00000000: 4548 a4bd 0a71 533e d3b7 f93d 6cd5 983d
00000010: 2cd8 56bd 6f24 173e 7b78 cf3d c294 083d
00000020: 2a3c 643e 355f 4bbe 5bce 5fbd 5da7 5fbe
00000030: c41d 47bd c2da 56be 2099 fbbd 459d 40bd
00000040: 3a12 0fbe 3e65 54be 58c7 0f3b fb76 403e
00000050: 4e7b 2c3d 1382 49bd 5416 2e3e cadd 3e3d
00000060: 03b7 57bd e26c 1bbe e6b3 4a3e 5b88 33bd
00000070: f118 31be 18f9 da3c 34d5 65bd a3e9 10be
00000080: 6a09 bebc 7c99 393e 4218 d5bc ee6a 083d
00000090: d2bc 9cbe 1a38 493e 1848 91be de09 1abd
000000a0: dddd 943d 06bc 06be 478f fe3c 8f18 08bd
000000b0: 9734 e3bd 0f14 3dbe f3d9 103e 2db6 a2be
000000c0: 2839 d4bd 7cc0 e93d b300 d1bd f528 0ebd
000000d0: 03a7 b0bc 4a9c febd 11c2 3a3e cea8 69bd
000000e0: 6605 873d 74aa 45be cfe1 04bd c168 313e
000000f0: a2fc 233e 54ba 903d 9854 1d3e 07a5 9b3e
00000100: ff0a 133d ddf5 723e 1819 4a3e 7198 11be
00000110: ade9 f63d a7b6 013e 62fc 6e3d 5e01 f2bd
00000120: 9070 a6bc f008 113e a4d5 1b3e 71e9 003e
00000130: a67e 17be ff9b 2bbe 0e9d d3bd abfa 83be
00000140: 5d85 f13d c149 5a3c a690 5cbe 2a41 bfbb
00000150: 475e e5bd ef5b f23c c2ec c23d a409 5fbe
00000160: e3d4 b43c f760 d1bd b1b2 713e 092b 8f3d
00000170: 51bf bf3d 0cf5 50be bb83 853e 768f fc3d
00000180: 53a1 0d3e 4404 e33c 2c1d a9bc c226 ab3e
00000190: fac4 8bbe d1cd 12bd ef5f 0e3c 1d60 1ebe
000001a0: 1fc0 6e3e badc 2e3e 3c49 ef3d 1614 b83d
000001b0: ec6f 713d a2de 0ebe fd98 f63d cd10 f6bd
000001c0: 7c22 87bc 57cc 3ebd d754 f23c 0422 57be
000001d0: b1e0 123d 8529 143e e3ad d93d b870 69bd
000001e0: 266b 533a 5ef1 58be 2e89 5ebe 6e84 11be
000001f0: f4c8 45be 1bcd 17be 9268 0e3e 2ad6 943e
00000200: 47ac 0abd 2276 4f3e 22a9 6d3e 3d2c b73e
00000210: 636d 173e f13d 933e a1a4 023e 2412 2cbe
00000220: 432c ca3d eb45 b43d 47ce c4be 83e9 3ebd
00000230: 5450 9b3e 2f71 e3bc 6698 e9bd 44b8 a3bb
00000240: 21c6 6dbe 9bbd a3be 72ed 1abe de28 0dbe
00000250: 3326 e7bd 0cdb be3e f4ee 5b3d 0b9d 17be
00000260: 7f7f 8f3e 94af c93c 24f3 4f3d 5e99 abbd
00000270: c4bb 25be 7882 61bd cc11 1d3e cd08 ddbd
00000280: 2063 cebc 259a 4c3e 9514 d1bc aaec b7bd
00000290: aa70 e53d 4340 273e e59e 55be 4365 02be
000002a0: 4791 ad3d 55dd a6bd 67e6 4f3e aa60 913e
000002b0: be50 813e 9acd 533e 2d71 90bd f1cb 3a3e
000002c0: a483 783e 7077 62be 5467 1cbd 0ec4 f63d
000002d0: b103 093e a346 afbd 377d 08be 840b 61be
000002e0: 5821 863d 3b8b c0bd b2a8 823d 16dc 53bc
000002f0: 980c 903e 2099 673e 31e4 a63e 79c1 243d
00000300: 53f0 66be 9b34 e63d 5650 393e 03b6 803e
00000310: 6c5e 98bd be5d bebd a15a 8cbe ebbc 7e3e
00000320: d6b9 813d 36a7 afbd e251 893d f056 913e
00000330: 25d9 e53d 68c2 753d 9f02 4dbe 8c80 d3bd
00000340: ce9f 42be 95e3 9fbe 5b64 c33d d16c 773c
00000350: 857c 8cbd beec 133d d8c6 de3d ca47 6b3e
00000360: 4268 00be c1cd f33c cecc 06be fe9b 3a3e
00000370: f558 fbbd 9d07 5bbe a259 343d 3bde a8bd
00000380: ea9f 123d 7b90 de3c 2632 793d 18e2 5fbe
00000390: 869a 6d3e 5ce6 54bd 9830 583e 52de 6fbe
000003a0: b3d1 f63d a7ed 30be 75fd 093e 0354 803e
000003b0: 3a95 f03e 312a 873e 1845 4c3e 6278 2dbe
000003c0: 4d6b a13d 194f 113e 8535 b7bb b5dd b6bd
000003d0: dc0f 1cbe aaf8 6f3e 4338 533e 64e0 ee3d
000003e0: 883c f03d 1e2b 603e 227c c8bd a1b8 64be
000003f0: 34d3 8b3e 8e2a 423e f0b5 71be d0ea a1be

layers.2.bias f4 [64]
-0.021039175 0.020568663 0.015119549 -0.0008135333 0.006209798 -0.036087956 -0.1049902 0.040362265
0.020193115 -0.14024934 -0.025020864 0.06578751 0.04551308 -0.019805316 0.021151414 -0.03691649
0.040052686 0.04366201 -0.014482065 -0.022050804 -0.036175195 0.020421242 0.04308784 -0.024217673
0.017783301 0.022160796 0.0026564028 0.0011813911 0.030387493 0.07977627 -0.033850893 -0.006978803
0.03304749 0.07122098 -0.025062608 -0.016081259 -0.005188427 -0.005151344 -0.003747672 0.0006525462
-0.0072585056 -0.01590137 -0.052090608 0.0022684122 0.011446343 0.0075081512 -0.0045952294 -0.020151552
-0.032284662 -0.028030973 0.008440403 0.032199793 -0.023330912 0.021933695 -0.03297107 0.07407244
-0.035504956 -0.014754298 -0.06869038 0.017087772 -0.01434391 0.0021030216 0.0815076 0.0014599048
00000000: 595a acbc 9d7f a83c fcb7 773c 4c43 55ba
00000010: 907b cb3b f7d0 13bd 1a05 d7bd e752 253d
00000020: 086c a53c 869d 0fbe 8ef8 ccbc 9abb 863d
00000030: ec6b 3a3d c23e a2bc bb45 ad3c bf35 17bd
00000040: 490e 243d f0d6 323d 2f46 6dbc e3a3 b4bc
00000050: 712c 14bd 734a a73c e07c 303d 2464 c6bc
00000060: 49ae 913c 8f8a b53c 0b17 2e3b e8d8 9a3a
00000070: 31ef f83c be61 a33d 3ca7 0abd 71ae e4bb
00000080: ce5c 073d 4edc 913d 1950 cdbc d8bc 83bc
00000090: ae03 aabb 9bcc a8bb 819b 75bb a20f 2b3a
000000a0: c2d8 edbb 9743 82bc f65c 55bd a4a9 143b
000000b0: 7189 3b3c f006 f63b 9493 96bb de14 a5bc
000000c0: ec3c 04bd 36a1 e5bc 9e49 0a3c eee3 033d
000000d0: 7820 bfbc 4bae b33c ac0c 07bd 4bb3 973d
000000e0: a56d 11bd 03bc 71bc 8bad 8cbd a8fb 8b3c
000000f0: b802 6bbc d9d2 093b 75ed a63d 475a bf3a

layers.4.weight f4 [64, 64]
-0.2191041 -0.023205828 0.20785534 -0.06931417 0.11333938 -0.18207501 -0.11015402 -0.053304747
0.21461074 -0.26110512 0.26755303 0.16141884 0.10074177 -0.0694818 -0.1835599 0.11167786
-0.25471222 0.037153024 -0.16458099 0.017180007 -0.10193249 -0.18448272 0.07142969 -0.17250174
-0.13470477 -0.08078138 -0.02141268 -0.18693069 0.052228875 0.2994198 0.15953767 -0.03560697
-0.2204677 0.17400709 -0.16926005 -0.1525337 -0.24090709 -0.075274915 -0.12597342 -0.10804841
0.0804672 -0.09337735 0.009909153 0.26420346 0.06435404 0.2150635 -0.18188561 -0.039574314
-0.057430383 0.0114802085 0.16054618 0.06675708 -0.16774866 -0.043192487 -0.023788346 -0.27774063
0.02076865 0.10233198 -0.14524837 -0.08656799 -0.13286966 -0.13757 -0.08120618 0.11681891
0.14901663 -0.03433369 0.1277441 0.036600944 0.25330466 -0.01135705 0.1148947 0.15808569
-0.022695059 0.11421204 0.021822825 -0.06698012 0.11565939 0.119819954 -0.105934285 -0.119475365
-0.218024 -0.15729713 -0.15930885 -0.20770557 0.078778215 -0.1907797 -0.18315992 -0.17847215
0.015228405 0.17875437 -0.021571022 -0.18331477 0.02844836 0.016910397 0.15364392 -0.018300813
0.24162291 0.0745378 0.1721391 -0.14007525 -0.07517384 0.004587093 0.21596733 -0.08427856
0.16790451 -0.16997764 -0.08018831 -0.09292422 -0.06887644 -0.018835956 0.06496456 0.19623859
0.03754639 -0.0717639 0.10471444 -0.1340113 -0.0918661 0.20229915 0.15326755 -0.0008425878
0.12472 -0.1304046 0.13811761 -0.07107635 -0.13115138 -0.111914545 -0.017165557 0.23971848
0.10935538 -0.10014251 -0.0994223 -0.14482918 0.21608509 -0.23294106 0.032662217 -0.02790996
0.12048672 0.02882547 -0.08923402 0.0036885112 0.22434457 -0.030012172 0.23113672 -0.13143866
0.17733176 0.07027526 -0.12640423 -0.09512167 0.14684577 -0.014387534 0.25430578 -0.19643143
0.105287746 -0.14013551 -0.1779476 0.036228616 0.08502924 -0.10952593 0.114023715 -0.14841159
-0.07540709 -0.06517993 -0.11680806 -0.224061 -0.2215374 -0.101463206 -0.16854818 -0.19862932
0.15675253 -0.15060441 0.06463301 0.037226886 0.15831396 0.026131624 0.06262273 -0.14856972
-0.022503123 0.18238705 -0.16834764 0.0592551 -0.036596943 -0.15484424 -0.1974169 0.11977809
-0.032625493 0.16862868 -0.18903528 -0.13583608 -0.311496 -0.09344069 -0.14542891 0.044522155
-0.13082026 0.20623834 -0.06683761 -0.14840578 -0.015501643 0.24029715 0.2080883 -0.2030059
-0.16916801 -0.10827001 -0.040817086 -0.103510596 -0.04037544 0.13423079 0.05612394 0.12162653
0.06069959 -0.12087343 -0.0018208127 0.09899718 0.12939833 0.17003535 -0.08853296 -0.051310074
0.23732746 0.14434433 -0.22569363 -0.18680975 -0.10296824 0.22155738 -0.11404999 -0.115126565
0.06879988 -0.09794716 0.12424123 0.03349811 0.16434826 0.040026974 -0.106196165 -0.06721438
0.041611418 -0.15675391 0.20058157 0.09976464 -0.14802493 -0.17433484 -0.21704923 0.08398181
-0.024949456 0.028250301 0.16111086 0.07716162 -0.03704307 -0.21553917 -6.877645e-05 -0.031147774
0.13005608 -0.1462902 0.09236453 -0.016601035 -0.10366277 -0.1135662 0.08273598 -0.032748897
00000000: d35c 60be 261a bebc 08d8 543e 96f4 8dbd
00000010: 7a1e e83d df71 3abe 6e98 e1bd 1456 5abd
00000020: ebc2 5b3e 92af 85be b6fc 883e fb4a 253e
00000030: b351 ce3d 794c 8ebd 20f7 3bbe 5db7 e43d
00000040: a469 82be c52d 183d eb87 28be 16bd 8c3c
00000050: fbc1 d0bd 0ae9 3cbe bb49 923d 4ca4 30be
00000060: 0cf0 09be b570 a5bd a569 afbc c26a 3fbe
00000070: f2ed 553d 8d4d 993e d85d 233e 9dd8 11bd
00000080: 49c2 61be ea2e 323e 8252 2dbe cb31 1cbe
00000090: 59b0 76be bc29 9abd 2dff 00be 7c48 ddbd
000000a0: fdcb a43d a03c bfbd 005a 223c ad45 873e
000000b0: 0dcc 833d 9b39 5c3e 3940 3abe ad18 22bd
000000c0: 1f3c 6bbd 7c17 3c3c 3866 243e f0b7 883d
000000d0: 4ec6 2bbe 9bea 30bd c7df c2bc 0534 8ebe
000000e0: 0423 aa3c 6e93 d13d fdbb 14be 8f4a b1bd
000000f0: fc0e 08be 26df 0cbe 6d4f a6bd c13e ef3d
00000100: d197 183e 7ca1 0cbd 59cf 023e dfea 153d
00000110: 26b1 813e ec12 3abc ea4d eb3d 37e1 213e
00000120: fdea b9bc 01e8 e93d c8c5 b23c e02c 89bd
00000130: d5de ec3d 2a64 f53d 13f4 d8bd 80af f4bd
00000140: af41 5fbe 8012 21be dc21 23be c5b0 54be
00000150: 7956 a13d c15b 43be 468e 3bbe 67c1 36be
00000160: 8f80 793c 630b 373e b6b5 b0bc deb6 3bbe
00000170: 890c e93c ac87 8a3c d554 1d3e 96eb 95bc
00000180: ff6b 773e 46a7 983d 3b45 303e e36f 0fbe
00000190: bef4 99bd 534f 963b 8a26 5d3e 3d9a acbd
000001a0: 29ef 2b3e 9e0e 2ebe c539 a4bd 0e4f bebd
000001b0: 170f 8dbd dd4d 9abc 240c 853d c5f2 483e
000001c0: 3eca 193d f4f8 92bd 8674 d63d 423a 09be
000001d0: 4b24 bcbd 8227 4f3e 2bf2 1c3e 1ce1 5cba
000001e0: 336d ff3d c988 05be b46e 0d3e 7a90 91bd
000001f0: 8c4c 06be 7433 e5bd c89e 8cbc c378 753e
00000200: b7f5 df3d 8417 cdbd eb9d cbbd 1a4e 14be
00000210: 6945 5d3e 1a88 6ebe d1c8 053d 6ea3 e4bc
00000220: bec1 f63d 6423 ec3c 53c0 b6bd f3ba 713b
00000230: 95ba 653e 16dc f5bc 1baf 6c3e db97 06be
00000240: 7596 353e 7aec 8f3d 1c70 01be 26cf c2bd
00000250: bd5e 163e b1b9 6bbc 5e34 823e 5225 49be
00000260: 1aa1 d73d af7f 0fbe e537 36be 7564 143d
00000270: cf23 ae3d 214f e0bd 4485 e93d 35f9 17be
00000280: 086f 9abd 0e7d 85bd 1039 efbd 3f70 65be
00000290: b3da 62be f1cb cfbd e597 2cbe 7c65 4bbe
000002a0: bc83 203e 0b38 1abe 505e 843d 387b 183d
000002b0: 0e1d 223e fd11 d63c 5940 803d a922 18be
000002c0: 7858 b8bc acc3 3a3e 5363 2cbe 7ab5 723d
000002d0: ade6 15bd 7d8f 1ebe a827 4abe 374e f53d
000002e0: 4fa2 05bd ffac 2c3e 7792 41be 9d18 0bbe
000002f0: 677c 9fbe d55d bfbd 51eb 14be dd5c 363d
00000300: bff5 05be 2530 533e 28e2 88bd aff7 17be
00000310: 9afa 7dbc 7510 763e 1915 553e c7e0 4fbe
00000320: 613a 2dbe abbc ddbd d12f 27bd 5dfd d3bd
00000330: b860 25bd cc73 093e 37e2 653d 5517 f93d
00000340: 22a0 783d 7d8c f7bd 56a8 eeba 09bf ca3d
00000350: ff80 043e bf1d 2e3e c550 b5bd 832a 52bd
00000360: f805 733e 00cf 133e 3b1c 67be 0e4b 3fbe
00000370: 03e1 d2bd f0df 623e 0b93 e9bd 7ac7 ebbd
00000380: f4e6 8c3d 8598 c8bd 3072 fe3d 5035 093d
00000390: e94a 283e 53f3 233d 607d d9bd b1a7 89bd
000003a0: bc70 2a3d 1984 20be 4165 4d3e 6751 cc3d
000003b0: d993 17be d584 32be 2742 5ebe a8fe ab3d
000003c0: cd62 ccbc 2d6d e73c 3ffa 243e e906 9e3d
000003d0: 79ba 17bd 4db6 5cbe 133c 90b8 9e29 ffbc
000003e0: 6c2d 053e 19cd 15be 9d29 bd3d e5fe 87bc
000003f0: 254d d4bd 6595 e8bd 7b71 a93d b523 06bd

layers.4.bias f4 [64]
-0.022581333 -0.013083719 0.010652916 0.0025991518 -0.045393676 -0.019967541 0.037368536 -0.0027691661
0.01600188 0.012733568 0.010936715 -0.041204005 -0.008016282 -0.0304868 -0.006890294 0.024100695
0.01865077 0.06990108 0.015231644 0.033819553 -0.006122401 0.0013537467 0.0077686287 -0.0078522395
-0.0046548676 -0.035446107 -0.0017390866 -0.0018160377 0.016451964 0.018834632 -0.008075186 0.00414709
-0.021596149 0.0003317975 -0.014410344 0.0046330295 -0.03657281 -0.006431069 -0.031647976 -0.00249608
-0.024063287 0.003786951 -0.02347744 -0.07495596 0.058301996 -0.059685946 0.013790134 0.06448175
-0.08088693 -0.015412744 0.0033717495 0.026739188 7.419982e-06 -0.021007132 0.035354223 -0.012545159
-0.0030715961 0.010668494 0.037012443 0.045256164 -0.011610639 -0.051341534 -0.06162503 -0.0031407212
00000000: 7dfc b8bc 185d 56bc 9189 2e3c 8856 2a3b
00000010: b8ee 39bd f892 a3bc c00f 193d e67a 35bb
00000020: 6016 833c 75a0 503c e82f 333c 88c5 28bd
00000030: b956 03bc 74bf f9bc fac7 e1bb d26e c53c
00000040: 80c9 983c 4c28 8f3d 258e 793c 5f86 0a3d
00000050: 6c9e c8bb 3470 b13a fb8f fe3b aea6 00bc
00000060: dc87 98bb f02f 11bd 10f2 e3ba 1d08 eeba
00000070: 45c6 863c 164b 9a3c c94d 04bc 50e4 873b
00000080: 68ea b0bc 1bf5 ad39 5d19 6cbc abd0 973b
00000090: 5fcd 15bd b8bb d2bb 4fa1 01bd 4695 23bb
000000a0: 5f20 c5bc 7f2e 783b c353 c0bc 8382 99bd
000000b0: 13ce 6e3d 4079 74bd 04f0 613c 020f 843d
000000c0: 0ca8 a5bd bc85 7cbc 92f8 5c3b 240c db3c
000000d0: 29f9 f836 2617 acbc 97cf 103d 368a 4dbc
000000e0: d54c 49bb e8ca 2e3c 5c9a 173d 875e 393d
000000f0: 8d3a 3ebc 804b 52bd 876a 7cbd 8fd4 4dbb

layers.6.weight f4 [2, 64]
-0.31815195 -0.19970112 0.24467432 -0.008272508 0.09631483 -0.21687643 -0.12576048 0.04421432
0.30493328 -0.0150195835 0.049744416 -0.29374874 -0.20259549 -0.24761994 0.20120329 0.18296383
0.23403312 -0.06266641 0.28176573 0.11610354 -0.0033378378 0.19894697 0.21534914 0.24902098
0.08220515 -0.11429975 0.20827997 0.016196901 0.10873505 0.22191182 0.2100467 -0.13832264
0.30402207 0.2694468 -0.16033961 0.05346282 -0.17758778 -0.022183193 -0.18766385 0.3478799
-0.30369523 0.0042506335 -0.21988665 0.014482766 -0.34976065 -0.26049066 0.28411114 0.032456435
0.24166791 -0.24792042 -0.13382885 0.3025948 -0.16475828 -0.18342382 0.26100427 -0.25377947
0.17174691 -0.28412724 0.10204055 0.019000338 -0.28377458 0.3436297 -0.20056199 -0.1703781
0.3076565 -0.3143877 -0.00510541 0.46380064 -0.27457693 -0.20441106 0.03740957 -0.36866307
0.30022272 -0.013265618 -0.3295675 -0.05352229 -0.2460121 0.3178844 0.26507688 0.160525
0.012670708 0.42044723 0.32404917 0.16969872 -0.34235752 -0.12934978 -0.34498268 0.11971035
0.22134857 0.23612389 -0.1335563 -0.08428614 0.24559397 0.21288468 0.3504181 -0.2486404
0.34117687 -0.2722118 0.17570557 -0.16920431 -0.33574256 0.3285071 0.006059834 0.12801056
-0.115378894 -0.09791806 -0.099097975 -0.24742521 0.30269492 -0.20342027 -0.0014047129 -0.18301709
-0.36316884 0.20096655 0.3526392 -0.073848836 -0.31826955 0.022753727 -0.21837133 -0.09424079
-0.23620038 -0.019747421 0.006379208 -0.2936459 -0.29338878 -0.07269137 0.26979285 -0.060502663
00000000: d0e4 a2be 737e 4cbe e88b 7a3e 6a89 07bc
00000010: b640 c53d db14 5ebe 5bc7 00be 131a 353d
00000020: 3720 9c3e b314 76bc cdc0 4b3d 3c66 96be
00000030: 3175 4fbe 1590 7dbe 3c08 4e3e df5a 3b3e
00000040: 61a6 6f3e 3f57 80bd 9943 903e b1c7 ed3d
00000050: a0bf 5abb c1b8 4b3e 7c84 5c3e 5bff 7e3e
00000060: 2c5b a83d fd15 eabd 5847 553e 5daf 843c
00000070: 7bb0 de3d da3c 633e 7b16 573e 73a4 0dbe
00000080: c8a8 9b3e eef4 893e 1130 24be d4fb 5a3d
00000090: 92d9 35be 87b9 b5bc f42a 40be 501d b23e
000000a0: f17d 9bbe e648 8b3b f729 61be 2049 6d3c
000000b0: d413 b3be 085f 85be 0477 913e 0af1 043d
000000c0: cb77 773e dade 7dbe 6e0a 09be b5ed 9a3e
000000d0: 65b6 28be 74d3 3bbe 5aa2 853e 62ef 81be
000000e0: 6cde 2f3e 2079 91be a3fa d03d 99a6 9b3c
000000f0: e74a 91be 3bf0 af3e 1f60 4dbe 9977 2ebe
00000100: 2785 9d3e 6df7 a0be 484b a7bb 4777 ed3e
00000110: 5995 8cbe 2251 51be c73a 193d 68c1 bcbe
00000120: cbb6 993e 0958 59bc 12bd a8be 303a 5bbd
00000130: 99ea 7bbe bec1 a23e 28b8 873e aa60 243e
00000140: cd98 4f3c dc44 d73e c6e9 a53e 80c5 2d3e
00000150: 7c49 afbe 4574 04be 92a1 b0be b32a f53d
00000160: 33a9 623e 76ca 713e fcc2 08be 369e acbd
00000170: fc7c 7b3e 71fe 593e 006a b33e 979b 7ebe
00000180: bcae ae3e 585f 8bbe 29ec 333e e543 2dbe
00000190: 73e6 abbe 1532 a83e 9291 c63b 3315 033e
000001a0: c54b ecbd 4489 c8bd e1f3 cabd 095d 7dbe
000001b0: d4fa 9a3e 674d 50be 581e b8ba d568 3bbe
000001c0: 44f1 b9be 2dca 4d3e 208d b43e 0f3e 97bd
000001d0: 3af4 a2be 0666 ba3c bc9c 5fbe 5101 c1bd
000001e0: 83de 71be 58c5 a1bc ad08 d13b c158 96be
000001f0: 0e37 96be 37df 94bd 4a22 8a3e a4d1 77bd

layers.6.bias f4 [2]
0.02882639 0.008339275
00000000: 5225 ec3c 74a1 083c
