data/results/state_net_12000.pth (torch, 90299 bytes, 14 tensors)

layers.0.weight f4 [64, 6]
0	0xbdd24ce7	-0.10268574
1	0x3e716782	0.23574641
2	0x3e06f7f3	0.13180523
3	0x3e6aaf6b	0.22918479
4	0xbccae14f	-0.024765639
5	0x3e441b18	0.1915096
6	0x3d5ba6cc	0.053625867
7	0xbd307141	-0.043076757
8	0xbd58b39c	-0.052905664
9	0x3dc497ea	0.09599288
10	0x3e86c2ab	0.26320395
11	0x3e8fa2e4	0.28053963
12	0xbe906d07	-0.2820818
13	0xbde5e79b	-0.11225816
14	0x3e4edfe8	0.20202601
15	0xbdd1d3ca	-0.10245474
16	0xbda5b946	-0.08091979
17	0x3d468aa7	0.048472073
18	0xbe6d61b7	-0.23181807
19	0xbea890df	-0.32923028
20	0x3e77d51c	0.24202389
21	0xbe6a3652	-0.22872284
22	0xbe7a9c1f	-0.24473618
23	0x3e5835bc	0.21114248
24	0xbd3b733e	-0.0457642
25	0x3e2349d6	0.15946135
26	0xbd02ecd6	-0.031964146
27	0x3a9b8b32	0.0011867045
28	0xbd6d51b5	-0.05793925
29	0x3df96fd9	0.12179536
30	0x3dcdbc19	0.100456424
31	0xbdbfe984	-0.093707114
32	0x3e5053b9	0.20344438
33	0xbe3f5236	-0.18683705
34	0xbda9ecd0	-0.082971215
35	0xbd5ca553	-0.053868603
36	0x3e1aca88	0.15116322
37	0xbdac46bb	-0.08411928
38	0x3bfff8d2	0.007811644
39	0xbe8a7765	-0.27044216
40	0x3e163e9e	0.14672324
41	0x3e4fde14	0.2029956
42	0xbe4db001	-0.20086671
43	0xbe954186	-0.29151553
44	0x3cef5f72	0.029220317
45	0x3e8765ac	0.26444757
46	0x3da6435d	0.08118317
47	0x3e5c0322	0.2148557
48	0xbe7de86d	-0.24795695
49	0x3e80c7b1	0.25152352
50	0x3e843589	0.25822094
51	0xbe742010	-0.23840356
52	0x3d8f1754	0.06986871
53	0xbd602ace	-0.05472832
54	0x3ede3547	0.43400022
55	0xbe1a98f7	-0.15097414
56	0xbea0fbb6	-0.3144204
57	0xbe8d649d	-0.27615824
58	0x3e812996	0.2522704
59	0x3e0fa9d5	0.1402963
60	0xbe93f6bf	-0.2889919
61	0xbe84584f	-0.25848624
62	0x3e23ac7b	0.15983765
63	0xbe1fb7b7	-0.15597425
64	0xbe4d979e	-0.20077369
65	0xbe033615	-0.128136
66	0xbde91e3d	-0.113827206
67	0xbe6255e8	-0.22103083
68	0xbe05b8d6	-0.1305879
69	0x3d1ad078	0.037796468
70	0x3d6ccf10	0.057814658
71	0x3e98d5c2	0.29850584
72	0xbe9c802d	-0.3056654
73	0xbce7bb8d	-0.028287673
74	0xbdc72391	-0.09723581
75	0xbe322463	-0.17396693
76	0x3e019f20	0.12658358
77	0xbe13415b	-0.143804
78	0xbde8b28b	-0.11362179
79	0xbe7c46c0	-0.24636364
80	0xbdeeaab0	-0.1165365
81	0x3c7b1356	0.015324434
82	0xbe2d4baa	-0.16923395
83	0xbd4b3de5	-0.049619574
84	0xbe2545b8	-0.16139877
85	0x3ce30f66	0.027717303
86	0x3df18022	0.117920175
87	0xbe33f9be	-0.17575738
88	0xbe0a4bbe	-0.13505456
89	0xbd8a00d5	-0.0673844
90	0xbe1c531c	-0.15266079
91	0xbe283adf	-0.16428708
92	0x3e261970	0.16220641
93	0xbd8777d5	-0.06614653
94	0x3de9cf38	0.11416477
95	0x3bc0cfb9	0.0058841375
96	0x3cbe7909	0.023251073
97	0xbe713ae7	-0.23557626
98	0x3d1ce705	0.038306255
99	0x3e841b57	0.2580211
100	0x3e89a82b	0.26886114
101	0x3e7973b7	0.24360548
102	0xbdd8b514	-0.10581413
103	0xbd0d9d04	-0.03457357
104	0x3e8f0749	0.27935246
105	0xbdc0ead3	-0.09419789
106	0x3dbafbf9	0.09130091
107	0x3b8dec92	0.00433118
108	0x3e3a6768	0.18203509
109	0xbe1757f3	-0.14779644
110	0x3d24521f	0.04011738
111	0xbe858d3d	-0.2608432
112	0xbd7e90f5	-0.06214996
113	0x3e23fb83	0.16013913
114	0x3c4a50db	0.012348379
115	0x3e9ee87d	0.3103675
116	0xbe5c3173	-0.21503238
117	0x3de06e15	0.109584965
118	0xbc770817	-0.015077612
119	0x3ed3c9c3	0.4136487
120	0x3e8d618f	0.27613494
121	0x3e90a851	0.28253415
122	0xbe490dbb	-0.19634144
123	0x3e980f1d	0.2969903
124	0xbe3c2403	-0.18373112
125	0xbe3a49a8	-0.1819216
126	0x3e443c3f	0.19163607
127	0xbada8833	-0.0016672671
128	0x3e184441	0.14869787
129	0x3e8b5b88	0.2721827
130	0xbc56006d	-0.013061625
131	0x3d732d64	0.05936946
132	0xbcb28ec3	-0.02179659
133	0x3e60f38f	0.2196791
134	0x3e0e3c68	0.1389023
135	0x3cf4fd8b	0.029906055
136	0xbe66213d	-0.22473617
137	0x3e40daa5	0.18833406
138	0x3e32ea9e	0.17472312
139	0x3d0e3e25	0.034727234
140	0x3e0163fb	0.12635796
141	0x3db38fc8	0.087676585
142	0xbe0b616e	-0.13611385
143	0xbe1a9419	-0.15095557
144	0xbd7d2c79	-0.06180999
145	0xbe8e30a2	-0.2777148
146	0xbbebe813	-0.0071992963
147	0xbd89e37c	-0.06732842
148	0xbe7cbdc7	-0.2468177
149	0x3d7c0781	0.061530594
150	0x3d9c10b3	0.076203726
151	0x3e29c7e8	0.16580164
152	0xbd4524ad	-0.04813068
153	0xbd9f07d1	-0.07765163
154	0xbd57671d	-0.05258857
155	0xbe854477	-0.26028797
156	0x3b9ad2e4	0.004724847
157	0x3e3cea5e	0.18448779
158	0x3c82484f	0.01590362
159	0x3cff714c	0.031181954
160	0x3e8655a2	0.26237208
161	0x3e9cec2a	0.3064893
162	0x3e87c1a3	0.2651492
163	0x3e6924dd	0.22767968
164	0x3e28d699	0.16488113
165	0xbc2eb069	-0.010662177
166	0xbe93f919	-0.28900984
167	0x3cbfdcb3	0.023420667
168	0x3e1ede8b	0.15514581
169	0xbda99449	-0.08280236
170	0x3e1a803e	0.15087983
171	0xbe550da1	-0.2080598
172	0x3b40b643	0.0029405511
173	0x3ea74132	0.32666928
174	0xbe9970f8	-0.29969
175	0xbda34fe9	-0.07974226
176	0x3e062605	0.13100441
177	0xbe778238	-0.24170768
178	0xbddc6862	-0.10762097
179	0xbdb54236	-0.08850519
180	0x3e57ba17	0.21067081
181	0xbc8f0c45	-0.017461905
182	0x3c04ad99	0.0080980295
183	0x3e72b638	0.23702323
184	0x3d9571b1	0.072970755
185	0xbdda83f6	-0.10669701
186	0x3e40353e	0.1877031
187	0xbdc43328	-0.0958007
188	0x3e8b990b	0.272652
189	0xbdc40359	-0.09570951
190	0x3e894a56	0.26814526
191	0xbe045493	-0.12922888
192	0x3e217804	0.15768439
193	0x3e9203ff	0.28518674
194	0xbdc249e9	-0.094867535
195	0xbced8368	-0.028993323
196	0xbe185da1	-0.14879467
197	0x3e347b32	0.1762512
198	0xbdbf7044	-0.09347585
199	0x3e9b8630	0.30375814
200	0xbe2e8f0c	-0.17046756
201	0xbdd03c15	-0.1016771
202	0xbd3dc02a	-0.04632584
203	0x3ebe2874	0.37140238
204	0x3e1612ea	0.14655653
205	0xbd626032	-0.05526752
206	0x3e1a981d	0.15097089
207	0xbe844ce9	-0.25839928
208	0xbca298f5	-0.019848326
209	0x3ea38407	0.31936666
210	0xbd923e7f	-0.071408264
211	0xbe311504	-0.17293173
212	0xbe14b27d	-0.14521213
213	0x3e7589d1	0.23978354
214	0x3d336890	0.04380089
215	0x3d6ba3d7	0.057529297
216	0xbe0ce50c	-0.1375925
217	0x3e4fc0d9	0.2028841
218	0x3c00e5c3	0.007867279
219	0x3e9a507c	0.3013953
220	0x3e4012f4	0.1875723
221	0xbe9984c3	-0.29984102
222	0x3e818d6d	0.25303212
223	0xbe3639e3	-0.1779552
224	0xbdcf0369	-0.10108072
225	0x3d290dbe	0.04127287
226	0xbe74f4c0	-0.2392149
227	0xbc6faf6e	-0.014629228
228	0xbe277edc	-0.16356987
229	0xbd1a343c	-0.03764747
230	0xbcc9259c	-0.024554066
231	0xbd3ab51b	-0.045582872
232	0x3de516c5	0.111859836
233	0xbe00333f	-0.12519549
234	0x3cf0a226	0.029374193
235	0xbcb0c7b3	-0.021579599
236	0xbdc246ed	-0.09486184
237	0xbe9033cd	-0.2816452
238	0x3e21b4a3	0.15791564
239	0xbe82ad84	-0.25523007
240	0x3d3ab2d7	0.04558071
241	0x3e8b806e	0.27246422
242	0x3e8fa0b7	0.28052303
243	0xbe319264	-0.17341
244	0x3e7cbd0c	0.2468149
245	0xbe411940	-0.18857288
246	0xbe391ee7	-0.18078195
247	0x3d088f9f	0.033340093
248	0xbdd32daf	-0.10311448
249	0xbe3c4d2f	-0.18388818
250	0x3db663a2	0.08905722
251	0x3e873af4	0.26412165
252	0x3e39e577	0.1815394
253	0x3dd94200	0.106082916
254	0x3e2c1e06	0.16808328
255	0x3e7b2cf6	0.2452887

layers.0.bias f4 [64]
0	0x3c96dd46	0.018416058
1	0xbc8b3e85	-0.016997585
2	0x3b63300e	0.0034666094
3	0x3d8e186e	0.06938253
4	0xbbc7d0e1	-0.0060978984
5	0x3d3facc2	0.046795614
6	0xbbf3fd9e	-0.007446005
7	0x3c2a6a63	0.010401341
8	0xbaafc8fa	-0.0013411336
9	0xbcc36970	-0.023853987
10	0x3bec5485	0.007212224
11	0x3b94d1bb	0.0045416034
12	0xbc917b24	-0.017758913
13	0x3c2d918a	0.010593781
14	0x3cbf24c0	0.023332953
15	0x3c06e4d6	0.00823327
16	0x3c30866b	0.010774235
17	0x3bdfbfcc	0.006828284
18	0x3a8d9116	0.0010800685
19	0x3bc9644f	0.006145991
20	0xbb8492e0	-0.004045829
21	0xbcd0781a	-0.025447894
22	0x3ac06882	0.0014679583
23	0xbc4fdb50	-0.0126865655
24	0xb8d7fa8f	-0.00010298669
25	0xbcb88c5d	-0.022527868
26	0xbca98963	-0.020695394
27	0x3c6016fb	0.013677354
28	0xbc0f1174	-0.0087321885
29	0x3c7decee	0.015498383
30	0xbc73e441	-0.014885963
31	0x3bee3373	0.007269317
32	0x3b814bf1	0.0039458205
33	0xbc29d3ea	-0.010365466
34	0xbc04e5f2	-0.008111464
35	0xbbc316de	-0.0059536537
36	0xbccc0b3f	-0.024907706
37	0x3b27c71d	0.0025600858
38	0xbbcb0e20	-0.006196752
39	0x3bd92017	0.00662614
40	0x3bd24f81	0.006418169
41	0xbc2ceb35	-0.010554125
42	0x3a6d4f6c	0.00090526673
43	0xbac102db	-0.0014725582
44	0xbbb6aa14	-0.005574474
45	0xb9c2480a	-0.00037056237
46	0x3bdd83ba	0.006760088
47	0x39c6a293	0.0003788663
48	0x3bdcc74b	0.0067376248
49	0xbbfdfa04	-0.0077507515
50	0xbbe08df7	-0.006852861
51	0xbd3969e9	-0.04526702
52	0xbb4220db	-0.0029621634
53	0x3b4a86dc	0.0030903136
54	0x3c70bf92	0.014694111
55	0xbd09f40b	-0.033680003
56	0x3b6f6ce4	0.003653341
57	0x3cb43072	0.021995757
58	0x3d1cc887	0.038277175
59	0xbd871482	-0.065957084
60	0x3c9dcc4f	0.019262461
61	0x3c6c4c31	0.014422462
62	0x3c67d3e2	0.014149638
63	0xbcf77d75	-0.03021119

layers.2.weight f4 [64, 64]
0	0x3dab3677	0.08359998
1	0xbdbe4f45	-0.09292463
2	0xbe117024	-0.14202935
3	0x3de62226	0.11236982
4	0x3d8c32ce	0.06845628
5	0x3e458a1d	0.19290967
6	0x3b3dc1e9	0.002895469
7	0x3defff0e	0.1171857
8	0x3e250818	0.16116369
9	0x3be8452d	0.0070883245
10	0xbdf87218	-0.12131137
11	0xbe4ba480	-0.1988697
12	0x3e1a8e08	0.15093243
13	0xbe7b661a	-0.24550667
14	0x3dddc1d1	0.10827983
15	0xbd9f352d	-0.07773814
16	0xbcfaea7b	-0.030629387
17	0x3e098e41	0.13433172
18	0xbe5407d3	-0.2070611
19	0x3e1471ad	0.14496489
20	0xbbac0d8a	-0.0052506374
21	0x3dfd4525	0.12366704
22	0x3d8b022a	0.06787522
23	0x3de7947e	0.113076195
24	0xbd8cf28e	-0.06882201
25	0xbda79fc3	-0.08184769
26	0x3dcb13f1	0.09915913
27	0xbe42f344	-0.19038111
28	0xbe16740b	-0.14692704
29	0x3c65777a	0.014005536
30	0x3e348996	0.1763061
31	0x3d831d15	0.06402031
32	0xbdaa0396	-0.08301465
33	0x3df60cbf	0.1201415
34	0x3de6ecea	0.112756565
35	0x3d7847ac	0.060615227
36	0x3e4c5117	0.19952808
37	0x3e1d3185	0.15350921
38	0x3da31f19	0.07964916
39	0xbe41e2eb	-0.18934219
40	0x3e012750	0.12612653
41	0x3df4ca28	0.11952621
42	0xbe081756	-0.13290152
43	0x3dee5bc6	0.11638598
44	0x3e5f115c	0.21783966
45	0x3d80b355	0.06284205
46	0x3e10f2f1	0.14155175
47	0x3df9af4a	0.12191637
48	0xbd0ebd4a	-0.03484849
49	0xbe506e46	-0.20354566
50	0xbd945e26	-0.0724452
51	0x3dff813f	0.124758236
52	0xbe1a9ce1	-0.15098907
53	0x3e4db38f	0.20088027
54	0x3cdc9feb	0.026931724
55	0xbdb8be7f	-0.09020709
56	0x3e31eaf7	0.17374788
57	0xbe20d023	-0.15704398
58	0xbab234d3	-0.0013596065
59	0xbe525f80	-0.20544243
60	0x3e0028b6	0.1251553
61	0x3ce4d921	0.027935566
62	0x3e0260c9	0.12732233
63	0xbdef694b	-0.11690005
64	0x3e28b420	0.16474962
65	0xbe5d2a86	-0.21598253
66	0x3e3e90c2	0.18609908
67	0x3dd1194d	0.10209904
68	0x3d7ef381	0.062243942
69	0xbe258a2a	-0.16165987
70	0xbdde3536	-0.10849993
71	0xbd15bdc9	-0.036557946
72	0x3e008a6b	0.12552802
73	0x3e2d6876	0.1693438
74	0x3e501f00	0.20324326
75	0x3d45aa77	0.04825827
76	0xbd5a88d1	-0.053353135
77	0xbe45f7e7	-0.19332848
78	0x3b909f41	0.004413516
79	0x3d51dc34	0.051235393
80	0xbdb8c019	-0.09021015
81	0x3dc6c4b7	0.09705489
82	0xbe160110	-0.14648843
83	0x3d13d062	0.0360874
84	0xbc96137d	-0.01831984
85	0xbe24f456	-0.16108832
86	0xbe422ef2	-0.1896322
87	0xbe346a5c	-0.17618698
88	0x3e55e9ea	0.20890012
89	0xbd9fdbb8	-0.0780558
90	0x3d5ed96b	0.054406565
91	0xbd879358	-0.066199005
92	0x3d35ab87	0.044353034
93	0xbe33d2fd	-0.17560954
94	0x3d9f8acb	0.077901445
95	0x3e3404c0	0.17579937
96	0x3c03a2b5	0.008034398
97	0x3c617a2d	0.013762039
98	0xbe3284aa	-0.1743342
99	0xbe0ebfe4	-0.13940388
100	0xbe31ff60	-0.17382574
101	0x3e4919fb	0.19638817
102	0xbc3ec71e	-0.011644153
103	0x3d97e288	0.07416254
104	0xbcb1de87	-0.021712555
105	0x3dd842d2	0.1055962
106	0x3e23abb5	0.1598347
107	0xbe2947a0	-0.16531229
108	0xbe1760ae	-0.14782974
109	0xbd8090c7	-0.06277614
110	0x3c4c25bc	0.012460168
111	0xbd208f8b	-0.039199393
112	0x3da83ee5	0.08215121
113	0x3dc3d5f9	0.095622964
114	0x3d515e33	0.051115226
115	0xbe3f56c3	-0.1868544
116	0xbe02fd9c	-0.12792057
117	0x3debcf0a	0.11514099
118	0xbdb3ee18	-0.08785647
119	0xbe2a3b75	-0.16624244
120	0xbd45520e	-0.048173957
121	0x3e268490	0.16261506
122	0x3d68b763	0.056815516
123	0xbdb37629	-0.08762772
124	0x3e4812cb	0.19538419
125	0xbd299110	-0.041398108
126	0x3e34e1d8	0.17664278
127	0x3e5447c5	0.20730503
128	0xbe4901b0	-0.1962955
129	0xbd0014b2	-0.031269737
130	0x3e1e45a7	0.15456258
131	0xbe627ef4	-0.22118741
132	0x3df9ed9f	0.12203526
133	0x3e2ffd5e	0.17186496
134	0x3e68fa76	0.22751793
135	0xbd9b4935	-0.075823225
136	0x3e422f3a	0.18963328
137	0x3dd9945e	0.10624002
138	0x3e26443f	0.16236971
139	0x3dbaf9ce	0.09129678
140	0x3cad1f54	0.021133102
141	0xbe662d95	-0.22478326
142	0xbe11c28a	-0.14234367
143	0x3e848cd3	0.2588869
144	0x3dc81fcc	0.0977169
145	0xbd43771d	-0.047721017
146	0x3e52b70d	0.20577641
147	0xbe4758c1	-0.1946745
148	0x3ae73a05	0.0017641193
149	0x3e3f2a1f	0.18668412
150	0xbdc76680	-0.09736347
151	0x3d553232	0.052049823
152	0x3dda35aa	0.10654767
153	0xbd5d1333	-0.053973388
154	0x3d8e5d83	0.0695143
155	0x3dbe9869	0.09306414
156	0xbd8d5e82	-0.069027916
157	0xbe028c52	-0.1274884
158	0x3da4b08e	0.08041488
159	0xbe1df5c7	-0.15425788
160	0xbe67fef7	-0.22655855
161	0xbcba1c71	-0.02271864
162	0xbde60ad9	-0.11232538
163	0x3d8badee	0.06820284
164	0x3d6ae630	0.05734843
165	0xbe4f5818	-0.20248449
166	0xbddd4965	-0.108050145
167	0x3e91ebad	0.2850012
168	0xbaaf501d	-0.0013375316
169	0x3c594771	0.013261662
170	0xbdf191c5	-0.117953815
171	0x3d99afe5	0.07504252
172	0x3dd2f9af	0.103015296
173	0x3d842393	0.06452098
174	0xbdcf266f	-0.101147525
175	0x3d9552c7	0.07291179
176	0x3df1bf68	0.11804086
177	0x3e5bd74f	0.21468852
178	0xbe5f3561	-0.21797706
179	0x3dc1a12b	0.094545685
180	0xbdc629ce	-0.09675942
181	0xbd909b1e	-0.07060836
182	0xbe562f31	-0.2091644
183	0x3c9b2e76	0.018943053
184	0xbe58691e	-0.21133849
185	0xbdb73f8e	-0.08947669
186	0xbc6aa8ad	-0.014322442
187	0x3d9ed9ea	0.077564076
188	0x3db4fbc5	0.08837084
189	0x3e009099	0.1255516
190	0xbe74a159	-0.23889674
191	0xbdb21b36	-0.08696596
192	0x3d2f4466	0.04278984
193	0xbe20288f	-0.15640472
194	0xbdd97c60	-0.10619426
195	0xbd9772f0	-0.073949695
196	0x3de1ce24	0.11025646
197	0x3de4114c	0.111361116
198	0xbd90c499	-0.07068748
199	0xbdee7dc6	-0.11645083
200	0x3d611508	0.054951698
201	0x3da763e7	0.08173352
202	0x3e4def9f	0.2011094
203	0x3e197357	0.14985405
204	0xbd6854cd	-0.056721497
205	0xbc7f50bc	-0.015583213
206	0x3dfdbfae	0.123900756
207	0x3dd57d03	0.10424235
208	0x3dd13881	0.102158554
209	0x3e5e787e	0.21725652
210	0x3dacbc21	0.0843432
211	0xbca986a7	-0.02069409
212	0xbe8fec45	-0.28109947
213	0xbde5f74a	-0.11228807
214	0x3de1b24e	0.11020337
215	0x3e4c0db4	0.19927102
216	0x3da52b1d	0.08064864
217	0xbe1e7fb0	-0.15478396
218	0xbe340676	-0.1758059
219	0x3e5c8e4a	0.21538654
220	0xbd6cb9c8	-0.057794362
221	0xbd3d2c83	-0.046185028
222	0xbd8a42b7	-0.06751006
223	0x3e02fb4f	0.12791179
224	0x3e3b5a56	0.18296179
225	0x3d9943f9	0.07483668
226	0x3e19f354	0.15034229
227	0x3e341cdb	0.17589132
228	0xbe63f435	-0.22261126
229	0xbdb06902	-0.08613779
230	0xbde85b8b	-0.113455854
231	0x3dd11ef2	0.102109805
232	0x3e25cf0e	0.16192266
233	0x3d12a5ad	0.035802532
234	0x3e135a5d	0.1438994
235	0xbe620164	-0.22070843
236	0xbd35af10	-0.044356406
237	0x3cba0a75	0.022710064
238	0xbccb1461	-0.02478999
239	0x3e2b23ea	0.16712919
240	0xbdd9fc3c	-0.10643813
241	0x3e3b0432	0.18263319
242	0xbd903e48	-0.07043129
243	0x3c0892a2	0.008335741
244	0x3d0e9b5a	0.034816124
245	0x3e3fbfb1	0.18725468
246	0xbd6a7db0	-0.05724877
247	0xbd4746c2	-0.048651464
248	0x3e17682f	0.14785837
249	0x3e5224bf	0.2052183
250	0xbde16ae2	-0.110067144
251	0x3d891ee0	0.06695342
252	0x3c12c37f	0.008957743
253	0xbe491250	-0.19635892
254	0xbe40afdd	-0.18817087
255	0xbd755f10	-0.05990511

layers.2.bias f4 [64]
0	0xbb54688b	-0.0032410945
1	0x3a1e9034	0.00060487096
2	0xbc86e85f	-0.016468225
3	0x3be21748	0.006899748
4	0x3c1160de	0.008873193
5	0xbbb05a1a	-0.0053818347
6	0xbbeb5895	-0.0071821907
7	0xbc9e933f	-0.019357322
8	0x3bb1b266	0.005422878
9	0x3b521c3b	0.0032060284
10	0x3b45d5e8	0.0030187313
11	0x3ba59da6	0.0050541935
12	0x3b204fa3	0.002446153
13	0xbc1ebe37	-0.009688905
14	0x3b8d924b	0.004320418
15	0x3c7ef54d	0.015561414
16	0x3c098518	0.008393548
17	0xbb669569	-0.003518427
18	0x3d2f6f50	0.042830765
19	0x39ac5c54	0.00032875186
20	0x3caaebcb	0.020864388
21	0xbbaaf680	-0.0052173734
22	0x3cbe5d62	0.023237888
23	0x3d155cf0	0.036465585
24	0x3c726e21	0.014796765
25	0xbc0d8e49	-0.00863988
26	0xbc83a739	-0.016070949
27	0xbc071d89	-0.008246788
28	0xbbdd0eba	-0.0067461403
29	0xbbf69fd4	-0.007526377
30	0x3c89fd1b	0.016844323
31	0x3ba8adf8	0.005147692
32	0xbc1b753c	-0.0094884
33	0x3d0a54e7	0.033772375
34	0x3c8ded64	0.01732511
35	0x3caa3147	0.02077545
36	0x3d77e04a	0.060516633
37	0x3adc306f	0.0016799102
38	0xbab9477b	-0.0014135683
39	0xbca27fb3	-0.019836282
40	0xbc5c7acb	-0.0134570105
41	0xbc07dc02	-0.0082922
42	0xbc919595	-0.017771522
43	0x3c81750c	0.015802883
44	0xbbb6383f	-0.0055609043
45	0xbb06ce4e	-0.0020569745
46	0xb831ce42	-4.239218e-05
47	0x3c35eee3	0.011104318
48	0xbc749ac1	-0.014929474
49	0x3ca298ca	0.019848246
50	0xbb2882e3	-0.002571278
51	0xbc386193	-0.011253732
52	0xbc28ff73	-0.01031481
53	0xbc65a99e	-0.014017491
54	0x3c11ee51	0.008906917
55	0x3c2e85b5	0.010651995
56	0xbd17a60c	-0.03702359
57	0x3cd66e51	0.02617565
58	0xbb831af0	-0.004001014
59	0xbca5e470	-0.020250529
60	0x3ba7e4de	0.0051237186
61	0x3c08e191	0.0083545605
62	0xbcf21301	-0.029550077
63	0x3bd318e1	0.006442175

layers.4.weight f4 [64, 64]
0	0x3e7c1d36	0.24620518
1	0x3d34fea7	0.044188168
2	0x3de83847	0.11338859
3	0x3d9d3504	0.076761276
4	0xbd93840a	-0.07202919
5	0x3d532abf	0.051554438
6	0xbe5a5e00	-0.2132492
7	0x3dec0339	0.11524052
8	0x3e1e1d9c	0.15440983
9	0x3e8920e1	0.26782897
10	0x3d27b17a	0.04094074
11	0xbe8f3345	-0.27968803
12	0x3dee6e2d	0.11642108
13	0x3e470826	0.19436702
14	0x3e814284	0.2524606
15	0xbeb3af1e	-0.3509454
16	0xbd6d1e6c	-0.05789034
17	0x3d777c63	0.06042136
18	0x3d24b935	0.04021569
19	0x3e282ce2	0.16423371
20	0xbe8da850	-0.27667475
21	0x3dfd42a3	0.123662256
22	0xbd29a797	-0.04141959
23	0x3cc77fa0	0.024352849
24	0xbe2ec29a	-0.17066422
25	0xbe3a9410	-0.18220544
26	0x3df70e3d	0.120632626
27	0xbd218c10	-0.039440215
28	0xbc8e2a2a	-0.01735409
29	0x3e792f1e	0.2433438
30	0x3e5f8444	0.21827799
31	0xbe0bf38c	-0.13667125
32	0xbd068aee	-0.032847337
33	0xbde1d3cd	-0.11026726
34	0xbe50e9f3	-0.20401745
35	0xbe601887	-0.21884356
36	0xbe1f36df	-0.15548275
37	0xbdc4fb1a	-0.09618206
38	0xbe3994cb	-0.18123166
39	0xbda49f70	-0.08038223
40	0x3e433a50	0.19065213
41	0xbcac8114	-0.021057643
42	0x3d9f3017	0.07772844
43	0xbe408917	-0.18802296
44	0xbd821771	-0.06352127
45	0x3ce00cdf	0.027349887
46	0x3e23529c	0.15949482
47	0x3e24366f	0.1603639
48	0x3e42925e	0.19001147
49	0x3d8e81b0	0.0695833
50	0x3dec5c69	0.11541063
51	0x3dd7d299	0.10538215
52	0x3ea75fe2	0.3269034
53	0x3ddd75c9	0.10813481
54	0xbe2c32f7	-0.16816317
55	0x3d578ed2	0.05262644
56	0x3dab3796	0.083602116
57	0x3de731a2	0.112887636
58	0x3da64c1f	0.08119988
59	0x3de5b307	0.112157874
60	0xbd82a65b	-0.06379386
61	0x3e31372f	0.17306207
62	0x3e8b7148	0.27234864
63	0x3e6b7291	0.22992922
64	0xbe432ed3	-0.19060831
65	0x3dd1f58b	0.10251912
66	0x3e24e0fb	0.16101448
67	0xbddfb01f	-0.10922264
68	0xbe4340af	-0.19067644
69	0x3ddf8bbf	0.10915326
70	0x3b8cc070	0.0042954013
71	0x3e413e2d	0.18871374
72	0x3ddc190e	0.10746966
73	0x3e0a69f8	0.13516986
74	0xbe2b33b1	-0.16718937
75	0xbdcbd4fe	-0.099527344
76	0xbe51ec14	-0.20500213
77	0x3d0cb27b	0.0343499
78	0x3e14de43	0.14537911
79	0xbe1301b9	-0.14356126
80	0x3e107a5e	0.1410918
81	0xbe48936c	-0.19587487
82	0x3e1703eb	0.14747588
83	0xbe32a6ea	-0.17446485
84	0xbe2d42a7	-0.16919957
85	0xbddd98cb	-0.108201586
86	0x3d84b8de	0.06480573
87	0xbe5545a8	-0.20827353
88	0x3d78945a	0.060688354
89	0xbe67753e	-0.22603318
90	0xbcbba2f1	-0.022904845
91	0xbd52fc19	-0.05150995
92	0xbd07f8de	-0.033196323
93	0xbe1ddd75	-0.1541651
94	0x3e5727f0	0.21011329
95	0x3e502346	0.20325956
96	0xbe601108	-0.21881497
97	0xbce26bb3	-0.027639246
98	0xbe3e858d	-0.18605633
99	0xbe461bf9	-0.19346608
100	0xbda11238	-0.07864803
101	0x3e093e7d	0.13402744
102	0xbe463640	-0.19356632
103	0x3e52b37f	0.20576285
104	0x3e4f2809	0.20230116
105	0x3d9dfe7f	0.07714557
106	0x3e386716	0.18008074
107	0x3d32c1b0	0.043641746
108	0x3dfc4b3d	0.12319038
109	0x3dc795f9	0.09745402
110	0xbe3d6f48	-0.18499482
111	0x3d520773	0.051276635
112	0x3c82de30	0.015975088
113	0xbe52240b	-0.20521562
114	0x3e1ec04f	0.15503047
115	0xbdb999fc	-0.09062573
116	0x3d934d8c	0.07192525
117	0xbda3ef8e	-0.08004676
118	0x3e0ddd16	0.13853869
119	0x3c21ac24	0.009867702
120	0xbd8ad595	-0.06779019
121	0xbdbcd7d8	-0.092208564
122	0x3d8d7797	0.069075756
123	0xbe4497c6	-0.19198522
124	0x3df5d377	0.12003224
125	0xbe30c03a	-0.17260829
126	0xbe11200e	-0.14172384
127	0x3d01e9f7	0.031717267
128	0xbddf9f01	-0.109189995
129	0x3d85cfd8	0.06533784
130	0xbe65f26d	-0.2245576
131	0xbd989dbc	-0.074519604
132	0x3de0342e	0.109474525
133	0x3dc31cae	0.095269546
134	0x3c16c8eb	0.009203176
135	0x3d29204e	0.041290574
136	0xbdfb25cd	-0.12263069
137	0xbdefdeef	-0.11712443
138	0x3e210e32	0.15728071
139	0xbde9be71	-0.11413277
140	0xbe389b31	-0.18027951
141	0xbccc0970	-0.024906844
142	0xbdd616ac	-0.10453543
143	0x3e0496b2	0.1294811
144	0xbdbf6c6a	-0.0934685
145	0xbe36bd64	-0.17845684
146	0x3d238619	0.039922807
147	0x3e449127	0.19195996
148	0xbd16ce7e	-0.03681802
149	0x3db1240a	0.08649452
150	0x3d2012f5	0.03908058
151	0x3c14ee5a	0.009090031
152	0xbd7e3682	-0.0620637
153	0xbdc3969c	-0.09550211
154	0xbe8d5d45	-0.27610222
155	0x3e48b8d6	0.1960176
156	0xbe387f3a	-0.18017283
157	0xbe6d498f	-0.23172592
158	0xbe098685	-0.13430221
159	0x3d95ffc0	0.07324171
160	0xbd6cc756	-0.05780729
161	0xbd0dd94b	-0.034631055
162	0x3df92fde	0.12167333
163	0xbe1a62f7	-0.15076815
164	0xbe3125d2	-0.17299584
165	0x3ddf22d4	0.10895315
166	0xbd89d07e	-0.0672922
167	0xbe093d69	-0.13402332
168	0xbda6826c	-0.08130345
169	0xbe148dca	-0.14507213
170	0x3ca438d2	0.020046625
171	0xbd8d1e88	-0.06890589
172	0x3d760db2	0.060071655
173	0xbd7ae926	-0.061257504
174	0x3e176e68	0.1478821
175	0x3e18f3d1	0.14936759
176	0xbcb2e911	-0.02183965
177	0x3db3a616	0.08771913
178	0xbe709de1	-0.23497726
179	0xbe81aed5	-0.253287
180	0xbe5afcb6	-0.21385464
181	0xbcd2e8e6	-0.02574582
182	0xbe725e70	-0.23668838
183	0x3de6e394	0.11273876
184	0x3e548e3e	0.20757386
185	0xbe3d8551	-0.18507887
186	0xbdaed85d	-0.08537362
187	0xbdbb7096	-0.091523334
188	0x3e70dd9d	0.23522039
189	0x3de8a4c4	0.113595515
190	0x3c9b0cd9	0.018927025
191	0x3e6d191b	0.23154108
192	0x3e3d1d2a	0.18468156
193	0x3dc12f2c	0.094328254
194	0xbe1a1a23	-0.15049033
195	0xbd89ebbf	-0.06734418
196	0xbd40bde0	-0.04705608
197	0xbcf0baa0	-0.029385865
198	0x3de75837	0.112961225
199	0x3e065716	0.13119158
200	0xbe0e8a79	-0.1392001
201	0xbe457bbc	-0.19285482
202	0xbe48d28f	-0.19611572
203	0x3d72c623	0.05927099
204	0xbe1a3a62	-0.15061334
205	0x3de284e9	0.11060507
206	0x3d526028	0.051361233
207	0x3db5b227	0.088718705
208	0xbd89f338	-0.067358434
209	0x3df29230	0.11844289
210	0x3e09fe8e	0.13476011
211	0x3d65040f	0.055912074
212	0x3cd05307	0.025430216
213	0x3dd8c954	0.10585275
214	0x3c2bccd5	0.0104858475
215	0x3d7ffb3c	0.062495455
216	0x3e0a70d0	0.13519597
217	0x3e474757	0.19460808
218	0xbd57cbc4	-0.05268456
219	0x3e0b0e07	0.1357957
220	0x3e3051f9	0.1721877
221	0xbe46b26d	-0.19404002
222	0xbc089cdf	-0.008338182
223	0xbe4b88f3	-0.1987646
224	0xbe1af436	-0.15132222
225	0x3e225e92	0.15856388
226	0xbe1dbe29	-0.15404572
227	0x3e3dfabc	0.18552679
228	0x3e3c1efe	0.18371198
229	0xbe21cc32	-0.1580055
230	0xbe2f9f8d	-0.17150708
231	0xbcafd607	-0.02146436
232	0xbe515d78	-0.20445812
233	0x3df63991	0.12022699
234	0xbd63d8e0	-0.05562675
235	0x3d180701	0.037116054
236	0x3cc5441b	0.024080327
237	0xbd03fd48	-0.03222397
238	0xbe0182aa	-0.126475
239	0x3d483877	0.048881974
240	0x3dab4e2c	0.083645195
241	0x3b786fe9	0.00379085
242	0xbd4ed8a4	-0.050499573
243	0xbd958ead	-0.07302604
244	0xbe07fbda	-0.13279667
245	0x3d68580c	0.056724593
246	0x3d92a3b1	0.07160128
247	0xbd9d5add	-0.076833464
248	0xbdc79bb2	-0.097464934
249	0x3e360dc3	0.17778687
250	0x3e18c031	0.14917065
251	0xbe508e0a	-0.20366684
252	0xbddfb10b	-0.1092244
253	0xbc851fb7	-0.016250474
254	0xbdb5a202	-0.08868791
255	0x3c235ba7	0.009970582

layers.4.bias f4 [64]
0	0xbce9ad77	-0.028525097
1	0xbb581cd3	-0.0032976165
2	0x3cefbe44	0.02926553
3	0xbc0ed539	-0.008717828
4	0xbc4e4576	-0.012589803
5	0x389aea9e	7.386993e-05
6	0xbbd8152b	-0.0065943203
7	0x3d13bd5a	0.03606925
8	0x3b5aaa61	0.0033365714
9	0x3b0c1d32	0.0021379706
10	0xbc258430	-0.010102317
11	0x3c4ee45e	0.012627689
12	0x3bb86a8e	0.0056279367
13	0x3c1612d7	0.009159765
14	0xbaee63d8	-0.0018187715
15	0xbc5e0268	-0.013550378
16	0x3be2b5a6	0.006918627
17	0x3ccc20ca	0.024917979
18	0x3c92d861	0.017925443
19	0x3a69ec41	0.0008923449
20	0x3cb439a6	0.022000145
21	0xbbfc2c59	-0.0076957163
22	0x3b2ddc2b	0.0026528935
23	0x3be85f33	0.0070914268
24	0xbbb8faf9	-0.0056451526
25	0x3b6d26ae	0.0036186385
26	0xbbc80828	-0.006104488
27	0x3bf59d90	0.0074955896
28	0x3bd12b13	0.0063833087
29	0x3c53b607	0.012921817
30	0x3b52eaa9	0.0032183325
31	0xbb1310e6	-0.0022440492
32	0xbb51ad4c	-0.0031994162
33	0x3b640852	0.0034794998
34	0xbad8b4ae	-0.0016533339
35	0xbb95a8df	-0.00456725
36	0xbb41aed4	-0.0029553669
37	0xbc2c05a1	-0.010499389
38	0x3c9aeefc	0.018912785
39	0x3995b658	0.0002855535
40	0x3cdcf33e	0.026971456
41	0x3c4a29cc	0.012339067
42	0xbc94e0d6	-0.018173616
43	0x3b4a8f73	0.0030908256
44	0xba3d1657	-0.0007213107
45	0xb7e160a2	-2.6867088e-05
46	0xbb3dc8c5	-0.002895878
47	0xbc1a115e	-0.009403555
48	0xbca48ab2	-0.020085666
49	0x3bf1df81	0.00738138
50	0x3cfc029c	0.030762963
51	0xbd1df2ce	-0.038561635
52	0x3cde02ef	0.027101008
53	0xbbc5a5e0	-0.0060317367
54	0xb9e27909	-0.00043196257
55	0x3beb864b	0.00718764
56	0xbb8253db	-0.0039772815
57	0xbc81696d	-0.015797341
58	0x3bb8d39f	0.0056404616
59	0xbb446443	-0.0029966987
60	0x3a0aaab2	0.0005289718
61	0xbc87e0c5	-0.01658667
62	0x3bd27bb9	0.0064234403
63	0x3b3837f4	0.0028109523

layers.6.weight f4 [64, 64]
0	0xbbd4d24e	-0.006494797
1	0xbdc4f970	-0.09617889
2	0xbe93ed31	-0.288919
3	0xbd9bbe48	-0.07604653
4	0x3e003f0c	0.1252405
5	0xbe25dc16	-0.16197237
6	0xbd95bd9c	-0.07311556
7	0xbd6f9f6c	-0.058501646
8	0xbe4062ee	-0.18787739
9	0x3d4335d0	0.04765874
10	0x3d2505df	0.040288802
11	0x3d413b24	0.04717554
12	0x3e24541c	0.1604771
13	0x3e11fcca	0.14256588
14	0x3e0bd4e0	0.13655424
15	0xbbbdacd0	-0.005788423
16	0x3e0616f2	0.1309469
17	0x3cee3760	0.02907914
18	0xbe5e7bb3	-0.21726875
19	0x3dba94f1	0.091104396
20	0x3e21b119	0.15790214
21	0x3da5f1ef	0.08102786
22	0x3e3ebfcf	0.18627857
23	0xbd8fa4a2	-0.07013823
24	0x3e310a5e	0.17289111
25	0xbd80eeb0	-0.06295526
26	0xbc5a42b8	-0.013321571
27	0xbd9d6bcc	-0.07686576
28	0x3c46b728	0.012128629
29	0xbc0a025e	-0.008423416
30	0x3e000bfb	0.1250457
31	0x3dc64f5e	0.09683107
32	0xbe88493f	-0.26618382
33	0x3e4aad12	0.19792584
34	0xbe8cb9e9	-0.27485588
35	0xbe095add	-0.13413568
36	0x3d9cf1de	0.0766332
37	0x3e74f41b	0.23921244
38	0x3bfd9c1f	0.0077395584
39	0xbe038883	-0.12845044
40	0xbe4cf37f	-0.20014761
41	0x3e66b815	0.22531159
42	0x3e3d7c64	0.18504483
43	0x3c84e01c	0.016220145
44	0xbe20b9b7	-0.15695845
45	0xbdd10648	-0.10206276
46	0x3e2edad9	0.17075671
47	0x3dee3c54	0.116326004
48	0xbe2780af	-0.16357683
49	0x3dff58c2	0.12468101
50	0xbe47ef80	-0.19524956
51	0x3b098179	0.0020981713
52	0xbdf1e3eb	-0.1181105
53	0xbe50f07f	-0.20404242
54	0x3d2ff4d4	0.042958096
55	0xbe74c2e0	-0.23902464
56	0xbe124c07	-0.14286815
57	0xbe408ba8	-0.18803275
58	0xbe4a241c	-0.19740337
59	0x3dca2f28	0.098722756
60	0x3d987792	0.07444681
61	0x3db4a972	0.08821382
62	0xbe6db21d	-0.23212476
63	0xbdcc7626	-0.099834725
64	0xbe6d441a	-0.2317051
65	0xbe3bb3ed	-0.18330355
66	0xbdee1279	-0.11624617
67	0x3db51085	0.088410415
68	0x3e3da24f	0.18518947
69	0x3d728721	0.0592109
70	0xbe4bf532	-0.19917753
71	0x3e285296	0.16437754
72	0x3e5a4a83	0.21317486
73	0x3e5ff7be	0.2187185
74	0xbe49f445	-0.19722088
75	0xbde76424	-0.11298397
76	0xbdba3800	-0.090927124
77	0x3e3f4f3c	0.1868257
78	0x3e549fc2	0.20764068
79	0x3d0a9618	0.033834547
80	0x3e23cefc	0.15996927
81	0x3d3895a6	0.04506459
82	0xbd981f39	-0.0742783
83	0x3d5d83cb	0.054080766
84	0xbe063f63	-0.13110118
85	0x3d6191e8	0.055070788
86	0x3e02265d	0.12709947
87	0x3e373223	0.1789022
88	0xbe4a2799	-0.19741668
89	0x3bf3a905	0.00743592
90	0xbc999dc9	-0.018751996
91	0x3dca120c	0.098667234
92	0x3e3fa62f	0.18715738
93	0x3bc9842d	0.00614979
94	0x3cb1d49b	0.021707824
95	0xbe609393	-0.21931295
96	0x3d35e03c	0.0444033
97	0xbde07e8e	-0.109616384
98	0x3e10d423	0.14143424
99	0xbc874b67	-0.016515447
100	0x3c56b6fa	0.013105148
101	0xbd7c96a3	-0.061667096
102	0x3de4af34	0.1116623
103	0xbe0acfcd	-0.13555832
104	0x3e015810	0.1263125
105	0x3d742abd	0.05961107
106	0xbdd6e2c5	-0.104924716
107	0x3e2799f4	0.16367322
108	0x3d05d256	0.032671295
109	0xbd6623ee	-0.05618661
110	0x3c8db09d	0.01729613
111	0xbdae0388	-0.08496767
112	0xbdf8f56e	-0.12156187
113	0x3e2a2399	0.16615142
114	0x3e3cebc3	0.18449311
115	0xbdefd6ed	-0.11710916
116	0x3dd280b9	0.10278458
117	0xbe298f86	-0.16558656
118	0xbde9010f	-0.11377155
119	0xbe5d944e	-0.21638605
120	0x3e066870	0.13125777
121	0xbdfd114c	-0.12356815
122	0xbd69d252	-0.057085343
123	0x3d8b264a	0.067944124
124	0xbdc17430	-0.09445989
125	0xbe1c06d8	-0.15236986
126	0x3e2328dd	0.15933557
127	0xbd186b8c	-0.03721194
128	0xbe21471e	-0.15749785
129	0x3c97c080	0.018524408
130	0x3d7972fa	0.060900666
131	0xbde66774	-0.11250201
132	0xbde7bf89	-0.11315829
133	0xbdce6a18	-0.100788295
134	0x3c36e67a	0.011163348
135	0xbb996aae	-0.0046819067
136	0xbe2c3694	-0.16817695
137	0x3e202a62	0.15641168
138	0x3da87588	0.08225542
139	0x3e39ce51	0.1814511
140	0xbe6093ee	-0.2193143
141	0x3d450f8f	0.04811054
142	0x3e272fb7	0.16326796
143	0xbe42e575	-0.19032843
144	0x3e396bc7	0.1810752
145	0xbe14f4fd	-0.1454658
146	0x3e09e074	0.13464528
147	0xbd33b50d	-0.043873835
148	0x3d7b4550	0.0613454
149	0xbe1e0ed0	-0.15435338
150	0xbc5bdd4f	-0.013419463
151	0xbcc0fdf2	-0.02355859
152	0x3e2c14f6	0.16804871
153	0xbe28c80c	-0.16482562
154	0x3de3f416	0.1113054
155	0xbe268fcd	-0.16265793
156	0xbd2c8e15	-0.042127687
157	0xbe1fee36	-0.15618214
158	0x3e21a1af	0.15784334
159	0x3b724365	0.003696644
160	0x3db12239	0.086491056
161	0x3dac5f7f	0.08416652
162	0x3b83bdcb	0.004020428
163	0x3d50bbc2	0.05096031
164	0xbe01402a	-0.12622133
165	0xbdd7bf30	-0.10534513
166	0xbda28098	-0.079346836
167	0xbe100409	-0.1406404
168	0x3e0a0b5a	0.13480893
169	0xbe477fef	-0.19482397
170	0x3cd0e8ed	0.025501693
171	0x3ccfe191	0.025376113
172	0xbd63fe1b	-0.055662256
173	0xbcdaa8ca	-0.026691813
174	0x3d590845	0.052986402
175	0xbda99fcd	-0.08282433
176	0xbe26118a	-0.16217628
177	0x3e189e84	0.14904219
178	0xbcefb584	-0.029261358
179	0xbe1f574b	-0.15560643
180	0xbe2b21ef	-0.16712163
181	0x3e0af4c8	0.13569939
182	0xbe4ca997	-0.19986568
183	0x3cc29848	0.023754254
184	0x3e4a1cc2	0.19737533
185	0xbe218af3	-0.15775661
186	0x3e3c7d43	0.18407159
187	0x3e0f6f15	0.14007218
188	0x3dc58088	0.09643656
189	0x3e01f770	0.12692046
190	0xbdbb7391	-0.09152902
191	0x3da9b061	0.08285595
192	0xbe261ab6	-0.16221127
193	0x3e5e2395	0.21693261
194	0x3cb4e2df	0.022080837
195	0x3cb81fed	0.02247616
196	0x3e2361da	0.15955296
197	0xbdf17387	-0.11789613
198	0xbe439866	-0.19101104
199	0xbe1424b5	-0.14467128
200	0x3da32d86	0.07967667
201	0x3e04bfc3	0.12963776
202	0x3da662db	0.08124324
203	0xbdd00548	-0.10157257
204	0x3d475ccb	0.04867248
205	0xbe5b784d	-0.2143261
206	0xbbbda33c	-0.0057872813
207	0xbb94c053	-0.0045395284
208	0xbdbc139e	-0.09183429
209	0xbe49ffde	-0.19726512
210	0xbdf639ef	-0.12022769
211	0xbd51abd3	-0.051189255
212	0x3b90a92a	0.004414697
213	0xbc86b42b	-0.016443333
214	0x3db6d392	0.089270726
215	0xbe1a57c8	-0.15072548
216	0x3d54320d	0.051805545
217	0xbe59924b	-0.21247213
218	0x3dc1d462	0.09464337
219	0xbe061e00	-0.13097382
220	0x3d398822	0.045295842
221	0xbc416376	-0.0118034985
222	0xbcfde709	-0.030993955
223	0x3e2f2e47	0.17107497
224	0x3dcb3c0a	0.09923561
225	0xbe552c52	-0.20817688
226	0x3e44769d	0.19185872
227	0x3cfe3492	0.031030927
228	0x3dad08d1	0.08448947
229	0x3a8d4f37	0.0010781054
230	0x3e5e147c	0.21687502
231	0x3dee8edf	0.11648344
232	0xbcf12bc8	-0.029439822
233	0xbe5872e3	-0.21137576
234	0x3df0ee2c	0.11764178
235	0xbe5699ec	-0.20957154
236	0x3dee1d87	0.11626726
237	0x3d2b7787	0.041862037
238	0x3dad3972	0.084582224
239	0x3d912b09	0.070882864
240	0xbe1dad34	-0.15398103
241	0xbda9507d	-0.08267305
242	0xbd673a73	-0.056452226
243	0xbe565067	-0.20929109
244	0x3e14fbd0	0.14549184
245	0xbdcd9eeb	-0.10040077
246	0xbdd9dccf	-0.10637819
247	0xbd8f9940	-0.07011652
248	0x3deeb825	0.116562165
249	0xbac3a105	-0.0014925307
250	0x3dcf46ee	0.10120951
251	0x3dfc8800	0.123306274
252	0x3a252abb	0.0006300618
253	0x3e2d94d3	0.16951303
254	0x3dcf2d4b	0.10116061
255	0x3e02d05b	0.12774794

layers.6.bias f4 [64]
0	0xbcc9b771	-0.024623604
1	0xba64e37b	-0.0008731407
2	0x3b27a898	0.0025582667
3	0x3893f71f	7.055536e-05
4	0xbd02ee5a	-0.03196559
5	0x3ba208af	0.004944883
6	0xbc184977	-0.009294859
7	0xbb0c2869	-0.002138639
8	0xbc09790b	-0.008390675
9	0xbb2015dd	-0.0024427094
10	0xbbd8ab2c	-0.006612202
11	0x3bf8a4b9	0.007587996
12	0x3b60f4fc	0.003432571
13	0xbb165567	-0.0022939087
14	0xbae16517	-0.0017196265
15	0x3981471a	0.00024657772
16	0xbbd34ac4	-0.0064481217
17	0x3c26404b	0.010147165
18	0x3aa701b9	0.0012741602
19	0xbcdf56a3	-0.027262991
20	0x3bd1b528	0.0063997693
21	0xbc40dec9	-0.011771866
22	0xbb378d16	-0.0028007678
23	0xbd23e9d2	-0.04001791
24	0xbb72f83d	-0.003707423
25	0x3c854924	0.016270228
26	0xb93f3567	-0.00018235073
27	0x3bcd677b	0.0062684393
28	0xbbd3e3a9	-0.006466348
29	0xb991518b	-0.0002771731
30	0xb9d630fb	-0.00040853754
31	0x3b771777	0.0037703195
32	0xbd315269	-0.043291483
33	0x3b7b4fcd	0.0038347126
34	0x3b35d5fd	0.0027745955
35	0x3c6f9ea9	0.01462523
36	0xbb40b197	-0.0029402727
37	0x3d0ecd3d	0.0348637
38	0xbc3b8a91	-0.011446611
39	0x3a2555ff	0.0006307065
40	0x3c3b167b	0.011418934
41	0x3bb64b39	0.0055631665
42	0xbb0cd91d	-0.0021491714
43	0x3ac41648	0.0014960254
44	0x3b940c21	0.0045180474
45	0x3a56ca40	0.000819359
46	0x3b8eecba	0.004361716
47	0xbda42832	-0.08015479
48	0x3c8bf12d	0.017082775
49	0xbcae4c30	-0.021276563
50	0xbbe3a31a	-0.0069469335
51	0x390ad5a6	0.00013240296
52	0xbb1d35ae	-0.0023988294
53	0xbba0fcc7	-0.004912946
54	0xbbf180de	-0.0073700985
55	0xbacf8a85	-0.0015834129
56	0xbb53e030	-0.003232967
57	0xbc1f7369	-0.009732106
58	0x3c07d809	0.008291253
59	0xbd108b13	-0.03528888
60	0xbac1f284	-0.0014797007
61	0xbb63868f	-0.0034717654
62	0xbd00543f	-0.031330343
63	0xbc864a87	-0.01639296

layers.8.weight f4 [64, 64]
0	0xbe0a915e	-0.13532016
1	0xbe14fe26	-0.14550075
2	0x3cc1f747	0.023677481
3	0xbe482060	-0.195436
4	0x3bd7ae10	0.006582029
5	0xbd93b407	-0.07212072
6	0xbd96ecbd	-0.07369373
7	0xbe4abac5	-0.1979781
8	0xbe07174a	-0.13192478
9	0x3e01c089	0.12671103
10	0xbde6be82	-0.11266805
11	0x3de6143b	0.112343274
12	0x3e20e9f9	0.15714253
13	0x3c5ba149	0.013405153
14	0x3df6286a	0.12019427
15	0xbe1f52ce	-0.15558931
16	0xbe248e84	-0.1606999
17	0x3e2a8d53	0.16655473
18	0x3dfc2f0d	0.12313662
19	0x3c64b24f	0.013958528
20	0xbe0bc240	-0.13648319
21	0xbd9ee00c	-0.07757577
22	0x3e371d5f	0.17882298
23	0x3e786213	0.24256162
24	0xbe3845f0	-0.17995429
25	0x3dbff2b1	0.093724616
26	0xbe1dc22d	-0.15406103
27	0xbd10ba71	-0.035334054
28	0xbc836bd8	-0.016042635
29	0xbe2c1717	-0.16805683
30	0x3c631e72	0.013862239
31	0xbd2d3bd4	-0.042293385
32	0x3e3d7323	0.18500952
33	0xbdd51268	-0.10403901
34	0xbe2deeb8	-0.16985595
35	0x3d00d9e5	0.0314578
36	0x3e6aebae	0.22941467
37	0x3e43f6ee	0.19137165
38	0x3dcb945c	0.09940407
39	0xbe615246	-0.22004041
40	0x3deef9d6	0.11668746
41	0xbd24e5a8	-0.04025808
42	0xbe35c0fa	-0.17749396
43	0xbda7fb73	-0.08202257
44	0xbe53e2ee	-0.20692036
45	0xbdbf1a2f	-0.09331166
46	0x3dba317d	0.090914704
47	0x3e4bd76f	0.199064
48	0xbe4a8765	-0.19778211
49	0x3daab8e0	0.08336043
50	0x3d4fe0bd	0.050751437
51	0xbe10a238	-0.14124382
52	0xbd7f87c5	-0.06238534
53	0xbe1629e9	-0.14664425
54	0xbe0fac33	-0.14030533
55	0x3e42d8f1	0.19028069
56	0x3e4e1a20	0.20127153
57	0x3dbcf901	0.09227181
58	0xbd320ea9	-0.043471012
59	0xbdd5b2d3	-0.10434499
60	0x3d9af825	0.07566861
61	0xbe47f32e	-0.1952636
62	0xbe0b9684	-0.13631636
63	0x3dab299b	0.08357545
64	0x3e1d5b50	0.15366864
65	0xbc7f9f3b	-0.015601928
66	0xbdd9ee71	-0.10641182
67	0x3ddcc17a	0.1077909
68	0x3e1e1e0c	0.1544115
69	0xbe63c956	-0.22244772
70	0xbd122f91	-0.035689894
71	0xbe62fc67	-0.22166596
72	0xbc8a8777	-0.016910298
73	0x3e1b9098	0.15191877
74	0xbe3858a3	-0.18002562
75	0xbe152f8a	-0.14568916
76	0xbd3d11dc	-0.04615961
77	0x3d8ae706	0.067823455
78	0x3e65d6f9	0.22445287
79	0x3d9abfb7	0.07556098
80	0x3e2e82e6	0.17042121
81	0x3e4d884b	0.20071523
82	0x3e0d70c4	0.13812548
83	0xbe06ac50	-0.1315167
84	0xbe12d8c3	-0.143405
85	0x3e0c66d0	0.13711095
86	0xbd451159	-0.048112247
87	0xbe24df08	-0.16100705
88	0x3d54c678	0.051947087
89	0xbe2defe0	-0.16986036
90	0x3d064a78	0.032785863
91	0x3e5c13db	0.2149195
92	0x3e50e7e8	0.20400965
93	0x3d19bd3a	0.037533976
94	0x3d01b0fc	0.031662926
95	0x3dbc7a19	0.09202976
96	0xbd9c051d	-0.07618163
97	0xbe01f2f1	-0.12690331
98	0x3e58a297	0.21155773
99	0xbe512823	-0.20425467
100	0x3d4e30d8	0.05033955
101	0xbdb09067	-0.086212926
102	0x3db9e052	0.09075989
103	0xbe25f190	-0.1620543
104	0x3ddabc1c	0.1068041
105	0xbdff60c7	-0.12469631
106	0xbdea738c	-0.1144782
107	0x3e45e9bd	0.19327445
108	0x3c8cfc6a	0.017210204
109	0x3e439024	0.19097954
110	0xbe119bd0	-0.14219594
111	0x3e1e00a5	0.15429933
112	0x3c8789a1	0.016545119
113	0x3e323476	0.17402825
114	0xbd5fac5e	-0.05460774
115	0xbca19baf	-0.019727556
116	0x3c7eeafa	0.015558952
117	0xbe0b6bed	-0.13615389
118	0x3cfff370	0.03124401
119	0xbe0358a1	-0.12826778
120	0x3de96096	0.113953754
121	0x3e4dda39	0.20102777
122	0xbd3d0efb	-0.046156865
123	0xbd368e59	-0.044569347
124	0x3db128e1	0.08650375
125	0x3ac2259b	0.0014812233
126	0xbbb5ffce	-0.005554176
127	0xbd8881a0	-0.06665349
128	0x3e20df85	0.15710266
129	0xbd36844c	-0.044559762
130	0x3e5d6e4c	0.21624106
131	0x3e0cbc91	0.13743807
132	0x3de44885	0.111466445
133	0x3d4a9982	0.049462803
134	0xbd9ddb0f	-0.07707798
135	0xbe0291bd	-0.12750907
136	0x3e3c4ea8	0.1838938
137	0xbe001333	-0.12507324
138	0x3b98f6db	0.0046680993
139	0xbe350f2d	-0.1768157
140	0xbe5880e7	-0.21142922
141	0xba9168da	-0.001109387
142	0xbdd20353	-0.1025454
143	0xbe15cade	-0.14628169
144	0xbe2bcf44	-0.16778284
145	0x3e5c1275	0.21491416
146	0x3b32c41e	0.002727754
147	0x3d76adc8	0.060224324
148	0xbe2d5daa	-0.16930261
149	0xbdf530ab	-0.11972173
150	0x3e2affe6	0.1669918
151	0x3e0f4183	0.13989834
152	0x3bb38f7e	0.005479752
153	0xbe452822	-0.1925359
154	0x3e5db0c9	0.2164947
155	0xbe086f8b	-0.133238
156	0xbe0d6419	-0.13807715
157	0x3de5474f	0.11195242
158	0x3d72de1a	0.059293844
159	0x3bae9921	0.005328313
160	0x3e018735	0.12649234
161	0x3d9c22a5	0.076237954
162	0x3e554bdf	0.20829724
163	0x3e3daee1	0.18523742
164	0x3d330a52	0.043711014
165	0x3e2cc5da	0.1687235
166	0xbe60a2a0	-0.21937037
167	0xbe42d125	-0.19025095
168	0xbe15e166	-0.14636764
169	0xbd359a31	-0.0443365
170	0x3e57ddc2	0.21080688
171	0x3cc83791	0.024440559
172	0xbb336f04	-0.0027379403
173	0xbc5f8adb	-0.013643946
174	0xbdc349d9	-0.0953557
175	0xbda774ef	-0.081766
176	0x3e601b6b	0.21885459
177	0xbe10c97f	-0.14139365
178	0x3d89402c	0.06701693
179	0x3bf8a5d6	0.0075881286
180	0x3e4db603	0.20088963
181	0xbddc72a8	-0.107640564
182	0xbd8e61a3	-0.069522165
183	0xbe049474	-0.12947255
184	0xbd1012c0	-0.03517413
185	0xbe26b531	-0.16280057
186	0xbe117a7e	-0.14206883
187	0xbb2e9360	-0.0026638135
188	0xbacb9e61	-0.0015534871
189	0x3dc83439	0.09775586
190	0x3d5554e3	0.052082907
191	0xbe01f83e	-0.12692353
192	0xbe60b5b5	-0.21944316
193	0xbe5a6b28	-0.2132994
194	0x3c6f2053	0.014595109
195	0x3d1a0289	0.037600074
196	0x3e2b27b5	0.16714366
197	0x3e54b5ee	0.20772526
198	0x3e55b6f0	0.20870566
199	0x3e3a1141	0.18170644
200	0x3e357609	0.17720808
201	0x3c9a15fd	0.018809313
202	0x3dc934bb	0.09824511
203	0xbcb7c815	-0.022434274
204	0xbe3621a1	-0.17786266
205	0x3d8c5afb	0.06853291
206	0x3e5d0062	0.21582177
207	0xbdc381a5	-0.09546212
208	0x3e22b794	0.15890342
209	0xbe025f98	-0.12731779
210	0xbe13a784	-0.14419371
211	0x3e29b0c5	0.16571338
212	0xbe4a1400	-0.19734192
213	0x3d8b66c1	0.06806708
214	0x3de65aa2	0.112477556
215	0x3e0fd2b5	0.14045222
216	0xbd98f60e	-0.07468806
217	0xbe332ccb	-0.17497556
218	0x3e5d330d	0.21601506
219	0xbcbd0ae7	-0.023076488
220	0x3dceb856	0.10093753
221	0xbca7988d	-0.020458484
222	0xbe10f222	-0.14154866
223	0xbe48a466	-0.19593963
224	0x3e38faba	0.18064395
225	0xbe6db3af	-0.23213075
226	0xbe17efe7	-0.14837609
227	0x3e198322	0.1499143
228	0x3d305763	0.04305209
229	0xbcdc7312	-0.026910339
230	0xbe1a40a6	-0.15063724
231	0xbe80e736	-0.251764
232	0xbd3893d5	-0.04506286
233	0x3dd9ca1e	0.10634254
234	0x3db1802e	0.086670265
235	0x3da968d4	0.082719475
236	0x3e33e7dd	0.17568918
237	0x3d0c8357	0.034304943
238	0xbd3ff490	-0.046864092
239	0xbe138716	-0.14407
240	0xba3c1519	-0.00071747747
241	0x3dbd86d1	0.0925423
242	0x3d6d02f9	0.057864163
243	0x3e2b94f0	0.16756034
244	0x3e31103d	0.1729135
245	0x3db37114	0.08761802
246	0xbe43adb0	-0.19109225
247	0xbdbb6786	-0.09150605
248	0x3dcd10dc	0.10012981
249	0x3e24aa79	0.16080655
250	0xbcbdb3e5	-0.02315707
251	0xbde25c09	-0.110527106
252	0x3da6e515	0.08149163
253	0x3bc3fa23	0.0059807464
254	0xbdd0d588	-0.10196978
255	0x3e4aa46f	0.19789289

layers.8.bias f4 [64]
0	0xbac5c6c6	-0.0015089146
1	0xbb380d35	-0.0028084044
2	0xb9a165c1	-0.00030784126
3	0xbbd535bc	-0.00650665
4	0x3b3a590b	0.0028434421
5	0x3b4a25b5	0.003084523
6	0xbc42904c	-0.011875223
7	0x3a667a2a	0.00087920076
8	0xba1baec7	-0.00059388246
9	0xb9dcc4ec	-0.00042108388
10	0xbc2d6551	-0.010583238
11	0xbba47dae	-0.005019865
12	0xbb2406da	-0.0025028498
13	0xbb344597	-0.00275073
14	0x3d82dbb2	0.0638956
15	0x3c39c08b	0.01133741
16	0xbb76c986	-0.0037656738
17	0xbd71b5cc	-0.059011266
18	0x3b8307cd	0.0039987327
19	0x3becdacf	0.0072282325
20	0xbbe78f21	-0.007066623
21	0xbcb9332d	-0.02260741
22	0x3b486152	0.0030575586
23	0x3b1fe116	0.0024395636
24	0xbab2d085	-0.0013642466
25	0x3c346108	0.011009462
26	0xbb9f3422	-0.0048585096
27	0xba39911d	-0.00070788135
28	0xbb1cb024	-0.00239087
29	0xba899f0f	-0.0010499674
30	0xbb8d74d1	-0.004316904
31	0xbc58fa05	-0.013243203
32	0x3bc622ea	0.0060466425
33	0xbc971908	-0.018444553
34	0x3aa41eb7	0.0012521361
35	0xbc86223f	-0.016373752
36	0xbb4ebb01	-0.0031544568
37	0xbab08ee6	-0.0013470321
38	0x3aee77c1	0.0018193648
39	0xbc30b00f	-0.010784163
40	0x3a9f04d2	0.0012132174
41	0xbb8a1100	-0.0042134523
42	0xbc60a235	-0.013710548
43	0x3a51dca5	0.0008005596
44	0xbb421ac7	-0.0029618011
45	0x3b1b0fb7	0.002366049
46	0xba9b243d	-0.0011836361
47	0x3a87f8cb	0.0010373829
48	0x3ca52a47	0.020161761
49	0xbbb33f31	-0.0054701795
50	0xbc24efba	-0.010066921
51	0x3aaa25df	0.0012981257
52	0xbb03d0ef	-0.0020113548
53	0xbab74e74	-0.0013985173
54	0xba180ee0	-0.00058005564
55	0x3bf0ba81	0.0073464517
56	0xbbf8bdb2	-0.007590973
57	0xbb5c71db	-0.00336372
58	0xbac18438	-0.0014764136
59	0xbbee0a14	-0.007264385
60	0xbbcbe95d	-0.0062228874
61	0xbc84a6a9	-0.016192751
62	0xbc8bfa32	-0.017087076
63	0x3b050bb2	0.002030116

layers.10.weight f4 [64, 64]
0	0x3de76b97	0.11299818
1	0x3e006408	0.12538159
2	0x3e18f03d	0.14935394
3	0x3d907bed	0.07054887
4	0x3e67e290	0.2264502
5	0x3d2fdfb5	0.042937953
6	0x3e4867ce	0.19570848
7	0x3d238aa8	0.039927155
8	0x3d6fddae	0.05856102
9	0xbe0896e4	-0.1333881
10	0xbc13cb02	-0.009020569
11	0x3d54c673	0.05194707
12	0xbda402e7	-0.08008366
13	0x3dbffc4b	0.09374293
14	0x3d755329	0.05989376
15	0xbdcabf43	-0.098997615
16	0xbe05d95b	-0.13071196
17	0x3dd32199	0.103091426
18	0xbe1289c1	-0.14310361
19	0x3d8dc60e	0.069225416
20	0xbdf5ea90	-0.1200763
21	0xbe46b0e9	-0.19403423
22	0x3c0d3ab2	0.008619951
23	0xbda613cf	-0.08109247
24	0x3db1da69	0.086842366
25	0xbd114f1d	-0.03547584
26	0xbe30d560	-0.17268896
27	0x3c074fc6	0.008258766
28	0xbe0bc332	-0.1364868
29	0x3d2ef721	0.04271615
30	0x3e25f129	0.16205277
31	0xbdd881a3	-0.10571601
32	0xbde48029	-0.11157257
33	0xbd50cace	-0.05097466
34	0xbd386e5e	-0.04502713
35	0x3c975b6c	0.01847621
36	0x3ccf9a0e	0.025342014
37	0x3d641ae6	0.055689715
38	0xbdb62fd3	-0.088958405
39	0xbdcc5749	-0.09977586
40	0x3e341d6c	0.17589349
41	0x3dfb1803	0.12260439
42	0x3e031fdc	0.12805122
43	0xbe41f98f	-0.18942855
44	0x3e1a0a7c	0.15043062
45	0x3e567379	0.20942487
46	0xbdc88e3f	-0.09792756
47	0xbe446811	-0.19180323
48	0x3dbd664f	0.092480294
49	0xbdc47845	-0.09593252
50	0x3daebfde	0.085326895
51	0xbd89307d	-0.066987015
52	0x3e5ccdb9	0.21562852
53	0xbd454661	-0.04816282
54	0x3b292257	0.0025807822
55	0xbd2293f2	-0.039691873
56	0xbde3c450	-0.11121428
57	0x3d8c06a0	0.06837201
58	0x3e0bda5d	0.13657518
59	0xbe40e638	-0.18837821
60	0x3b75c93c	0.0037503978
61	0x3e0e3a84	0.1388951
62	0x3dc5263e	0.09626435
63	0xbe55b4ec	-0.20869797
64	0xbca5a156	-0.020218533
65	0x3dba20c9	0.090882845
66	0x3d67eca0	0.056622148
67	0xbe5f684e	-0.21817133
68	0xbd27a3e0	-0.040927768
69	0xbe0d05b1	-0.13771702
70	0xbdc74a9a	-0.09731026
71	0xba59cdb1	-0.00083085435
72	0x3e4be4e9	0.19911541
73	0x3e07e324	0.13270241
74	0xbdc94ea2	-0.09829451
75	0x3de8ef0f	0.11373722
76	0xbdfd5817	-0.123703174
77	0x3d768cf4	0.060193017
78	0xbe36b5bb	-0.17842762
79	0x3cd955ea	0.026530225
80	0xbdb518e3	-0.088426374
81	0x3e588dbd	0.21147819
82	0xbe295580	-0.16536522
83	0xbde41dcd	-0.111384965
84	0x3df78851	0.12086547
85	0xbd9afb94	-0.07567516
86	0x3d696743	0.056983244
87	0x3e685c67	0.22691499
88	0xbe47ffd5	-0.19531186
89	0xbe5a0c4c	-0.21293753
90	0xbac85511	-0.0015284141
91	0x3c18ada9	0.009318748
92	0x3e1433ea	0.14472929
93	0x3db91ce8	0.090387166
94	0xbe21e320	-0.15809298
95	0x3e3c889f	0.18411492
96	0xbd88ce41	-0.06679965
97	0x3e091a31	0.13388897
98	0xbe0bb50b	-0.13643281
99	0x3d58e148	0.05294922
100	0x3e0decc5	0.13859852
101	0x3e0eec57	0.13957344
102	0xbe25d14f	-0.16193126
103	0xbdfbb8fd	-0.12291143
104	0x3c3fc816	0.011705419
105	0x3d3d4828	0.04621139
106	0x3e1c8936	0.15286717
107	0x3cac9c72	0.021070693
108	0x3e650917	0.22366749
109	0xbde0afbd	-0.109710194
110	0x3dcc5fa9	0.09979183
111	0x3defe435	0.11713449
112	0x3e2ffd54	0.17186481
113	0xbe019f22	-0.1265836
114	0x3ca519f3	0.020153975
115	0x3da83f22	0.08215167
116	0xbdad20d6	-0.084535286
117	0x3cea68f9	0.028614508
118	0x3e143203	0.14472203
119	0x3d17237d	0.03689908
120	0xbd85d5a3	-0.065348886
121	0xbe2f2a33	-0.17105941
122	0xbe21ee12	-0.15813473
123	0xbda4e15c	-0.080507964
124	0xbe0c8455	-0.13722356
125	0x3deb6d08	0.114954054
126	0x3cb4bc06	0.022062313
127	0x3d7a9693	0.061178755
128	0xbe346359	-0.17616023
129	0x3db15b61	0.08660007
130	0x3c200214	0.00976612
131	0xbe3483db	-0.17628424
132	0xbe29238c	-0.16517466
133	0x3d8dfec2	0.06933357
134	0x3d611577	0.05495211
135	0xbe1980c4	-0.14990526
136	0xbcfae370	-0.030626029
137	0x3bbcc567	0.005760837
138	0x3e32c5cf	0.1745827
139	0xbde116fb	-0.10990711
140	0xbe3c9b1d	-0.18418546
141	0x3da28fa8	0.079375565
142	0xbde4beef	-0.1116923
143	0xbd9049ae	-0.07045303
144	0xbcbb6979	-0.022877442
145	0xbe00d9a1	-0.12583019
146	0xbe26b042	-0.16278175
147	0xbdf10cb3	-0.1177
148	0x3e670198	0.22559202
149	0x3d76a4c1	0.060215715
150	0xbdb2da40	-0.08733034
151	0x3e44a4b6	0.19203457
152	0xbe021146	-0.12701902
153	0xbe1a0035	-0.15039141
154	0x3e395b43	0.1810122
155	0xbe48f435	-0.19624408
156	0xbe25ed87	-0.1620389
157	0x3e0aaae0	0.13541746
158	0xbe008718	-0.12551534
159	0x3e0dd7a1	0.13851787
160	0x3e3baffd	0.18328853
161	0xbe1b207e	-0.15149114
162	0xbd829005	-0.06375126
163	0x3e446418	0.19178808
164	0xbe117ce6	-0.14207801
165	0xbe1c42b6	-0.15259823
166	0x3e1d2331	0.15345456
167	0xbdf2022b	-0.1181682
168	0x3b65083e	0.003494754
169	0xbdf1d3d3	-0.118079804
170	0xbe3cc3dd	-0.18434091
171	0xbe30fe84	-0.1728459
172	0x3df28668	0.11842042
173	0x3dc1cc0e	0.094627485
174	0xbd431f7c	-0.047637448
175	0xbdf0c517	-0.11756342
176	0x3cb4b22b	0.022057613
177	0xbc2aaa96	-0.010416647
178	0x3dfe88bf	0.12428426
179	0xbdb8a0e5	-0.09015063
180	0xbd7ed4c7	-0.06221464
181	0x3e6549a4	0.22391373
182	0xbdb1d220	-0.08682656
183	0xbe13f88a	-0.14450279
184	0x3db38f1c	0.0876753
185	0x3d83cecf	0.0643593
186	0xbc40cb14	-0.011767168
187	0xbdccbf15	-0.099973835
188	0xbe1422d4	-0.14466411
189	0x3ce4e1da	0.027939726
190	0x3da9523a	0.082676366
191	0xbe7393f4	-0.23786908
192	0x3dd42298	0.10358161
193	0xbc6c055e	-0.0144055765
194	0x3dd39a2e	0.10332142
195	0x3e285bce	0.1644127
196	0x3e2bdaf0	0.16782737
197	0x3e4a0463	0.19728236
198	0xbc84dad1	-0.016217621
199	0x3e0122fc	0.12611002
200	0x3e06ce20	0.13164568
201	0x3d863937	0.065538816
202	0xbe1daba8	-0.15397513
203	0xbca94567	-0.020662976
204	0xbe455e87	-0.1927434
205	0x3d2f2ef4	0.042769387
206	0x3dac8785	0.08424286
207	0xbdc20752	-0.094740525
208	0x3d893455	0.06699435
209	0x3e11e9b4	0.14249307
210	0xbe656a5c	-0.22403854
211	0x3e3d73c8	0.18501198
212	0xbe5a5efd	-0.21325298
213	0xbd183e9b	-0.03716908
214	0xbe02759c	-0.12740177
215	0xbe002835	-0.12515338
216	0x3d84616e	0.06463896
217	0x3ceedc2a	0.029157717
218	0xbdf07750	-0.11741507
219	0xbd45adde	-0.048261516
220	0x3dbbeeca	0.09176405
221	0x3e1d7ee8	0.15380442
222	0xbd8c3229	-0.06845505
223	0x3e02cf8c	0.12774485
224	0xbe268082	-0.1625996
225	0xbe3ecadd	-0.18632074
226	0x3e56f762	0.20992807
227	0xbe34d699	-0.17659988
228	0x3e1e608a	0.15466514
229	0x3e5ec2df	0.21754025
230	0x3dc5fe9f	0.09667706
231	0xbdb5bf42	-0.0887437
232	0xbd5a716c	-0.053330824
233	0xbe05a28c	-0.13050288
234	0xbd591b5b	-0.053004604
235	0x3e10f6b3	0.14156608
236	0xbdf75619	-0.12076969
237	0xbda9d657	-0.08292835
238	0x3d39f852	0.045402832
239	0x3deb5a49	0.1149183
240	0xbbea7a10	-0.0071556643
241	0xbd2bdb36	-0.041957103
242	0xbe5be87a	-0.21475402
243	0xbd58424a	-0.052797593
244	0x3d9c9036	0.076446936
245	0x3d525599	0.051351164
246	0xbd42ab79	-0.04752681
247	0xbda95355	-0.082678474
248	0xbc8e244e	-0.017351296
249	0xbd0d62cc	-0.03451805
250	0x3ddc7397	0.107642345
251	0xbde6efe2	-0.11276223
252	0x3d1c9fb9	0.03823826
253	0x3e460f3d	0.1934175
254	0x3c6dab32	0.014506148
255	0xbd7a3af1	-0.061091367
