data/results/state_net_8000.pth (torch, 90283 bytes, 14 tensors)

layers.0.weight f4 [64, 6]
000000 d4 f4 d2 bd e5 79 6e 3e 6b b2 06 3e 67 15 6b 3e
       -0.103006035 0.23288687 0.13153999 0.22957383
000010 72 02 c7 bc be 35 45 3e 9f bd 58 3d 6f cd 22 bd
       -0.024293158 0.19258782 0.05291521 -0.039746698
000020 98 48 55 bd 3f 2a c7 3d 9c 37 87 3e 9f 9c 8f 3e
       -0.052071184 0.09724855 0.26409614 0.2804918
000030 89 ca 8c be 0d 4b de bd 6c d7 47 3e 3d 6e cf bd
       -0.27498272 -0.108541586 0.1951577 -0.10128448
000040 9d dd a4 bd fe 68 4d 3d 6b 3e 6a be 2e ec a5 be
       -0.08050082 0.050148956 -0.22875373 -0.32406753
000050 79 63 76 3e a0 6d 71 be 60 2f 7a be d4 bb 5a 3e
       0.24061383 -0.23576975 -0.24432135 0.21360713
000060 80 95 39 bd c1 b8 22 3e 84 d0 01 bd 2a 68 f2 3a
       -0.04530859 0.1589079 -0.031692997 0.0018494178
000070 0c 2a 6c bd ba 60 f6 3d c0 75 ca 3d 96 04 c6 bd
       -0.057657287 0.12030168 0.0988574 -0.096688434
000080 0a 88 4f 3e af 14 40 be 97 2b ac bd 6f 86 52 bd
       0.20266739 -0.1875789 -0.084067516 -0.051397737
000090 a9 fd 19 3e 0d 4e c3 bd 2b f9 0e 3c cf 02 8a be
       0.1503817 -0.095363714 0.008726398 -0.26955268
0000a0 c1 af 15 3e e9 f2 48 3e bb c5 4d be 84 af 92 be
       0.14617826 0.19623913 -0.2009496 -0.28649533
0000b0 1d 1f f2 3c 99 16 87 3e ca 7a a6 3d 9e 3b 5f 3e
       0.029555852 0.26384428 0.08128889 0.21800086
0000c0 3e e7 7d be 39 e1 7e 3e 7c 54 84 3e af 2e 74 be
       -0.24795243 0.24890603 0.25845706 -0.23845933
0000d0 57 c3 8f 3d 25 3c 60 bd ab 93 da 3e d7 56 1d be
       0.0701968 -0.05474486 0.42690787 -0.15365158
0000e0 c5 54 9d be 1a a9 8a be 41 bc 7f 3e 1c 59 0c 3e
       -0.30728737 -0.2708214 0.24974157 0.13705868
0000f0 4f 83 93 be c0 a5 86 be 3f 4f 23 3e e7 ef 1e be
       -0.28811118 -0.26298332 0.15948199 -0.15521203
000100 cd 5e 4e be 51 b0 01 be 7f 64 ec bd 20 39 5d be
       -0.20153351 -0.12664916 -0.115426056 -0.21603823
000110 04 da 05 be ce 98 20 3d 1d ea 69 3d eb 3f 98 3e
       -0.13071448 0.039208226 0.057108033 0.29736266
000120 79 39 9c be e2 82 ed bc 85 8f c6 bd 12 c7 31 be
       -0.30512598 -0.028993074 -0.09695343 -0.17361096
000130 53 94 01 3e bc 8f 16 be b2 70 e7 bd f0 ce 7a be
       0.12654237 -0.14703268 -0.11300792 -0.24493003
000140 fe 73 ee bd 47 36 73 3c 30 df 2c be c2 b2 48 bd
       -0.116432175 0.014844484 -0.16882014 -0.0489986
000150 f9 00 26 be 72 2f c0 3c e1 13 ea 3d 81 bc 32 be
       -0.16211309 0.023460124 0.11429573 -0.17454721
000160 08 59 0c be d2 97 89 bd 6b ac 1b be dc 5b 27 be
       -0.13705838 -0.067184106 -0.15202491 -0.16343635
000170 62 84 25 3e e1 8d 87 bd 47 0f e8 3d e7 3d f5 3b
       0.16163781 -0.06618858 0.11331039 0.007484186
000180 c7 89 ba 3c d9 30 6f be 76 84 1c 3d 74 44 84 3e
       0.022770775 -0.23358478 0.038212262 0.25833476
000190 07 7b 89 3e 67 fc 78 3e 22 e6 d8 bd 8e d1 1d bd
       0.26851675 0.24315034 -0.10590769 -0.038529925
0001a0 d9 d2 8e 3e d0 fc bf bd ff 5e ba 3d 1b b5 51 3b
       0.2789524 -0.09374392 0.0910015 0.0031998816
0001b0 bb cd 39 3e 0a 13 18 be e3 c5 27 3d cb 4d 85 be
       0.18144886 -0.14851013 0.040960204 -0.26035914
0001c0 f8 4b 7e bd b6 25 24 3e c0 36 32 3c 8a dd 9e 3e
       -0.06208417 0.1603001 0.010877311 0.31028396
0001d0 12 4d 59 be 45 5c ee 3d f6 18 56 bc 1b 34 c9 3e
       -0.21220806 0.11638693 -0.013067475 0.39297566
0001e0 8b c8 8c 3e d9 ab 8f 3e 46 01 49 be 25 cb 97 3e
       0.27496752 0.28060797 -0.19629392 0.29647174
0001f0 3c fc 3b be 01 ef 37 be ee 7b 43 3e fb 23 c2 ba
       -0.18357939 -0.17962267 0.19090244 -0.0014811748
000200 aa c4 17 3e 7e 44 8b 3e 91 17 57 bc e1 fc 6e 3d
       0.14821115 0.27200693 -0.013128177 0.058346633
000210 b8 89 a0 bc 20 00 66 3e d3 51 0e 3e a3 da e9 3c
       -0.01959692 0.22460985 0.13898401 0.028546637
000220 31 44 65 be 0d 65 3f 3e e8 0b 33 3e 8e b5 0e 3d
       -0.22389294 0.18690892 0.1748501 0.034841113
000230 4d 3c 01 3e a6 33 b3 3d 1d 26 0b be a7 19 1a be
       0.12620659 0.087500855 -0.13588758 -0.15048848
000240 7d 62 7c bd 2a f4 8d be a6 9a ff bb 2b f3 89 bd
       -0.061617363 -0.27725345 -0.007800418 -0.06735834
000250 ad 8b 7c be ae 6e 78 3d d2 6c a7 3d 4a b0 27 3e
       -0.24662657 0.060652427 0.08175053 0.16375843
000260 f8 f3 2a bd 75 15 a8 bd fa 7e 49 bd 71 da 84 be
       -0.041736573 -0.082072176 -0.04919336 -0.25947908
000270 ad cf a8 3b 7c a0 3d 3e f6 cb 88 3c 2f 25 01 3d
       0.00515171 0.18518251 0.016698819 0.0315296
000280 80 3a 86 3e 66 d1 9c 3e 3f 4d 88 3e ff 19 68 3e
       0.26216507 0.30628508 0.26621434 0.22666167
000290 d8 c2 28 3e d6 cc 3e bc 75 8a 93 be 9b de d0 3c
       0.16480577 -0.011645516 -0.28816572 0.025496772
0002a0 97 a8 1e 3e ae f9 93 bd ee 20 1a 3e a9 1d 55 be
       0.15494 -0.07225357 0.15051624 -0.20812096
0002b0 2e a6 20 3b 1b 80 a7 3e 61 ed 95 be 36 73 9c bd
       0.0024513113 0.32714924 -0.29282668 -0.07639162
0002c0 83 ac 02 3e 6a cd 80 be 83 ef e0 bd 4a 53 b1 bd
       0.1276112 -0.25156718 -0.10983183 -0.08658464
0002d0 28 74 54 3e 6d 17 c8 bc 24 b2 15 3c ab c6 74 3e
       0.20747435 -0.024425233 0.00913671 0.23903911
0002e0 88 57 96 3d c2 79 e2 bd 7b 72 3e 3e ba d1 cb bd
       0.07340914 -0.1105838 0.18598358 -0.099521115
0002f0 f5 b0 8b 3e 18 23 c4 bd 3b 73 88 3e 79 bd 04 be
       0.27283445 -0.09577006 0.26650414 -0.12962903
000300 92 1e 21 3e ee d6 91 3e c8 eb c0 bd 56 6c ea bc
       0.15734318 0.2848429 -0.09419972 -0.028616112
000310 b8 63 18 be 26 ed 32 3e e0 bc c1 bd 66 9c 97 3e
       -0.1488179 0.17473277 -0.09459853 0.2961151
000320 77 79 2d be 92 12 ce bd 0c 34 3d bd 03 27 b7 3e
       -0.16940866 -0.10062136 -0.046192214 0.3577195
000330 7d 9e 16 3e 73 0f 64 bd 93 55 1b 3e 91 2f 84 be
       0.14708896 -0.055678796 0.15169363 -0.2581754
000340 76 91 a2 bc 07 2b a3 3e 0c 61 92 bd 7b 81 2f be
       -0.019844752 0.31868765 -0.071474165 -0.17139237
000350 32 de 14 be c9 61 75 3e ad fd 31 3d 88 89 6e 3d
       -0.14537886 0.23963083 0.043454815 0.05823663
000360 1d 60 0d be 95 f7 4c 3e 7a 17 c8 3b 26 df 9a 3e
       -0.13806196 0.2001632 0.0061063142 0.30248374
000370 db c5 40 3e 98 ca 9a be b9 4b 81 3e 3b f7 35 be
       0.18825476 -0.30232692 0.25253084 -0.17770092
000380 0c fe ce bd 51 2a 29 3d cb b5 74 be 6c d0 76 bc
       -0.10107049 0.04130012 -0.23897474 -0.01506434
000390 64 df 26 be 05 54 1c bd c1 c9 c5 bc c3 23 3d bd
       -0.16296154 -0.038166065 -0.024144055 -0.046176683
0003a0 b4 a1 e4 3d 3a 89 fe bd 3c 76 ee 3c f7 ad b9 bc
       0.11163655 -0.12428518 0.029109113 -0.02266596
0003b0 3b 05 c2 bd 91 15 90 be a2 51 21 3e b2 e3 81 be
       -0.09473654 -0.28141454 0.15753797 -0.2536903
0003c0 bc 7c 3b 3d e7 0a 85 3e ef 11 90 3e fd dd 30 be
       0.045773253 0.2598488 0.28138682 -0.17272182
0003d0 42 a7 7b 3e 83 db 3f be 25 01 39 be 99 46 fe 3c
       0.24575523 -0.18736081 -0.18066843 0.031039523
0003e0 12 1a d3 bd 19 8f 3b be 27 c6 b6 3d b2 df 86 3e
       -0.10307707 -0.18316306 0.08924513 0.2634254
0003f0 be f3 39 3e e4 b7 d7 3d 60 4c 2d 3e e0 9c 7b 3e
       0.18159387 0.10533121 0.16923666 0.24571562

layers.0.bias f4 [64]
000000 ec 12 93 3c 5b cd 87 bc 2e 95 bb 3b 0d 8e 8e 3d
       0.017953359 -0.016577413 0.0057245707 0.06960688
000010 bd fc ac bb 82 a3 38 3d fc 8f fb bb 5f cf 2d 3c
       -0.005279152 0.04507781 -0.0076770764 0.010608523
000020 cc 94 3c ba 20 b6 b9 bc d2 11 ff 3b 3c 6b 8b 3b
       -0.00071938033 -0.022669852 0.007784107 0.0042547267
000030 2b 4b 91 bc b6 f7 20 3c 4a eb b3 3c a8 3a 04 3c
       -0.017736038 0.009824684 0.02196278 0.008070625
000040 70 f2 21 3c 32 4e cb 3b 3d fb ea 39 7b f7 ba 3b
       0.009884462 0.00620439 0.00044819145 0.0057057715
000050 89 49 92 bb 1b 0a cd bc b6 7a 12 3b 0d f8 46 bc
       -0.0044643325 -0.025029233 0.0022350973 -0.012144101
000060 2c 27 4a b8 b3 f1 ba bc 74 b7 a8 bc ad a9 41 3c
       -4.8197035e-05 -0.02282033 -0.02059529 0.011820239
000070 29 00 14 bc b1 94 6d 3c 6c 06 5f bc 5d 94 ae 3b
       -0.009033241 0.014500783 -0.013612371 0.005327745
000080 38 56 94 3b 5b b2 35 bc 9c 6c 0b bc 8a 21 a4 bb
       0.0045268796 -0.011089887 -0.008509781 -0.005008881
000090 70 7c ce bc ed 3c 3a 3b 5d b2 bf bb ae ea cf 3b
       -0.02520582 0.0028417662 -0.00585012 0.0063451147
0000a0 93 6c d2 3b 7d 9b 22 bc f1 e0 c3 3a 2b 5f f4 ba
       0.0064216345 -0.009924767 0.0014944357 -0.0018644085
0000b0 17 6e a1 bb 38 b4 16 b9 ab a7 ae 3b 57 2b 27 ba
       -0.004926454 -0.00014372251 0.005330046 -0.00063770026
0000c0 e9 e5 e3 3b 21 bf d9 bb 23 58 dd bb 54 e0 35 bd
       0.0069548977 -0.006645099 -0.0067548915 -0.04440339
0000d0 ab ff 45 bb d6 77 41 3b 3a 83 2f 3c dc 8d 08 bd
       -0.0030212204 0.002952089 0.010712439 -0.033338413
0000e0 81 c1 81 3b 56 db 96 3c aa bc 13 3d 36 8e 7a bd
       0.003959835 0.018415134 0.036068596 -0.06117078
0000f0 65 3c 9e 3c b2 a2 63 3c 8f de 65 3c 22 3d fa bc
       0.019315908 0.01389377 0.014030113 -0.030546729

layers.2.weight f4 [64, 64]
000000 88 9f aa 3d 73 c3 bd bd 4a 69 11 be 24 f9 e5 3d
       0.083312094 -0.092657946 -0.14200321 0.112291604
000010 b2 2f 89 3d d1 5f 45 3e 05 82 34 3b 6e 66 f1 3d
       0.0669855 0.19274832 0.0027543318 0.11787115
000020 6b 82 24 3e 05 06 9f 3b 26 ac f8 bd c9 2d 4b be
       0.16065376 0.0048530125 -0.1214221 -0.19841684
000030 d9 92 1a 3e 19 0c 7b be 83 18 dd 3d af 22 9c bd
       0.1509508 -0.24516334 0.10795691 -0.07623803
000040 32 71 f6 bc 4c 7f 09 3e ff 41 54 be 4d 10 14 3e
       -0.030083273 0.13427466 -0.207283 0.14459343
000050 09 2d f7 bb 30 79 fe 3d d1 c8 8a 3d a2 1e e7 3d
       -0.0075432104 0.124254584 0.06776584 0.112851396
000060 12 42 8d bd 06 1e a9 bd 09 26 cb 3d 29 18 43 be
       -0.068973675 -0.0825768 0.09919364 -0.19052185
000070 89 92 16 be e6 3d 5f 3c f1 37 35 3e 4f a7 84 3d
       -0.14704336 0.013625598 0.17697121 0.06477224
000080 c1 50 ab bd 6e f0 f4 3d 51 89 e6 3d cd 71 7a 3d
       -0.08365012 0.11959921 0.1125666 0.061143685
000090 64 7f 4c 3e f9 00 1d 3e 7c 9f a3 3d 1c 7c 42 be
       0.1997047 0.15332402 0.079894036 -0.18992656
0000a0 98 80 00 3e 44 12 f5 3d 35 fc 07 be 4d 40 ee 3d
       0.12549055 0.119663745 -0.13279803 0.11633358
0000b0 0f 44 5f 3e 3e 1d 81 3d 14 59 11 3e 11 c6 f9 3d
       0.21803306 0.06304406 0.14194137 0.12195981
0000c0 c8 52 0c bd b0 af 4f be 54 9b 94 bd be e8 fe 3d
       -0.034258634 -0.20281863 -0.07256189 0.12446736
0000d0 26 a6 1b be 92 52 4d 3e b2 01 d8 3c 51 a0 b7 bd
       -0.152001 0.2005103 0.026367996 -0.08966125
0000e0 bc 23 31 3e 42 69 20 be 5b 50 c3 ba 76 a9 52 be
       0.17298788 -0.15665153 -0.0014901267 -0.20572457
0000f0 00 8c ff 3d ea c3 e4 3c 22 1a 02 3e ec 20 ee bd
       0.12477875 0.02792545 0.12705281 -0.11627373
000100 f7 1e 2a 3e e8 0d 5d be 6e a0 3e 3e f5 a5 d0 3d
       0.16613375 -0.21587336 0.18615887 0.10187904
000110 14 d0 7f 3d 8c dd 25 be 03 d8 e0 bd a1 bc 13 bd
       0.0624543 -0.16197795 -0.10978701 -0.036068562
000120 ec 61 00 3e d7 0a 29 3e b0 14 50 3e 5a 75 46 3d
       0.12537354 0.16508041 0.20320392 0.04845176
000130 21 f3 59 bd 6d a2 45 be bc 6a 89 3b e2 72 53 3d
       -0.05321038 -0.19300242 0.004193632 0.051623233
000140 ce fd b7 bd 69 64 c6 3d 9c a6 16 be 11 64 13 3d
       -0.08983956 0.096871205 -0.14711994 0.035984103
000150 76 f2 87 bc 67 4b 24 be 52 33 42 be fa 8e 34 be
       -0.016595107 -0.16044389 -0.1896489 -0.17632666
000160 9b 95 55 3e 9c be a0 bd ef d6 5e 3d d2 d6 87 bd
       0.20857851 -0.07848856 0.054404195 -0.066327706
000170 a4 7f 33 3d 15 1a 34 be 33 bb a0 3d 33 c0 33 3e
       0.0438229 -0.17588075 0.078482054 0.17553787
000180 62 39 fd 3b 04 3e 5c 3c 31 07 33 be 5d 5b 0e be
       0.007727788 0.01344252 -0.17483212 -0.1390204
000190 05 8b 31 be 62 ab 48 3e a4 2c 3a bc 74 72 94 3d
       -0.17338188 0.19596627 -0.011363182 0.07248393
0001a0 58 74 b4 bc 50 da d7 3d fb bd 23 3e 34 08 29 be
       -0.022028133 0.10539687 0.1599044 -0.16507035
0001b0 51 27 17 be 0c 58 7e bd 7f f9 46 3c ad dc 21 bd
       -0.14761092 -0.062095687 0.012144445 -0.039517093
0001c0 06 66 ac 3d 21 38 c5 3d af ac 52 3d ea 38 3f be
       0.08417897 0.09629846 0.051434215 -0.18674055
0001d0 d7 c1 03 be ca ab eb 3d 73 18 b4 bd 07 c7 29 be
       -0.12866913 0.115073755 -0.08793726 -0.16579829
0001e0 1c b2 44 bd f3 8f 29 3e e1 1e 68 3d e5 5c b4 bd
       -0.04802142 0.16558819 0.056670073 -0.08806781
0001f0 f0 e1 47 3e ce f6 29 bd a6 2e 34 3e 24 9c 54 3e
       0.19519782 -0.041495137 0.1759592 0.20762688
000200 58 fd 49 be 54 f3 04 bd 53 3d 21 3e 3a 14 60 be
       -0.19725549 -0.03245862 0.1574605 -0.21882716
000210 d3 19 f8 3d 21 c7 2f 3e e2 dd 66 3e 87 cb 97 bd
       0.121143006 0.17165805 0.22545579 -0.07411867
000220 70 ba 3e 3e bc 97 d2 3d 46 d5 2a 3e 7d 96 c0 3d
       0.18625808 0.10282847 0.1668292 0.09403703
000230 4b 4d a7 3c 0a a8 61 be 4c 74 11 be c7 4f 84 3e
       0.020422598 -0.22036758 -0.1420452 0.25842115
000240 43 af c7 3d 70 2f 4e bd 33 da 52 3e 2c 76 46 be
       0.097502254 -0.05033821 0.20591049 -0.19381016
000250 58 12 0a 3b c2 cc 3f 3e 7f 35 c7 bd 1d cc 55 3d
       0.0021068063 0.18730453 -0.097270004 0.05219661
000260 8c 20 ec 3d e0 cd 66 bd 71 96 86 3d 7c b5 be 3d
       0.11529645 -0.05634868 0.06571663 0.09311959
000270 42 33 8e bd 94 c3 01 be 2f 98 a5 3d de c3 20 be
       -0.069433704 -0.12672263 0.08085667 -0.15699717
000280 61 3b 68 be 61 b1 be bc d4 d7 e6 bd 31 a5 8e 3d
       -0.22678901 -0.02327794 -0.11271635 0.069651015
000290 d4 d3 66 3d f5 e5 47 be fe bf de bd 10 52 90 3e
       0.05635436 -0.19521315 -0.10876463 0.2818761
0002a0 ec bd d1 bb 6e 5d 72 3b 35 d6 f0 bd 17 66 98 3d
       -0.0064008143 0.0036981958 -0.11759607 0.07441347
0002b0 3c 4a d0 3d 04 90 82 3d f4 f4 c8 bd 68 e4 9d 3d
       0.10170409 0.06375125 -0.09812346 0.07709581
0002c0 f3 6b f4 3d bd b4 5c 3e 17 66 62 be 16 58 ba 3d
       0.11934652 0.21553321 -0.22109257 0.09098832
0002d0 a6 24 ca bd 5c 1c 91 bd 7b cc 51 be 61 42 a5 3c
       -0.098702714 -0.07085487 -0.2048816 0.020173253
0002e0 09 64 57 be ca 52 d5 bd 28 f0 76 bc 3d dd 9c 3d
       -0.21034254 -0.104161814 -0.015071906 0.07659385
0002f0 11 52 b3 3d 79 2d 01 3e c7 d9 70 be 4a ae b2 bd
       0.08755887 0.12615003 -0.23520575 -0.08724649
000300 f5 96 2c 3d a3 8e 20 be 45 f1 d8 bd 7a cb 96 bd
       0.04213615 -0.15679412 -0.105928935 -0.07363029
000310 10 2d e2 3d 3f 3f e4 3d 79 c2 91 bd c8 6c ee bd
       0.11043751 0.11144876 -0.07117171 -0.11641842
000320 3d be 5f 3d 75 ce 9f 3d 9a 6a 4e 3e 62 76 19 3e
       0.054624785 0.078030504 0.20157853 0.14986566
000330 b8 a6 68 bd d3 83 6d bc 41 24 fe 3d 62 f3 d3 3d
       -0.05679962 -0.014496761 0.12409259 0.10349156
000340 8d c4 d0 3d 15 18 5e 3e c7 d9 ac 3d 81 60 ab bc
       0.10193739 0.21688874 0.08439975 -0.02092004
000350 23 45 8f be 40 32 e5 bd bd 20 e2 3d d6 2a 4c 3e
       -0.27982435 -0.11191225 0.110414006 0.19938216
000360 cc 51 a6 3d 86 5c 1e be 2b 9c 34 be 54 c7 5c 3e
       0.0812107 -0.15464982 -0.17637698 0.21560413
000370 ae f4 6c bd 0a ae 3c bd 32 03 8a bd 8b a6 02 3e
       -0.057850532 -0.046064414 -0.06738891 0.12758844
000380 c0 74 3b 3e 11 de 9a 3d 83 f9 19 3e b3 2c 34 3e
       0.18306255 0.07561887 0.15036587 0.17595176
000390 eb 3f 64 be 8f d5 af bd 48 74 e8 bd 09 1a cf 3d
       -0.22290008 -0.08585655 -0.11350304 0.10112388
0003a0 52 d7 24 3e 72 1f 12 3d a1 6d 13 3e 29 d1 61 be
       0.16097763 0.03567452 0.14397289 -0.22052445
0003b0 7a 0c 36 bd 85 cb b6 3c d9 1a c1 bc 78 fe 2b 3e
       -0.044445492 0.022313843 -0.023572372 0.16796291
0003c0 40 bd d8 bd 56 00 3b 3e b8 1d 92 bd d1 1d ff 3b
       -0.105829716 0.18261847 -0.07134575 0.007785537
0003d0 1d e2 0c 3d 3e 04 40 3e 93 5c 68 bd 9d b6 45 bd
       0.034395326 0.18751618 -0.05672891 -0.048269857
0003e0 2c fa 17 3e 6b d7 51 3e f1 d0 e0 bd 19 c7 88 3d
       0.14841527 0.20492332 -0.109773524 0.066786
0003f0 5e 42 14 3c ee cd 48 be 31 59 40 be d2 dd 75 bd
       0.009049026 -0.19609806 -0.18784024 -0.060025997

layers.2.bias f4 [64]
000000 7a 68 47 bb 88 36 67 3a a2 c2 74 bc 22 1b ef 3b
       -0.0030427263 0.00088200765 -0.014938982 0.0072969357
000010 99 1b 4d 3c 34 d8 ae bb d9 b3 e5 bb 1f 26 9b bc
       0.012518787 -0.005335832 -0.007009965 -0.018939076
000020 f0 53 8c 3b 71 c2 28 3b 75 94 42 3b d3 0e 98 3b
       0.004282467 0.0025750662 0.0029690538 0.004640439
000030 52 9d fc 3a ab 02 15 bc 46 a3 88 3b af 39 74 3c
       0.0019272959 -0.009094874 0.0041698543 0.014906331
000040 cb b7 0b 3c 07 6b 7b bb 62 47 29 3d 9a 6d 18 b9
       0.008527706 -0.0038363354 0.04132784 -0.0001453668
000050 dd 98 a2 3c ac 4d 03 bc 64 d8 ac 3c 0f d3 0e 3d
       0.019848282 -0.008014124 0.021099277 0.03486925
000060 35 55 70 3c 15 5d 10 bc 2e 69 82 bc 2f e6 05 bc
       0.014668752 -0.008811255 -0.015919294 -0.008172556
000070 c5 f5 d9 bb 9f f7 00 bc df 26 81 3c d0 94 b0 3b
       -0.0066516125 -0.0078715375 0.015765605 0.0053888336
000080 f0 a6 19 bc ea 85 0a 3d b0 40 86 3c d5 ac a1 3c
       -0.00937818 0.033819117 0.016388267 0.019735733
000090 56 63 76 3d b9 7d 29 3b 66 4b be ba 0c 17 a1 bc
       0.060153328 0.002586229 -0.001451832 -0.01966431
0000a0 f4 af 58 bc 56 b5 f2 bb fb 18 90 bc 01 cb 76 3c
       -0.013225544 -0.007406871 -0.017590037 0.015063048
0000b0 50 36 b4 bb d6 f0 6b ba ef ea ff b8 50 7e 29 3c
       -0.0054996386 -0.0009000426 -0.00012203107 0.010345057
0000c0 42 69 62 bc dd 27 9c 3c 1b 8a 45 bb 27 33 3b bc
       -0.013819041 0.019061977 -0.0030142132 -0.01142577
0000d0 b9 ea 30 bc 93 cc 5b bc 82 e3 09 3c c8 37 04 3c
       -0.01079815 -0.0134154735 0.0084160585 0.00806994
0000e0 36 74 11 bd 93 df cc 3c 57 cd 95 bb 7a 3b 9c bc
       -0.035511218 0.025008952 -0.0045715976 -0.01907133
0000f0 aa e6 8e 3b fc cc dd 3b d7 5f e7 bc ed a1 d0 3b
       0.0043609934 0.006768821 -0.028243942 0.0063669593

layers.4.weight f4 [64, 64]
000000 4e 22 80 3e 5c c3 28 3d 8f 4e ea 3d 89 6a 95 3d
       0.25026172 0.041201934 0.11440765 0.072957106
000010 df 3c 92 bd 47 9e 26 3d 34 36 16 be 5e bc dc 3d
       -0.071405165 0.04067829 -0.14669114 0.10778116
000020 44 bd 18 3e 97 81 85 3e 23 5e 29 3d 72 04 8c be
       0.14915949 0.26075432 0.04134954 -0.27347142
000030 8f b5 e6 3d b2 d4 45 3e 2c f1 5b 3e 84 fd a7 be
       0.11265098 0.19319418 0.21478719 -0.32810605
000040 a4 1a 83 bd da 0f 7b 3d c3 5d 18 3d 55 0c 25 3e
       -0.06401566 0.061294414 0.037198793 0.16117986
000050 2f b9 8b be 89 30 03 3e a7 cf 35 bd 0d c5 80 3c
       -0.2728972 0.12811483 -0.044387486 0.015718961
000060 53 26 27 be 63 00 37 be c7 6f e9 3d c7 4b da bc
       -0.16323213 -0.17871241 0.11398273 -0.026647462
000070 16 9f d6 bc 45 51 72 3e 8d 46 59 3e 33 40 10 be
       -0.026198905 0.23663814 0.21218319 -0.1408699
000080 f7 83 ed bc fa 35 b4 bd bc 1f 43 be eb f7 64 be
       -0.02899359 -0.08799358 -0.19055074 -0.22360198
000090 af bb 22 be 83 cd cc bd a3 4c 32 be 84 8f a4 bd
       -0.15891908 -0.10000136 -0.17412047 -0.08035186
0000a0 a7 ea 47 3e ad 42 a1 bc 1f 5b a8 3d f4 51 43 be
       0.19523107 -0.019685114 0.08220505 -0.19074231
0000b0 38 9a 52 bd 17 00 dc 3c 35 15 1c 3e 65 6b 24 3e
       -0.051416606 0.026855512 0.15242465 0.16056593
0000c0 e5 04 40 3e e4 f9 8b 3d bc 64 dc 3d 90 8d df 3d
       0.18751867 0.06834772 0.10761401 0.10915673
0000d0 65 62 a2 3e 26 c0 e7 3d 0c 34 33 be c5 11 81 3d
       0.31715694 0.11315946 -0.17500323 0.063022174
0000e0 49 8a be 3d f7 3e f0 3d 73 ae b7 3d a6 4e e3 3d
       0.093037196 0.117307596 0.089688204 0.110989854
0000f0 95 0a 55 bd 3b 4a 2f 3e d5 4b 6a 3e 5d e8 6a 3e
       -0.052012045 0.1711816 0.2288049 0.22940202
000100 3f ea 42 be d8 88 d1 3d b2 f2 24 3e cd f1 df bd
       -0.1903467 0.10231179 0.16108206 -0.10934792
000110 91 62 43 be f4 86 e0 3d ac 66 fb 3a f0 d7 41 3e
       -0.19080569 0.1096324 0.0019180379 0.1893003
000120 64 7a dc 3d ff c1 0a 3e 37 2d 2b be 2e c8 cc bd
       0.10765532 0.13550566 -0.16716467 -0.09999119
000130 6d f4 51 be d5 75 0e 3d 15 b2 16 3e 5e c8 15 be
       -0.20503397 0.034780342 0.1471637 -0.14627215
000140 da fd 0f 3e 3c 56 48 be 3e 07 17 3e 68 98 32 be
       0.1406168 -0.19564146 0.14748856 -0.17440951
000150 f9 7b 2d be 88 6e dd bd fa b1 84 3d b6 a0 55 be
       -0.16941823 -0.10812098 0.06479259 -0.20862088
000160 29 26 79 3d 66 86 67 be 5f bc b9 bc 0c 04 55 bd
       0.060827408 -0.22609863 -0.02267283 -0.052005813
000170 1b 01 06 bd 18 e5 1d be 2b 37 57 3e 21 28 50 3e
       -0.032715898 -0.15419424 0.21017139 0.20327808
000180 cf e4 5f be da d8 e7 bc 34 af 3f be 4a 32 46 be
       -0.21864627 -0.028301645 -0.18719178 -0.19355121
000190 65 56 a1 bd 1a 2e 09 3e 87 7d 46 be 36 5a 52 3e
       -0.078778066 0.13396493 -0.19383822 0.20542225
0001a0 98 2f 4f 3e 2c f4 9d 3d fb 88 38 3e a2 d3 32 3d
       0.20233 0.07712588 0.18021004 0.04365886
0001b0 34 81 fb 3d 52 65 c8 3d 93 fb 3c be f0 f0 50 3d
       0.12280503 0.0978495 -0.18455343 0.051011026
0001c0 7f e5 82 3c eb 29 52 be b1 c5 1e 3e de fd b9 bd
       0.015978573 -0.20523803 0.15505101 -0.090816244
0001d0 8a 43 95 3d c6 82 a3 bd 4e 9c 0d 3e 83 4b 1a 3c
       0.07288273 -0.079839274 0.13829157 0.009417417
0001e0 97 7b 8c bd 0c 39 bd bd aa 80 8d 3d 95 68 44 be
       -0.068595104 -0.092393965 0.06909306 -0.1918052
0001f0 a6 59 f5 3d 9f d1 30 be 58 60 11 be 79 cb 01 3d
       0.1197999 -0.17267464 -0.14196908 0.031688187
000200 eb 77 e0 bd 97 b4 84 3d 06 34 65 be 36 d0 98 bd
       -0.109603725 0.06479757 -0.22383127 -0.07461588
000210 e8 3e dd 3d c2 95 c8 3d 1e 7a c2 3b 59 ba 2c 3d
       0.10803014 0.09794189 0.0059349677 0.042169902
000220 47 2c fa bd ca a7 eb bd 83 7b 1f 3e 76 a2 eb bd
       -0.122154765 -0.115066126 0.1557446 -0.11505596
000230 fc 65 38 be 7d 9b c0 bc 37 5f d3 bd c2 f8 03 3e
       -0.18007654 -0.023511643 -0.10320895 0.12887862
000240 d7 f1 b1 bd 00 78 35 be 4d 71 23 3d a0 58 44 3e
       -0.086887054 -0.17721558 0.039902974 0.19174433
000250 0b a6 17 bd af d6 b0 3d 3a fd 1e 3d 81 43 29 3c
       -0.037023585 0.08634698 0.038815714 0.010331036
000260 31 81 7c bd 66 ed c2 bd ea 93 8c be e0 04 48 3e
       -0.061646644 -0.095179364 -0.274566 0.1953311
000270 da ab 35 be 42 a9 6c be 02 38 09 be 13 4d 95 3d
       -0.17741337 -0.23111442 -0.13400272 0.07290091
000280 aa cc 6b bd f0 f5 1a bd 58 01 f7 3d ea 57 1a be
       -0.05756823 -0.0378322 0.12060803 -0.15072599
000290 a5 52 31 be 76 12 df 3d bf d0 89 bd 42 a0 08 be
       -0.17316683 0.10892193 -0.06729268 -0.13342384
0002a0 b6 aa a7 bd b8 20 14 be 6e 34 90 3c 81 e6 8c bd
       -0.081868574 -0.14465606 0.017603125 -0.06879903
0002b0 81 81 74 3d 55 c9 81 bd 86 b1 17 3e 36 2d 18 3e
       0.059693817 -0.06337229 0.14813814 0.14860997
0002c0 1a 39 b8 bc 93 c1 b3 3d 53 43 70 be fc 93 81 be
       -0.022488166 0.08777156 -0.23463182 -0.25308216
0002d0 fb b0 56 be b3 0b d3 bc 33 ac 71 be 07 e0 e3 3d
       -0.2096595 -0.025762415 -0.23600845 0.11126714
0002e0 6f 24 52 3e 8f 12 3e be f1 48 b7 bd 2f 78 b8 bd
       0.20521711 -0.18561767 -0.08949459 -0.09007298
0002f0 18 ae 70 3e 1e 50 e7 3d ea 3f 9a 3c 29 1c 6c 3e
       0.23503911 0.11294578 0.018829305 0.23057617
000300 ce d2 3d 3e 36 4b c0 3d 1e 2c 1a be 22 6e 8a bd
       0.18537447 0.09389345 -0.15055892 -0.067592874
000310 c6 84 41 bd 04 19 e9 bc e3 5a d8 3d 07 fd 06 3e
       -0.047245763 -0.028454311 0.1056421 0.1318246
000320 65 33 0e be bd 6a 44 be 00 6b 49 be 1a 8c 6e 3d
       -0.13886793 -0.19181342 -0.19669724 0.05823908
000330 84 44 1a be a8 37 e4 3d ad e1 5f 3d c4 e2 b0 3d
       -0.15065199 0.11143428 0.05465858 0.08637002
000340 12 5d 89 bd 4b 62 f3 3d c9 e7 09 3e 7c 26 65 3d
       -0.06707205 0.11883982 0.13467325 0.055944905
000350 1d 89 d2 3c 4a 26 d9 3d 39 c0 29 3c da 32 80 3d
       0.025700146 0.10603006 0.010360771 0.06259699
000360 66 58 0a 3e ab 2e 47 3e 0e 6c 58 bd 7e 28 0a 3e
       0.13510284 0.19451396 -0.052837424 0.13492009
000370 91 da 30 3e 90 db 46 be 57 72 03 bc 96 8e 4b be
       0.17270876 -0.19419694 -0.008022866 -0.19878611
000380 8d b2 1a be de 52 21 3e 91 54 20 be b6 f1 3d 3e
       -0.15107174 0.15754268 -0.1565726 0.18549237
000390 81 f0 3b 3e 94 e8 21 be 21 58 30 be 08 52 af bc
       0.18353464 -0.15811378 -0.17221119 -0.02140142
0003a0 90 75 52 be 6f 5f f6 3d 2d 87 63 bd 24 26 18 3d
       -0.20552659 0.12029921 -0.055548836 0.03714575
0003b0 ec 6e be 3c a8 08 08 bd 58 cf 00 be f9 8c 46 3d
       0.023246251 -0.03321138 -0.12579095 0.048474286
0003c0 98 6f ab 3d 06 6a 6e 3b 1d 12 4e bd ba 05 96 bd
       0.08370894 0.0036379113 -0.050310243 -0.07325311
0003d0 c1 72 06 be d8 3e 69 3d c7 2f 92 3d e5 6d a0 bd
       -0.13129713 0.056944698 0.07138019 -0.07833461
0003e0 ee 7c ca bd 3b 73 35 3e e4 81 18 3e 83 3f 50 be
       -0.0988711 0.17719738 0.148933 -0.20336728
0003f0 c1 fb e0 bd e6 9b 85 bc 0a 29 b4 bd 74 77 20 3c
       -0.10985518 -0.01630969 -0.0879689 0.009794105

layers.4.bias f4 [64]
000000 ad c4 f6 bc 7b 91 4a bb 72 80 ef 3c f3 ac 0c bc
       -0.03012308 -0.0030909467 0.029236052 -0.008586156
000010 9a d7 51 bc 3c 60 a8 b9 10 81 e7 bb 2c 21 10 3d
       -0.012807751 -0.00032115157 -0.007064946 0.035187885
000020 5c 09 90 3b 74 b2 01 3b a7 6a 3a bc f3 85 5c 3c
       0.004395647 0.0019790204 -0.011377967 0.01345967
000030 97 f1 a9 3b ce b2 11 3c 19 5b 8d ba fc f7 60 bc
       0.0051862705 0.008892728 -0.0010784596 -0.013730999
000040 7a a4 cf 3b 57 dc bf 3c ea 7a 94 3c c9 49 e3 39
       0.006336746 0.023420496 0.018125016 0.00043351788
000050 30 21 b3 3c 6a aa f8 bb 12 3c 34 3b b8 e3 d4 3b
       0.021866411 -0.0075886743 0.0027501625 0.0064968728
000060 3e 01 a6 bb 0e be 64 3b cb 4b ab bb b6 3d c7 3b
       -0.005066066 0.003490332 -0.005227541 0.0060803546
000070 20 2e 73 3b 2a 0b 39 3c 8c b0 57 3b 17 3b f5 ba
       0.003710635 0.011294166 0.0032911627 -0.0018709627
000080 e1 ac 6e bb 3e dc 32 3b b6 5f bb ba 26 7f 90 bb
       -0.0036418962 0.002729192 -0.0014295492 -0.0044096885
000090 b7 0a 2c bb 00 ab 2e bc e2 bb a6 3c 95 3d a6 b9
       -0.0026251504 -0.010660887 0.020353261 -0.0003170787
0000a0 00 17 bd 3c ee 38 47 3c 3f 46 45 bc c4 a3 41 3b
       0.023082256 0.012159569 -0.012040674 0.0029547075
0000b0 e4 3b 32 b9 c5 35 47 b7 8f a0 47 bb 45 a0 05 bc
       -0.00016997714 -1.18738435e-05 -0.003046069 -0.008155887
0000c0 d6 79 9d bc b0 f1 f0 3b 10 c0 fb 3c c9 3f 09 bd
       -0.019223135 0.00735303 0.030731231 -0.033508096
0000d0 83 0e d1 3c a3 ee 73 bb 51 ce 2a ba 0c 96 d9 3b
       0.025519615 -0.0037221096 -0.0006515729 0.0066402014
0000e0 6d cc 63 bb 8d 59 82 bc 45 0a b7 3b 88 28 3c bb
       -0.0034759298 -0.015911842 0.005585941 -0.0028710682
0000f0 4f 25 3e 3a a7 23 8c bc 10 ae c4 3b 46 50 5c 3b
       0.0007253484 -0.017106844 0.006002195 0.0033617183

layers.6.weight f4 [64, 64]
000000 c6 b6 cd bb e3 bb c0 bd e4 6b 97 be 72 52 a9 bd
       -0.006277892 -0.094108365 -0.29574502 -0.08267678
000010 48 de ff 3d e3 68 25 be 4b ac 94 bd 7e af 70 bd
       0.12493569 -0.16153292 -0.07259425 -0.058761112
000020 08 fd 3b be 1d 68 47 3d b9 ff 23 3d f1 f7 4f 3d
       -0.18358243 0.048683275 0.040038798 0.050773565
000030 de 7f 22 3e 13 b0 0f 3e 53 b2 0b 3e a4 9b 84 bb
       0.1586909 0.1403201 0.13642244 -0.004046874
000040 bb fd 04 3e ae 63 ed 3c 44 60 60 be 08 c2 bb 3d
       0.12987415 0.028978195 -0.21911722 0.09167868
000050 db 94 20 3e 45 23 a0 3d f1 c2 3b 3e 71 cb ae bd
       0.15681784 0.07819227 0.18336083 -0.08534897
000060 93 9c 31 3e af 41 77 bd 7d 16 5f bc 34 3e 9e bd
       0.17344885 -0.060365375 -0.0136162015 -0.07726708
000070 c1 d1 29 3c 41 8f 10 bc 6a 61 fe 3d 64 38 c6 3d
       0.010364951 -0.008823217 0.12420924 0.096787244
000080 95 7b 87 be eb a6 41 3e 2b b7 89 be eb ef 07 be
       -0.26461473 0.1891133 -0.2689756 -0.13275115
000090 de a0 9b 3d e1 04 74 3e 6d 2d e5 3b 6f be fc bd
       0.07599042 0.23829986 0.0069939406 -0.1234101
0000a0 5a a8 4d be ff 6b 67 3e b9 58 3d 3e 53 52 8a 3c
       -0.20083752 0.22599791 0.18490876 0.016884958
0000b0 37 0c 1f be 75 0b d5 bd 6a e4 2d 3e cb 19 f1 3d
       -0.15532003 -0.10402576 0.16981664 0.11772498
0000c0 0e c4 27 be c3 c4 fc 3d 0b d8 47 be ed eb 9a 3b
       -0.16383383 0.12342217 -0.19516008 0.0047278316
0000d0 e8 df f0 bd e5 09 55 be fe 08 22 3d 58 47 78 be
       -0.11761457 -0.20804556 0.039559357 -0.24245965
0000e0 76 a3 12 be f2 c5 3f be 79 1d 4c be d9 03 d2 3d
       -0.14320168 -0.18727854 -0.19933118 0.1025464
0000f0 a8 46 9e 3d 21 e6 b5 3d aa 0c 6d be 3b fa d1 bd
       0.0772832 0.08881784 -0.23149362 -0.10252806
000100 4a d9 6c be b9 f5 3a be 09 f7 ed bd 67 2c b0 3d
       -0.23129764 -0.18257798 -0.11619384 0.08602219
000110 74 bf 3c 3e 48 14 71 3d c8 e4 4c be 89 bc 27 3e
       0.18432409 0.058857232 -0.20009148 0.16380514
000120 bf 02 5b 3e a4 83 60 3e 79 7f 4a be dd 98 e6 bd
       0.21387766 0.21925217 -0.1977519 -0.11259625
000130 e0 7e bd bd 81 f7 3e 3e 79 81 54 3e 46 5e 09 3d
       -0.09252715 0.18649103 0.20752515 0.03353717
000140 6f d3 23 3e 38 e9 37 3d f7 27 98 bd d5 ed 5c 3d
       0.15998624 0.04490015 -0.07429498 0.05393775
000150 5d 09 06 be 2b 19 65 3d 85 6f fa 3d a2 57 39 3e
       -0.1308951 0.055932205 0.12228302 0.18099836
000160 fe bf 49 be e7 75 20 39 71 4b 9e bc 1e f0 c8 3d
       -0.19702145 0.00015302711 -0.019323083 0.09811424
000170 0f c8 3e 3e 5a f4 bf 3b 00 0b b6 3c 25 03 60 be
       0.18631004 0.0058579864 0.022222042 -0.218762
000180 6d 00 36 3d 8f 85 e0 bd 0b 07 11 3e d7 81 80 bc
       0.044434 -0.10962974 0.14162843 -0.015686912
000190 1c 16 50 3c 6d b9 7c bd 2b 3e e3 3d e6 ce 09 be
       0.012700584 -0.061700273 0.11095842 -0.13457832
0001a0 07 08 01 3e 54 db 70 3d bc 53 d7 bd 5c 11 2a 3e
       0.12600718 0.058802918 -0.10514018 0.16608185
0001b0 5a e8 06 3d 2d ed 65 bd 9a a0 8e 3c 6f cf ad bd
       0.03293643 -0.05613439 0.017410565 -0.084868304
0001c0 47 09 f8 bd 90 db 27 3e 77 15 3d 3e 9f 96 ed bd
       -0.121111445 0.1639235 0.1846522 -0.11600994
0001d0 05 ae cc 3d c4 30 28 be ef f5 e7 bd ce 51 5c be
       0.09994129 -0.16424853 -0.11326205 -0.21515581
0001e0 6d 22 06 3e 7c f5 fc bd 9e 67 67 bd 70 0c 97 3d
       0.1309907 -0.1235151 -0.0564953 0.07375419
0001f0 42 ae c3 bd 73 53 1c be 1d db 23 3e b8 bb 16 bd
       -0.095547214 -0.15266208 0.16001554 -0.036800116
000200 62 78 1e be 6e 55 96 3c 49 03 7a 3d cb 57 e3 bd
       -0.1547561 0.018351283 0.06103829 -0.111007296
000210 28 30 e8 bd 66 33 ce bd 54 5b 33 3c 97 e7 82 bb
       -0.1133731 -0.10068397 0.010947067 -0.003994893
000220 49 b0 2c be 3b c7 1f 3e 1c 81 a8 3d f7 06 3a 3e
       -0.16864122 0.15603344 0.08227751 0.1816672
000230 b4 9f 5f be b2 c2 46 3d ee 30 27 3e 96 63 43 be
       -0.21838266 0.04852552 0.16327259 -0.19080958
000240 ce dc 39 3e a7 f9 14 be 89 ec 09 3e ae f0 30 bd
       0.18150637 -0.1454836 0.13469137 -0.04319828
000250 4f 12 7c 3d b0 e1 1c be e0 39 61 bc 57 34 d3 bc
       0.061540898 -0.15320468 -0.013746709 -0.025781794
000260 8c c7 2b 3e ab 0e 29 be 15 72 e3 3d 81 a2 26 be
       0.1677534 -0.16509502 0.11105744 -0.16272928
000270 a2 9a 2b bd 7b 58 1f be 50 be 21 3e 6d e1 78 3b
       -0.041895516 -0.15561096 0.15795255 0.003797616
000280 e7 49 b0 3d c8 b7 aa 3d ed 05 e6 3b c4 3e 50 3d
       0.08607846 0.08335835 0.0070197494 0.050841108
000290 d5 27 01 be 9e ad d7 bd af 99 9e bd 56 ea 0f be
       -0.12612851 -0.10531162 -0.077441566 -0.14054236
0002a0 7f 41 0a 3e ec 46 47 be 17 c2 cf 3c d9 9e cb 3c
       0.13501547 -0.19460648 0.025361104 0.024856018
0002b0 a4 9d 63 bd 88 ea d5 bc 6b c5 59 3d 2d be a9 bd
       -0.05557026 -0.02611281 0.053166788 -0.08288226
0002c0 55 12 26 be e8 66 18 3e ed 8d ef bc 56 de 1e be
       -0.1621793 0.14883006 -0.02924248 -0.15514502
0002d0 fd 8f 2a be 24 58 0b 3e e4 ca 4c be eb e8 be 3c
       -0.1665649 0.13607842 -0.19999272 0.023304423
0002e0 1d 06 4a 3e 16 b8 21 be 0b c5 3a 3e f1 2d 0d 3e
       0.19728895 -0.1579288 0.18239228 0.13787057
0002f0 ec 25 c3 3d 54 f6 01 3e 4b 8c bb bd 52 5e a9 3d
       0.095287174 0.12691623 -0.09157618 0.08269943
000300 71 9f 24 be 5a 40 5f 3e 5c a8 bc 3c 4c 9f b5 3c
       -0.16076447 0.21801892 0.023029499 0.022170685
000310 05 ca 22 3e 65 d6 f1 bd 5c 8b 43 be 07 e7 13 be
       0.15897377 -0.11808471 -0.1909613 -0.14443599
000320 a7 19 a3 3d ad 8c 04 3e 72 ac a6 3d c9 77 cf bd
       0.07963877 0.12944289 0.0813836 -0.10130269
000330 aa 16 45 3d c7 fa 5b be 42 ac c1 bb e6 31 af bb
       0.048117317 -0.21482383 -0.0059104273 -0.0053465245
000340 81 ed ba bd 55 f2 49 be be 67 f5 bd 48 55 4f bd
       -0.091273315 -0.19721349 -0.11982678 -0.05061844
000350 de 18 8b 3b 0a a4 85 bc 78 85 b2 3d 87 8e 18 be
       0.0042449078 -0.016313571 0.087168634 -0.1489812
000360 f0 e4 53 3d 9a 64 5a be d0 7f c1 3d a0 fd 05 be
       0.051732004 -0.21327439 0.094482064 -0.13085032
000370 7d d8 37 3d c2 9c 42 bc 5d 21 ff bc 8b 18 2f 3e
       0.044884194 -0.011878194 -0.031143839 0.17099206
000380 bd aa cb 3d bd 77 55 be fd 2f 45 3e 7a 7b 00 3d
       0.09944675 -0.20846458 0.19256587 0.031367756
000390 f2 40 ac 3d 87 45 1c 3a 2d a7 5c 3e 41 dc f1 3d
       0.08410825 0.0005961288 0.21548147 0.11809588
0003a0 34 4b ee bc c1 ae 58 be 32 b1 f0 3d a3 2c 56 be
       -0.029088594 -0.21160413 0.11752547 -0.20915465
0003b0 ad b8 ee 3d f8 69 2e 3d 91 9a ad 3d 80 46 92 3d
       0.11656318 0.04258153 0.08476747 0.07142353
0003c0 6c e8 1d be 30 79 a9 bd 5f e4 66 bd c9 88 55 be
       -0.15420693 -0.08275068 -0.056370135 -0.2085296
0003d0 80 0b 15 3e b4 56 cd bd 41 a6 d9 bd 07 41 8c bd
       0.14555168 -0.10026303 -0.106274135 -0.068483405
0003e0 c6 84 ee 3d cd ab bc ba 8c 89 cc 3d fd 7e fb 3d
       0.11646418 -0.0014394462 0.099871725 0.122800805
0003f0 d6 53 f7 3a da eb 2d 3e 62 da cf 3d f2 66 02 3e
       0.001886959 0.16984501 0.10149075 0.12734583

layers.6.bias f4 [64]
000000 fb c7 cd bc 3c 1b 7b ba 4e e2 2f 3b 34 76 de 38
       -0.025119772 -0.00095789484 0.002683777 0.00010607802
000010 92 15 fd bc ef 86 98 3b 7e 38 11 bc f2 63 00 bb
       -0.030894075 0.004654757 -0.008863566 -0.0019590822
000020 06 fc f4 bb 4f 0e 0a bb 99 4b d9 bb 33 54 c4 3b
       -0.0074763326 -0.0021065657 -0.0066313264 0.0059914826
000030 96 6d 35 3b e1 6f 38 bb 03 6b 33 bb b4 0c 44 b9
       0.0027683727 -0.0028142857 -0.0027377016 -0.00018696749
000040 ef a8 ae bb 50 8a 2c 3c b0 9b e5 3a 94 e1 e3 bc
       -0.005330197 0.010531023 0.0017517712 -0.027817525
000050 4a 61 d0 3b c0 e6 09 bc c6 fe 37 bb d6 1f 25 bd
       0.006359254 -0.0084168315 -0.002807544 -0.040313564
000060 2a 38 7a bb 03 8f 89 3c b4 a3 10 ba 39 f4 c1 3b
       -0.003818045 0.016791826 -0.0005517558 0.005919006
000070 b4 43 9f bb 76 d2 13 ba 37 2c a3 b9 5f ac 64 3b
       -0.0048603658 -0.0005638966 -0.00031122725 0.003489278
000080 60 e4 2c bd 80 3e 56 3b b5 c7 24 3b e4 25 6a 3c
       -0.042209983 0.0032691061 0.0025143449 0.01429126
000090 9c ab 37 bb 99 2a 04 3d 9c 5b 26 bc a3 1d b2 39
       -0.002802587 0.032267187 -0.010153677 0.00033972887
0000a0 4b a4 44 3c 98 18 af 3b c5 c0 28 bb 2f 11 b8 3a
       0.012002061 0.005343508 -0.0025749665 0.0014043207
0000b0 a4 0b 6e 3b 46 be 7a 39 7a 53 89 3b ef 8b 8f bd
       0.0036322856 0.0002391274 0.0041908594 -0.07009112
0000c0 5c f9 98 3c 02 4e ad bc 4b ed bf bb 60 13 8f 3a
       0.018673591 -0.021155361 -0.005857145 0.0010915808
0000d0 92 ab 26 bb bf 5d 9a bb 4d e6 05 bc ef 35 d5 ba
       -0.0025431854 -0.0047108824 -0.008172584 -0.0016266684
0000e0 14 fd 42 bb 39 73 fe bb 18 a1 fb 3b 22 57 ff bc
       -0.0029752897 -0.0077652005 0.007679116 -0.031169478
0000f0 22 7e dc b9 1e 51 67 bb 27 bf 00 bd 31 d2 87 bc
       -0.00042055646 -0.0035296152 -0.031432297 -0.01657972

layers.8.weight f4 [64, 64]
000000 95 50 0a be 84 bc 14 be c6 45 c1 3c f7 d5 48 be
       -0.13507302 -0.14525038 0.02359284 -0.19612871
000010 eb ce 98 3b ba 2c 93 bd 19 bb 95 bd 2a 51 4b be
       0.0046633384 -0.07186265 -0.07311077 -0.1985518
000020 88 12 07 be 99 c2 01 3e 80 44 e8 bd b3 c1 e6 3d
       -0.13190663 0.1267189 -0.1134119 0.11267414
000030 03 d8 20 3e c0 0b 54 3c 30 df f4 3d 3e bf 1e be
       0.15707402 0.012942255 0.11956632 -0.1550264
000040 3f 1a 24 be da 8b 2a 3e a9 7f fa 3d c6 3c 65 3c
       -0.16025637 0.16654912 0.122313805 0.01399154
000050 90 39 0b be 56 36 a0 bd 72 64 37 3e 63 e4 77 3e
       -0.13596177 -0.07822864 0.1790941 0.24208216
000060 35 03 38 be 00 79 bc 3d a3 5c 1d be b8 9e 10 bd
       -0.17969973 0.092027664 -0.1536737 -0.035307616
000070 e9 6c 87 bc 7b a4 2e be 41 6e 60 3c 07 b1 35 bd
       -0.016531425 -0.17054932 0.013698162 -0.04435828
000080 af 7b 3d 3e 44 1c d3 bd e6 79 2d be 75 20 fd 3c
       0.18504213 -0.103081256 -0.16941032 0.030899266
000090 d8 e1 6a 3e e9 15 44 3e 48 26 ca 3d 06 20 61 be
       0.22937715 0.19148983 0.09870583 -0.21984872
0000a0 12 ed ee 3d 37 0d 28 bd 1a 72 35 be e9 fa a6 bd
       0.11666311 -0.041028228 -0.17719308 -0.08153326
0000b0 ab 15 54 be 96 70 c0 bd 0b ce b9 3d 52 60 4b 3e
       -0.2071139 -0.09396474 0.09072503 0.19860962
0000c0 8d eb 49 be 68 6a ab 3d f3 27 4e 3d ed 50 0f be
       -0.19718762 0.08369905 0.050331067 -0.13995714
0000d0 13 7c 7a bd ab 85 16 be 2d 89 0f be 2a ba 41 3e
       -0.061153483 -0.14699428 -0.14017172 0.18918672
0000e0 d8 cd 4d 3e ea ad bc 3d 19 95 2e bd 5e 7a d7 bd
       0.20098054 0.09212859 -0.04262266 -0.105213866
0000f0 0c f2 9a 3d df 85 48 be c1 8c 0b be e0 59 ab 3d
       0.07565698 -0.19582318 -0.13627912 0.08366752
000100 81 0e 1d 3e ee ed 75 bc 44 bb db bd 6f 12 db 3d
       0.15337564 -0.01501034 -0.107290775 0.10696875
000110 be cc 1e 3e 83 83 64 be 1b 19 11 bd 66 8e 63 be
       0.1550779 -0.22315793 -0.035424333 -0.2222229
000120 b5 f0 79 bc 9a 04 1c 3e a9 2a 39 be 3c 55 14 be
       -0.015255143 0.1523613 -0.1808268 -0.1448564
000130 59 5b 3b bd a9 e9 8a 3d 57 12 64 3e c5 b1 9c 3d
       -0.045741413 0.067828484 0.22272621 0.07651094
000140 d1 78 2c 3e 78 4e 4d 3e 55 1c 0c 3e 45 a1 07 be
       0.16842963 0.20049465 0.13682683 -0.13245113
000150 c8 f0 11 be 25 18 0c 3e 71 29 44 bd a6 d8 26 be
       -0.14252007 0.13681085 -0.047891084 -0.16293582
000160 40 d6 54 3d cc 36 2e be 00 dc 09 3d 78 e3 5b 3e
       0.051962137 -0.17013091 0.033657074 0.21473491
000170 bb 86 4f 3e 8a 22 15 3d 9c f2 f9 3c c5 02 b1 3d
       0.2026624 0.036409892 0.030511193 0.08643106
000180 ed 65 9a bd 00 54 00 be a7 a4 59 3e df c3 51 be
       -0.07538972 -0.12532043 0.21254216 -0.20484875
000190 52 55 4c 3d ee 81 b0 bd 6d 8c ba 3d 6a e1 20 be
       0.049886055 -0.08618532 0.09108815 -0.15710989
0001a0 8e dc d8 3d 74 a9 00 be 04 2d eb bd e8 41 47 3e
       0.105889425 -0.12564641 -0.114831954 0.19458735
0001b0 a3 58 7c 3c c2 a7 42 3e 20 b9 11 be b8 4e 1c 3e
       0.015401992 0.19009307 -0.14230776 0.15264404
0001c0 83 e5 8b 3c f8 1f 32 3e c5 fa 62 bd e1 07 67 bc
       0.017077213 0.17395008 -0.055414934 -0.014101
0001d0 ad cf 89 3c 76 91 0b be ee 88 02 3d de 77 03 be
       0.01682266 -0.13629708 0.031868868 -0.12838694
0001e0 ae 2a e9 3d 32 03 4e 3e e0 20 3b bd 45 3b 3a bd
       0.11385094 0.20118406 -0.04568565 -0.04546668
0001f0 c4 03 b2 3d 31 c0 12 3a 4e f1 ba bb 1b 7b 87 bd
       0.086921245 0.0005598097 -0.0057050353 -0.066152774
000200 59 5f 1e 3e 19 9f 4b bd 39 09 5e 3e 8f 79 0b 3e
       0.1546606 -0.049712274 0.21683206 0.1362059
000210 81 84 f6 3d ac 10 4b 3d 40 50 a1 bd 27 3a 03 be
       0.12036992 0.049576446 -0.078766346 -0.12815152
000220 a4 08 3f 3e 45 d1 f4 bd c7 51 62 3b 67 ec 33 be
       0.1865564 -0.119539775 0.0034533606 -0.17570649
000230 57 e8 56 be 34 eb 00 bb 00 08 d8 bd ac 1c 13 be
       -0.20987068 -0.0019671442 -0.10548401 -0.14366406
000240 14 41 2c be 57 7d 57 3e dd 48 83 3b 90 30 66 3d
       -0.168217 0.21043907 0.0040064887 0.056198657
000250 21 29 2d be 84 b2 e4 bd 66 05 28 3e 4c 97 0d 3e
       -0.1691022 -0.11166862 0.1640831 0.13827246
000260 00 24 ae 3b 50 ae 41 be 24 3b 5e 3e 9a 4b 09 be
       0.00531435 -0.18914151 0.21702248 -0.13407746
000270 c9 68 04 be 0d 24 f5 3d 60 87 6a 3d e7 c6 d2 3b
       -0.12930597 0.11969767 0.05725801 0.0064324024
000280 46 12 02 3e 10 98 9d 3d 7c 43 55 3e 20 1e 41 3e
       0.12702283 0.07695019 0.20826524 0.18859148
000290 8c f2 2c 3d ec 19 2d 3e c9 08 62 be 78 b5 31 be
       0.0422235 0.1690442 -0.22073664 -0.17354381
0002a0 86 1c 19 be c7 93 34 bd 59 fc 54 3e 6e 43 db 3c
       -0.14952287 -0.044086244 0.20799388 0.026765551
0002b0 cc a9 a6 bb 42 2b 5d bc 49 a4 c0 bd 7e 56 a9 bd
       -0.0050861593 -0.013499083 -0.09406335 -0.0826845
0002c0 cf 42 62 3e cc 19 12 be 90 48 87 3d 74 00 66 3c
       0.22095798 -0.14267653 0.06605637 0.014038194
0002d0 01 32 50 3e 0a a7 d7 bd 05 f6 85 bd 5f 96 04 be
       0.20331575 -0.10529907 -0.06541065 -0.12947987
0002e0 87 32 0c bd 6a 91 27 be 86 1f 11 be b8 df 08 bb
       -0.034227874 -0.16364065 -0.14172181 -0.00208853
0002f0 be 7d 9b 3b c4 2a c7 3d 24 91 4f 3d 6c b7 f0 bd
       0.0047452142 0.09724954 0.050675526 -0.11753735
000300 7b 06 62 be 83 f2 59 be 67 c2 63 3c 04 44 15 3d
       -0.22072785 -0.21283917 0.01390133 0.036441818
000310 0d c9 28 3e 18 8b 54 3e 33 db 54 3e 9d ea 39 3e
       0.16482945 0.20756185 0.20786743 0.18155904
000320 0b 59 37 3e a6 86 99 3c 1a 05 c9 3d 1d 6c ae bc
       0.17905061 0.018740963 0.09815426 -0.021291787
000330 8e 48 35 be a7 47 8a 3d c4 f4 5a 3e 58 a9 bf bd
       -0.17703459 0.06751948 0.21382433 -0.09358472
000340 77 b4 21 3e fc 90 02 be ec 60 13 be 1a 06 27 3e
       0.15791498 -0.1275062 -0.14392442 0.16310921
000350 9b 53 4a be ee 73 8c 3d cf 86 e5 3d 50 4a 0e 3e
       -0.19758455 0.06858049 0.11207353 0.13895535
000360 44 72 97 bd 70 65 32 be d6 12 5d 3e ab bc b7 bc
       -0.07394841 -0.17421508 0.21589217 -0.022428831
000370 bf 43 ce 3d 80 8c b3 bc 20 15 12 be f5 be 48 be
       0.10071515 -0.021917582 -0.14265871 -0.19604094
000380 4c e3 39 3e 4c 4b 6c be 74 00 18 be f8 87 1a 3e
       0.18153113 -0.23075598 -0.14843923 0.1509093
000390 a2 e7 2a 3d 14 f0 d4 bc 89 8c 1b be f3 97 7c be
       0.04172481 -0.025993384 -0.15190329 -0.24667339
0003a0 50 3c 40 bd c9 e8 d9 3d 70 fd af 3d b7 10 ae 3d
       -0.04693252 0.10640103 0.08593261 0.08499282
0003b0 34 4e 32 3e b1 6e 09 3d 64 c5 3c bd 06 f5 14 be
       0.17412645 0.03355283 -0.046086684 -0.14546594
0003c0 1a b6 df b9 a6 48 bc 3d 23 21 67 3d ce 67 2e 3e
       -0.0004266955 0.09193544 0.056428086 0.17031786
0003d0 d3 e7 33 3e de 98 b4 3d 3d c2 43 be a2 b4 be bd
       0.17568903 0.088182196 -0.19117065 -0.09311797
0003e0 9c 99 cb 3d a2 89 25 3e 06 46 b5 bc 74 0d e5 bd
       0.09941408 0.16165784 -0.022128116 -0.111842066
0003f0 16 2d a8 3d 96 23 95 3b b2 ab d2 bd df 8a 4a 3e
       0.082117245 0.0045513613 -0.102866545 0.19779538

layers.8.bias f4 [64]
000000 69 37 8e ba b9 73 f1 ba 97 b1 40 ba 84 41 bc bb
       -0.0010850254 -0.0018421329 -0.00073506817 -0.0057451148
000010 bb df 3b 3b f8 bd 33 3b cd 91 3d bc 69 d6 a6 3a
       0.002866729 0.0027426463 -0.011570406 0.0012728694
000020 98 1e 75 ba cf 5d 20 ba a7 dd 2f bc 88 f4 86 bb
       -0.0009350567 -0.0006117494 -0.010733998 -0.004118506
000030 74 35 b9 ba 3e 65 25 bb 85 d8 79 3d 75 c2 27 3c
       -0.001413031 -0.0025237347 0.060997505 0.010239233
000040 c8 d8 80 bb 38 41 71 bd 57 c2 78 3b 5c 4b dc 3b
       -0.0039320923 -0.058900088 0.0037957632 0.0067228507
000050 cb 35 e4 bb b9 de a6 bc 4c f5 50 3b a6 c5 19 3b
       -0.0069644204 -0.020369874 0.003188449 0.0023463755
000060 57 c4 b8 ba 0c 39 09 3c 0f b9 a4 bb 16 5c 3c ba
       -0.00140966 0.008375417 -0.0050269435 -0.0007185353
000070 df 20 2d bb 7c 41 7b 39 33 f4 94 bb 8e 53 71 bc
       -0.0026417298 0.0002396162 -0.0045457124 -0.014729394
000080 e1 d6 b9 3b 0b 90 7d bc e6 8b 6e 3a f4 47 7f bc
       0.0056713675 -0.015476237 0.0009099826 -0.01558112
000090 97 f4 3b bb 2f 2a b6 ba 46 c1 af 3a 12 29 46 bc
       -0.0028679722 -0.001389807 0.001340904 -0.012094753
0000a0 6d 6f 81 3a 7b 40 7b bb 65 7f 70 bc 65 48 db 39
       0.0009875126 -0.0038337994 -0.014678811 0.00041824873
0000b0 ab db 73 bb 73 22 18 3b 46 14 ac ba 4a 18 7c 3a
       -0.003720979 0.0023213893 -0.00131286 0.00096166565
0000c0 1a a9 63 3c 03 55 b5 bb ef d6 35 bc e5 57 c4 3a
       0.013895297 -0.005533816 -0.011098607 0.0014979808
0000d0 a0 9b a4 ba 9a 6f 6f ba cc f4 10 ba a8 ab f9 3b
       -0.0012558587 -0.00091337564 -0.00055296416 0.00761934
0000e0 84 52 e8 bb c7 db 38 bb 4c f0 e2 ba ad 31 ee bb
       -0.0070899148 -0.002820717 -0.0017314046 -0.0072691054
0000f0 da f6 b4 bb f4 3c 81 bc f1 df 6d bc bb e7 be 3a
       -0.005522591 -0.015776135 -0.014518724 0.0014564911
