data/results/state_net_20000.pth (torch, 90299 bytes, 14 tensors)

layers.0.weight f4 [64, 6]
0	0xbdd20b2c	-0.10256037
1	0x3e7401dc	0.23828834
2	0x3e06eaae	0.1317546
3	0x3e6a4aad	0.22880049
4	0xbcd48c54	-0.02594582
5	0x3e4170bb	0.1889066
6	0x3d643546	0.055714868
7	0xbd3b9827	-0.0457994
8	0xbd6056ac	-0.054770157
9	0x3dbefca0	0.09325528
10	0x3e85ec2f	0.26156756
11	0x3e8f8339	0.28029802
12	0xbe93f1ca	-0.28895408
13	0xbdf2c598	-0.11854094
14	0x3e58aa5e	0.2115874
15	0xbdd9f228	-0.10641891
16	0xbd9df0e7	-0.07711964
17	0x3d3968ce	0.045265965
18	0xbe6ebafc	-0.23313516
19	0xbeac8fea	-0.33703548
20	0x3e7ea2e9	0.24866833
21	0xbe608e0c	-0.21929187
22	0xbe794bae	-0.24345276
23	0x3e554e82	0.2083073
24	0xbd3d4e48	-0.046217233
25	0x3e23b4d8	0.15986955
26	0xbd04dd46	-0.032437585
27	0x3a63a84c	0.0008684441
28	0xbd701260	-0.058611274
29	0x3dfc277a	0.12312217
30	0x3dd29a95	0.102833904
31	0xbdb93e45	-0.0904508
32	0x3e540155	0.20703633
33	0xbe3e83ae	-0.1860492
34	0xbda56210	-0.080753446
35	0xbd664c5e	-0.056225173
36	0x3e1c4310	0.15259957
37	0xbd80331b	-0.062597476
38	0x3bb81495	0.005617688
39	0xbe8b15f9	-0.271652
40	0x3e173c93	0.14769201
41	0x3e56e961	0.20987464
42	0xbe4caf36	-0.19988713
43	0xbe97a78f	-0.29620025
44	0x3ced698e	0.028980996
45	0x3e87f4a5	0.26553836
46	0x3da5f8b0	0.08104074
47	0x3e58664f	0.21132778
48	0xbe7de4db	-0.24794333
49	0x3e81c524	0.2534572
50	0x3e84393e	0.25824922
51	0xbe7433b5	-0.2384785
52	0x3d8e4516	0.06946771
53	0xbd5d954c	-0.05409746
54	0x3ee205c1	0.44145015
55	0xbe15596f	-0.14584897
56	0xbea6042f	-0.32425067
57	0xbe8fc85f	-0.2808256
58	0x3e819224	0.2530681
59	0x3e12bf99	0.14330901
60	0xbe9460af	-0.28980014
61	0xbe83c3ea	-0.25735408
62	0x3e271a88	0.16318715
63	0xbe1e2b0e	-0.15446112
64	0xbe4ba3d7	-0.19886719
65	0xbe050f14	-0.12994033
66	0xbde01000	-0.10940552
67	0xbe670572	-0.22560671
68	0xbe062b86	-0.1310254
69	0x3d0d7bb0	0.034541786
70	0x3d6cdae4	0.057825938
71	0x3e97e4a4	0.29666626
72	0xbe9d38cd	-0.30707398
73	0xbcdb987d	-0.02680611
74	0xbdc790db	-0.09744426
75	0xbe3265b2	-0.17421606
76	0x3e026ace	0.12736055
77	0xbe0e48c5	-0.13894947
78	0xbde9f2c3	-0.11423256
79	0xbe7fd174	-0.24982244
80	0xbdeec41b	-0.11658498
81	0x3c88cc0f	0.016698865
82	0xbe2d415a	-0.16919461
83	0xbd4c8513	-0.049931597
84	0xbe24e708	-0.16103756
85	0x3d09e26c	0.0336632
86	0x3e041f48	0.12902558
87	0xbe313760	-0.1730628
88	0xbe04681c	-0.1293034
89	0xbd89eda1	-0.06734777
90	0xbe1da189	-0.15393652
91	0xbe28cb23	-0.1648374
92	0x3e27579d	0.16342016
93	0xbd863059	-0.0655219
94	0x3ded230c	0.1157895
95	0x3b544f07	0.0032395737
96	0x3cc024fd	0.023455137
97	0xbe732311	-0.23743846
98	0x3d1c78f0	0.038201272
99	0x3e8438e0	0.25824642
100	0x3e89d569	0.26920632
101	0x3e787cf9	0.24266423
102	0xbdd9b20c	-0.10629663
103	0xbce9aef5	-0.028525809
104	0x3e8f9280	0.28041458
105	0xbdc09a56	-0.09404437
106	0x3dbde51e	0.09272216
107	0x3ba8da43	0.005152972
108	0x3e3b93f3	0.18318157
109	0xbe17a7f7	-0.14810167
110	0x3d1e8675	0.038702447
111	0xbe85caa1	-0.26131156
112	0xbd7f1c28	-0.06228271
113	0x3e23dfce	0.16003343
114	0x3c78a891	0.015176908
115	0x3e8f79db	0.28022656
116	0xbe6d08ca	-0.23147884
117	0x3dcc1d0e	0.09966479
118	0xbcb65049	-0.02225508
119	0x3ede8c90	0.43466616
120	0x3e8e0c0b	0.27743563
121	0x3e918393	0.28420696
122	0xbe491a0b	-0.19638841
123	0x3e982917	0.2971885
124	0xbe3d0a48	-0.18460953
125	0xbe3bbc4c	-0.18333548
126	0x3e457212	0.19281796
127	0x3a3eb672	0.0007275111
128	0x3e18e6e0	0.14931822
129	0x3e8b7242	0.2723561
130	0xbc572ff1	-0.013133989
131	0x3d7b8c6c	0.061413214
132	0xbcc74ac9	-0.024327653
133	0x3e5a7b64	0.21336132
134	0x3e0e2bea	0.1388394
135	0x3cffe036	0.031234842
136	0xbe67e94c	-0.2264759
137	0x3e41ddda	0.18932286
138	0x3e32bc42	0.17454627
139	0x3d0bc810	0.03412634
140	0x3e021c9b	0.12706225
141	0x3db3c1ef	0.08777224
142	0xbe0b9194	-0.13629752
143	0xbe1b051b	-0.15138666
144	0xbd7bad4c	-0.061444566
145	0xbe8ed600	-0.27897644
146	0xbbb6a05a	-0.0055733146
147	0xbd896442	-0.06708576
148	0xbe7cebc8	-0.24699318
149	0x3d7cbbe1	0.061702613
150	0x3d92503b	0.07144209
151	0x3e2b6028	0.167359
152	0xbd5f454e	-0.054509453
153	0xbd9d1886	-0.07670693
154	0xbd72f0f6	-0.05931183
155	0xbe8489f2	-0.25886494
156	0x3b70b92f	0.0036731472
157	0x3e3da862	0.18521264
158	0x3c608020	0.013702422
159	0x3cfc1317	0.030770821
160	0x3e8632ec	0.26210725
161	0x3e9d21ba	0.30689794
162	0x3e872551	0.26395658
163	0x3e678874	0.22610646
164	0x3e29d789	0.16586126
165	0xbc163986	-0.009168988
166	0xbe94c6b9	-0.29057863
167	0x3cae1a3f	0.02125275
168	0x3e206644	0.15664011
169	0xbdbf0afe	-0.093282685
170	0x3e1b485b	0.1516432
171	0xbe54e5c0	-0.20790768
172	0x3b8dfaa3	0.0043328567
173	0x3ea59d26	0.32346457
174	0xbe9c8e59	-0.30577353
175	0xbdaa9830	-0.08329809
176	0x3e0c622f	0.13709329
177	0xbe6e22e1	-0.23255493
178	0xbdd67a4d	-0.10472546
179	0xbdb70df8	-0.08938211
180	0x3e5ba308	0.2144891
181	0xbbb74cda	-0.005593878
182	0x3baee3fb	0.005337236
183	0x3e6db54c	0.2321369
184	0x3d8ca8fd	0.068681695
185	0xbdd11520	-0.102091074
186	0x3e3f02b2	0.18653372
187	0xbdb72ee0	-0.089444876
188	0x3e8b7037	0.2723405
189	0xbdc115bd	-0.094279744
190	0x3e89cebd	0.2691554
191	0xbe04cf3a	-0.12969676
192	0x3e22d00e	0.15899679
193	0x3e926492	0.28592354
194	0xbdc4d676	-0.09611218
195	0xbcec1be0	-0.028821886
196	0xbe19601a	-0.14978066
197	0x3e3518d5	0.17685254
198	0xbdbb7e97	-0.091550045
199	0x3e9fd2bb	0.31215462
200	0xbe31dbe3	-0.17369036
201	0xbdd1a206	-0.10235982
202	0xbd3f41e0	-0.046693683
203	0x3ec370a3	0.38171872
204	0x3e148b21	0.14506198
205	0xbd5dec0e	-0.054180197
206	0x3e18499f	0.14871834
207	0xbe84038e	-0.25783962
208	0xbca5fe8f	-0.020262985
209	0x3ea3a373	0.3196064
210	0xbd91765c	-0.071026534
211	0xbe33606b	-0.1751725
212	0xbe144200	-0.14478302
213	0x3e75e865	0.24014433
214	0x3d368311	0.04455859
215	0x3d6c9076	0.057754956
216	0xbe0d3a54	-0.13791782
217	0x3e54c486	0.20778093
218	0x3c0f3f37	0.008743099
219	0x3e98d7a9	0.29852036
220	0x3e3f4de8	0.18682063
221	0xbe9775a0	-0.29581928
222	0x3e822d30	0.254251
223	0xbe35fd68	-0.17772448
224	0xbdcea35b	-0.10089751
225	0x3d275c3a	0.04085944
226	0xbe75da02	-0.24008945
227	0xbc77f2ff	-0.015133618
228	0xbe28a0a1	-0.16467525
229	0xbd1a6864	-0.03769721
230	0xbcc87329	-0.024468975
231	0xbd397809	-0.04528049
232	0x3de7033c	0.11279914
233	0xbdfdf5c4	-0.12400392
234	0x3cf22532	0.029558752
235	0xbc9f1573	-0.019419407
236	0xbdc26a66	-0.0949295
237	0xbe907213	-0.28212032
238	0x3e22743f	0.15864657
239	0xbe834fbc	-0.2564677
240	0x3d35867d	0.04431771
241	0x3e9343e0	0.28762722
242	0x3e8ed069	0.2789338
243	0xbe323522	-0.17403081
244	0x3e7e46ee	0.24831745
245	0xbe4466c5	-0.19179828
246	0xbe3aa5d4	-0.18227321
247	0x3d133e42	0.035948046
248	0xbdd5d798	-0.10441512
249	0xbe3d6874	-0.18496877
250	0x3db5795e	0.088610396
251	0x3e8830b7	0.26599666
252	0x3e39fa75	0.18161948
253	0x3dd633c6	0.10459094
254	0x3e2a67da	0.16641179
255	0x3e7b2bdc	0.2452845

layers.0.bias f4 [64]
0	0x3ca028d2	0.019550715
1	0xbc882ed7	-0.016623897
2	0xba980404	-0.0011597876
3	0x3d87e4fc	0.06635472
4	0xbbf15cfd	-0.0073658214
5	0x3d49473f	0.04914021
6	0xbbcf1c3a	-0.0063205035
7	0x3c2e66db	0.01064464
8	0xbb037583	-0.0020059056
9	0xbcbb7886	-0.022884618
10	0x3bc0d680	0.0058849454
11	0x3b88ddee	0.0041768467
12	0xbc96bdaf	-0.018400995
13	0x3c324a06	0.010881906
14	0x3cd038b8	0.02541767
15	0x3c05a0d1	0.008156017
16	0x3c4a7303	0.0123565225
17	0x3c0326cc	0.008004855
18	0x3b1a39ca	0.002353298
19	0x3b64e757	0.0034927928
20	0xbb627d47	-0.0034559534
21	0xbcd25a4f	-0.025677828
22	0xb90799c2	-0.00012931883
23	0xbc60e494	-0.013726372
24	0xb988513f	-0.00026000474
25	0xbcb492ce	-0.022042658
26	0xbca7f1a6	-0.02050097
27	0x3c8589d0	0.016301066
28	0xbc103122	-0.008800777
29	0x3c86caeb	0.01645418
30	0xbc4394ad	-0.011937303
31	0x3c31d0d1	0.010853008
32	0x3b55f774	0.0032648714
33	0xbc33705d	-0.010952082
34	0xbbda1347	-0.00665513
35	0xbbfd38b6	-0.0077277077
36	0xbcc0e647	-0.023547305
37	0x3b28eb23	0.0025774918
38	0xbbe33e1c	-0.0069348942
39	0x3be80a20	0.007081285
40	0x3bd4f8a0	0.006499365
41	0xbc38e79c	-0.011285689
42	0x390e3a76	0.00013563954
43	0xbadeb1c4	-0.0016990234
44	0xbbdff315	-0.0068343976
45	0xb9b09c3a	-0.00033685734
46	0x3c08a28e	0.008339537
47	0x3acd357b	0.0015656197
48	0x3bb5a238	0.0055430196
49	0xbc276d79	-0.010218971
50	0xbbe9d89f	-0.007136419
51	0xbd420607	-0.04736903
52	0xbb405cb1	-0.0029352123
53	0x3b2a48f8	0.0025983434
54	0x3c991d0e	0.018690612
55	0xbd04e994	-0.03244932
56	0x3b2e0479	0.002655296
57	0x3cc059cd	0.02348032
58	0x3d2d332d	0.042285133
59	0xbd870cec	-0.065942615
60	0x3c9e880d	0.019351983
61	0x3c71cae1	0.014757843
62	0x3c722d3c	0.0147812925
63	0xbcf435fe	-0.029810902

layers.2.weight f4 [64, 64]
0	0x3daecd06	0.08535199
1	0xbdbf4917	-0.09340113
2	0xbe109ed4	-0.14123088
3	0x3de7507a	0.112946466
4	0x3d936044	0.071960956
5	0x3e4603c9	0.19337381
6	0x3b79c4a5	0.0038111594
7	0x3decdb81	0.115653045
8	0x3e274a77	0.16337
9	0x3c2afd5f	0.010436385
10	0xbdf7f856	-0.12107913
11	0xbe4cc00e	-0.19995138
12	0x3e1a1bd5	0.1504968
13	0xbe7d27de	-0.2472224
14	0x3ddfdcb5	0.109307684
15	0xbda1df60	-0.079039335
16	0xbd01a303	-0.0316496
17	0x3e0a9de6	0.13536796
18	0xbe538f00	-0.20660019
19	0x3e164be8	0.14677393
20	0xbb7fd9e7	-0.0039039792
21	0x3dfb89ea	0.122821644
22	0x3d8d84da	0.06910105
23	0x3de86c1b	0.113487445
24	0xbd8ce39a	-0.06879349
25	0xbda58033	-0.08081093
26	0x3dcc077a	0.099623635
27	0xbe42149e	-0.18953177
28	0xbe15d31f	-0.14631318
29	0x3c75fe63	0.015014264
30	0x3e32930b	0.17438905
31	0x3d8133ed	0.06308732
32	0xbda5e21d	-0.08099768
33	0x3dfd7a1b	0.123768054
34	0x3de85ed8	0.11346215
35	0x3d7275b1	0.05919427
36	0x3e4be9d6	0.1991342
37	0x3e1cde6d	0.15319224
38	0x3da16d1d	0.0788214
39	0xbe4177d8	-0.18893373
40	0x3e038e3a	0.12847224
41	0x3df67901	0.120347984
42	0xbe07685c	-0.13223404
43	0x3dedd4a9	0.11612827
44	0x3e5e14c8	0.21687615
45	0x3d80bce8	0.06286031
46	0x3e0f8f18	0.1401943
47	0x3df82e66	0.12118225
48	0xbd17b2a3	-0.037035596
49	0xbe522fb4	-0.2052601
50	0xbd92a52c	-0.0716041
51	0x3e00e32e	0.12586662
52	0xbe18158f	-0.14851974
53	0x3e4ebbd5	0.2018884
54	0x3cdb2729	0.026752071
55	0xbdbbda88	-0.09172541
56	0x3e32ff2f	0.17480157
57	0xbe1eb116	-0.1549724
58	0xba7d301f	-0.00096583547
59	0xbe518927	-0.20462476
60	0x3e018f29	0.12652268
61	0x3ce70573	0.02820084
62	0x3e0298d5	0.12753613
63	0xbdf27467	-0.11838608
64	0x3e258583	0.16164212
65	0xbe5de4a6	-0.21669254
66	0x3e3e2ca1	0.18571712
67	0x3dd2166c	0.10258183
68	0x3d7df996	0.0620056
69	0xbe24e92a	-0.1610457
70	0xbddb2792	-0.10700907
71	0xbd1a0324	-0.03760065
72	0x3e008ed8	0.1255449
73	0x3e34f9de	0.17673442
74	0x3e50a036	0.20373616
75	0x3d436d4f	0.047711667
76	0xbd5b1b85	-0.05349304
77	0xbe45a6bb	-0.19301884
78	0x3ba3c278	0.0049975477
79	0x3d4b30ef	0.049607214
80	0xbdbaaaff	-0.09114646
81	0x3dc6478b	0.096816145
82	0xbe14ff49	-0.14550509
83	0x3d13dda0	0.03610003
84	0xbc98d6a8	-0.018657044
85	0xbe268c8e	-0.16264555
86	0xbe423e08	-0.18968976
87	0xbe340ca6	-0.1758295
88	0x3e5702f0	0.20997214
89	0xbd9cd1cc	-0.07657203
90	0x3d5b4da0	0.053540826
91	0xbd8708c0	-0.06593466
92	0x3d37bb3b	0.04485629
93	0xbe3318c4	-0.17489916
94	0x3d9d4153	0.07678475
95	0x3e33daf9	0.17564
96	0x3c0d6d2d	0.008631987
97	0x3c6b6cab	0.01436917
98	0xbe3205d7	-0.1738504
99	0xbe0f6b0f	-0.14005683
100	0xbe32c206	-0.17456827
101	0x3e4a743b	0.19770901
102	0xbc4526e3	-0.012033197
103	0x3d9d93dc	0.076942176
104	0xbcaff9bf	-0.021481393
105	0x3dd87270	0.10568702
106	0x3e234d27	0.159474
107	0xbe2948d0	-0.16531682
108	0xbe17a905	-0.1481057
109	0xbd84a160	-0.06476092
110	0x3c6a99c3	0.014318886
111	0xbd198352	-0.037478752
112	0x3da3c680	0.07996845
113	0x3dc07da3	0.09398963
114	0x3d4c10c3	0.049820673
115	0xbe40786a	-0.18795934
116	0xbe021799	-0.12704314
117	0x3dec8dc1	0.11550475
118	0xbdb0bf03	-0.086301826
119	0xbe2b4d2f	-0.16728662
120	0xbd42f9ad	-0.04760139
121	0x3e1fcbdb	0.15605108
122	0x3d69f33b	0.05711673
123	0xbdb279b5	-0.0871462
124	0x3e4847cf	0.19558643
125	0xbd28778d	-0.041129638
126	0x3e36aee9	0.1784016
127	0x3e536a1f	0.2064595
128	0xbe48415a	-0.1955618
129	0xbcfbfd59	-0.030760454
130	0x3e1d4e00	0.15361786
131	0xbe647c01	-0.22312929
132	0x3dfd2035	0.12359659
133	0x3e311314	0.17292434
134	0x3e6c757b	0.2309169
135	0xbda1dcc6	-0.07903437
136	0x3e48de51	0.19616057
137	0x3de455d6	0.111491844
138	0x3e228487	0.15870868
139	0x3db252ea	0.08707221
140	0x3cb99bd9	0.022657322
141	0xbe6b3318	-0.2296871
142	0xbe10528d	-0.1409399
143	0x3e852d1b	0.26010975
144	0x3dc689ed	0.09694276
145	0xbd30c013	-0.043151926
146	0x3e52f875	0.20602591
147	0xbe48186d	-0.19540568
148	0xbb322b15	-0.0027186323
149	0x3e3cec66	0.18449554
150	0xbdc73f79	-0.09728903
151	0x3d4ffd94	0.05077894
152	0x3dc41c14	0.09575668
153	0xbd4d5664	-0.050131217
154	0x3d9799b0	0.074023604
155	0x3dbe7833	0.0930027
156	0xbd8bebad	-0.06832061
157	0xbe012edd	-0.12615533
158	0x3d9f6493	0.07782855
159	0xbe1ab511	-0.15108134
160	0xbe67529f	-0.22590111
161	0xbcabcbcf	-0.020971207
162	0xbde466dd	-0.11152432
163	0x3d85a418	0.06525439
164	0x3d6e1ab7	0.058130946
165	0xbe5bfb43	-0.21482567
166	0xbddad1d2	-0.10684551
167	0x3e949dd2	0.29026657
168	0x3bce5a5f	0.006297394
169	0x3ccb8d1b	0.024847558
170	0xbdf3472a	-0.11878808
171	0x3d9a7433	0.075416945
172	0x3dd71098	0.10501212
173	0x3d83ae08	0.06429678
174	0xbdd5bd7d	-0.10436533
175	0x3d8c40d2	0.06848301
176	0x3dec916b	0.11551174
177	0x3e59a6dd	0.2125506
178	0xbe5ca65a	-0.21547833
179	0x3dcae403	0.09906771
180	0xbdc0f243	-0.09421208
181	0xbd8c1416	-0.068397686
182	0xbe5e2662	-0.2169433
183	0x3c716d49	0.014735528
184	0xbe591d83	-0.21202664
185	0xbd8b835f	-0.068121664
186	0xbc4d1a9f	-0.012518554
187	0x3da0af04	0.078458816
188	0x3db8c06b	0.09021076
189	0x3dff058d	0.124522306
190	0xbe78cce8	-0.24296916
191	0xbdb3de2b	-0.087826096
192	0x3d39c974	0.045358136
193	0xbe1f8ab8	-0.15580261
194	0xbdd82510	-0.10553944
195	0xbd98d113	-0.07461753
196	0x3ddf09f4	0.1089057
197	0x3de302c4	0.11084512
198	0xbd943779	-0.07237143
199	0xbdec434b	-0.115362726
200	0x3d606ab5	0.054789264
201	0x3da02501	0.07819558
202	0x3e4e1282	0.20124248
203	0x3e19640a	0.14979568
204	0xbd68dbb2	-0.056850143
205	0xbc843858	-0.016140148
206	0x3dfca986	0.123370215
207	0x3dda1e8e	0.10650359
208	0x3dd3b5b7	0.10337394
209	0x3e5f77c6	0.21823034
210	0x3daa238f	0.083075635
211	0xbcb0a649	-0.021563666
212	0xbe8f1cbe	-0.27951616
213	0xbde21b75	-0.11040393
214	0x3de124c4	0.109933406
215	0x3e4c82ea	0.19971815
216	0x3da33291	0.07968629
217	0xbe1fdee1	-0.15612365
218	0xbe33ab52	-0.17545822
219	0x3e5c2139	0.21497048
220	0xbd701a2e	-0.058618717
221	0xbd3ea5b3	-0.04654474
222	0xbd871e52	-0.0659758
223	0x3e03a479	0.1285571
224	0x3e3a59a1	0.18198253
225	0x3d92e446	0.07172446
226	0x3e18e1d2	0.14929894
227	0x3e34c57a	0.17653456
228	0xbe624e1d	-0.2210011
229	0xbdb1cdb2	-0.086818114
230	0xbde7b6cc	-0.113141626
231	0x3dcdc829	0.10047943
232	0x3e26bd66	0.16283187
233	0x3d0639b4	0.032769874
234	0x3e13c9d6	0.14432463
235	0xbe6303ca	-0.22169414
236	0xbd34e29b	-0.04416142
237	0x3cc9d9c8	0.024639979
238	0xbce00069	-0.027343946
239	0x3e293578	0.16524303
240	0xbdd306ff	-0.10304069
241	0x3e3c98d2	0.18417671
242	0xbd8c1f16	-0.06841867
243	0x3c1b7468	0.009488203
244	0x3d0a2099	0.033722494
245	0x3e3f3d1d	0.18675657
246	0xbd6b59b1	-0.057458583
247	0xbd3ca8fc	-0.046059594
248	0x3e1699a1	0.14707042
249	0x3e597436	0.21235737
250	0xbde312e9	-0.11087591
251	0x3d88fed6	0.06689231
252	0x3c077c25	0.008269344
253	0xbe493992	-0.19650868
254	0xbe42a44c	-0.19007987
255	0xbd70eea2	-0.058821328

layers.2.bias f4 [64]
0	0xbb3ebaa4	-0.0029102946
1	0x3a54ab42	0.00081126776
2	0xbc8708e3	-0.01648373
3	0x3bc6aa4b	0.006062781
4	0x3b6ce3c8	0.003614651
5	0xbbc5656d	-0.006024054
6	0xbbf1091b	-0.007355822
7	0xbca10c92	-0.019659314
8	0x3c06ddd4	0.008231599
9	0x3b8b0eca	0.0042437064
10	0x3b4ed10f	0.0031557714
11	0x3bb92670	0.005650334
12	0x3b587343	0.0033027686
13	0xbc14cced	-0.009082061
14	0x3beeef4e	0.007291711
15	0x3c8523e6	0.01625247
16	0x3c0d3732	0.008619117
17	0xbb4812b7	-0.0030528733
18	0x3d45a524	0.048253193
19	0x39518580	0.00019981526
20	0x3cb24d79	0.021765457
21	0xba068b79	-0.00051324774
22	0x3cd7ce9e	0.02634364
23	0x3d1547a7	0.036445286
24	0x3c69a8c8	0.014261432
25	0xbc0fba36	-0.0087724235
26	0xbc7f5d20	-0.015586168
27	0xbc0cb667	-0.00858841
28	0xbbb01c4f	-0.0053744684
29	0xbbef038d	-0.0072941245
30	0x3c91a5a5	0.01777918
31	0x3babf511	0.00524772
32	0xbc208139	-0.009796434
33	0x3d03b869	0.03215829
34	0x3c966f88	0.01836373
35	0x3cb95d27	0.022627426
36	0x3d773484	0.060352817
37	0x3a25da17	0.00063267484
38	0xbac1568a	-0.0014750522
39	0xbca0f809	-0.019649522
40	0xbc5cfb71	-0.013487683
41	0xbc214903	-0.0098440675
42	0xbc959856	-0.018261116
43	0x3c8459f9	0.016156184
44	0xbbab7182	-0.005232037
45	0xbb805199	-0.003915977
46	0x37bf7ae6	2.2826203e-05
47	0x3c411381	0.011784435
48	0xbc854bf0	-0.016271561
49	0x3cacc098	0.02108793
50	0xbada6c8d	-0.0016664431
51	0xbc3c9bf3	-0.011511791
52	0xbc104f46	-0.008807963
53	0xbc80c4c3	-0.015718823
54	0x3c4ca5c5	0.012490694
55	0x3c50fa95	0.012755056
56	0xbd2310d7	-0.03981098
57	0x3cd9b196	0.026573937
58	0xbb9740b0	-0.0046158656
59	0xbcb2be7f	-0.021819351
60	0x3bbb4173	0.0057145893
61	0x3c22e2ac	0.009941738
62	0xbd0d6eee	-0.03452962
63	0x3bd3be46	0.0064618913

layers.4.weight f4 [64, 64]
0	0x3e80f090	0.25183535
1	0x3d4151bb	0.047197085
2	0x3ddefdb7	0.10888236
3	0x3da583d6	0.08081786
4	0xbd90dcfe	-0.07073401
5	0x3d8a198c	0.06743154
6	0xbe931188	-0.28724313
7	0x3df1ac78	0.11800474
8	0x3e25d603	0.1619492
9	0x3e97cfa9	0.2965062
10	0x3d02414f	0.031800564
11	0xbe95646b	-0.29178175
12	0x3dfa203c	0.122131795
13	0x3e4a753d	0.19771285
14	0x3e9bad91	0.30405858
15	0xbec799ba	-0.38984472
16	0xbd4b9558	-0.049702972
17	0x3d788aef	0.060679372
18	0x3d35c85c	0.04438053
19	0x3e2fe41d	0.17176862
20	0xbe94aa42	-0.29036146
21	0x3df317b4	0.118697554
22	0xbd1b5e1b	-0.037931543
23	0x3d3f9fcd	0.046783257
24	0xbe31be8b	-0.17357843
25	0xbe3fa503	-0.1871529
26	0x3dff23f6	0.12458031
27	0xbd589730	-0.05287856
28	0xbc134c16	-0.008990308
29	0x3e813e68	0.25242925
30	0x3e67106a	0.22564855
31	0xbe07ffff	-0.13281249
32	0xbd14605b	-0.036224704
33	0xbe224a8b	-0.15848748
34	0xbe66c667	-0.22536622
35	0xbe5a4f65	-0.21319349
36	0xbe18ab25	-0.14909036
37	0xbdb775c5	-0.0895801
38	0xbe499a74	-0.19687825
39	0xbdb0f025	-0.08639554
40	0x3e325316	0.17414507
41	0xbcbc05cf	-0.022951989
42	0x3d802b31	0.06258238
43	0xbe3cdfd7	-0.18444763
44	0xbd9a72e1	-0.07541443
45	0x3cec26a8	0.028827026
46	0x3e275f89	0.16345038
47	0x3e26480a	0.16238418
48	0x3e46baec	0.19407243
49	0x3d91be0b	0.07116326
50	0x3dfd2f4e	0.12362538
51	0x3dcfabc6	0.10140185
52	0x3eae7c91	0.34079412
53	0x3dc8b2b0	0.09799707
54	0xbe2658ab	-0.16244762
55	0x3caa7144	0.020805962
56	0x3d87715b	0.06613418
57	0x3dd8c754	0.10584894
58	0x3da0ec61	0.07857586
59	0x3de8e62c	0.11372027
60	0xbda594b1	-0.08085001
61	0x3e367f8d	0.17822094
62	0x3e99a614	0.3000952
63	0x3e6cfbfc	0.23143
64	0xbe43c988	-0.19119847
65	0x3dd29f81	0.10284329
66	0x3e24024f	0.16016506
67	0xbddf7200	-0.10910416
68	0xbe42bdc7	-0.19017707
69	0x3dddd7c9	0.108321734
70	0x3badfba3	0.0053095385
71	0x3e3fbc07	0.1872407
72	0x3ddbaed5	0.10726706
73	0x3e0979c2	0.13425353
74	0xbe2af503	-0.16695027
75	0xbdcb85a9	-0.09937603
76	0xbe51c5c3	-0.20485596
77	0x3d0a37e1	0.033744697
78	0x3e132c80	0.14372444
79	0xbe0b6004	-0.13610846
80	0x3e120aa9	0.14261879
81	0xbe494c4d	-0.19658013
82	0x3e170ae1	0.14750244
83	0xbe328fa4	-0.17437607
84	0xbe2b1717	-0.16708027
85	0xbddd6f3b	-0.10812231
86	0x3d850f90	0.06497109
87	0xbe55c95d	-0.20877595
88	0x3d77a9bf	0.060464617
89	0xbe67d36f	-0.2263925
90	0xbcca7f84	-0.024719007
91	0xbd4f7555	-0.050649006
92	0xbd0bd91d	-0.034142602
93	0xbe1e4a57	-0.15458046
94	0x3e574a6b	0.21024482
95	0x3e503b3e	0.20335099
96	0xbe60926a	-0.21930853
97	0xbcd622ff	-0.026139734
98	0xbe3dce28	-0.18535674
99	0xbe461602	-0.19344333
100	0xbda045c5	-0.078258075
101	0x3e095cd1	0.13414313
102	0xbe45af86	-0.19305238
103	0x3e544bc6	0.2073203
104	0x3e4e5ba1	0.20152141
105	0x3d9d4e50	0.076809525
106	0x3e3864cc	0.18007201
107	0x3d33eca5	0.043926854
108	0x3dfddaa7	0.1239522
109	0x3dc19354	0.09451929
110	0xbe3ec225	-0.18628748
111	0x3d549580	0.051900387
112	0x3c855427	0.016275479
113	0xbe51f8e5	-0.20505102
114	0x3e1e95e0	0.1548686
115	0xbdba009f	-0.0908215
116	0x3d8e8125	0.06958226
117	0xbda37e0a	-0.079830244
118	0x3e0e511d	0.1389813
119	0x3c1f048d	0.009705675
120	0xbd87cfa1	-0.06631399
121	0xbdbce5d9	-0.092235275
122	0x3d9014a3	0.07035186
123	0xbe45a679	-0.19301786
124	0x3df7572f	0.12077176
125	0xbe303584	-0.17207915
126	0xbe10f791	-0.14156939
127	0x3d02cbdc	0.031932697
128	0xbde9820e	-0.11401759
129	0x3d8a0e55	0.06741015
130	0xbe67b1b6	-0.22626385
131	0xbd96eb93	-0.07369151
132	0x3de4b1e5	0.11166743
133	0x3dbb3a03	0.09141924
134	0x3c781225	0.015141045
135	0x3d1e89d8	0.038705677
136	0xbdfe34a9	-0.12412388
137	0xbdf4ce4a	-0.11953409
138	0x3e200632	0.15627363
139	0xbde513f0	-0.111854434
140	0xbe37d17c	-0.17951006
141	0xbd0401be	-0.032228224
142	0xbddc4450	-0.10755217
143	0x3e0e68e7	0.13907205
144	0xbdbe350d	-0.092874624
145	0xbe39b6e1	-0.18136169
146	0x3d24acd1	0.040203873
147	0x3e4456b0	0.19173694
148	0xbcdf8188	-0.027283445
149	0x3db17601	0.086650856
150	0x3d223d13	0.039609026
151	0x3bec5297	0.007211994
152	0xbd8238c4	-0.063584834
153	0xbdc4e67f	-0.09614276
154	0xbe8f78b3	-0.28021774
155	0x3e4ab559	0.19795741
156	0xbe3c2b82	-0.18375972
157	0xbe6f4fcb	-0.23370282
158	0xbe090c09	-0.13383497
159	0x3d972c98	0.073815525
160	0xbd7425bf	-0.05960631
161	0xbcf8fba6	-0.030393433
162	0x3dfcee63	0.12350156
163	0xbe19b9c1	-0.15012266
164	0xbe2f8638	-0.17141044
165	0x3de03e20	0.109493494
166	0xbd8605f0	-0.06544101
167	0xbe053067	-0.13006745
168	0xbda82808	-0.0821076
169	0xbe15ab58	-0.14616144
170	0x3cab0234	0.020875074
171	0xbd8bd03b	-0.06826826
172	0x3d7cafa9	0.06169096
173	0xbd81e015	-0.063415684
174	0x3e11866d	0.14211436
175	0x3e1c3b09	0.15256895
176	0xbcb62c4d	-0.022237921
177	0x3db3a8b4	0.08772412
178	0xbe708f46	-0.23492154
179	0xbe81d515	-0.2535788
180	0xbe631297	-0.2217506
181	0xbcd03b57	-0.02541892
182	0xbe7156e5	-0.23568304
183	0x3dea317f	0.11435222
184	0x3e56e721	0.20986606
185	0xbe38b068	-0.18036044
186	0xbda42d10	-0.080164075
187	0xbdc91d0e	-0.09819995
188	0x3e72a6ca	0.23696437
189	0x3deaed98	0.11471099
190	0x3c960baa	0.018316109
191	0x3e6dfcf0	0.23241019
192	0x3e3c060d	0.18361683
193	0x3dc2dd07	0.09514814
194	0xbe1aac6d	-0.15104838
195	0xbd894c22	-0.06703974
196	0xbd3eb9df	-0.04656398
197	0xbcfcdcda	-0.030867029
198	0x3df03b1f	0.117300265
199	0x3e04925c	0.12946457
200	0xbe0f61ea	-0.14002195
201	0xbe460924	-0.19339424
202	0xbe49014f	-0.19629405
203	0x3d7837d1	0.060600106
204	0xbe19e713	-0.15029554
205	0x3dddeb6e	0.1083592
206	0x3d43623c	0.047701105
207	0x3dc5fa1b	0.096668445
208	0xbd8944a3	-0.067025445
209	0x3df0cddf	0.11758017
210	0x3e0a2526	0.13490734
211	0x3d653bad	0.055965114
212	0x3cd15bbf	0.025556443
213	0x3dd8d009	0.105865546
214	0x3c2c0e98	0.010501526
215	0x3d80ec04	0.062950164
216	0x3e0a323e	0.13495728
217	0x3e47663d	0.19472595
218	0xbd5d92c0	-0.05409503
219	0x3e0cebf5	0.13761885
220	0x3e2f214f	0.1710255
221	0xbe46b42f	-0.19404672
222	0xbc0b8176	-0.008514753
223	0xbe4be27f	-0.1991062
224	0xbe1b852c	-0.1518752
225	0x3e2429d6	0.16031584
226	0xbe1ab566	-0.1510826
227	0x3e3df537	0.18550573
228	0x3e3cd7f7	0.18441759
229	0xbe217fe9	-0.1577145
230	0xbe2e88d0	-0.17044377
231	0xbcae1827	-0.021251751
232	0xbe51cbcf	-0.20487903
233	0x3df5feaa	0.12011464
234	0xbd6858f6	-0.056725465
235	0x3d18ec40	0.03733468
236	0x3cd29237	0.025704486
237	0xbd03c197	-0.032167044
238	0xbe0483ac	-0.12940854
239	0x3d4caf02	0.049971588
240	0x3da9e2a6	0.08295183
241	0x3b83fda7	0.0040280405
242	0xbd506385	-0.05087616
243	0xbd94abed	-0.07259355
244	0xbe0aea9d	-0.1356606
245	0x3d68afec	0.056808397
246	0x3d940dc6	0.072291896
247	0xbd9d1b2d	-0.07671199
248	0xbdc5d163	-0.09659078
249	0x3e379279	0.17926969
250	0x3e19c53d	0.15016647
251	0xbe520ccd	-0.20512696
252	0xbddcfca6	-0.10790376
253	0xbc818123	-0.015808647
254	0xbdb70d1a	-0.08938046
255	0x3c286b80	0.010279536

layers.4.bias f4 [64]
0	0xbccd36dd	-0.025050575
1	0xbb501630	-0.0031751506
2	0x3cf1f3c3	0.02953518
3	0xbc0e10f8	-0.008671038
4	0xbc46ec2f	-0.0121412715
5	0x39f4e848	0.0004671237
6	0xbbcefbf2	-0.0063166553
7	0x3d1bb68c	0.038015887
8	0x3b00bd5a	0.0019644112
9	0x3b5bdcf7	0.0033548453
10	0xbc403d00	-0.0117332935
11	0x3c35e2b0	0.01110141
12	0x3bc8848a	0.0061193155
13	0x3c108195	0.008819957
14	0xbb622762	-0.0034508337
15	0xbc616417	-0.013756773
16	0x3bfefd7f	0.007781684
17	0x3cce0018	0.02514653
18	0x3c8da548	0.017290726
19	0x3b0c2dd4	0.002138962
20	0x3cb60395	0.022218505
21	0xbc012744	-0.007882897
22	0x3b25eedb	0.002531937
23	0x3c03937e	0.00803077
24	0xbbb7fba2	-0.0056147138
25	0x3b6b7142	0.0035925661
26	0xbc1ed3c0	-0.00969404
27	0x3c1bbd2d	0.009505552
28	0x3c21be43	0.009872022
29	0x3c7d23b1	0.015450404
30	0x3b97cae3	0.0046323403
31	0xbb3d12b0	-0.002885025
32	0xbb26131f	-0.0025340987
33	0x3b4169a3	0.0029512427
34	0xbabcd3ae	-0.0014406347
35	0xbb944a6a	-0.0045254724
36	0xbb36817f	-0.0027848182
37	0xbc29d69c	-0.010366108
38	0x3c885ac9	0.016644852
39	0x3a67de8b	0.0008845112
40	0x3cfdfaeb	0.031003436
41	0x3c503ee6	0.012710309
42	0xbcd1d8ab	-0.02561601
43	0x3b51ebae	0.0032031345
44	0xba8a928b	-0.0010572238
45	0x3afef72c	0.0019452325
46	0xbb113a8e	-0.0022160145
47	0xbc3b7eee	-0.011443837
48	0xbca8bf2d	-0.020598972
49	0x3bdab5dc	0.0066745114
50	0x3d036287	0.032076385
51	0xbd374976	-0.044747792
52	0x3cfdeaed	0.03099581
53	0xbc2f1687	-0.010686523
54	0xb9b3c97a	-0.00034291652
55	0x3c0152fa	0.007893318
56	0xbbb7e8b5	-0.0056124576
57	0xbc7aa6f2	-0.015298592
58	0x3bbb0a90	0.0057080463
59	0xbb03958d	-0.0020078153
60	0x3a15f3fe	0.00057202566
61	0xbc86864b	-0.016421458
62	0x3bdea742	0.006794841
63	0x3b29e4bd	0.0025923692

layers.6.weight f4 [64, 64]
0	0xbbd7cd3d	-0.0065857456
1	0xbdd17032	-0.10226478
2	0xbe914dac	-0.2837957
3	0xbd7dee74	-0.061994985
4	0x3e03e2b8	0.12879455
5	0xbe25d94a	-0.1619617
6	0xbd97d8f7	-0.0741443
7	0xbd6e1fae	-0.05813568
8	0xbe479035	-0.19488604
9	0x3d3b2227	0.045686867
10	0x3d25846c	0.04040949
11	0x3d2327f3	0.03983302
12	0x3e29a91b	0.16568415
13	0x3e1791e8	0.14801753
14	0x3e0bddf1	0.13658883
15	0xbbb89b09	-0.005633716
16	0x3e07a134	0.13245088
17	0x3cf1e155	0.029526392
18	0xbe5bb766	-0.2145668
19	0x3db2afdc	0.08724949
20	0x3e24824f	0.16065334
21	0x3daf41e6	0.08557491
22	0x3e427caa	0.18992868
23	0xbd9a05d3	-0.07520642
24	0x3e2f6748	0.17129242
25	0xbd6acebd	-0.057326067
26	0xbc545635	-0.0129600065
27	0xbd9bac00	-0.07601166
28	0x3c8035f7	0.015650732
29	0xbbc350d5	-0.0059605637
30	0x3e013d94	0.12621146
31	0x3dc67fb0	0.09692323
32	0xbe895ff3	-0.26831016
33	0x3e55766a	0.20845953
34	0xbe8d47b6	-0.27593774
35	0xbe0ce3e3	-0.13758807
36	0x3d9fc904	0.078020126
37	0x3e774a0a	0.24149337
38	0x3c80e522	0.015734259
39	0xbe0c61c9	-0.13709177
40	0xbe4c609d	-0.1995873
41	0x3e677432	0.22602919
42	0x3e3df54a	0.18550602
43	0x3c611033	0.013736772
44	0xbe232827	-0.15933286
45	0xbdce3a3b	-0.100697
46	0x3e30346e	0.172075
47	0x3de47d67	0.11156731
48	0xbe279f14	-0.16369277
49	0x3e03ed07	0.12883388
50	0xbe47f4b6	-0.19526944
51	0xbb970168	-0.004608322
52	0xbded91e7	-0.11600094
53	0xbe4cc91a	-0.19998589
54	0x3d349772	0.044089742
55	0xbe768c81	-0.24077035
56	0xbe115697	-0.14193188
57	0xbe424f28	-0.18975508
58	0xbe4a2a49	-0.19742693
59	0x3da0d017	0.0785219
60	0x3d874386	0.06604676
61	0x3db21007	0.08694463
62	0xbe7049e9	-0.23465694
63	0xbdbf145b	-0.093300544
64	0xbe6d959f	-0.23201607
65	0xbe3c38f6	-0.18381104
66	0xbdf0cfac	-0.1175836
67	0x3db7eab8	0.08980316
68	0x3e40969d	0.18807454
69	0x3d7669da	0.06015954
70	0xbe4a43e5	-0.19752462
71	0x3e27d6a6	0.16390476
72	0x3e59ba57	0.2126249
73	0x3e60c2f0	0.21949363
74	0xbe49aa88	-0.19693959
75	0xbde8f353	-0.113745354
76	0xbdb7f5ba	-0.089824155
77	0x3e3f31ca	0.18671337
78	0x3e54d370	0.20783782
79	0x3d0fc0a0	0.03509581
80	0x3e22b3d3	0.1588891
81	0x3d3b8a3a	0.04578612
82	0xbd99edb3	-0.07516041
83	0x3d560ee9	0.052260313
84	0xbe062946	-0.13101682
85	0x3d5b941c	0.053608045
86	0x3e0812d5	0.13288434
87	0x3e341417	0.17585789
88	0xbe4ab355	-0.19794972
89	0x3ca1ff22	0.019774977
90	0xbc93ed78	-0.01805757
91	0x3dcad2b6	0.09903471
92	0x3e40b4e6	0.18819007
93	0x3bcc8cd4	0.006242374
94	0x3ca881f6	0.020569783
95	0xbe60f7d9	-0.21969546
96	0x3d3637fb	0.04448698
97	0xbde20d15	-0.110376514
98	0x3e0f9c3a	0.1402444
99	0xbc8d46b5	-0.01724563
100	0x3c6342d6	0.013870915
101	0xbd7ad273	-0.061235856
102	0x3de4c14f	0.11169683
103	0xbe0c3652	-0.13692597
104	0x3e0175ff	0.12642668
105	0x3d7b2e8a	0.06132368
106	0xbdd597fe	-0.10429381
107	0x3e24c2ec	0.16089982
108	0x3d042143	0.032258283
109	0xbd6b20f1	-0.057404462
110	0x3c88629a	0.01664858
111	0xbdae6361	-0.08515049
112	0xbdfa9785	-0.12235931
113	0x3e2cfd32	0.16893461
114	0x3e3d1eb5	0.18468745
115	0xbdf2cf62	-0.118559614
116	0x3dd9e755	0.10639826
117	0xbe2d5451	-0.16926695
118	0xbdebe36c	-0.11517987
119	0xbe608982	-0.21927455
120	0x3e064479	0.13112058
121	0xbdfce867	-0.12349015
122	0xbd6e11d1	-0.05812246
123	0x3d7efd2d	0.062253166
124	0xbdbb6267	-0.09149628
125	0xbe1c30df	-0.15253018
126	0x3e2243b1	0.15846135
127	0xbd1a2b70	-0.03763908
128	0xbe2312dd	-0.15925165
129	0x3c9cc781	0.0191381
130	0x3d79aacd	0.060953904
131	0xbdea9a87	-0.11455255
132	0xbde8b975	-0.11363498
133	0xbdcf079a	-0.10108872
134	0x3c2d04f7	0.010560266
135	0xbbad24c2	-0.005283923
136	0xbe2aae23	-0.1666799
137	0x3e200bba	0.15629473
138	0x3da797fa	0.08183284
139	0x3e39fbf4	0.18162519
140	0xbe617796	-0.22018275
141	0x3d4358bb	0.04769204
142	0x3e26c949	0.16287722
143	0xbe42779a	-0.18990937
144	0x3e3920b4	0.18078882
145	0xbe1509c1	-0.14554502
146	0x3e09f243	0.13471322
147	0xbd35e743	-0.04441
148	0x3d795108	0.060868293
149	0xbe1ee348	-0.15516388
150	0xbc829fa3	-0.015945261
151	0xbcb9ea07	-0.0226946
152	0x3e2c9d97	0.16856991
153	0xbe2f339e	-0.17109534
154	0x3de38440	0.11109209
155	0xbe26ae84	-0.1627751
156	0xbd2ed14f	-0.04268008
157	0xbe207b48	-0.15672028
158	0x3e218f4c	0.1577732
159	0x3b7de7a8	0.0038742814
160	0x3db2978f	0.08720314
161	0x3dac798d	0.084216215
162	0x3b50306e	0.0031767148
163	0x3d55c6f2	0.052191682
164	0xbe01d4b7	-0.126788
165	0xbdd84454	-0.105599076
166	0xbda4ac09	-0.080406256
167	0xbe0f5490	-0.13997102
168	0x3e09a86e	0.13443157
169	0xbe470c56	-0.194383
170	0x3cced590	0.025248319
171	0x3cdafb52	0.026731167
172	0xbd627ffc	-0.055297837
173	0xbcdf7a78	-0.027280077
174	0x3d58bc57	0.05291399
175	0xbda87cb9	-0.08226914
176	0xbe269f03	-0.16271596
177	0x3e17603d	0.14782806
178	0xbcee0fbe	-0.02906024
179	0xbe1f05ea	-0.155296
180	0xbe2c6d46	-0.1683856
181	0x3e0c8300	0.13721848
182	0xbe4c3782	-0.1994305
183	0x3cc0d4b9	0.023538934
184	0x3e49fad5	0.19724591
185	0xbe215726	-0.157559
186	0x3e3de857	0.18545662
187	0x3e14123f	0.14460085
188	0x3dc20219	0.09473056
189	0x3e01f095	0.12689431
190	0xbdbb0504	-0.09131816
191	0x3daa897c	0.08327004
192	0xbe2885f9	-0.16457357
193	0x3e5cf130	0.2157638
194	0x3caace6c	0.020850383
195	0x3cbebc6a	0.023283202
196	0x3e245c9e	0.16050956
197	0xbdf1429d	-0.117802836
198	0xbe440274	-0.19141561
199	0xbe142cc1	-0.14470197
200	0x3da48634	0.0803341
201	0x3e049542	0.12947562
202	0x3da5f667	0.08103638
203	0xbdd15be1	-0.10222603
204	0x3d4bcf6f	0.04975837
205	0xbe5aca0b	-0.21366136
206	0xbbbd16e3	-0.0057705506
207	0xbb0ca675	-0.002146152
208	0xbdbdad99	-0.09261627
209	0xbe4a41b4	-0.19751626
210	0xbdf7209c	-0.120667666
211	0xbd558a1e	-0.052133672
212	0x3b852d46	0.004064235
213	0xbc8a2ac3	-0.016866094
214	0x3dba3aec	0.0909327
215	0xbe1de627	-0.15419827
216	0x3d54dbe3	0.051967513
217	0xbe59253c	-0.2120561
218	0x3dc2531b	0.09488507
219	0xbe066691	-0.13125063
220	0x3d3ad53f	0.045613524
221	0xbc4056f4	-0.011739481
222	0xbcfaa6b4	-0.030597068
223	0x3e2f44c9	0.17116083
224	0x3dcb237a	0.09918876
225	0xbe54a75d	-0.20766969
226	0x3e4530e0	0.19256926
227	0x3cf99011	0.030464204
228	0x3dae124b	0.08499583
229	0x3ae5943a	0.0017515488
230	0x3e60a1d8	0.21936738
231	0x3deb3f0b	0.11486634
232	0xbcf6c669	-0.030123906
233	0xbe57bece	-0.2106888
234	0x3df15f4c	0.117857546
235	0xbe57078a	-0.2099897
236	0x3ded9f94	0.11602703
237	0x3d273386	0.04082062
238	0x3dac2105	0.084047355
239	0x3d8ff616	0.07029359
240	0xbe1d9a96	-0.15391001
241	0xbda8569f	-0.08219647
242	0xbd67b8dd	-0.056572784
243	0xbe5779d2	-0.21042565
244	0x3e152717	0.14565693
245	0xbdcdc020	-0.100464106
246	0xbddb2c8c	-0.10701856
247	0xbd931c3d	-0.071831204
248	0x3def102a	0.11673005
249	0xbaccc292	-0.0015621951
250	0x3dd2b2d0	0.10288012
251	0x3dfe27c2	0.12409927
252	0xbb41e112	-0.0029583615
253	0x3e2d6176	0.1693171
254	0x3dcd9015	0.10037247
255	0x3e034786	0.12820253

layers.6.bias f4 [64]
0	0xbcbefb57	-0.023313208
1	0xba9d9abb	-0.0012024263
2	0x3b3369ec	0.0027376367
3	0x39c28cf2	0.00037107576
4	0xbd0df0f4	-0.03465362
5	0x3b97c3bc	0.0046314877
6	0xbc2b1ec6	-0.010444349
7	0xbb1c67df	-0.0023865623
8	0xbc21158e	-0.009831799
9	0xbb095e94	-0.0020960914
10	0xbbe7013f	-0.007049709
11	0x3c1dc8bd	0.009630379
12	0x3b963db4	0.0045849923
13	0xbad649b1	-0.0016348866
14	0x3af9e030	0.0019064005
15	0x3ae9a711	0.0017826279
16	0xbc00c81c	-0.00786021
17	0x3c30b73a	0.010785872
18	0x373ee30d	1.1377747e-05
19	0xbcdfc6a9	-0.027316408
20	0x3bc4ae67	0.0060022357
21	0xbc7da9a8	-0.015482344
22	0xbb20fc78	-0.0024564546
23	0xbd214582	-0.03937293
24	0xbb8e47f8	-0.0043420754
25	0x3c84ffaf	0.0162352
26	0x360b3c32	2.0747652e-06
27	0x3bd61226	0.006532925
28	0xbc18ac41	-0.009318412
29	0xb7a99545	-2.0215879e-05
30	0xb9801990	-0.00024433108
31	0x3b96f844	0.0046072323
32	0xbd31acf3	-0.043377828
33	0x3b872d7d	0.0041252957
34	0x3abd769c	0.0014454904
35	0x3c6b6b14	0.014368791
36	0xbb41cb4e	-0.0029570642
37	0x3d1e4cfe	0.038647644
38	0xbc5cdecf	-0.013480856
39	0x3a4963a6	0.000768239
40	0x3c3ae0db	0.011406149
41	0x3bc69742	0.006060512
42	0xbb0f05da	-0.0021823556
43	0x3b3a9cc5	0.002847479
44	0x3bc21542	0.0059229443
45	0x3a62315a	0.000862857
46	0x3b95ee74	0.004575545
47	0xbdbaf9c4	-0.0912967
48	0x3c8063e3	0.01567263
49	0xbcb50e3c	-0.022101514
50	0xbc0c97cb	-0.008581112
51	0xba5f6d70	-0.00085230824
52	0xbb0bd13a	-0.0021334426
53	0xbb9dd66a	-0.00481682
54	0xbbc95dc9	-0.0061452133
55	0xbad6be5b	-0.0016383635
56	0xbb5d35d7	-0.0033754015
57	0xbc466335	-0.012108614
58	0x3c0cdaae	0.008597059
59	0xbd2fa255	-0.04287942
60	0xbb3daa23	-0.002894052
61	0xbb6c2e56	-0.003603836
62	0xbd022412	-0.03177268
63	0xbc746a5c	-0.014917936

layers.8.weight f4 [64, 64]
0	0xbe0ac631	-0.13552167
1	0xbe150cef	-0.14555715
2	0x3cc078c2	0.023495082
3	0xbe474b09	-0.19462217
4	0x3bd0c508	0.006371144
5	0xbd942dee	-0.07235323
6	0xbd961798	-0.07328719
7	0xbe4a26ec	-0.1974141
8	0xbe0799fb	-0.13242333
9	0x3e010d1d	0.12602659
10	0xbde4e14a	-0.11175783
11	0x3de5c155	0.11218516
12	0x3e20b385	0.15693481
13	0x3c65f63e	0.0140357595
14	0x3df67b5f	0.1203525
15	0xbe212ab2	-0.15738943
16	0xbe246ba5	-0.16056688
17	0x3e2a9076	0.1665667
18	0x3dffee3f	0.12496614
19	0x3c6060d5	0.013694962
20	0xbe0bb860	-0.13644552
21	0xbd9c9b7c	-0.07646844
22	0x3e36ff0a	0.17870727
23	0x3e7a0ff9	0.24420156
24	0xbe37035f	-0.1787238
25	0x3dc2d2b1	0.095128424
26	0xbe1e588c	-0.15463465
27	0xbd0efff0	-0.03491205
28	0xbc843cf2	-0.016142342
29	0xbe2a0111	-0.1660197
30	0x3c5bea6b	0.013422589
31	0xbd2b45ae	-0.0418145
32	0x3e3d0eca	0.18462673
33	0xbdd72f90	-0.10507119
34	0xbe2ebbbd	-0.17063804
35	0x3d03f305	0.032214183
36	0x3e6aec23	0.22941642
37	0x3e43b04c	0.1911022
38	0x3dce0bb5	0.10060827
39	0xbe61cc61	-0.2205062
40	0x3defd3a3	0.117102884
41	0xbd1ff77a	-0.03905437
42	0xbe36197e	-0.17783162
43	0xbda9f2c1	-0.08298255
44	0xbe519700	-0.20467758
45	0xbdbc7916	-0.09202783
46	0x3dbaadb6	0.09115164
47	0x3e4ca215	0.19983704
48	0xbe4b44cf	-0.19850467
49	0x3da9ee20	0.08297372
50	0x3d51f852	0.051262207
51	0xbe137ff6	-0.14404282
52	0xbd812c75	-0.06307308
53	0xbe15d6eb	-0.14632766
54	0xbe102047	-0.14074813
55	0x3e439ab1	0.19101979
56	0x3e4e352d	0.20137472
57	0x3dbda0a3	0.09259155
58	0xbd357801	-0.044303898
59	0xbdd2ebbd	-0.1029887
60	0x3d9a9c6e	0.07549368
61	0xbe47c5e8	-0.19509089
62	0xbe0b9a68	-0.1363312
63	0x3daa4d00	0.08315468
64	0x3e1cc62e	0.15309975
65	0xbc8c8ef7	-0.017158015
66	0xbdd7a6d8	-0.1052987
67	0x3de015b1	0.10941637
68	0x3e1d79af	0.1537845
69	0xbe6355c6	-0.22200689
70	0xbd13bbb0	-0.036067665
71	0xbe6231be	-0.22089288
72	0xbc993c28	-0.018705443
73	0x3e1bb68e	0.15206358
74	0xbe37db2c	-0.17954701
75	0xbe16bbdd	-0.14720102
76	0xbd3ec013	-0.046569895
77	0x3d8ba596	0.068186924
78	0x3e67b194	0.22626334
79	0x3d988f9c	0.07449266
80	0x3e2ffefb	0.17187111
81	0x3e4d034f	0.20020793
82	0x3e0ffbf7	0.1406096
83	0xbe06bbf0	-0.1315763
84	0xbe13c62b	-0.14431064
85	0x3e0da43e	0.13832185
86	0xbd48c3d5	-0.049014885
87	0xbe22ba67	-0.1589142
88	0x3d5482fc	0.05188273
89	0xbe2d2948	-0.16910279
90	0x3d06b1d6	0.03288444
91	0x3e5b2932	0.21402434
92	0x3e533993	0.20627432
93	0x3d1fcc51	0.03901321
94	0x3d04db50	0.032435715
95	0x3dc6de7e	0.09710406
96	0xbd9e705c	-0.077362746
97	0xbe04669c	-0.12929767
98	0x3e57f10c	0.21088046
99	0xbe4f20ef	-0.20227407
100	0x3d4eff12	0.050536223
101	0xbdb28026	-0.087158486
102	0x3db721e2	0.089420095
103	0xbe26f9b1	-0.16306187
104	0x3ddc93de	0.10770391
105	0xbdfda42f	-0.12384831
106	0xbde9a834	-0.11409035
107	0x3e447b27	0.19187604
108	0x3c98eb7d	0.018666977
109	0x3e458be8	0.19291651
110	0xbe11e6a6	-0.14248142
111	0x3e20a6aa	0.15688577
112	0x3c872df6	0.016501408
113	0x3e32278a	0.17397895
114	0xbd5af7bb	-0.05345891
115	0xbcc62d97	-0.02419166
116	0x3c69407d	0.014236567
117	0xbe0af2ff	-0.13569258
118	0x3cff809a	0.031189252
119	0xbe029358	-0.1275152
120	0x3deae45b	0.114693366
121	0x3e4d4b1a	0.2004818
122	0xbd40b1eb	-0.047044676
123	0xbd2f2fed	-0.042770315
124	0x3db12aeb	0.08650764
125	0x3b40e244	0.002943174
126	0xbba67360	-0.0050796717
127	0xbd882b1c	-0.066488475
128	0x3e22ec09	0.15910353
129	0xbd1d932c	-0.038470432
130	0x3e5b8636	0.21437916
131	0x3e11b200	0.14228058
132	0x3dd4a9fd	0.10383985
133	0x3d3c92d4	0.046038464
134	0xbd9b7c8e	-0.07592116
135	0xbe01e92b	-0.12686603
136	0x3e3c9d89	0.1841947
137	0xbe02f2ee	-0.12787983
138	0x3bfe8535	0.0077673444
139	0xbe370a4c	-0.17875022
140	0xbe5c04b6	-0.21486172
141	0x39db6996	0.00041849603
142	0xbdc8e10a	-0.09808548
143	0xbe181ed4	-0.1485551
144	0xbe2ca82e	-0.1686103
145	0x3e64d87c	0.22348207
146	0x3aee92e3	0.0018201735
147	0x3d86754d	0.06565342
148	0xbe31ecea	-0.17375532
149	0xbdfb3560	-0.1226604
150	0x3e29916f	0.16559385
151	0x3e11e028	0.14245665
152	0x3b919b97	0.0044435966
153	0xbe490e42	-0.19634345
154	0x3e5c9e1a	0.21544686
155	0xbe082b6e	-0.13297817
156	0xbe12dd07	-0.14342128
157	0x3dde9f49	0.10870225
158	0x3d81b90f	0.06334125
159	0x3bd938a6	0.0066290675
160	0x3e016fe3	0.12640338
161	0x3d95e2b3	0.0731863
162	0x3e57a454	0.2105878
163	0x3e3dcd50	0.18535352
164	0x3d39094c	0.04517488
165	0x3e2c83c5	0.16847141
166	0xbe5edca1	-0.21763851
167	0xbe4a8258	-0.19776285
168	0xbe10a1c6	-0.14124212
169	0xbd321cbb	-0.04348443
170	0x3e55a0be	0.208621
171	0x3caa62a7	0.020798994
172	0x3b2e70fc	0.0026617637
173	0xbc3a87dc	-0.01138493
174	0xbdc4193b	-0.09575125
175	0xbda99cfd	-0.08281896
176	0x3e5d0600	0.2158432
177	0xbe0fdf62	-0.14050058
178	0x3d8c0a95	0.06837956
179	0x3b363422	0.002780207
180	0x3e4925f1	0.1964338
181	0xbddf56dc	-0.10905239
182	0xbd96df26	-0.07366781
183	0xbe035006	-0.12823495
184	0xbd095f9f	-0.033538457
185	0xbe2683b4	-0.16261178
186	0xbe124657	-0.14284645
187	0xbb7bfe96	-0.0038451306
188	0xbc098be6	-0.008395171
189	0x3dc9ef70	0.09860122
190	0x3d62b253	0.055345844
191	0xbe0b00fb	-0.13574593
192	0xbe5ecd57	-0.21758018
193	0xbe5b057e	-0.21388814
194	0x3c637341	0.013882459
195	0x3d223ada	0.039606906
196	0x3e2df10b	0.16986482
197	0x3e53bde3	0.20677905
198	0x3e573db4	0.21019632
199	0x3e397351	0.18110396
200	0x3e33cb78	0.17558086
201	0x3c96393c	0.018337838
202	0x3dc82c9f	0.09774136
203	0xbcc4b58b	-0.024012348
204	0xbe37ced9	-0.1795
205	0x3d8ce0a8	0.06878787
206	0x3e5ec1e4	0.21753651
207	0xbdc82024	-0.09771755
208	0x3e2425fc	0.16030115
209	0xbe0248de	-0.12723109
210	0xbe12466d	-0.14284678
211	0x3e29854a	0.16554752
212	0xbe49601b	-0.19665568
213	0x3d8a0325	0.06738881
214	0x3de78180	0.11303997
215	0x3e1128ff	0.14175795
216	0xbd9a7f72	-0.075438395
217	0xbe3361ed	-0.17517824
218	0x3e5e09c0	0.21683407
219	0xbcc6c1ce	-0.024262335
220	0x3dcdde7e	0.10052203
221	0xbc9288e3	-0.017887538
222	0xbe0f7b26	-0.14011821
223	0xbe451389	-0.19245733
224	0x3e37b4cb	0.17940061
225	0xbe6ef43f	-0.2333536
226	0xbe16df36	-0.14733586
227	0x3e193fe0	0.14965773
228	0x3d34e64c	0.04416494
229	0xbce8ab31	-0.028401943
230	0xbe18819a	-0.14893189
231	0xbe81489f	-0.25250718
232	0xbd2e6b81	-0.042582992
233	0x3dd9ac84	0.10628608
234	0x3db273d6	0.087135
235	0x3da94d59	0.08266706
236	0x3e36f034	0.17865068
237	0x3d11691f	0.035500642
238	0xbd45d44b	-0.04829816
239	0xbe124acd	-0.14286347
240	0xb9a6de10	-0.00031827437
241	0x3dbedd09	0.09319503
242	0x3d7525b2	0.059850402
243	0x3e28b9cb	0.16477124
244	0x3e2e1532	0.17000273
245	0x3db0d152	0.08633675
246	0xbe429da9	-0.19005455
247	0xbdb7a26b	-0.08966526
248	0x3dd03e68	0.10168153
249	0x3e2349cd	0.15946122
250	0xbcc02b2c	-0.023458086
251	0xbddfd2c5	-0.10928873
252	0x3da658e9	0.08122427
253	0x3bed7c08	0.0072474517
254	0xbdce54ba	-0.10074754
255	0x3e4ab934	0.19797212

layers.8.bias f4 [64]
0	0xbacab637	-0.0015465681
1	0xbb88917b	-0.0041677332
2	0x3b01415a	0.001972279
3	0xbbe19eb6	-0.006885375
4	0x3b34c6e0	0.002758436
5	0x3b3ffa1e	0.0029293369
6	0xbc2a6f49	-0.010402509
7	0xb7141e75	-8.828579e-06
8	0xba088bd9	-0.0005208827
9	0xba0ab978	-0.0005291919
10	0xbc3ab5e8	-0.011395909
11	0xbbd81b34	-0.0065950397
12	0xbb9885a0	-0.004654601
13	0xbb3610f8	-0.002778111
14	0x3d89b723	0.06724384
15	0x3c467fc3	0.012115422
16	0xbb70dd64	-0.0036753053
17	0xbd77afdd	-0.06047045
18	0x3b902de4	0.004400002
19	0x3bfe6c0b	0.0077643446
20	0xbc03441d	-0.008011845
21	0xbcca3108	-0.024681583
22	0x3b63245c	0.0034659123
23	0x3b0e2175	0.0021687422
24	0xba313aa1	-0.00067607505
25	0x3c5de3bf	0.013543068
26	0xbb8e91ae	-0.0043508625
27	0xba16bf4a	-0.000575055
28	0xbb1deadb	-0.0024096284
29	0xbae551fb	-0.0017495746
30	0xbb9039ec	-0.004401436
31	0xbc20e367	-0.009819842
32	0x3c01ce9a	0.007922793
33	0xbcc0504c	-0.023475789
34	0x3accd2d3	0.0015626795
35	0xbc89c809	-0.016819017
36	0xbb67dac8	-0.0035378207
37	0xbae26706	-0.0017273135
38	0x3b6a5603	0.0035756833
39	0xbc0d9be5	-0.008643125
40	0x3ac85f21	0.001528714
41	0xbb991035	-0.0046711215
42	0xbc54e0c0	-0.012993038
43	0x3a96a1d5	0.0011492322
44	0xba904dba	-0.0011009492
45	0x3b1fe300	0.0024396777
46	0xba8dd7aa	-0.0010821719
47	0x3b0117b7	0.0019697973
48	0x3cd2c138	0.0257269
49	0xbbb40d7d	-0.005494772
50	0xbc0abc6c	-0.008467775
51	0x3acd93fb	0.001568436
52	0xbb3b18be	-0.0028548683
53	0xbb0d9eee	-0.0021609622
54	0xba46b6df	-0.00075803505
55	0x3bef1ea8	0.0072973557
56	0xbc07b7ca	-0.008283565
57	0xbb64d706	-0.0034918203
58	0xba943ee5	-0.0011310248
59	0xbbf93af7	-0.007605906
60	0xbbe39efa	-0.0069464417
61	0xbc90a1b8	-0.017655239
62	0xbc9b23ef	-0.018938033
63	0x3b1a8bad	0.0023581788

layers.10.weight f4 [64, 64]
0	0x3de86f3b	0.113493405
1	0x3e0093a1	0.12556316
2	0x3e182096	0.1485618
3	0x3d8e3b5c	0.06944916
4	0x3e678d94	0.22612602
5	0x3d3398ff	0.04384708
6	0x3e492605	0.1964341
7	0x3d21c474	0.039493993
8	0x3d6e9e25	0.058256287
9	0xbe088906	-0.1333352
10	0xbbda1a6e	-0.0066559827
11	0x3d53e856	0.051735245
12	0xbda4021e	-0.08008216
13	0x3dbe6c4c	0.09298
14	0x3d73bf8a	0.059508838
15	0xbdcaf672	-0.09910287
16	0xbe06561f	-0.1311879
17	0x3dd3862b	0.10328325
18	0xbe109371	-0.14118744
19	0x3d8f44d0	0.06995547
20	0xbdf25aaa	-0.11833699
21	0xbe465f20	-0.19372225
22	0x3c1c2490	0.009530202
23	0xbda73600	-0.081645966
24	0x3db4425c	0.088017195
25	0xbd174021	-0.036926392
26	0xbe30bd67	-0.17259751
27	0x3bdfac76	0.006825979
28	0xbe0bdb95	-0.13657983
29	0x3d34261a	0.04398165
30	0x3e25fe31	0.16210248
31	0xbdd979b2	-0.10618915
32	0xbde370ce	-0.111055
33	0xbd514393	-0.051089834
34	0xbd38fb41	-0.04516149
35	0x3c98a44a	0.018633027
36	0x3d032ec0	0.032027006
37	0x3d60baaa	0.054865517
38	0xbdcbcf0d	-0.09951601
39	0xbdc918cb	-0.09819182
40	0x3e33c314	0.17554885
41	0x3df8200f	0.1211549
42	0x3e04ad91	0.12956835
43	0xbe433ef4	-0.19066983
44	0x3e1ad7aa	0.15121332
45	0x3e55b8d7	0.20871292
46	0xbdc88cfd	-0.097925164
47	0xbe434dfe	-0.1907272
48	0x3dbf021e	0.09326576
49	0xbdc3191a	-0.09526272
50	0x3db03627	0.08604079
51	0xbd88f86d	-0.066880085
52	0x3e5ca044	0.21545511
53	0xbd3cb0e2	-0.046067126
54	0x3b45ebcb	0.0030200358
55	0xbd1edd22	-0.038785107
56	0xbde5a1af	-0.11212479
57	0x3d8f4e6b	0.06997379
58	0x3e0b9db3	0.13634376
59	0xbe3f4d4a	-0.18681827
60	0x3b4c075d	0.0031132319
61	0x3e101219	0.14069404
62	0x3dc500ac	0.09619269
63	0xbe56afb4	-0.20965463
64	0xbca0bf36	-0.019622426
65	0x3db98ca9	0.09060032
66	0x3d665a1f	0.05623829
67	0xbe5e95df	-0.21736859
68	0xbd2c1954	-0.042016342
69	0xbe0c66ed	-0.13711138
70	0xbdc72319	-0.09723491
71	0xba183f04	-0.000580773
72	0x3e4c2963	0.19937663
73	0x3e08569a	0.13314286
74	0xbdc3a940	-0.09553766
75	0x3de80a65	0.113301076
76	0xbdfe4229	-0.12414963
77	0x3d777c8a	0.060421504
78	0xbe366f51	-0.17815901
79	0x3cdb7209	0.026787775
80	0xbdb0973a	-0.08622594
81	0x3e57b05e	0.21063372
82	0xbe298e1e	-0.1655812
83	0xbde56381	-0.112006195
84	0x3df5b774	0.119978815
85	0xbd99cd78	-0.07509893
86	0x3d670c2b	0.05640809
87	0x3e692d32	0.22771147
88	0xbe46b0f2	-0.19403437
89	0xbe59b468	-0.21260226
90	0xbac2c169	-0.0014858666
91	0x3c14e11d	0.009086874
92	0x3e14776c	0.14498681
93	0x3db904c1	0.0903411
94	0xbe21ecbd	-0.15812965
95	0x3e3db6bc	0.18526739
96	0xbd88ec53	-0.066857
97	0x3e0907ce	0.13381884
98	0xbe0c6920	-0.13711977
99	0x3d56a520	0.05240357
100	0x3e0c8d17	0.13725697
101	0x3e0f1c3b	0.13975613
102	0xbe2658d4	-0.16244823
103	0xbdfb93de	-0.12284063
104	0x3c1fb47a	0.009747619
105	0x3d3ac855	0.045601208
106	0x3e1c44b7	0.15260588
107	0x3caa314f	0.020775465
108	0x3e680e96	0.22661814
109	0xbde215c7	-0.1103931
110	0x3dce2f49	0.10067613
111	0x3ded0f4d	0.11575184
112	0x3e30a907	0.17251979
113	0xbe028cd0	-0.12749028
114	0x3cbddbcf	0.023176102
115	0x3da83735	0.08213655
116	0xbdaf462d	-0.08558307
117	0x3ce16e9e	0.027518567
118	0x3e157160	0.1459403
119	0x3d1149c5	0.035470743
120	0xbd8570f2	-0.06515683
121	0xbe2e23c1	-0.17005827
122	0xbe20f5ef	-0.15718816
123	0xbd9f66ae	-0.077832565
124	0xbe0b8a20	-0.1362691
125	0x3decbbdd	0.115592696
126	0x3cb9834a	0.022645611
127	0x3d80a216	0.062809154
128	0xbe33395f	-0.17502354
129	0x3db1492f	0.08656537
130	0x3c1bc587	0.009507543
131	0xbe35ca46	-0.17752942
132	0xbe289338	-0.1646241
133	0x3d91c217	0.07117098
134	0x3d6a7c10	0.05724722
135	0xbe19a41a	-0.15004006
136	0xbd00f50b	-0.03148369
137	0x3b813b5a	0.003943843
138	0x3e3afc42	0.18260291
139	0xbde27c6a	-0.11058886
140	0xbe3cd578	-0.18440807
141	0x3d9f78ff	0.0778675
142	0xbde8cdd4	-0.113673836
143	0xbd8ebda3	-0.06969764
144	0xbcce80e4	-0.025207944
145	0xbdfaa426	-0.1223834
146	0xbe24e6a3	-0.16103606
147	0xbdee643b	-0.11640211
148	0x3e6ca4a0	0.23109674
149	0x3d7d42e1	0.06183136
150	0xbdaf6eb5	-0.085660376
151	0x3e41e9a3	0.18936782
152	0xbe03e1ae	-0.12879059
153	0xbe1c9f6e	-0.15295193
154	0x3e3db372	0.18525484
155	0xbe4a08c1	-0.19729902
156	0xbe2607b2	-0.16213873
157	0x3e097015	0.13421662
158	0xbe00c2df	-0.12574337
159	0x3e0ce7f7	0.13760363
160	0x3e3cadf3	0.18425731
161	0xbe1ac719	-0.15115012
162	0xbd849b23	-0.064749025
163	0x3e450713	0.1924098
164	0xbe08cd99	-0.1335968
165	0xbe1da91d	-0.15396543
166	0x3e0eaac9	0.13932337
167	0xbde597e3	-0.11210611
168	0xb9d16879	-0.00039941425
169	0xbdffc85f	-0.1248939
170	0xbe3d5d75	-0.18492682
171	0xbe320420	-0.17384386
172	0x3df8cf5e	0.12148927
173	0x3dc0ef42	0.09420635
174	0xbd45c6a5	-0.048285145
175	0xbdef5eea	-0.11688025
176	0x3cc0ef1d	0.023551518
177	0xbc14e43f	-0.009087621
178	0x3dfe6eb6	0.1242346
179	0xbdb87abd	-0.090077855
180	0xbd7d525e	-0.06184613
181	0x3e69b667	0.22823487
182	0xbdb54fa9	-0.088530846
183	0xbe12fa32	-0.14353254
184	0x3daefbd5	0.08544127
185	0x3d88c73e	0.066786274
186	0xbc37dbd9	-0.011221849
187	0xbdcb1451	-0.099159844
188	0xbe14a6f9	-0.1451682
189	0x3cf92a80	0.030415773
190	0x3da98177	0.082766466
191	0xbe77ad32	-0.24187163
192	0x3dd33ee8	0.10314733
193	0xbc7218d4	-0.014776427
194	0x3dd4afd7	0.10385101
195	0x3e28c743	0.16482262
196	0x3e2b13df	0.16706799
197	0x3e49bdb8	0.19701278
198	0xbc8aa652	-0.01692501
199	0x3e017a9d	0.1264443
200	0x3e076291	0.13221194
201	0x3d88e4c2	0.06684257
202	0xbe1ff719	-0.15621604
203	0xbca6f26c	-0.020379268
204	0xbe45bf94	-0.19311363
205	0x3d3637de	0.044486873
206	0x3dadbcf5	0.08483306
207	0xbdc1ba62	-0.09459378
208	0x3d8d9db3	0.06914844
209	0x3e138f7d	0.14410205
210	0xbe6756d9	-0.22591724
211	0x3e3c159b	0.18367617
212	0xbe5d2967	-0.21597825
213	0xbd1adacb	-0.037806313
214	0xbe033c37	-0.12815939
215	0xbe00a20f	-0.1256182
216	0x3d893076	0.06698696
217	0x3ce3eefe	0.027823921
218	0xbdf2d4e4	-0.11857012
219	0xbd46e99c	-0.04856263
220	0x3dbc3e88	0.091916144
221	0x3e1db79b	0.15402071
222	0xbd8c7be7	-0.0685957
223	0x3e0454c4	0.1292296
224	0xbe276e22	-0.16350606
225	0xbe3e65dd	-0.18593545
226	0x3e570ffc	0.21002191
227	0xbe356f9f	-0.17718361
228	0x3e19fd9c	0.1503815
229	0x3e60a3ff	0.2193756
230	0x3ddb617f	0.10711955
231	0xbdbad70e	-0.0912305
232	0xbd4aebf8	-0.049541444
233	0xbe036e5e	-0.1283507
234	0xbd5e9805	-0.054344196
235	0x3e10ac53	0.14128236
236	0xbdfaf951	-0.122545846
237	0xbda97dda	-0.082759574
238	0x3d3d8255	0.046266872
239	0x3de87f82	0.11352445
240	0xbbf3e02f	-0.0074424963
241	0xbd309902	-0.04311467
242	0xbe5a33a8	-0.21308768
243	0xbd572aa8	-0.052530915
244	0x3d9a7d35	0.075434126
245	0x3d494d1d	0.049145807
246	0xbd414828	-0.047187954
247	0xbdad90f4	-0.08474913
248	0xbc88e9c2	-0.016713027
249	0xbd1618f4	-0.03664489
250	0x3ddd501f	0.108062975
251	0xbde3d0c2	-0.11123802
252	0x3d2107b5	0.03931399
253	0x3e456976	0.19278511
254	0x3c4d7550	0.0125401765
255	0xbd6fd58c	-0.058553264
