data/results/state_net_32000.pth (torch, 90299 bytes, 14 tensors)

layers.0.weight f4 [64, 6]
000000 cd 85 d0 bd c9 1a 73 3e 16 20 07 3e 55 78 6a 3e
       -0.101817705 0.23740686 0.13195834 0.22897466
000010 1c f6 e2 bc e2 42 48 3e f8 e4 6e 3d 9c 14 45 bd
       -0.027705245 0.19556764 0.05832383 -0.048115358
000020 35 9b 67 bd 89 ab bf 3d 2e 88 85 3e 3f bb 8f 3e
       -0.0565445 0.093588896 0.2608046 0.28072545
000030 03 55 98 be 25 51 00 be cf 5f 61 3e c1 29 e7 bd
       -0.2975236 -0.12530954 0.22009204 -0.11287261
000040 4c b7 a4 bd 6c c2 2b 3d d3 e2 6b be bf 0f b2 be
       -0.080427736 0.041933462 -0.23035745 -0.34777638
000050 30 66 85 3e b2 71 55 be 66 3a 77 be c1 45 54 3e
       0.26054525 -0.20844153 -0.24143371 0.20729734
000060 95 b4 3e bd 64 f2 24 3e 13 25 03 bd d5 18 99 3a
       -0.046558935 0.1610809 -0.03201778 0.0011680374
000070 01 ab 72 bd 00 d2 00 3e 83 a8 d8 3d d8 ea b7 bd
       -0.059245113 0.12580109 0.10579016 -0.0898034
000080 46 c4 59 3e 61 f4 40 be fe b2 a1 bd 9e 37 74 bd
       0.21266279 -0.18843223 -0.07895468 -0.059623353
000090 d8 2c 1c 3e 5b bd 1a bd 52 f7 3e 3b 6c e5 8b be
       0.15251482 -0.03777824 0.0029139114 -0.27323472
0000a0 ac e5 18 3e 27 a1 4e 3e 70 cc 4a be ed 54 9a be
       0.14931363 0.20178662 -0.19804549 -0.30142918
0000b0 22 13 f2 3c 2e e9 88 3e a4 7e a6 3d 4a ca 54 3e
       0.029550139 0.26740402 0.081296235 0.20780292
0000c0 c7 00 7e be 53 e7 82 3e f1 1f 84 3e 08 a9 75 be
       -0.24804984 0.2556711 0.2580562 -0.23990262
0000d0 3a 4e 8e 3d b0 5f 61 bd b9 4f e5 3e 7e 47 11 be
       0.06948514 -0.055022895 0.44787386 -0.14187428
0000e0 27 db a9 be 27 d8 90 be 28 2b 84 3e de d5 12 3e
       -0.33175012 -0.2828991 0.25814176 0.14339396
0000f0 35 f4 94 be fe 58 84 be 13 c4 2b 3e ed 17 20 be
       -0.29092565 -0.25849146 0.16774015 -0.15634127
000100 b6 08 4b be e5 72 07 be 11 30 d6 bd 5e 07 6a be
       -0.19827542 -0.13227423 -0.10458387 -0.22854373
000110 f4 2a 07 be 34 b2 02 3d 41 51 69 3d 4c d3 96 3e
       -0.13199979 0.03190823 0.056962255 0.29458082
000120 f2 42 9e be 4b ff cc bc e7 47 c9 bd 2d a4 32 be
       -0.3091045 -0.025024077 -0.098281674 -0.1744544
000130 31 c7 03 3e 1a 55 0c be 72 e4 e8 bd 42 eb 81 be
       0.12868954 -0.13704339 -0.113716975 -0.253748
000140 68 8a ec bd d0 47 99 3c d5 47 2d be a3 39 4a bd
       -0.115498364 0.018711 -0.16921933 -0.049371373
000150 bb ee 25 be 3c e8 18 3d 79 f6 0b 3e 13 e5 34 be
       -0.1620435 0.03733085 0.1366824 -0.1766551
000160 84 5d 02 be 35 54 8a bd c9 a0 20 be d5 3f 2a be
       -0.12730986 -0.067543425 -0.15686335 -0.16625912
000170 dc 1f 27 3e 70 e3 84 bd 54 d9 ed 3d 4e 86 47 3b
       0.16320747 -0.06488693 0.11613718 0.0030445042
000180 b3 da bc 3c cf c6 75 be ae 91 1b 3d fc 8a 84 3e
       0.023053503 -0.2400162 0.037980728 0.25887287
000190 06 e4 89 3e c5 93 78 3e be 28 dc bd 5c 12 ce bc
       0.2693178 0.2427512 -0.107499585 -0.025155239
0001a0 1f 9f 8f 3e 96 71 c2 bd 7c 53 c0 3d 31 ae 8e 3b
       0.28051087 -0.09494321 0.093909234 0.0043542613
0001b0 0a 28 3d 3e f5 29 1a be f3 c5 19 3d f2 51 86 be
       0.18472305 -0.15055068 0.037542295 -0.26234394
0001c0 f4 56 7c bd f9 33 22 3e 34 97 06 3d c7 bb 87 3e
       -0.061606362 0.15840138 0.032859042 0.2651045
0001d0 2e 8a 78 be df 1c b5 3d ea f8 0a bd be 2b e7 3e
       -0.24271461 0.08843397 -0.03392879 0.4515056
0001e0 32 3d 8f 3e 19 1a 92 3e c3 2c 47 be cf 2b 98 3e
       0.27976376 0.28535536 -0.19450669 0.29720923
0001f0 0f 93 3d be 88 22 3d be fd 0b 45 3e e9 2b 59 3b
       -0.1851313 -0.18470204 0.19242854 0.0033137745
000200 5e dc 18 3e 48 e3 8b 3e 98 d8 5b bc 46 95 80 3d
       0.14927813 0.2732184 -0.013418339 0.06278472
000210 14 5c d8 bc 1c ae 56 3e f8 41 0e 3e db ba 08 3d
       -0.026411094 0.20964855 0.13892353 0.033381324
000220 5f 8a 6a be 68 f2 46 3e 07 05 33 3e bd ef 08 3d
       -0.22904347 0.19428408 0.17482387 0.033431757
000230 f4 5f 03 3e 58 cf b3 3d 6f 9d 0b be c2 32 1b be
       0.12829572 0.08779782 -0.13634275 -0.15156081
000240 39 8b 7a bd 5b a9 8f be 43 96 82 bb 77 05 89 bd
       -0.06116793 -0.28058895 -0.0039851977 -0.066904955
000250 c9 4a 7d be 91 6b 7f 3d 2d 35 95 3d ff f6 35 3e
       -0.2473556 0.062358443 0.07285533 0.17770003
000260 c7 c9 63 bd 42 bf 9e bd fd 6e 7c bd c0 8e 85 be
       -0.05561235 -0.07751323 -0.061629284 -0.26085472
000270 50 57 f4 3a 5f 88 40 3e d5 0a 34 3c 33 c1 f8 3c
       0.0018641744 0.18802021 0.010988911 0.030365562
000280 02 c4 85 3e 80 d6 9d 3e fe d0 87 3e 22 32 66 3e
       0.26126105 0.30827713 0.26526636 0.22480062
000290 35 b1 2c 3e b9 b7 f6 bb e2 c3 95 be 6b 0a b3 3c
       0.16864474 -0.0075292257 -0.2925101 0.021855554
0002a0 c9 71 22 3e 48 48 d6 bd 40 f6 1b 3e 53 72 53 be
       0.15863718 -0.10463005 0.15230656 -0.2064908
0002b0 4a 91 cb 3b 25 ee a5 3e 76 07 9e be 71 c5 af bd
       0.006212388 0.32408252 -0.30865067 -0.08582581
0002c0 47 3a 11 3e 61 a0 69 be 72 21 d2 bd 55 de b4 bd
       0.14182387 -0.22815086 -0.102602854 -0.08831469
0002d0 e5 f4 61 3e 33 94 4a 3c f2 c8 72 3b 01 00 66 3e
       0.22066076 0.012364435 0.0037046042 0.22460939
0002e0 6b 7c 83 3d 6d be d4 bd 55 2a 3c 3e fb 2d ad bd
       0.06420215 -0.10387883 0.18375523 -0.08456036
0002f0 b4 72 8a 3e 56 06 bd bd e1 1b 8a 3e 06 9f 05 be
       0.27040637 -0.09229724 0.26974395 -0.13048944
000300 f5 4a 24 3e 4b fb 93 3e f7 cd c6 bd 4f e8 f2 bc
       0.16044219 0.2890266 -0.097072534 -0.029651789
000310 23 86 1a be 7b e5 34 3e 9e 50 b2 bd 03 60 a5 3e
       -0.15090232 0.17665665 -0.08706783 0.32299814
000320 97 f9 33 be b7 7c cd bd 1b 96 33 bd d4 28 c8 3e
       -0.1757568 -0.10033553 -0.043844324 0.3909365
000330 56 0e 13 3e f7 eb 58 bd da 9e 15 3e 06 bd 83 be
       0.14360937 -0.05295941 0.14611378 -0.2573015
000340 f9 74 a5 bc 15 a4 a4 3e 97 cb 91 bd 61 f0 35 be
       -0.020197378 0.32156435 -0.0711891 -0.17767479
000350 c3 15 14 be cb 96 76 3e db 13 39 3d b0 a8 6f 3d
       -0.14461426 0.2408096 0.04518495 0.058510482
000360 a5 e1 0e be 5f 99 58 3e dd 36 0e 3c 44 98 97 3e
       -0.13953264 0.21152256 0.008680073 0.29608357
000370 59 18 3e 3e 6f ea 95 be f0 76 83 3e 67 96 34 be
       0.18563975 -0.2928042 0.2567668 -0.17635499
000380 65 b8 cc bd 97 18 25 3d 01 8a 76 be 50 2a 86 bc
       -0.09996108 0.040306654 -0.24076082 -0.016377598
000390 ed 6d 29 be e8 c6 1b bd fe cf c8 bc 5a 20 3c bd
       -0.1654584 -0.03803149 -0.02451324 -0.04592929
0003a0 00 08 e9 3d cf 45 ff bd 3b 56 f2 3c 12 9b 98 bc
       0.11378479 -0.12464487 0.029582134 -0.01862863
0003b0 2d f7 c2 bd 10 cb 90 be 3b 84 23 3e 06 68 84 be
       -0.09519801 -0.28279924 0.1596841 -0.25860614
0003c0 47 10 2d 3d 72 e0 99 3e 1b a3 8d 3e 1f d1 33 be
       0.04225185 0.3005405 0.27663502 -0.17560242
0003d0 60 56 7f 3e b4 0f 49 be 5d 0e 3d be 48 e3 1e 3d
       0.24935293 -0.19634897 -0.1846251 0.03879097
0003e0 22 8e d9 bd ad c9 3f be ac 6a b3 3d 5b 9a 89 3e
       -0.10622813 -0.18729277 0.087605804 0.26875576
0003f0 59 cd 3a 3e 8b c0 d4 3d 52 81 29 3e 2a ed 7a 3e
       0.18242396 0.10388287 0.16553238 0.24504533

layers.0.bias f4 [64]
000000 c6 15 ae 3c 1f 51 90 bc 34 83 95 bb ca 92 80 3d
       0.021250617 -0.017616807 -0.00456276 0.06277998
000010 f9 87 03 bc 2d 0f 54 3d 0a 23 a7 bb b4 43 2f 3c
       -0.008028024 0.051772285 -0.0051006125 0.010697294
000020 57 a9 2a bb fa 46 c6 bc 69 45 b7 3b b2 55 6b 3b
       -0.0026040876 -0.024203766 0.005592991 0.0035909233
000030 71 b5 a1 bc b9 f1 28 3c 81 57 f6 3c 87 81 0b 3c
       -0.019739838 0.010311537 0.030071022 0.008514768
000040 b3 6b 5a 3c a5 e1 25 3c 6b 12 37 3b 74 50 ec 3a
       0.013331342 0.010124599 0.0027934562 0.0018029348
000050 e3 f6 57 bb 38 0e d3 bc 26 bc 5e b9 68 e7 6e bc
       -0.0032953552 -0.025763616 -0.0002124166 -0.014581539
000060 65 5e d8 b9 d9 9c ad bc aa 84 a6 bc cc 13 a0 3c
       -0.0004126906 -0.021192955 -0.020326931 0.01954069
000070 b1 ef 19 bc 9e 98 84 3c 43 5a 0b bc 8b 7c 77 3c
       -0.009395526 0.016186055 -0.008505407 0.015105377
000080 b2 cd 55 3b 45 ca 6f bc 26 66 af bb ac 1c 1a bc
       0.0032623825 -0.014635627 -0.005352753 -0.00940625
000090 f9 38 bc bc ae 48 38 3b 80 4f 06 bc 98 9b f1 3b
       -0.022976385 0.0028119492 -0.008197665 0.0073732845
0000a0 c2 60 f6 3b e6 63 3b bc 2a ca 5d b9 a6 6a 68 bb
       0.0075188586 -0.011437392 -0.00021151514 -0.0035463958
0000b0 27 d3 fb bb 6b ae 64 b9 6a ce 0d 3c d8 18 05 3b
       -0.0076850834 -0.0002180875 0.00865517 0.0020308997
0000c0 76 6b ac 3b 5e 4f 26 bc 6a a6 dc bb 72 2b 46 bd
       0.005261834 -0.010150759 -0.0067337053 -0.048381276
0000d0 39 db 4c bb 2b 53 05 3b aa ad a7 3c 11 85 fd bc
       -0.0031258597 0.0020343761 0.020468552 -0.03094724
0000e0 f9 ab 00 3b 8d 0b da 3c fc e2 3f 3d 3d 7f 7d bd
       0.0019633754 0.026616836 0.04684733 -0.061888922
0000f0 38 3f ad 3c 83 b2 7a 3c 8a ca 69 3c 86 a5 fd bc
       0.02114831 0.01530135 0.0142694805 -0.030962717

layers.2.weight f4 [64, 64]
000000 69 49 b0 3d 0a cd c1 bd 92 07 10 be 53 22 e8 3d
       0.08607752 -0.09462936 -0.14065388 0.11334672
000010 f6 90 9a 3d 4e 9b 46 3e 7d 5a b2 3b 68 68 e5 3d
       0.0754718 0.19395182 0.005442916 0.112015545
000020 93 63 2c 3e c3 f8 8b 3c 8b d7 f7 bd 11 58 4f be
       0.1683486 0.017086392 -0.121016584 -0.20248438
000030 4a 9d 1a 3e 61 a8 7f be 36 11 e4 3d 5b 0e a5 bd
       0.15099064 -0.24966575 0.11136095 -0.08059379
000040 33 ac 0b bd 19 2e 0c 3e d9 10 53 be a7 2f 19 3e
       -0.03409977 0.1368946 -0.20611896 0.14959584
000050 b4 0a c9 ba 54 17 f7 3d 9d da 8f 3d 6b e5 e8 3d
       -0.0015338273 0.12064996 0.07024119 0.11371883
000060 4a 7e 8e bd 78 46 9e bd 88 89 cd 3d 49 f8 40 be
       -0.069576815 -0.077282846 0.10035998 -0.18844713
000070 f1 dc 15 be f4 b2 8a 3c bf c1 2f 3e 39 55 80 3d
       -0.14635064 0.016931035 0.17163752 0.06266255
000080 91 01 a0 bd 97 3d 03 3e 93 32 e9 3d eb fd 66 3d
       -0.07812799 0.12816463 0.113865994 0.0563945
000090 14 34 4b 3e cd 26 1b 3e a5 d2 a0 3d b9 e5 3c be
       0.19844085 0.1515152 0.07852677 -0.18447007
0000a0 2c 8c 07 3e ff 86 fa 3d 4f 23 08 be a3 8a ee 3d
       0.13237065 0.1223278 -0.13294719 0.116475366
0000b0 0f c9 5d 3e 48 a4 7b 3d a8 19 0e 3e fa c2 f5 3d
       0.21658729 0.061435968 0.13876975 0.120000795
0000c0 4f e4 24 bd ba 1c 56 be 07 2a 91 bd 12 7f 03 3e
       -0.040256795 -0.20909396 -0.07088094 0.12841442
0000d0 aa 72 14 be b5 3e 51 3e c4 b3 d7 3c 93 4f c1 bd
       -0.14496866 0.20434077 0.026330836 -0.09439006
0000e0 51 0f 35 3e 0e 23 1c be c1 6e 0c ba 7f 8a 50 be
       0.17681624 -0.15247747 -0.000535708 -0.20365332
0000f0 86 ba 03 3e 14 99 e6 3c e3 a4 02 3e 09 7c f7 bd
       0.12864122 0.028149165 0.12758212 -0.12084205
000100 9d ed 21 3e 77 6e 5f be 91 80 3d 3e e6 7e d3 3d
       0.15813299 -0.21819483 0.18506075 0.10326938
000110 fb 25 7b 3d 66 dc 23 be dd 99 d8 bd 94 12 20 bd
       0.061315518 -0.16002044 -0.10576222 -0.039080217
000120 64 92 00 3e e1 e7 3f 3e f4 a7 51 3e 6b 45 3f 3d
       0.12555844 0.18740799 0.20474225 0.04669706
000130 ce 49 5c bd 54 73 45 be ac 94 c2 3b 0f e7 43 3d
       -0.053781323 -0.19282275 0.005938133 0.047827777
000140 10 df bd bd 96 03 c6 3d 1e c1 13 be 64 a5 0e 3d
       -0.092710614 0.09668653 -0.14429137 0.034825698
000150 eb 8a 83 bc 2d 38 28 be 07 54 42 be 1e 2f 33 be
       -0.016057452 -0.1642768 -0.18977366 -0.17498443
000160 e4 bb 58 3e 23 21 97 bd ae 45 52 3d 60 07 86 bd
       0.21165425 -0.07379367 0.051335983 -0.065443754
000170 f7 60 39 3d 4a f1 31 be ce d2 9a 3d a3 38 34 3e
       0.04525849 -0.173772 0.07559739 0.1759973
000180 3e f4 16 3c 71 89 67 3c 7d 9a 31 be f7 5e 10 be
       0.009213505 0.01413189 -0.17344089 -0.14098726
000190 7f cf 33 be e2 95 4c 3e 7d 99 4d bc 55 2a a4 3d
       -0.17559622 0.19979051 -0.0125488015 0.08015887
0001a0 43 29 ad bc 5f 65 d6 3d 03 e3 22 3e 7b 6b 29 be
       -0.02113784 0.10468554 0.1590691 -0.16544907
0001b0 5a 07 18 be 42 cb 8a bd fc 43 8b 3c 71 ba 0e bd
       -0.14846554 -0.067770496 0.01700019 -0.034845773
0001c0 d9 89 a0 3d 9c 05 bc 3d 24 a2 47 3d 51 fa 42 be
       0.07838792 0.091807574 0.048738614 -0.190408
0001d0 dd 4a 01 be ba 3b ee 3d 57 e2 a8 bd 08 3d 2c be
       -0.12626214 0.11632486 -0.08246296 -0.16820157
0001e0 4d a0 3d bd f6 e9 18 3e fa 56 6c 3d 88 06 b1 bd
       -0.046295453 0.14932999 0.057700135 -0.08643824
0001f0 e9 8a 48 3e 0c f4 25 bd c0 f4 38 3e 77 39 52 3e
       0.1958424 -0.040515944 0.18062115 0.20529734
000200 c6 83 48 be 79 75 08 bd d6 b6 28 3e c9 64 62 be
       -0.19581518 -0.033315156 0.16475996 -0.22108759
000210 16 13 00 3e e6 e9 32 3e aa 25 6e 3e 15 df a6 bd
       0.1250728 0.17472038 0.23256555 -0.08148018
000220 d1 37 52 3e 3c 3a de 3d a1 68 26 3e 5c c8 ab 3d
       0.20529105 0.10850951 0.1625085 0.08387825
000230 58 0e d7 3c 6f 57 6c be dc 07 0b be 49 7f 87 3e
       0.026251957 -0.23080228 -0.13577217 0.26464298
000240 6d 38 c2 3d 66 c2 1a bd 51 09 53 3e 2d 2a 4b be
       0.094834186 -0.03778305 0.20609023 -0.19840308
000250 4a 2c 9d bc 57 29 38 3e 99 d7 c6 bd ee 46 42 3d
       -0.019186158 0.1798452 -0.09709091 0.047430925
000260 e6 da c1 3d 5b 5e 3d bd 39 48 99 3d 4a 8d bc 3d
       0.0946558 -0.046232563 0.074844785 0.09206636
000270 c6 6c 8c bd 2e c0 f2 bd 92 e7 91 3d be 79 1a be
       -0.068566844 -0.118530616 0.07124247 -0.15085503
000280 a0 ff 67 be 17 a5 9f bc 38 40 e4 bd 99 94 7e 3d
       -0.22656107 -0.0194879 -0.11145061 0.062153433
000290 a9 4f 6c 3d 67 6b 6a be b0 78 d5 bd 83 58 97 3e
       0.057693157 -0.22892533 -0.1042341 0.29559717
0002a0 6a 28 33 3c d9 53 0b 3d 32 c1 f7 bd 22 56 97 3d
       0.010934928 0.03401551 -0.12097396 0.073894754
0002b0 d2 f1 dc 3d af b3 7c 3d 44 73 d9 bd 74 e9 88 3d
       0.10788311 0.061694797 -0.10617688 0.06685153
0002c0 60 72 e8 3d d2 ed 58 3e e2 cd 5d be bb ec cd 3d
       0.1134994 0.21184471 -0.2166057 0.100549184
0002d0 22 fe c1 bd cd 07 7c bd be a2 69 be 4f 36 d5 3b
       -0.094723 -0.061530877 -0.22815987 0.006506718
0002e0 3c e1 57 be da 8d 63 bd 96 24 22 bc 07 b7 9e 3d
       -0.21082014 -0.055555202 -0.009896418 0.077497534
0002f0 78 89 bd 3d 6f ba fc 3d 24 d5 7c be b0 7c b9 bd
       0.09254736 0.12340247 -0.24690682 -0.090569854
000300 dc fa 3c 3d 58 9f 1f be 44 34 d2 bd 3a 72 97 bd
       0.046137676 -0.15588129 -0.10263875 -0.07394834
000310 23 3e de 3d 11 f7 e1 3d d2 7c 97 bd b6 a1 e9 bd
       0.108516954 0.11033452 -0.073968545 -0.11407797
000320 c6 e4 5d 3d dc d9 95 3d 2c eb 51 3e f9 a3 1a 3e
       0.054173253 0.07316944 0.20499867 0.15101613
000330 af 52 67 bd 3c 11 73 bc 23 24 fd 3d 58 d3 dd 3d
       -0.056475338 -0.014835652 0.12360408 0.10831326
000340 14 9e d4 3d eb 95 5f 3e 09 6c a8 3d 46 12 a7 bc
       0.103817135 0.21834533 0.08223731 -0.020394456
000350 57 cf 90 be 82 b0 e4 bd 11 ff e0 3d 61 05 4c 3e
       -0.28283188 -0.11166479 0.1098615 0.19923927
000360 ac 64 a7 3d a3 f7 22 be 62 60 35 be d9 96 5b 3e
       0.081734985 -0.15914778 -0.17712548 0.21444263
000370 a3 32 73 bd bf 17 36 bd 6a 18 89 bd 87 7f 01 3e
       -0.059374463 -0.04445624 -0.0669411 0.12646304
000380 be b6 39 3e 3b 95 91 3d 6f 00 18 3e 93 99 35 3e
       0.18136117 0.071085416 0.14843915 0.17734365
000390 85 aa 61 be 43 ca b1 bd 31 13 e7 bd c8 85 cb 3d
       -0.22037704 -0.086811565 -0.11282957 0.09937626
0003a0 54 54 25 3e d4 c7 06 3d 98 89 13 3e 70 c8 63 be
       0.1614545 0.032905415 0.14407957 -0.2224443
0003b0 bc c0 34 bd df 4e c7 3c a4 90 e3 bc 78 e9 29 3e
       -0.04412912 0.0243296 -0.027778931 0.16592968
0003c0 7e 1f d0 bd ee 9e 3d 3e eb 93 8d bd 59 23 13 3c
       -0.10162257 0.18517658 -0.06912979 0.0089805955
0003d0 21 ca 04 3d a0 4f 3f 3e 07 e9 6b bd 19 9b 47 bd
       0.032419328 0.18682718 -0.05759528 -0.048731897
0003e0 91 c6 16 3e a0 e3 5b 3e e1 13 e5 bd fd 84 87 3d
       0.14724185 0.21473551 -0.11185432 0.066171624
0003f0 f5 2e 00 3c bb 9b 49 be c5 22 43 be b0 e7 70 bd
       0.007823695 -0.19688313 -0.19056232 -0.058814704

layers.2.bias f4 [64]
000000 73 a4 07 bb 26 ec d1 3a 25 6c 71 bc 79 4b d7 3b
       -0.0020697385 0.0016015812 -0.014735256 0.0065702763
000010 2a 5e 0b 38 e3 23 dd bb 68 70 f7 bb 1b 79 a2 bc
       3.322788e-05 -0.006748663 -0.0075512417 -0.019833138
000020 42 e4 5d 3c 6c a7 9d 3b 10 bc 5d 3b 94 6f b8 3b
       0.01354319 0.004811218 0.0033834018 0.0056285355
000030 cc 0f 91 3b 04 2b da bb 74 24 0a 3c 86 cb 80 3c
       0.004426932 -0.00665796 0.008431543 0.015722048
000040 6e 35 0f 3c 51 9f 33 bb 76 14 68 3d 23 64 d1 b9
       0.008740766 -0.0027408192 0.056660138 -0.00039938194
000050 e8 1b b0 3c 95 fa 06 3b b5 46 0f 3d 15 ec 14 3d
       0.021497682 0.0020596136 0.03497954 0.036357958
000060 2b e7 6c 3c cb 6b 1d bc 8e 30 71 bc 00 75 16 bc
       0.014459412 -0.009608219 -0.014721049 -0.009183168
000070 66 16 85 bb cd b6 df bb 2e 4e 97 3c 47 df c3 3b
       -0.004061508 -0.0068272115 0.018469896 0.0059775445
000080 f3 90 2d bc 63 9e 02 3d 50 e6 9c 3c d9 fe c8 3c
       -0.010593641 0.03188933 0.01915279 0.024535583
000090 01 29 79 3d 05 7e b8 39 1d 62 03 bb 9e b9 a2 bc
       0.06083012 0.00035189107 -0.0020047494 -0.0198639
0000a0 36 c0 5b bc 1e 31 3f bc 33 44 97 bc dd 4d 86 3c
       -0.013412526 -0.011669425 -0.018465137 0.01639455
0000b0 27 2c 9c bb e6 ab 5f bb ec 42 3b 38 a4 f2 4b 3c
       -0.0047660056 -0.003412956 4.46466e-05 0.012447987
0000c0 b8 a5 8a bc 1f 89 b4 3c f0 08 ff b8 1d 01 49 bc
       -0.016924724 0.02203804 -0.00012161012 -0.012268332
0000d0 30 9a f8 bb b3 e6 8c bc e9 0e 8d 3c d2 b8 bf 3c
       -0.00758674 -0.01719985 0.017219024 0.023403559
0000e0 72 2a 2e bd 5d 8f d6 3c e2 87 cc bb 49 1f b3 bc
       -0.042520948 0.026191408 -0.0062417844 -0.021865504
0000f0 54 ee bb 3b a8 97 31 3c 77 f9 20 bd fe f6 d4 3b
       0.005735198 0.01083938 -0.03930041 0.0064991703

layers.4.weight f4 [64, 64]
000000 5f 6a 85 3e 20 5c 46 3d 03 08 d5 3d 96 90 a9 3d
       0.26057717 0.0484277 0.10401919 0.08279531
000010 f0 1d 8e bd fa c4 9a 3d 86 fd a1 be ea 0d f0 3d
       -0.06939304 0.075571015 -0.31638736 0.11721404
000020 d7 5c 2b 3e a7 09 a0 3e 6a 6d ec 3c d5 a3 9a be
       0.16734634 0.31257364 0.028860766 -0.3020312
000030 74 1a 00 3e af a4 4d 3e ca 4d a8 3e 44 ec d7 be
       0.12510091 0.20082353 0.32871848 -0.42172444
000040 37 bc 3e bd c3 ec 76 3d 10 85 3d 3d 2f b1 35 3e
       -0.046566214 0.060284387 0.046269476 0.17743371
000050 0d a6 9a be 7f d3 ee 3d 7d 34 0f bd 41 4c 61 3d
       -0.30204812 0.116614334 -0.034962166 0.055004362
000060 7d 70 36 be ae 06 44 be 44 46 ff 3d 36 3c 6a bd
       -0.17816348 -0.19143173 0.12464574 -0.057186328
000070 4c 16 e7 bb bb 6a 83 3e 42 e8 6a 3e 15 eb 05 be
       -0.0070522185 0.25667366 0.22940162 -0.13077958
000080 36 45 1c bd 62 fc 31 be 64 5c 75 be 68 dc 57 be
       -0.038151942 -0.17381433 -0.23961025 -0.21080172
000090 bf 5c 15 be ab a1 af bd 54 b5 54 be 09 cb b9 bd
       -0.14586161 -0.085757576 -0.20772296 -0.09071929
0000a0 a5 7c 2a 3e b8 e6 d0 bc c8 47 5a 3d 3e 14 3b be
       0.1664911 -0.02550064 0.053291112 -0.1826944
0000b0 b0 82 a0 bd ee 89 b0 3c 8e dc 2a 3e 35 47 28 3e
       -0.07837427 0.021550145 0.16685697 0.16433413
0000c0 e8 81 4b 3e 5b fa 92 3d fa 49 02 3e 6c 32 c7 3d
       0.19873774 0.07176658 0.12723532 0.09726414
0000d0 20 48 b5 3e 99 36 c0 3d f4 92 24 be 3e a4 1a 3b
       0.3540659 0.09385414 -0.16071683 0.002359643
0000e0 5d ba 80 3d 0d f7 cb 3d d5 6e af 3d 5b e3 ea 3d
       0.06285546 0.099592306 0.085660614 0.11469146
0000f0 cc 67 b9 bd 66 28 3b 3e e7 4b a1 3e 0a a6 6e 3e
       -0.09053001 0.1827713 0.3150322 0.23305526
000100 fc f4 45 be f3 a7 d3 3d 5a f5 22 3e 4d e9 de bd
       -0.19331735 0.10334768 0.15913907 -0.10884342
000110 17 53 42 be d5 3c dc 3d 75 3e a9 3b af 7c 3e 3e
       -0.18977009 0.1075379 0.005164916 0.1860225
000120 f6 e0 db 3d 2d ce 08 3e 91 d7 2a be 9f cb cb bd
       0.10736267 0.133599 -0.16683795 -0.09950947
000130 6b 50 51 be 2f 96 08 3d 4e 19 13 3e 49 cc 02 be
       -0.20440833 0.03334635 0.14365122 -0.12773241
000140 fc c4 14 3e f9 3f 4a be e2 38 17 3e d8 3d 32 be
       0.14528269 -0.19750966 0.14767793 -0.17406404
000150 73 e1 26 be 19 a1 dd bd 15 11 86 3d fe 0c 54 be
       -0.1629694 -0.108217426 0.06546227 -0.20708081
000160 86 70 74 3d 61 78 68 be 81 94 d5 bc 59 70 4e bd
       0.059677623 -0.22702171 -0.026071789 -0.05040011
000170 3b 0c 0d bd 95 54 1e be df cd 57 3e 11 aa 50 3e
       -0.034435492 -0.15461953 0.21074627 0.20377375
000180 e5 71 61 be a5 7a d8 bc 78 bf 3d be 41 d1 45 be
       -0.22016104 -0.026425669 -0.18530071 -0.19318105
000190 71 b9 9e bd 70 bc 09 3e 36 48 45 be fd 9d 56 3e
       -0.07750214 0.1345079 -0.19265828 0.20958705
0001a0 f5 16 4d 3e 87 11 9c 3d e4 7a 38 3e 2b 9c 36 3d
       0.20028289 0.076205306 0.18015629 0.044582527
0001b0 47 50 fe 3d 80 e7 bd 3d fb 40 40 be c4 14 57 3d
       0.124176554 0.09272671 -0.18774788 0.052510038
0001c0 4e 56 89 3c 94 93 51 be d3 d3 1e 3e be 0c bb bd
       0.016764786 -0.20466453 0.15510492 -0.0913329
0001d0 ba 7c 8a 3d 75 a7 a3 bd 1e 2d 0f 3e da c2 18 3c
       0.06762071 -0.07990924 0.13982055 0.0093238
0001e0 21 43 89 bd 6d c6 bd bd 00 c7 92 3d 2b 0f 47 be
       -0.06702257 -0.09266362 0.071668625 -0.1943938
0001f0 93 11 f8 3d be 66 2f be bb e9 10 be d5 a6 03 3d
       0.12112727 -0.17129037 -0.14151661 0.032141525
000200 83 3c f9 bd db 1e 8d 3d c8 21 69 be 63 2e 95 bd
       -0.12169745 0.06890651 -0.22766793 -0.07284238
000210 fb e4 e6 3d 83 bd b5 3d 91 dc 96 3c b6 62 1e 3d
       0.11274143 0.08874037 0.018415721 0.038668357
000220 83 aa fe bd 9b e4 fa bd 50 27 23 3e 4e 40 e3 bd
       -0.12434866 -0.12250634 0.15932965 -0.110962495
000230 b0 50 37 be 6b c5 14 bd 2e c0 e2 bd 1c b2 12 3e
       -0.17901874 -0.036321085 -0.110718116 0.14325756
000240 0c e7 c4 bd 86 49 3c be f6 88 26 3d 70 1f 44 3e
       -0.09614381 -0.18387422 0.04065796 0.19152617
000250 83 f9 8e bc 63 a0 b1 3d c4 26 26 3d d8 4c e8 3a
       -0.01745296 0.086731695 0.040564314 0.0017723097
000260 33 e3 85 bd b4 21 c7 bd 55 08 90 be 7e 3e 4b 3e
       -0.065374754 -0.09723225 -0.28131357 0.19848058
000270 5f c5 3d be 7a d8 70 be 5d 86 08 be 0a d7 98 3d
       -0.18532322 -0.2352008 -0.13332506 0.074628904
000280 2c 33 7a bd 49 ce d4 bc 2e 44 fe 3d 91 7e 19 be
       -0.061083958 -0.02597727 0.12415348 -0.14989688
000290 89 52 2f be 98 b2 e0 3d a9 15 83 bd ab d1 00 be
       -0.17121328 0.10971564 -0.06400616 -0.12579982
0002a0 2d 2e a4 bd 15 44 17 be bc f9 bd 3c f5 84 8a bd
       -0.0801662 -0.14772065 0.023190372 -0.06763641
0002b0 b7 b6 7e 3d a9 d8 84 bd 1f 85 10 3e fc 0f 1e 3e
       0.06218597 -0.06486637 0.14113282 0.15435785
0002c0 97 b0 b2 bc 60 68 b4 3d e2 42 70 be 02 68 82 be
       -0.02181272 0.088089705 -0.23463014 -0.25469977
0002d0 82 ee 66 be da b8 c8 bc b4 be 70 be 6a fb ed 3d
       -0.22551921 -0.024502207 -0.23510247 0.11620219
0002e0 39 e6 5b 3e 54 38 36 be 83 1d 9d bd 75 09 d2 bd
       0.21474542 -0.17794925 -0.076716445 -0.1025571
0002f0 79 08 74 3e dc aa ec 3d 77 94 97 3c 02 12 6f 3e
       0.23831357 0.11556026 0.01850341 0.23346713
000300 6c 9e 3a 3e 31 33 c5 3d c5 d0 1b be 28 86 88 bd
       0.18224496 0.096289046 -0.15216358 -0.06666213
000310 09 be 3c bd 91 b2 02 bd d3 53 f4 3d 4b b9 01 3e
       -0.04607967 -0.031908575 0.11930051 0.1266834
000320 b0 23 10 be 14 f2 44 be ec 4e 4b be d1 28 7c 3d
       -0.14076114 -0.1923297 -0.19854325 0.061562363
000330 18 15 19 be 53 f2 d6 3d 62 4e 3c 3d f1 89 e6 3d
       -0.14949453 0.104954384 0.04597319 0.11256779
000340 ee a0 85 bd c1 b1 ee 3d cb 74 0a 3e 45 88 66 3d
       -0.065248355 0.116549976 0.13521115 0.0562823
000350 e1 e5 de 3c 0f e9 d8 3d d5 98 2d 3c 61 0f 92 3d
       0.027209224 0.105913274 0.01059552 0.071318395
000360 0d 38 0a 3e 4a 26 47 3e e2 b6 65 bd 1a 48 0e 3e
       0.13497944 0.194482 -0.056082614 0.13894692
000370 e2 0f 2e 3e de a8 46 be 5e 58 04 bc ce e3 4b be
       0.16998246 -0.19400355 -0.008077709 -0.1991112
000380 2e 77 1c be 31 74 25 3e 00 bf 18 be e2 3f 3e 3e
       -0.15279838 0.16157605 -0.1491661 0.18579057
000390 f4 64 3e 3e 00 c9 20 be 15 d7 2d be 61 21 a8 bc
       0.18593198 -0.15701675 -0.16976579 -0.020523729
0003a0 da 2b 57 be 1c be f5 3d 75 64 72 bd 3f 12 1b 3d
       -0.21012822 0.11999151 -0.059177835 0.037859198
0003b0 a4 2a d9 3c 44 86 08 bd 01 98 09 be 24 de 52 3d
       0.02650959 -0.03333117 -0.13436891 0.05148138
0003c0 a8 cc a8 3d d7 2c 8e 3b e1 be 4e bd 93 16 94 bd
       0.0824216 0.0043388414 -0.050475005 -0.07230868
0003d0 44 1c 10 be 1e df 65 3d 18 cc 96 3d 1f 6a a1 bd
       -0.14073282 0.056120984 0.073631465 -0.07881569
0003e0 38 cc d0 bd 6c b9 39 3e 44 a3 1a 3e 92 6f 54 be
       -0.10195202 0.18137139 0.15101343 -0.20745686
0003f0 b1 fa db bd cc 03 76 bc bc 6c b6 bd 8f bd 29 3c
       -0.10741175 -0.015015554 -0.08907458 0.010360136

layers.4.bias f4 [64]
000000 d4 61 b3 bc e8 24 2e bb 56 e7 f2 3c 72 d6 07 bc
       -0.021897234 -0.002657229 0.029651325 -0.008290874
000010 71 ac 44 bc 9b 46 d6 39 75 c3 d7 bb 33 15 25 3d
       -0.012004004 0.00040869866 -0.0065845796 0.04030342
000020 8b 6d 81 3a ef 2a bf 3b 86 b7 83 bc ce f0 2b 3c
       0.0009874565 0.0058339755 -0.016078722 0.010494424
000030 4d ff c3 3b 79 80 05 3c 5d 0b 88 bb 72 74 6a bc
       0.005981362 0.008148306 -0.0041517452 -0.014309989
000040 90 b5 0c 3c 06 34 c9 3c 8c d8 81 3c 08 78 55 3b
       0.00858821 0.02456094 0.015850328 0.0032572765
000050 54 25 c0 3c 07 b4 f6 bb e3 c4 20 3b dc e4 11 3c
       0.0234553 -0.007528785 0.0024531416 0.008904662
000060 1a ca ae bb a5 31 44 3b 16 13 88 bc 49 2f 4b 3c
       -0.005334151 0.0029936817 -0.016610663 0.01240141
000070 f4 20 81 3c 74 30 8a 3c 2f e4 ed 3b c7 dd 37 bb
       0.015762784 0.016868807 0.0072598676 -0.0028055774
000080 56 31 08 bb de 81 16 3b 2b 52 17 ba 22 8f 5b bb
       -0.002078136 0.002296559 -0.0005772437 -0.0033502062
000090 64 bd 09 bb 9c cb 2f bc 5c 1f 61 3c bf 57 b0 3a
       -0.0021017427 -0.010729697 0.013740387 0.0013453885
0000a0 23 76 03 3d 08 bc 5f 3c 08 c9 0f bd 0a fc 48 3b
       0.032095086 0.01365567 -0.035103828 0.0030667805
0000b0 90 70 78 ba 4f 98 3a 3b d0 ef a9 ba 12 66 66 bc
       -0.00094772223 0.002847213 -0.0012965146 -0.014062421
0000c0 d0 db b1 bc f8 78 9e 3b 19 8c 0d 3d e0 8f 47 bd
       -0.02171126 0.004836198 0.034557436 -0.048721194
0000d0 ef d3 0b 3d 56 b7 5d bc dd 76 bc b9 ad f8 02 3c
       0.034137663 -0.01353248 -0.00035946714 0.007993859
0000e0 f3 bf ff bb a2 41 80 bc e0 3b c8 3b 5f 7b 1c ba
       -0.0078048646 -0.015656296 0.0061106533 -0.00059693115
0000f0 e2 e0 8a 3a 42 6e 9c bc c2 65 e1 3b e0 a7 65 3b
       0.0010595585 -0.019095544 0.0068785856 0.0035042688

layers.6.weight f4 [64, 64]
000000 48 2d d6 bb 49 77 dc bd 16 36 8e be 45 2d 43 bd
       -0.0065361597 -0.10764939 -0.2777564 -0.047650594
000010 9f 02 10 3e 6b 4e 25 be 57 27 97 bd 5b f3 79 bd
       0.140635 -0.16143195 -0.0738055 -0.061023097
000020 93 20 4c be 3c 99 33 3d b6 48 26 3d 41 b1 05 3d
       -0.19934301 0.043847308 0.040596686 0.032639746
000030 5f c2 2e 3e 77 25 1d 3e 34 29 0c 3e 5b b9 65 ba
       0.17066334 0.15346323 0.13687593 -0.0008763277
000040 98 3a 06 3e 16 26 f5 3c 28 55 5a be 51 9c 92 3d
       0.13108289 0.029925387 -0.21321547 0.07158721
000050 b5 22 27 3e bb 7e b4 3d 1b f8 47 3e 4f f6 ad bd
       0.16321833 0.088132344 0.19528238 -0.08494245
000060 2f dc 2d 3e 6b 70 2b bd 55 12 48 bc bd c8 9c bd
       0.16978525 -0.041855257 -0.012211402 -0.07655475
000070 de 78 b1 3c 45 bd 81 bb 00 2a 02 3e 17 61 c6 3d
       0.02166408 -0.0039593303 0.12711334 0.09686487
000080 ed 98 8a be c2 59 5d 3e fb 51 8e be ac a9 0f be
       -0.27069798 0.21616271 -0.2779692 -0.14029568
000090 a0 df a6 3d 14 0e 7b 3e 48 b1 b5 3c 58 3c 29 be
       0.08148122 0.24517089 0.02217926 -0.16526926
0000a0 62 6d 4c be f5 ba 68 3e eb 80 3f 3e 58 25 20 3c
       -0.19963601 0.22727568 0.18701522 0.009774528
0000b0 a4 4b 25 be 41 2a d3 bd 07 4f 30 3e f3 29 da 3d
       -0.16142136 -0.10310794 0.17217647 0.106525324
0000c0 6e fc 27 be 9b 32 0a 3e 04 c2 47 be b3 63 43 bc
       -0.16404888 0.13495867 -0.19507605 -0.011925626
0000d0 50 20 e7 bd 47 43 4f be 20 8c 33 3d c9 a2 7a be
       -0.1128546 -0.20240508 0.043834805 -0.2447616
0000e0 6d 0e 11 be 29 a6 43 be a9 18 4b be 58 ef 85 3d
       -0.14165659 -0.19106354 -0.19833626 0.06539792
0000f0 61 68 7e 3d d9 5f ae 3d 42 22 74 be b9 bc ac bd
       0.062111262 0.08514375 -0.23841193 -0.084344335
000100 7d 97 6c be e3 0e 3c be c9 c2 f9 bd ec 4e b5 3d
       -0.23104663 -0.18365054 -0.121953554 0.08852944
000110 b5 d2 44 3e eb b1 79 3d 0b b8 49 be 42 e6 26 3e
       0.19221003 0.06096069 -0.19699113 0.16298774
000120 4f 4c 5a 3e 99 94 62 3e 72 15 4a be 37 0b e9 bd
       0.21318172 0.22126998 -0.19734743 -0.11379092
000130 1e 5c b8 bd fc ad 3d 3e 08 2d 55 3e 32 85 1d 3d
       -0.09001945 0.18523401 0.2081796 0.038457103
000140 cb ab 1f 3e cb 1b 3e 3d 36 32 a0 bd 19 cf 47 3d
       0.15592878 0.046413224 -0.07822077 0.048781488
000150 8b 6b 06 be 9a 79 59 3d 0a ba 09 3e 44 70 2c 3e
       -0.13126962 0.053094484 0.13449875 0.16839701
000160 bc 67 4a be 89 39 d5 3c ed 48 92 bc 76 8e c8 3d
       -0.19766134 0.026028411 -0.01785704 0.09792797
000170 ea b3 40 3e ad 75 c3 3b f6 ae a2 3c 41 03 61 be
       0.18818632 0.005964956 0.019858819 -0.21973898
000180 07 b4 38 3d 18 fc e7 bd bd 9f 10 3e f9 e4 8a bc
       0.045093562 -0.1132738 0.14123435 -0.016954886
000190 4b 0a 6e 3c 23 d1 78 bd 2a 58 e8 3d 48 4b 0b be
       0.014528821 -0.060746323 0.11344941 -0.13602936
0001a0 3e 8f 00 3e 61 8c 83 3d 05 45 d4 bd 55 b7 23 3e
       0.12554643 0.064232595 -0.10364727 0.15987904
0001b0 7d 5c 04 3d 0b 7e 75 bd f5 eb 7a 3c f8 a7 ab bd
       0.032314766 -0.059934657 0.015315046 -0.08381647
0001c0 20 a8 fc bd b9 de 2c 3e 7e 76 3d 3e 0e 5e f2 bd
       -0.12336755 0.16881837 0.18502232 -0.11834346
0001d0 28 6e dd 3d 7f da 32 be aa ee f1 bd 92 ab 65 be
       0.10812026 -0.17466162 -0.118131 -0.2242873
0001e0 e1 e3 05 3e a7 fa fa bd 31 e5 74 bd db 79 7a 3d
       0.1307521 -0.122548394 -0.059788886 0.061151367
0001f0 f9 45 ba bd d3 8a 1c be 4c d7 20 3e 56 29 21 bd
       -0.090953775 -0.15287332 0.15707129 -0.03934606
000200 91 fc 22 be c6 6e 9a 3c 7d be 7b 3d ce 72 ef bd
       -0.15916659 0.018851649 0.06146096 -0.11691819
000210 a2 c3 ec bd 8e ac d0 bd 93 a4 17 3c c7 6c be bb
       -0.115607515 -0.10189162 0.009255546 -0.005811307
000220 e4 95 29 be 26 88 1f 3e 10 c1 a6 3d 79 54 3a 3e
       -0.16561085 0.1557928 0.081422925 0.18196286
000230 cb ce 62 be fc 0f 45 3d 17 6c 26 3e 60 61 44 be
       -0.22149198 0.048110947 0.1625217 -0.1917777
000240 6b c8 39 3e 3e 9b 15 be 40 7a 09 3e 39 2a 32 bd
       0.1814286 -0.14610001 0.13425541 -0.043497298
000250 f5 2d 78 3d 7a 50 1d be a0 f8 bc bc 16 2f ba bc
       0.060590703 -0.1536273 -0.023067772 -0.02272753
000260 82 7b 2d 3e b9 da 37 be f6 7a e2 3d 26 d7 26 be
       0.16941646 -0.1795453 0.11058609 -0.1629301
000270 af 69 32 bd 2f c7 20 be cf d6 21 3e fd fb 83 3b
       -0.04355782 -0.15700983 0.15804599 0.004027842
000280 5d 75 b1 3d 63 2b ab 3d e3 31 a8 3b e7 c9 5c 3d
       0.086649634 0.08357885 0.0051329 0.053903487
000290 78 d1 02 be e4 95 d8 bd f6 0e a5 bd 6d d8 0c be
       -0.12775218 -0.10575464 -0.08059494 -0.13754435
0002a0 33 bf 08 3e e6 2a 47 be 21 f8 ca 3c 93 d5 f5 3c
       0.13354187 -0.19449958 0.02477652 0.030009067
0002b0 ef 0c 62 bd 53 f2 e1 bc 42 13 59 3d 59 5f a7 bd
       -0.055188116 -0.02758137 0.05299688 -0.08172483
0002c0 b5 8d 26 be f2 17 15 3e 7a 01 f0 bc 9f c6 1d be
       -0.16264994 0.14559916 -0.02929758 -0.15407799
0002d0 89 0f 2f be 7a 58 10 3e a8 ba 48 be f0 a5 cd 3c
       -0.1709577 0.14096251 -0.19602454 0.02510354
0002e0 54 91 4a 3e 7d 36 21 be 1c 0a 3e 3e 71 a5 19 3e
       0.19782001 -0.15743442 0.18558544 0.15004517
0002f0 0e f9 b4 3d 19 e9 01 3e f0 f6 b9 bd 53 0c ac 3d
       0.08836566 0.12686576 -0.09080303 0.08400788
000300 56 88 2a be 2c be 5b 3e 69 e5 a7 3c 9e ad c1 3c
       -0.1665357 0.21459264 0.020495133 0.023642357
000310 06 d8 25 3e 71 85 f2 bd ee 6b 44 be 95 fe 14 be
       0.16195688 -0.11841858 -0.19181797 -0.1455024
000320 be a0 a7 3d bc 77 03 3e a1 d7 a5 3d 10 cb d2 bd
       0.08184956 0.12838644 0.080977686 -0.10292637
000330 1c 14 4d 3d a3 e4 5a be 77 2b b3 bb 6b 46 16 3a
       0.050068006 -0.2137628 -0.005467828 0.0005732539
000340 e7 7b bf bd 1d 1f 4b be a1 bc fb bd f0 b5 5d bd
       -0.09349804 -0.19836088 -0.122918375 -0.054128587
000350 9f 7e 3e 3b b7 c0 88 bc b0 4f b9 3d a1 6c 22 be
       0.0029067171 -0.016693456 0.09048402 -0.15861751
000360 7a dc 57 3d 34 8d 5a be e9 59 c3 3d 2b a3 07 be
       0.052700497 -0.21342927 0.095386334 -0.13245837
000370 b3 24 3e 3d dc c5 4c bc a1 f8 f4 bc 24 31 2f 3e
       0.046421718 -0.012498345 -0.029903712 0.1710859
000380 67 9f c8 3d a0 d6 54 be f5 61 47 3e aa db f5 3c
       0.097960286 -0.20784998 0.19470961 0.03001197
000390 06 f0 af 3d ff 5d 47 3b cd dc 62 3e d7 9a e9 3d
       0.08590703 0.0030421016 0.22154541 0.114064865
0003a0 50 56 01 bd 9b f2 57 be 11 71 f2 3d dc c7 56 be
       -0.031576455 -0.2108864 0.11837972 -0.20974678
0003b0 80 32 ed 3d 5a 49 1f 3d 89 44 a8 3d cd f7 8e 3d
       0.11581898 0.038888313 0.08216197 0.06980858
0003c0 89 f2 1c be 1f 3a a7 bd 91 30 6a bd 92 63 58 be
       -0.15326895 -0.081653826 -0.057175223 -0.21131733
0003d0 4b 66 14 3e c1 da d1 bd e6 16 d9 bd 52 91 93 bd
       0.14492147 -0.10246802 -0.10600071 -0.07205452
0003e0 e4 c9 ef 3d 55 d3 b4 ba fa 18 d3 3d 90 44 03 3e
       0.117084295 -0.0013795892 0.10307498 0.12819123
0003f0 12 98 1f bc 27 80 2d 3e 59 de cb 3d 98 12 03 3e
       -0.009740846 0.16943417 0.09954519 0.12800062

layers.6.bias f4 [64]
000000 4f c6 ba bc 4d 5e 18 bb b2 d4 4d 3b 57 f1 20 3a
       -0.022799639 -0.0023249567 0.0031407294 0.0006139478
000010 b6 a4 15 bd b9 a6 68 3b d8 60 3e bc 90 6d 17 bb
       -0.036534034 0.0035499765 -0.011619769 -0.0023106076
000020 87 1a 32 bc fe 71 33 ba bc 22 f9 bb e8 55 2d 3c
       -0.010870582 -0.0006845294 -0.0076030176 0.010579564
000030 6b c7 a3 3b 3f 29 25 38 74 ff 16 3c b1 f1 73 3b
       0.0049981377 3.937748e-05 0.009216178 0.0037222917
000040 98 40 14 bc c2 db 4d 3c 52 e1 2a ba d0 f8 f7 bc
       -0.0090486035 0.012564601 -0.00065185607 -0.03027001
000050 23 97 aa 3b 99 f3 7f bc dc 2a c6 ba 45 7b 21 bd
       0.005206005 -0.015622043 -0.0015118974 -0.0394242
000060 7d 77 fd bb d6 18 87 3c 63 62 f8 b9 53 76 d8 3b
       -0.0077351914 0.016491335 -0.0004737555 0.006605902
000070 3c 2e 49 bc 90 e5 41 39 92 6a f5 39 fc f4 d3 3b
       -0.01227909 0.00018491433 0.00046809443 0.0064684134
000080 50 60 32 bd 66 06 76 3b 45 99 d7 b9 9d 51 60 3c
       -0.043548882 0.0037540435 -0.0004112219 0.013691333
000090 71 c9 23 bb 72 e7 2f 3d 49 26 81 bc af 00 d9 39
       -0.0024991895 0.042945333 -0.015765326 0.00041389975
0000a0 c9 2a 4d 3c a5 dc db 3b 83 15 24 bb 43 24 64 3b
       0.012522408 0.0067096525 -0.0025037236 0.0034811653
0000b0 14 90 c9 3b 1a 7f 3f 39 6e ce a8 3b 6c ee ce bd
       0.0061512087 0.00018262528 0.0051515615 -0.10104069
0000c0 eb 1d 52 3c 93 ee d1 bc fa 5a 1a bc a2 1f ae 39
       0.012824516 -0.025626456 -0.009421105 0.00033211434
0000d0 06 3f 05 bb e4 1f 74 bb 93 34 bb bb a6 72 e0 ba
       -0.0020331754 -0.0037250454 -0.0057130544 -0.0017124012
0000e0 73 9b 44 bb 2e b3 3f bc 29 2a 0a 3c 43 f1 5a bd
       -0.0029999882 -0.011700435 0.008432903 -0.05345274
0000f0 2d 72 71 bb 54 ed 8c bb b9 9a 0a bd de 63 50 bc
       -0.0036841736 -0.0043007527 -0.03383896 -0.012719123

layers.8.weight f4 [64, 64]
000000 67 ff 0a be 69 f3 14 be 43 98 c1 3c 72 f2 46 be
       -0.13573991 -0.14545979 0.023632174 -0.19428423
000010 ab 5e f3 b9 58 00 94 bd a6 2d 93 bd 74 79 49 be
       -0.00046419105 -0.07226628 -0.07186441 -0.19675237
000020 80 54 09 be 8b 39 00 3e 5b 2f e3 bd a0 97 e5 3d
       -0.1341114 0.12521951 -0.11093017 0.11210561
000030 cd e2 20 3e 77 30 72 3c ed 91 f7 3d a0 9c 24 be
       0.15711518 0.014782063 0.1208838 -0.16075373
000040 da 74 24 be ea 40 2a 3e cd 64 02 3e d0 5f 59 3c
       -0.160602 0.16626325 0.12733765 0.013267472
000050 79 59 0b be 44 79 9a bd 0d 09 37 3e 85 f6 7b 3e
       -0.1360835 -0.07542661 0.17874546 0.24605758
000060 47 b8 33 be 94 22 c1 3d c9 a8 1e be 1e 46 0a bd
       -0.17550765 0.094304234 -0.15494074 -0.033758275
000070 c0 c6 83 bc 10 9f 28 be 34 4e 58 3c 6e 20 2f bd
       -0.016085982 -0.16466928 0.013202239 -0.042755537
000080 7e 79 3b 3e 95 47 d9 bd 51 e4 2f be f8 9a 04 3d
       0.18308064 -0.10609356 -0.1717694 0.032374352
000090 35 d0 6a 3e ef 5c 43 3e 65 72 d1 3d 3c ab 62 be
       0.22930987 0.1907842 0.10226897 -0.22135633
0000a0 51 63 f1 3d a9 c8 1c bd 69 58 36 be c6 44 ad bd
       0.11786521 -0.038277302 -0.17807163 -0.08460383
0000b0 54 fe 4f be 02 96 b9 bd eb 32 bb 3d b3 03 4e 3e
       -0.20311862 -0.09061815 0.09140571 0.20118599
0000c0 78 13 4c be 8d 65 aa 3d 5a 10 55 3d 9c 00 17 be
       -0.19929302 0.083201505 0.052017547 -0.14746326
0000d0 44 b1 81 bd 88 89 15 be ef dc 10 be 7b a9 43 3e
       -0.06332639 -0.14603245 -0.1414678 0.1910762
0000e0 a4 d9 4d 3e 6f 96 be 3d c9 5f 3a bd 98 9d cd bd
       0.20102555 0.09306037 -0.045501504 -0.10039824
0000f0 0d 21 9a 3d 74 dc 47 be 7e 71 0b be b5 c8 a7 3d
       0.07525835 -0.1951769 -0.13617513 0.08192579
000100 80 b2 1b 3e c6 fe 98 bc bd 00 d4 bd 9c 4f e2 3d
       0.15204811 -0.018676173 -0.10351703 0.110503405
000110 eb 79 16 3e 92 bd 62 be 55 3b 0c bd 03 f0 61 be
       0.14694946 -0.22142628 -0.03423627 -0.22064213
000120 19 d7 a3 bc f4 40 1b 3e 25 f4 37 be 2c 3a 18 be
       -0.020000027 0.15161496 -0.17964227 -0.14865941
000130 e2 47 3a bd af e5 8c 3d 25 3e 69 3e 15 14 9a 3d
       -0.04547871 0.06879746 0.22777613 0.075233616
000140 31 bc 30 3e fc 2a 4c 3e 2c 56 13 3e 15 63 08 be
       0.1725929 0.19938272 0.1438834 -0.13319047
000150 62 0c 13 be 8c 8c 0f 3e ad f7 4a bd 90 84 22 be
       -0.14360192 0.14018458 -0.04955261 -0.15870881
000160 a8 5b 58 3d 8d 45 2e be bc 1b 09 3d 9e 2d 5b 3e
       0.052821785 -0.17018719 0.033473715 0.2140412
000170 02 92 55 3e ea ed 22 3d 5e 33 07 3d a1 a8 ca 3d
       0.20856479 0.039777674 0.033007972 0.09895445
000180 11 2f 9f bd 80 57 06 be 78 fc 57 3e 66 29 4e be
       -0.07772649 -0.13119316 0.21092403 -0.2013298
000190 46 03 4d 3d 40 7f b6 bd c2 ea b5 3d 25 6c 26 be
       0.05005195 -0.0891099 0.08882667 -0.16252191
0001a0 48 ec dc 3d e9 9c fe bd 4c 6e e8 bd d1 c0 42 3e
       0.107872546 -0.12432272 -0.113491625 0.19018866
0001b0 5f 1e 94 3c c2 c0 47 3e b2 c8 12 be 96 df 23 3e
       0.018080888 0.19507125 -0.14334372 0.1600326
0001c0 5f 75 89 3c e5 f4 32 3e d7 4d 58 bd c9 84 cd bc
       0.0167796 0.17476232 -0.05280861 -0.025087731
0001d0 cf 1f 5d 3c 86 70 0a be a9 eb 00 3d 7a e1 01 be
       0.013496353 -0.13519487 0.031474743 -0.12683669
0001e0 ac 28 eb 3d 37 f8 4c 3e 2c a9 43 bd b6 91 24 bd
       0.11482367 0.20016561 -0.047768757 -0.040178023
0001f0 56 3e b3 3d dc f3 7c 3b b8 26 86 bb 4c b3 87 bd
       0.08752124 0.00385975 -0.004093971 -0.06625995
000200 c6 9b 25 3e e2 74 1a bd 35 7c 59 3e 3d 6d 18 3e
       0.16172704 -0.037709124 0.21238787 0.14885421
000210 da 24 d1 3d af c5 2c 3d fd d9 9f bd 68 7d 02 be
       0.10212107 0.042180713 -0.0780525 -0.12743151
000220 f1 74 3f 3e 9b 69 03 be 2b 52 eb 3b bc ef 38 be
       0.18696953 -0.12833254 0.007181426 -0.18060201
000230 a5 6f 5e be 6b 6c 84 3a 19 b9 c1 bd 33 51 15 be
       -0.21722277 0.0010103112 -0.09459133 -0.14581756
000240 a5 d6 2d be 2d 54 6e 3e 34 54 8f 3b 87 6a 8f 3d
       -0.16976412 0.23274298 0.0043740515 0.0700274
000250 62 da 33 be 88 c3 fb bd fd 85 27 3e 0b 57 0f 3e
       -0.17563775 -0.12293154 0.16359706 0.13998048
000260 3c ad 26 3a 61 65 48 be 9c 77 5c 3e 06 29 08 be
       0.00063582114 -0.19569923 0.21530002 -0.13296899
000270 7b 3d 14 be 6d 92 df 3d 1c 3c 83 3d 05 a2 2d 3c
       -0.14476578 0.109166004 0.06407949 0.0105977105
000280 6d 4e 07 3e 6b 0e 8f 3d 84 da 5d 3e 0a 7e 41 3e
       0.13213511 0.06985172 0.21665388 0.18895736
000290 ee 8c 16 3d 82 5d 2b 3e d1 77 60 be 4e 2a 48 be
       0.036755495 0.16734889 -0.21920706 -0.19547388
0002a0 91 2c 0c be 3c 45 37 bd 69 8c 54 3e 1a 23 92 3c
       -0.13688876 -0.04474376 0.20756687 0.017839003
0002b0 ec 27 17 3c f3 db ee bb 85 ea c8 bd 65 52 b2 bd
       0.009225827 -0.0072894036 -0.09810356 -0.08707122
0002c0 8e 0f 60 3e 37 97 13 be 04 2b 8e 3d 8c d1 60 3a
       0.21880934 -0.14413153 0.06941798 0.0008576147
0002d0 35 7d 45 3e 8c 5c de bd 0f dc 96 bd dd 0a 01 be
       0.19286044 -0.10857496 -0.073661916 -0.126018
0002e0 1f 54 fc bc 65 ad 28 be bd 54 13 be b9 73 79 bb
       -0.03080183 -0.16472395 -0.14387794 -0.003806336
0002f0 51 70 40 bc f5 72 c5 3d b9 16 71 3d 02 57 0b be
       -0.011745528 0.09641067 0.05885956 -0.1360741
000300 a1 57 5b be c3 a7 5c be 48 14 52 3c 81 22 2f 3d
       -0.21420147 -0.21548371 0.012822218 0.042757515
000310 22 bb 2e 3e 0b e0 52 3e 05 65 5a 3e 84 a4 38 3e
       0.17063573 0.20593278 0.21327598 0.18031508
000320 8b 54 31 3e e6 e2 94 3c 34 3a c5 3d c3 0a d8 bc
       0.17317407 0.0181746 0.09630242 -0.02637232
000330 ec c3 39 be aa 8e 8e 3d ef 7a 61 3e c4 46 cc bd
       -0.18141145 0.06960805 0.22019552 -0.09974435
000340 ef b9 23 3e 3f 25 03 be 86 49 0f be 09 65 27 3e
       0.15988897 -0.12807177 -0.1399289 0.16347136
000350 b5 74 46 be 26 b4 8c 3d 41 9b e9 3d fc a8 12 3e
       -0.19380458 0.06870298 0.114065655 0.14322275
000360 fd aa 9d bd e8 f1 31 be 8d b8 5f 3e 68 40 d6 bc
       -0.07698629 -0.17377436 0.21847744 -0.026153758
000370 de c1 d0 3d f6 ff 3b bc 6d 17 0e be 34 31 42 be
       0.10193227 -0.0114746 -0.13876124 -0.18964082
000380 7e f2 36 3e 3f 05 71 be c0 0a 14 be 58 33 18 3e
       0.17865941 -0.23537157 -0.14457226 0.14863336
000390 5d c2 35 3d cc 3d fe bc 40 1e 16 be 13 58 80 be
       0.044374812 -0.031035326 -0.14659977 -0.25067195
0003a0 32 d8 21 bd 4d d6 d6 3d ac 5e b4 3d 6a 22 a8 3d
       -0.03951282 0.104900934 0.0880712 0.08209689
0003b0 ff 7f 3b 3e 27 c2 1b 3d 6d 2c 51 bd b1 39 11 be
       0.18310545 0.038026955 -0.05106776 -0.14182164
0003c0 1e 8f 1f 3b e2 3e c1 3d c9 ee 80 3d c9 65 26 3e
       0.002434678 0.09435822 0.06295545 0.16249765
0003d0 e5 f5 28 3e ff cb ad 3d 05 12 40 be f4 aa ac bd
       0.16500051 0.08486175 -0.18756874 -0.08431044
0003e0 41 bb d4 3d 18 db 20 3e 85 b4 d7 bc 9a 0a d7 bd
       0.10387278 0.15708578 -0.026331196 -0.10500069
0003f0 41 7d a9 3d 69 58 12 3c 30 9e c9 bd f7 57 4c 3e
       0.082758434 0.008932211 -0.09844625 0.19955431

layers.8.bias f4 [64]
000000 aa a3 83 ba 2c ca a7 bb 1d 1c 84 3b 8d ad f7 bb
       -0.0010043283 -0.0051205363 0.0040316717 -0.0075585307
000010 38 04 19 3b a6 ac 11 3b 75 46 19 bc 5a 3d 11 39
       0.0023348462 0.002222815 -0.009355177 0.00013851133
000020 1e dc 51 ba 2e 5d e4 ba 7e 34 3f bc 4b 4f 0e bc
       -0.00080055173 -0.0017422789 -0.01167023 -0.008685897
000030 57 62 f3 bb ae f3 f3 ba fc a2 93 3d bb 30 43 3c
       -0.0074274945 -0.0018612051 0.07208821 0.011913474
000040 c6 bb 5b bb 2d 2f 85 bd 7a 1a b2 3b 94 28 fb 3b
       -0.003352867 -0.06503139 0.005435285 0.0076647494
000050 61 c9 09 bc f9 ff df bc 0b b3 61 3b 77 ae cb 3a
       -0.008409829 -0.027343737 0.0034438993 0.0015539665
000060 c1 99 a0 38 57 54 6e 3c 3a ad 6a bb b0 0b b9 b9
       7.6580334e-05 0.014546475 -0.0035808817 -0.00035294658
000070 04 9d 52 bb 1b d7 06 bb f6 44 b5 bb f8 fd fd bb
       -0.0032137046 -0.002057499 -0.0055319024 -0.0077512227
000080 ad 52 29 3c 82 66 fd bc da 0b b1 3a d6 a3 93 bc
       0.010334653 -0.030932669 0.001350756 -0.018022459
000090 d9 67 80 bb 91 53 3b bb 8d f5 ba 3b ff a1 ea bb
       -0.0039186296 -0.0028583745 0.0057055415 -0.0071604247
0000a0 1e 63 c5 3a 10 c3 93 bb d9 67 4a bc 99 4c 77 3a
       0.0015059446 -0.0045093372 -0.012353861 0.0009433716
0000b0 2f 5b ea b7 5f cc 37 3b 40 a1 cc ba 4b 14 2e 3b
       -2.7937434e-05 0.0028045399 -0.0015612021 0.0026562389
0000c0 21 1b 06 3d 55 48 c8 bb 3e 72 f9 bb 2f 9e 22 3b
       0.032740716 -0.0061121383 -0.0076124957 0.0024813523
0000d0 3f 4f 46 bb 59 84 34 bb a9 3e a9 ba d3 5b 03 3c
       -0.0030259637 -0.0027544706 -0.0012912351 0.008017498
0000e0 84 a1 07 bc e1 ff 22 bb 8e f0 9e ba 27 92 10 bc
       -0.008278254 -0.0024871754 -0.0012126134 -0.008823908
0000f0 af e2 f0 bb 0a d2 b7 bc 6a 73 82 bc c6 bc f2 3a
       -0.0073512415 -0.022439022 -0.015924174 0.0018519394
