data/results/state_net_4000.pth (torch, 90283 bytes, 14 tensors)

layers.0.weight f4 [64, 6]
00000000: ab2e d4bd 4e0c 6c3e 8859 063e 6ffa 6a3e
00000010: 39da c1bc a14c 453e 9c20 4f3d 2fbc 03bd
00000020: d4d5 54bd c9aa cb3d 24d1 863e b44f 8f3e
00000030: db68 78be d143 d1bd a3dc 2e3e c4bb d9bd
00000040: 88ee 9cbd 59fa 4d3d c3ec 62be 5361 9bbe
00000050: c2e0 753e 83df 7abe d5a8 76be 7a12 593e
00000060: b235 35bd ef8e 203e 7ea4 01bd 938e 213b
00000070: 8302 6dbd 66b5 e83d 6d54 c63d 5399 cebd
00000080: 5e35 503e 149f 41be 9fd4 adbd 5e38 41bd
00000090: 9010 193e 0c1f e9bd d921 193c fa68 89be
000000a0: 8024 143e 3595 443e c74d 4ebe 9199 8abe
000000b0: 18b1 f53c 56c5 863e 1b3d a63d 564e 643e
000000c0: b7cc 7dbe 56fa 783e 62bb 843e 0d50 73be
000000d0: ea66 8f3d 2945 62bd 814b c93e 0d8c 21be
000000e0: df0a 96be 8fe4 81be ea21 5d3e bce2 043e
000000f0: c1d8 91be 1e5d 8abe 6d27 253e bbc7 1dbe
00000100: 2a45 4fbe 617d 02be 1067 eebd e27d 4fbe
00000110: 64e8 06be 1d33 233d b8e7 653d 28d6 953e
00000120: 5810 9cbe 7677 0cbd b226 c6bd f694 30be
00000130: b8d4 013e b862 1cbe 54b9 e4bd 4cfc 77be
00000140: 31b8 eebd 7745 673c 7b51 2bbe 254c 43bd
00000150: f114 26be a911 a83c 6d89 e93d 399e 31be
00000160: c0b8 0cbe e563 8bbd 16a9 1abe 398d 24be
00000170: d9d9 243e 1f2e 87bd 466a e63d 336b 2e3c
00000180: d374 b33c bf19 6bbe 06af 1b3d ba97 843e
00000190: 0728 893e 6c83 773e fa8a d9bd cfd8 2abd
000001a0: c8c1 8e3e 7151 bdbd 7219 ba3d d6e1 80bb
000001b0: 434d 393e 86ea 17be ec3d 2b3d bcfa 84be
000001c0: 5f00 7fbd fb4c 233e 6de2 1f3c 7ddb 953e
000001d0: 2840 5cbe 0c4d f43d 8672 43bc 59df b73e
000001e0: 19c2 8b3e cfa8 8c3e 1767 48be ea83 973e
000001f0: 25e2 3bbe 9bae 30be 514e 423e 706b 0a3b
00000200: 555e 173e 190b 8b3e e140 5fbc 3a15 733d
00000210: 2f07 82bc 913a 6e3e 9912 0e3e 82ea d43c
00000220: b6e3 63be d53a 333e 3539 333e a90c 0e3d
00000230: 6078 013e 34c4 b23d 50d8 0abe 6400 1cbe
00000240: e945 78bd fbd5 8cbe 655f 03bc b396 8abd
00000250: 505d 7cbe 97f5 603d 187b b13d cfed 203e
00000260: 572a e5bc 7ee4 bdbd f702 3bbd 7762 85be
00000270: dfff 963b 727d 3d3e 4846 873c a5f5 043d
00000280: a6df 853e 6717 9c3e 816a 893e 7d67 633e
00000290: f6bb 293e aae5 52bc 77c3 92be e7d9 f43c
000002a0: 0312 1f3e cc1d 1ebd b2ef 183e 7801 56be
000002b0: 20e7 093b 6930 a53e 1a86 90be c590 8dbd
000002c0: 9cf9 023e 221d 88be ea6b e2bd d127 b1bd
000002d0: 77f1 4d3e 2fa7 11bd cce3 293c 208f 773e
000002e0: b533 923d 250e dfbd 7faf 313e 1704 d7bd
000002f0: 7c5c 8d3e 0c76 cebd c951 843e f5db 04be
00000300: 4afb 203e 9f7d 8e3e ad77 c0bd 1e4a e9bc
00000310: 0043 19be 6613 303e 62be c3bd ab51 8f3e
00000320: 5446 2dbe 3aed ccbd 150f 3ebd ddfc a53e
00000330: 4b93 163e 15bf 5fbd ce37 1b3e 5bf0 83be
00000340: aabf a7bc 19d2 9c3e 8a54 92bd 5b45 2cbe
00000350: 6f18 15be 3b39 753e 2133 313d c6df 743d
00000360: 1fa6 0ebe b6e5 493e 75f4 7a3b 096e 9b3e
00000370: 4ba3 413e ab6f 9abe d7ce 803e 9437 36be
00000380: ac93 cebd 74ce 283d 0fdc 74be 9fba 94bc
00000390: 4da6 26be b9c0 28bd 3dfc bfbc 522e 3dbd
000003a0: 2630 e53d 7050 edbd 5b6f ed3c 7368 b0bc
000003b0: 786b c1bd 56f0 8fbe 93ea 203e bea3 7fbe
000003c0: d0ad 393d 73da 6c3e 848f 903e 088f 2fbe
000003d0: de0f 7a3e 0afe 3cbe 1a04 39be b6bf d63c
000003e0: aac4 d3bd 5c12 3bbe 7d40 b63d a7dd 853e
000003f0: f8e2 393e d21c ca3d 68df 2e3e ff13 7c3e
-0.10360464 0.23051569 0.13120091 0.22947095 -0.023663627 0.19267513 0.050568208 -0.032161888
-0.051961735 0.09944684 0.26331437 0.27990496 -0.24258749 -0.10218013 0.17076354 -0.106315166
-0.07662684 0.05028758 -0.2216063 -0.3034769 0.2401152 -0.24499325 -0.24087842 0.21198454
-0.04424066 0.15679525 -0.031651013 0.0024651631 -0.057863723 0.11362724 0.09684072 -0.10087838
0.20332858 -0.1890834 -0.0848782 -0.047172897 0.14947724 -0.11382875 0.009346449 -0.26837903
0.14467049 0.19197543 -0.20146857 -0.27070287 0.029991671 0.2632243 0.08117124 0.22295508
-0.24785124 0.24314246 0.25924212 -0.23761006 0.07002051 -0.055241738 0.39315417 -0.15776081
-0.2930517 -0.2536969 0.21594968 0.12977117 -0.28485683 -0.27024168 0.16128321 -0.15408222
-0.20241228 -0.12743141 -0.11640751 -0.20262864 -0.13174587 0.039843667 0.056129187 0.2926495
-0.3048122 -0.034293614 -0.09675349 -0.17244324 0.12678802 -0.15272033 -0.11168161 -0.24217337
-0.116562255 0.014115683 -0.16730301 -0.04768004 -0.16218926 0.020516234 0.11403165 -0.17345513
-0.13742352 -0.06806163 -0.15103564 -0.16069497 0.16098727 -0.06600594 0.11250739 0.0106456755
0.021906292 -0.2295904 0.038008712 0.25897008 0.2678835 0.24171227 -0.10622211 -0.04171067
0.27882218 -0.09244049 0.090868846 -0.0039331717 0.1809588 -0.14835557 0.0418071 -0.25972545
-0.062256213 0.15947334 0.009758574 0.2926902 -0.21508849 0.11928758 -0.01192916 0.35912588
0.27296522 0.2747254 -0.19570576 0.2959283 -0.18347986 -0.17254107 0.18975188 0.0021121167
0.14782079 0.27156904 -0.013626308 0.059346415 -0.015872566 0.23264529 0.13874282 0.025990728
-0.22254834 0.17502911 0.17502292 0.034680042 0.12643576 0.08728829 -0.13559079 -0.15234524
-0.060613547 -0.27507004 -0.008018349 -0.06767025 -0.24644971 0.054921713 0.086660564 0.15715717
-0.02797429 -0.09272097 -0.045657124 -0.26051685 0.004608139 0.18504885 0.016513005 0.032460827
0.26147193 0.30486605 0.2683907 0.22207446 0.16575608 -0.012872139 -0.28664753 0.02988906
0.15534215 -0.038602635 0.14935187 -0.20898998 0.0021042302 0.32263497 -0.2822731 -0.06912378
0.12790531 -0.26584727 -0.11055739 -0.086501725 0.20111643 -0.03555983 0.010369252 0.24175692
0.071387686 -0.1089137 0.17352103 -0.10498827 0.27609622 -0.100811094 0.25843647 -0.12974532
0.15720859 0.27830216 -0.09397826 -0.028477725 -0.14966965 0.171949 -0.09557797 0.27991995
-0.1692136 -0.10006185 -0.046401102 0.32419482 0.14704625 -0.05462559 0.15158007 -0.25769314
-0.020477135 0.30629042 -0.07145031 -0.16823332 -0.14560102 0.23947613 0.04326165 0.05978372
-0.13930558 0.19716534 0.003829268 0.30357388 0.18909948 -0.3016332 0.25157806 -0.17794639
-0.1008676 0.041212514 -0.2391207 -0.018155394 -0.16274376 -0.04119942 -0.023435706 -0.046186753
0.11190824 -0.11587608 0.028983762 -0.02153418 -0.09444326 -0.2811305 0.15714483 -0.24964806
0.045331776 0.23130207 0.28234494 -0.17144406 0.24420115 -0.18456283 -0.18067971 0.026214462
-0.10340245 -0.18268722 0.08899019 0.2614567 0.18152988 0.09868778 0.1707741 0.24617003

layers.0.bias f4 [64]
00000000: 0ccd 8a3c b83d 81bc cb4b e03a 1a2c 8a3d
00000010: adf6 96bb 81a8 2f3d fa86 e3bb dfbc 2b3c
00000020: d94d 1dba 798f b4bb 831e e03b c24d 9e3b
00000030: c7df 93bc d707 0a3c e9d0 9b3c 91b0 033c
00000040: 393e 163c 7207 ad3b 0178 ea39 0bbb a43b
00000050: a791 80bb b1bd c8bc 40a3 413b b3a0 45bc
00000060: 77e1 42ba 3414 82bc 2792 a1bc b8c2 263c
00000070: 3b07 0dbc 3f7f 183c 5faf 2fbc 1d2a 0a3c
00000080: 2520 b53b 47f1 31bc 44f0 01bc 6742 93bb
00000090: 451b c6bc bd3e 503b 55ec b2bb ecb6 d33b
000000a0: 7f32 ea3b 5296 23bc d10f 0e3b 9dec 30bb
000000b0: 9790 a2bb ed15 74b9 1fa2 473b 6a15 fdba
000000c0: 2d7c c13b c348 b8bb 22f0 acbb 18fe 2bbd
000000d0: 3ce2 1abb 02cc 163b e3bd 153c a387 ffbc
000000e0: 5515 763b c4a2 533c 9692 0a3d 7f57 36bd
000000f0: 69a7 9a3c b6d4 423c 01f3 633c 605e f1bc
0.016943477 -0.0157765 0.0017112432 0.06746693 -0.0046070428 0.042885307 -0.0069435807 0.010482042
-0.0006000675 -0.0055102673 0.006839575 0.004831047 -0.018051041 0.008424721 0.019020515 0.008037702
0.0091701085 0.0052804286 0.00044721368 0.00502718 -0.003923613 -0.024504514 0.0029546767 -0.012062239
-0.00074341096 -0.015878774 -0.019723011 0.0101782605 -0.008607681 0.009307682 -0.010722964 0.008432892
0.0055275136 -0.010860748 -0.007930819 -0.0044939998 -0.024182925 0.0031775676 -0.005460302 0.006461015
0.007147133 -0.00998457 0.0021676908 -0.0026996501 -0.004961084 -0.00023277821 0.0030461622 -0.001930875
0.0059046955 -0.0056239082 -0.0052776495 -0.04199037 -0.0023633381 0.0023009782 0.009139511 -0.031192606
0.0037549336 0.012917224 0.0338312 -0.044517037 0.018878656 0.011891535 0.013912917 -0.029463947

layers.2.weight f4 [64, 64]
00000000: b417 ab3d 44c0 bdbd 8ca2 10be 637a e63d
00000010: 3704 8b3d b42c 453e bccd 093b 8e01 f33d
00000020: 8d53 243e af7d dcb9 2cdd f7bd 6abf 4abe
00000030: 179c 1a3e 7223 76be 5927 dd3d 7eca 91bd
00000040: a525 f3bc 458e 093e eca7 54be dcea 133e
00000050: 2d82 3cbc 7b1f ff3d ffa3 8b3d 55e0 e63d
00000060: 66c5 8cbd c1cf aabd 5edb ca3d 1721 43be
00000070: 0ecb 16be 8ad2 5e3c f566 353e 6a2d 853d
00000080: b029 acbd 6b46 f53d 1cf5 e53d cac2 7c3d
00000090: e2bc 4c3e b8d4 1c3e 9bf2 a33d c0dd 44be
000000a0: a233 ff3d 7274 f53d 1da7 07be fbee ed3d
000000b0: 023b 5f3e 8175 813d 75bf 113e b907 fa3d
000000c0: 73a3 03bd 87f8 4ebe 6bfc 98bd de75 fe3d
000000d0: 761c 1ebe de69 4d3e b03e d13c ef67 bcbd
000000e0: eacd 303e e855 1fbe 1687 d7ba e318 53be
000000f0: 5314 ff3d 2a3f e63c c8de 013e 8d7a edbd
00000100: d764 2a3e a04d 5dbe 77c2 3e3e 327d d03d
00000110: fad9 843d b73e 26be b657 e4bd 5a61 12bd
00000120: a702 003e c245 233e be6b 503e 1b2b 473d
00000130: 9bdf 58bd 7429 42be 6868 893b de3d 2f3d
00000140: 15e6 b7bd dee7 c43d e645 17be 70c6 133d
00000150: af57 5bbc bb93 24be 2e1b 42be 9fa7 34be
00000160: 0ed8 553e 94e2 a0bd 93f0 5c3d 8a0c 88bd
00000170: 12af 303d df25 34be 2c1b a13d a7b2 323e
00000180: 3ff3 ff3b dab5 683c d6a9 33be e4f0 0dbe
00000190: bf3a 31be a5b0 483e 0a56 36bc 0c8e 8f3d
000001a0: 5299 bbbc c3c3 d73d 9a8f 233e 287d 28be
000001b0: ec00 17be 6486 7ebd 2d76 543c 0165 1fbd
000001c0: ecf4 b13d ae93 c53d 0619 433d 5c73 3fbe
000001d0: 4be9 04be 4913 ec3d f80c b3bd 5b26 26be
000001e0: acee 3fbd ca67 2a3e 5758 673d 6e9a b5bd
000001f0: 90a7 473e d302 2abd d839 343e fc87 543e
00000200: 528c 45be 4b06 13bd 6438 263e efc6 5bbe
00000210: 5f85 fb3d 5103 303e cf08 613e 5c75 94bd
00000220: f121 3b3e d8f3 b43d ddeb 333e 55a8 c43d
00000230: 6df5 8a3c 2d8a 59be 06a7 0fbe 0107 813e
00000240: 39dd c43d 5af5 5dbd 2806 533e 0552 3dbe
00000250: 56b1 f53c e688 4a3e 6c1a c2bd 4183 5f3d
00000260: 3e30 023e 305b 76bd b2f8 653d b94a c23d
00000270: 8f80 8ebd e25d 00be 530d a73d 7237 2bbe
00000280: 324e 66be a94c b6bc ea05 e7bd 0cb4 903d
00000290: eb0b 603d 60a1 3dbe d8ef e4bd 96f7 883e
000002a0: 93b3 5cbc d91d a5bc 24fb e8bd 608f 953d
000002b0: ce03 c83d 5cd9 8c3d 8359 b9bd a1f7 b93d
000002c0: 0fb0 fc3d c13e 5d3e f3bd 65be 5c59 b03d
000002d0: dcc7 cebd 2831 8ebd 0fc3 40be df6b e13c
000002e0: c218 52be 7ae2 f3bd cc6a 72bc db1a 9c3d
000002f0: fd3c b43d f0b7 033e 6fc6 6abe 3df6 b5bd
00000300: f077 263d 4e50 21be 4249 d8bd d197 96bd
00000310: 22e6 dc3d 5141 e43d 2868 95bd b145 eebd
00000320: e5c9 5d3d bdfd 8e3d d343 4f3e 16fe 183e
00000330: 2a07 69bd 549f 41bc 10a2 fe3d 6cb6 cb3d
00000340: df53 d03d 21bf 5d3e 1f0a ac3d e8a2 b3bc
00000350: 5b25 8cbe 2658 e0bd f888 e23d 35dc 4c3e
00000360: 3099 a73d 58a6 1dbe 23c6 35be f30b 5d3e
00000370: 3b57 6fbd da70 3cbd b69f 87bd 787e 023e
00000380: c243 3b3e 5f72 973d aa79 193e 2f5c 343e
00000390: 4807 64be ecd8 aebd 7c54 e8bd da75 ce3d
000003a0: 6dd5 233e 040c 0c3d a770 133e 37c3 61be
000003b0: e0e3 35bd fa21 b03c 57c9 afbc 9d40 2d3e
000003c0: 4ded cebd dc10 3b3e 7b96 95bd 1d38 e93b
000003d0: 258f 063d 3c9f 403e c67d 62bd 8b61 17bd
000003e0: 3672 193e 490c 533e 8a40 e0bd 8c5f 883d
000003f0: 19e2 113c da3c 48be a040 40be 4a57 75bd
0.083541304 -0.092651874 -0.14124507 0.11253812 0.06787913 0.19255334 0.0021027168 0.11865531
0.16047497 -0.00042055311 -0.12102732 -0.19799581 0.15098606 -0.24036959 0.107985206 -0.071187004
-0.029681036 0.13433178 -0.20767182 0.1444506 -0.011505646 0.12457176 0.06818389 0.11273257
-0.06873588 -0.08340407 0.09905122 -0.19055592 -0.14725897 0.013600001 0.17715056 0.06502803
-0.08406389 0.11976322 0.112283915 0.061709203 0.19993928 0.15315521 0.08005258 -0.19225216
0.1246102 0.11985101 -0.13247342 0.116178475 0.21799853 0.0632124 0.14233191 0.12208504
-0.0321383 -0.20211993 -0.0747002 0.12424825 -0.15440544 0.20059916 0.025542587 -0.09199511
0.1726605 -0.15560114 -0.0016443457 -0.20614962 0.124550484 0.02810629 0.1268264 -0.1159564
0.1664003 -0.21611643 0.1862887 0.10180129 0.06486888 -0.16234861 -0.11149542 -0.035737373
0.12501012 0.15944579 0.203536 0.048625093 -0.05294762 -0.18961126 0.0041933544 0.04278361
-0.089794315 0.09614538 -0.14772758 0.036077917 -0.013387605 -0.1607198 -0.1895568 -0.17642067
0.208832 -0.07855716 0.053940367 -0.06643017 0.04313571 -0.17592572 0.07866511 0.17450963
0.0078109796 0.014203513 -0.17545256 -0.13861424 -0.17307566 0.19598635 -0.011128912 0.07009515
-0.022900257 0.105353855 0.15972748 -0.16453993 -0.14746445 -0.062139884 0.012967628 -0.038914684
0.08689293 0.09647308 0.047631286 -0.1869635 -0.12979619 0.11527116 -0.08742708 -0.16225569
-0.046858475 0.16641155 0.05648073 -0.08867346 0.19497514 -0.0415066 0.1760019 0.20754999
-0.19291809 -0.035894673 0.16232449 -0.21462606 0.12281298 0.17188765 0.21976016 -0.07248947
0.18274666 0.08835572 0.17570443 0.09602419 0.016962731 -0.21244116 -0.14028558 0.25200656
0.096125074 -0.054189064 0.20607817 -0.18488319 0.029991787 0.19778785 -0.09477696 0.054568533
0.12713715 -0.060145557 0.056145377 0.094869085 -0.06958114 -0.12535813 0.08156838 -0.1672037
-0.22490767 -0.022253351 -0.11280425 0.07065591 0.054698866 -0.18518591 -0.11178559 0.26751393
-0.013470548 -0.020155834 -0.11376026 0.07302737 0.09766351 0.068773955 -0.09050276 0.090804346
0.12338268 0.2160597 -0.22435741 0.08610794 -0.10096714 -0.069429696 -0.18824409 0.027517257
-0.20517257 -0.11908431 -0.01479597 0.0762231 0.08800695 0.12863135 -0.22927259 -0.08884857
0.040641725 -0.1575329 -0.10560848 -0.073531754 0.10786082 0.111452706 -0.07295257 -0.11634386
0.05414762 0.069819905 0.20240717 0.14940676 -0.056891598 -0.011817772 0.12433255 0.099469036
0.10172247 0.21654941 0.08400368 -0.021928266 -0.2737225 -0.10954313 0.11061281 0.20005877
0.08183515 -0.15395486 -0.17751364 0.2158659 -0.0584328 -0.04600606 -0.06622259 0.12743556
0.18287566 0.073948614 0.14987817 0.1761329 -0.22268403 -0.08537468 -0.11344239 0.10081072
0.15999384 0.034191146 0.14398442 -0.22047125 -0.04440677 0.021500576 -0.021458311 0.1691918
-0.10103855 0.1826815 -0.073040925 0.007117285 0.032851357 0.18810743 -0.05529573 -0.03695826
0.14984974 0.20610155 -0.1094981 0.06658849 0.008904004 -0.19554463 -0.18774652 -0.0598977

layers.2.bias f4 [64]
00000000: c24b 37bb 1c9f 803a 8fbf 55bc 468d e93b
00000010: f553 4d3c ad77 97bb 6f5b e8bb a8b6 95bc
00000020: 6a86 8d3b 17a4 1b3b 6837 273b 3ec1 8b3b
00000030: a907 173b 7ced 16bc 1224 b73b 1d7b 633c
00000040: 1aa7 d63b 650a 69bb c389 1a3d 50f5 8f37
00000050: e792 9c3c 41de 1ebc eea0 9b3c 4dd6 053d
00000060: 7157 573c c01d 14bc f92e 72bc 7e85 13bc
00000070: 588c cdbb ab7a 05bc 2f90 793c 1e29 af3b
00000080: 1624 0fbc 2bad 043d 7809 7a3c 9a29 9a3c
00000090: c42b 6d3d 00db 503b 5746 79ba 72bd a2bc
000000a0: 9682 59bc 4210 01bc 03e0 8dbc 134c 6a3c
000000b0: 1008 c1bb 6914 26ba 9e72 a139 b0c7 1e3c
000000c0: 3143 4dbc 2ce1 973c 7c3f 21bb f407 3bbc
000000d0: d1e2 25bc 2e93 56bc 4d8d 093c 0d0b 213b
000000e0: b5ea 03bd 3e14 3c3c 12e9 91bb 8ef5 78bc
000000f0: d105 5a3b c70c a03b eccf d3bc 07b4 f73b
-0.002796874 0.0009813043 -0.013046159 0.007127437 0.012532224 -0.0046224208 -0.007090978 -0.018275574
0.004319002 0.0023748928 0.0025515202 0.0042649796 0.0023045337 -0.009211894 0.0055890167 0.013884333
0.006550682 -0.0035559174 0.037729036 1.7161161e-05 0.019113017 -0.009696544 0.018997636 0.032675076
0.013143406 -0.009040296 -0.014781707 -0.009003995 -0.006272834 -0.008146922 0.01523213 0.0053454777
-0.008736631 0.03239171 0.015261047 0.018818665 0.057903066 0.0031868815 -0.00095090776 -0.019865725
-0.013275763 -0.007877411 -0.017318731 0.014300364 -0.0058908537 -0.0006335439 0.0003079371 0.009691164
-0.012528227 0.018539988 -0.002460449 -0.01141547 -0.010124878 -0.013096614 0.008395505 0.0024573237
-0.032206256 0.0114794355 -0.004452833 -0.015195264 0.0033267627 0.0048843357 -0.02585598 0.0075593027

layers.4.weight f4 [64, 64]
00000000: 8c60 833e 6dc4 1e3d ac35 e63d a928 8d3d
00000010: ff92 91bd 332e 603c 9742 97bd 562c b23d
00000020: bb17 0f3e e936 833e e191 d23c 5240 85be
00000030: e8fb df3d b989 3c3e 2b38 3f3e 1101 84be
00000040: 0ffc 6dbd d9af 803d e8de 053d 2b4b 203e
00000050: c071 83be b3cb 073e 2f62 45bd 7f4e 973c
00000060: ddb5 09be 5964 32be 3348 dc3d a4f6 64bc
00000070: ee45 21bd f212 6a3e 148f 533e 3c07 14be
00000080: ce08 cfbc 7681 91bd 81f5 34be c046 68be
00000090: 976e 20be 0d51 d5bd 364b 26be 304c a0bd
000000a0: 0647 403e 1c69 9bbc d8a6 a53d e664 45be
000000b0: 63ce 1fbd 5026 233c 29da f63d 8dd9 253e
000000c0: 257f 3b3e 2d00 8a3d 72c9 cd3d 61f1 ea3d
000000d0: 5f9b 943e 3e76 e93d bdc8 38be 59ce 903d
000000e0: be33 b03d 5644 113e 63e9 c03d adb5 d43d
000000f0: 35ac 1abd 5fa2 2d3e f142 3b3e 2e6f 693e
00000100: 3a68 42be 2655 d13d 889f 243e 4717 e0bd
00000110: 602b 43be 48cb e03d 878a 13ba 258a 413e
00000120: 10e7 dc3d c3d8 0a3e d71a 2bbe f433 cebd
00000130: b00a 52be 5ca3 0f3d d644 183e cf7e 19be
00000140: 6d3a 0f3e 8e6d 48be e509 173e f258 32be
00000150: dbee 2dbe 1e41 ddbd bee2 843d 430a 56be
00000160: a9e1 823d 56cd 67be ed43 b9bc ff5d 54bd
00000170: d46a 07bd 5a03 1ebe 602b 573e 4441 503e
00000180: ddcc 5fbe 80cd dcbc 48b0 40be d64e 46be
00000190: e27a a1bd c929 093e a519 47be c6ef 513e
000001a0: eee9 4e3e 4277 9d3d 83bd 383e 8835 333d
000001b0: 4e59 fb3d 99fe c83d ecc6 3cbe 94dc 503d
000001c0: f7e1 863c a306 52be d9a7 1e3e 03b0 babd
000001d0: 8022 933d b715 a3bd 950e 0d3e db33 133c
000001e0: 934b 8cbd d9a4 bdbd 3dff 8f3d c282 44be
000001f0: c55b f43d 1696 30be 3d15 12be 00b3 023d
00000200: fc21 eabd 6c40 833d bca7 61be 4e35 98bd
00000210: 0006 d83d 1ade cf3d a7d3 4ebc 0b75 5c3d
00000220: 97e6 f6bd 11bd e4bd 8510 273e 46b7 eebd
00000230: 15d4 37be 86d6 bbbc 2551 c6bd 6174 e53d
00000240: c9a5 9cbd 08a8 33be 8a60 253d b826 443e
00000250: 91c5 4dbd 480a b03d 1df6 1f3d 1e3f dd3b
00000260: 739a 9cbd bceb bfbd 7b09 89be 4209 453e
00000270: 04a6 27be 536c 68be 5349 08be 6837 933d
00000280: 19ac 6bbd cd2c 63bd edd5 f13d b6e7 19be
00000290: 11d8 31be 3b57 df3d fb10 8bbd a8cc 0cbe
000002a0: c95e 90bd 5597 13be 9657 4c3c 044c 8bbd
000002b0: 7fd7 6c3d 0d5b 7cbd 9153 1b3e ec1f 173e
000002c0: 9e90 cebc c4b2 b53d 75c7 6ebe e952 81be
000002d0: 21f8 32be 0c78 cabc d1a8 6ebe eeb9 de3d
000002e0: bfab 513e ccaf 37be a14e e6bd 3d94 b3bd
000002f0: 6739 703e 7f7c e43d 1175 843c b801 6b3e
00000300: ce3d 3e3e 2264 bf3d 6402 1abe 7ce5 8abd
00000310: 2731 42bd 15f2 e2bc 229c 843d 8442 083e
00000320: a6a6 0dbe 39cb 42be 64b8 49be f621 673d
00000330: 8645 1abe 1c98 e53d 7d81 843d e58e a73d
00000340: 9101 89bd 2407 f43d 46d6 093e add8 653d
00000350: 8aeb ce3c f69c d93d e28a 273c ddb2 7f3d
00000360: 40dd 003e df1d 473e af35 56bd 9a7c 053e
00000370: 2d7d 313e bcb7 46be 5239 f5bb d3de 4bbe
00000380: f67f 1abe b39b 1d3e cf0b 26be 08ee 3d3e
00000390: 2f9c 3b3e f303 22be 289e 31be 8737 b0bc
000003a0: 5d8e 53be ed64 f63d 24d0 64bd b3c0 183d
000003b0: 9c74 963c 7900 0bbd 4f20 00be 0332 453d
000003c0: edcf aa3d 5a85 6d3b 80cb 4bbd 5e95 96bd
000003d0: 1e9b fbbd e970 6e3d 1480 923d 67b4 a4bd
000003e0: 726a ccbd d900 353e 94c5 173e adfe 4fbe
000003f0: 2c1a e3bd c574 85bc 7447 b2bd a54b 203c
0.25659597 0.038761545 0.11240706 0.06892521 -0.071081154 0.01368289 -0.07385748 0.08699863
0.13973896 0.2562783 0.025704326 -0.26025635 0.10936719 0.18411912 0.1867377 -0.25782064
-0.05810171 0.0628354 0.032683283 0.15653674 -0.25672722 0.13261299 -0.04818934 0.018470047
-0.13448282 -0.17421092 0.107559584 -0.013974819 -0.03937333 0.2285879 0.20660049 -0.14455885
-0.025272753 -0.07104771 -0.17671777 -0.22683239 -0.15667187 -0.1041585 -0.16239628 -0.078270316
0.18777093 -0.018971018 0.080884635 -0.19276771 -0.039015185 0.009957865 0.120533295 0.1619627
0.1831022 0.06738315 0.10048188 0.114718206 0.2902479 0.11399506 -0.18045326 0.07070608
0.08603619 0.14186224 0.09419515 0.103862144 -0.037761886 0.16956471 0.18287255 0.22796318
-0.18985072 0.10221319 0.16076481 -0.1094194 -0.19059515 0.10976273 -0.0005628247 0.18900354
0.10786259 0.1355925 -0.16709457 -0.10068503 -0.2051189 0.0350679 0.14870009 -0.1498978
0.13987131 -0.19573042 0.14749868 -0.17416742 -0.16985647 -0.10803436 0.0648856 -0.20902352
0.063906975 -0.22636923 -0.022615397 -0.051847454 -0.033060864 -0.15430966 0.2101264 0.20337397
-0.21855493 -0.026953459 -0.18817246 -0.19366011 -0.07884766 0.13394846 -0.19443376 0.20501623
0.20206425 0.07688762 0.18041043 0.043752223 0.12272893 0.09814186 -0.18435258 0.05099161
0.01646517 -0.20510344 0.15493716 -0.09115603 0.07184315 -0.07963126 0.13775094 0.008984531
-0.06850352 -0.09259958 0.07031105 -0.19190505 0.11931566 -0.17244753 -0.14265914 0.03190899
-0.11432263 0.06408772 -0.22036642 -0.07432042 0.105480194 0.101497844 -0.012623704 0.05382256
-0.120557 -0.11168874 0.16314895 -0.116560504 -0.17951997 -0.022929441 -0.09683446 0.11203838
-0.076488085 -0.17544568 0.04037527 0.19155395 -0.050237242 0.08595711 0.03905307 0.006751909
-0.07646646 -0.09371135 -0.26765046 0.19241813 -0.16371924 -0.22697572 -0.13309221 0.07188302
-0.057537172 -0.055462647 0.11808381 -0.15029797 -0.17367579 0.1090531 -0.06790348 -0.13749945
-0.07049329 -0.14413197 0.012472054 -0.06801608 0.0578227 -0.06161027 0.15168597 0.14758271
-0.025215443 0.088719875 -0.23318274 -0.25258568 -0.17477466 -0.024715446 -0.23306586 0.10875307
0.20475672 -0.17938155 -0.11245466 -0.087685086 0.23459397 0.11156558 0.016169103 0.22949874
0.18578264 0.09345271 -0.15039974 -0.06782052 -0.047410157 -0.027703324 0.064750925 0.13306624
-0.13833103 -0.19022836 -0.19699246 0.056428872 -0.15065584 0.11210653 0.064700104 0.08181552
-0.06689752 0.119154245 0.13460645 0.05611484 0.025258798 0.10625641 0.010225983 0.062426437
0.125844 0.19444989 -0.05229729 0.13035813 0.17332907 -0.19406027 -0.0074836398 -0.1990922
-0.15087876 0.15391426 -0.16215442 0.18547833 0.18321298 -0.15821819 -0.17345488 -0.021510853
-0.20659776 0.12030969 -0.05586256 0.037293147 0.01836615 -0.033935998 -0.12512325 0.048143398
0.0834044 0.0036242814 -0.04975462 -0.07352708 -0.12285446 0.05821315 0.07153335 -0.080422215
-0.0998124 0.17676105 0.14821464 -0.20311995 -0.11088976 -0.016291032 -0.08705035 0.00978366

layers.4.bias f4 [64]
00000000: 10df b9bc 61bf 44bb f910 eb3c f95a 0fbc
00000010: 363b 46bc 2cbc cab9 85ad ebbb 8f1c ee3c
00000020: eee4 a13b c12f e03a ba23 4bbc 810f 7a3c
00000030: 0bfe a03b 0950 113c 9c91 4eba 73ab 64bc
00000040: 6cb6 c73b 0277 b83c 0c44 993c c006 15ba
00000050: 53e9 a03c ec3e eabb 3bb1 183b dc0d cb3b
00000060: 9e7b 84bb d48d 763b cf96 87bb 4f20 b03b
00000070: 91e1 1eba b7de 153c 2109 5a3b ea77 24bb
00000080: efa6 7bbb 2b3d 043b 8884 e7ba 27d3 7dbb
00000090: e6f1 24bb 2491 26bc 39b2 a43c 50a9 8fba
000000a0: 3e26 a13c e3f6 493c 012a e5bb ceb7 4b3b
000000b0: 2939 043a 4908 6db9 1fa9 24bb 0a6a f3bb
000000c0: f5bc 98bc c0a9 d83b f8c4 fa3c 3a07 dfbc
000000d0: 1a67 673c 1401 ccba 14af 50ba 0ac0 c53b
000000e0: 2aa0 7fbb 796d 78bc 43fc 983b 4cda 2dbb
000000f0: 093f 233a 7f6f 8dbc c194 bd3b 25e8 573b
-0.022689372 -0.0030021297 0.028694617 -0.008749717 -0.012099078 -0.0003866864 -0.007192316 0.029066352
0.0049406206 0.0017104076 -0.012398655 0.0152624855 0.004913097 0.0088691795 -0.0007879974 -0.013956892
0.0060947444 0.022517685 0.018709205 -0.0005684905 0.019642508 -0.007148614 0.0023298997 0.0061967205
-0.0040430566 0.0037621157 -0.004137851 0.0053749452 -0.00060608337 0.009147338 0.0033269601 -0.0025095888
-0.003839906 0.002017806 -0.0017663399 -0.0038730593 -0.0025168597 -0.01016644 0.020104514 -0.0010960493
0.019671556 0.012326929 -0.0069935326 0.0031084898 0.0005043918 -0.00022605168 -0.0025125218 -0.0074284123
-0.01864479 0.0066120327 0.0306115 -0.027225126 0.014123702 -0.0015564286 -0.0007960659 0.0060348557
-0.0039005377 -0.015162819 0.004668744 -0.002652782 0.00062273495 -0.01726508 0.005785555 0.0032944765

layers.6.weight f4 [64, 64]
00000000: 5459 efbb effe bebd 5fd7 99be 02c6 a6bd
00000010: 694e 003e 1fcf 24be b58f 93bd a5fe 68bd
00000020: f161 36be 60a6 443d c67b 233d 19c9 613d
00000030: c79b 243e 900f 0f3e 7f62 0b3e 0cad 1fbb
00000040: 249e 043e 98ba ed3c fd0a 61be 377f be3d
00000050: 2e1d 203e e861 783d 5674 3f3e 65e2 ecbd
00000060: c13f 313e 43ac eebc 3f42 61bc 66c3 9dbd
00000070: c2d6 263c c7e8 04bc 0b41 fc3d 71c9 c53d
00000080: b438 86be 6bbc 363e c7c4 73be 1f34 07be
00000090: 8a36 9b3d 2ed5 723e f1f7 aa3c 9fcb f9bd
000000a0: 5335 4dbe faf8 673e 6c82 3c3e c8ea 733c
000000b0: fa9b 1cbe 7de9 d7bd f93c 2d3e cb1c f13d
000000c0: 756a 28be 7bbd fc3d c8d0 47be 94d2 863b
000000d0: 8681 e9bd 38e9 56be 7b84 0c3d a363 80be
000000e0: 8cf3 12be b7ef 3fbe 9226 54be 6ca1 c53d
000000f0: f4de a03d d76a b63d 81cd 6cbe 7ced d5bd
00000100: cf77 6cbe 4d77 3abe 4932 edbd 0de5 a03d
00000110: 4239 3c3e 06f0 6d3d c0ae 4dbe 233c 273e
00000120: 19a7 5b3e d790 603e e6fc 4abe 0b99 e7bd
00000130: e746 c4bd 9163 3e3e dd84 543e 021b 083d
00000140: 87a8 233e 4615 373d 4c60 98bd b60f 5c3d
00000150: 42ac 05be b6b8 6f3d 2455 f63d 3d64 3d3e
00000160: 1b1a 49be 977d 28bc 7b46 a2bc aab5 c63d
00000170: 6001 3e3e b0d8 ad3b 5d28 bd3c 4266 5fbe
00000180: 4d99 333d 23eb dcbd 66d2 103e 2236 71bc
00000190: 6835 4b3c bd78 7bbd cfb5 e03d 4c9e 09be
000001a0: 5274 003e 12aa 6a3d cbcc d7bd d6c9 2d3e
000001b0: 3138 063d 3791 66bd f73d 8e3c 3593 adbd
000001c0: 124a f6bd 9066 253e 7c32 3d3e 8393 eabd
000001d0: 9ffe c13d 06b8 26be e832 e5bd a4ca 59be
000001e0: fedf 053e d9b1 fcbd afd1 5ebd d3c5 ac3d
000001f0: f7ca c6bd 09bd 1cbe 04b5 243e d55f 13bd
00000200: e565 1abe 1efc 953c b6a8 7b3d 2765 dabd
00000210: b5c1 e8bd 0201 cdbd 393f 2c3c 72d1 65bb
00000220: 6326 2dbe 7ba2 1f3e 4923 a83d b568 3a3e
00000230: 162a 5dbe 4c95 4a3d c9e3 263e acec 43be
00000240: 516d 3a3e dac8 14be f544 0a3e b8f1 2ebd
00000250: 1a13 7d3d 6e2d 1bbe 7917 63bc 53eb f4bc
00000260: 7315 2b3e c1fc 28be 2c7f e23d f174 26be
00000270: f80a 2abd 8a6a 1ebe f082 213e 4b09 873b
00000280: aece af3d fd36 a23d fe36 603c 69fc 503d
00000290: d826 01be b9da d7bd a4c8 94bd 304b 10be
000002a0: 2bd0 0a3e 434b 46be e7b0 cd3c 9a7c be3c
000002b0: 2f71 62bd 6d50 d0bc c091 5b3d 934c aabd
000002c0: b99b 26be 591b 183e 0b0d edbc 4bd2 1cbe
000002d0: 7ea0 28be 220a 0c3e 9a37 4dbe d636 b03c
000002e0: dd95 493e 412b 22be 306e 373e 9763 083e
000002f0: 8ac7 bd3d 94ce 013e c08d bbbd ff5b a93d
00000300: 0400 23be a922 603e 66ac ce3c 48fe ba3c
00000310: 7653 223e 6442 f2bd 0b99 43be 8a41 14be
00000320: c5d8 a13d 4e8d 043e e35b a73d f8ad d0bd
00000330: fa15 433d af2a 5cbe bf2b c3bb 3bcd c9bb
00000340: f4b9 b9bd 7305 4abe b821 f4bd fc7d 4dbd
00000350: 59a3 7d3b 0bf3 6bbc 57b7 b03d f884 15be
00000360: b66a 533d 95e9 5ebe af7e c13d ffd2 05be
00000370: 15d7 373d 4314 45bc 1f2d febc a4e9 2e3e
00000380: 89e3 ca3d a903 51be 8e4a 403e dfce 013d
00000390: 2c05 ac3d cf9f c939 8200 5a3e d118 f13d
000003a0: a071 ebbc 6842 59be bbdc f03d 5891 55be
000003b0: d461 ee3d d0b5 323d 364e ae3d afb3 933d
000003c0: 060a 1ebe 4635 a9bd c72d 67bd cf2d 53be
000003d0: 2ca5 143e 41dd ccbd 898e d7bd 3706 86bd
000003e0: 707f ee3d 5e80 baba e41b cd3d d807 f83d
000003f0: 7dd3 2d3b 1845 2e3e c61c d03d 6b20 023e
-0.00730435 -0.093259685 -0.30047128 -0.08143236 0.12529911 -0.16094635 -0.07205144 -0.056883473
-0.17810799 0.04801023 0.03991296 0.055123422 0.1607505 0.1397078 0.13611792 -0.0024364619
0.12950951 0.029019639 -0.21976848 0.09301608 0.15636131 0.060640246 0.18696722 -0.11566619
0.17309476 -0.029134875 -0.013748704 -0.07703285 0.010183038 -0.008112139 0.123170935 0.096575625
-0.26215136 0.17845313 -0.23805533 -0.13203476 0.07578762 0.23714134 0.02087018 -0.12197041
-0.20039873 0.22653571 0.18409127 0.014887519 -0.15293875 -0.10542581 0.1691779 0.1177307
-0.1644686 0.12340828 -0.19513237 0.0041144583 -0.11401658 -0.20987403 0.03430603 -0.25076017
-0.14350718 -0.18743788 -0.20717838 0.096499294 0.07855025 0.08907097 -0.23125269 -0.10445687
-0.23092578 -0.18209572 -0.11581857 0.07856188 0.18381217 0.058090232 -0.20086193 0.16331534
0.21450461 0.21930252 -0.19823036 -0.113084875 -0.09583836 0.18592669 0.20753808 0.03322888
0.15982257 0.044698022 -0.07440242 0.05372592 -0.13053992 0.058525763 0.12027958 0.18495269
-0.19638865 -0.010283849 -0.019808998 0.097026184 0.18555212 0.005305372 0.023090536 -0.21816352
0.04384737 -0.10787036 0.1414276 -0.014722379 0.01240287 -0.061394442 0.10972177 -0.13439292
0.12544373 0.057291098 -0.10537108 0.16971526 0.032768432 -0.05629083 0.017363532 -0.08475343
-0.120258465 0.16152406 0.1847629 -0.11453917 0.09472393 -0.16281137 -0.1119135 -0.21268708
0.13073727 -0.12338609 -0.05439919 0.084361695 -0.09706681 -0.15306486 0.16084677 -0.035980064
-0.15077932 0.018308695 0.061440192 -0.106638245 -0.11365072 -0.10009958 0.01051312 -0.0035067466
-0.16909175 0.15589325 0.08209855 0.18204005 -0.21598086 0.049458787 0.1629783 -0.19133252
0.18205763 -0.14529744 0.13502868 -0.04271099 0.061785795 -0.15154049 -0.013860577 -0.029897368
0.16707401 -0.16502668 0.11059412 -0.16255547 -0.041514367 -0.15470329 0.15772605 0.004120981
0.08584343 0.079206444 0.013684986 0.051021967 -0.12612474 -0.10539765 -0.07264832 -0.14091182
0.13555972 -0.19364648 0.025108768 0.023252774 -0.05528372 -0.025428975 0.053605795 -0.083153866
-0.16270341 0.14854182 -0.028936883 -0.15314595 -0.16467473 0.1367574 -0.20040742 0.021510523
0.19686075 -0.15836813 0.17913127 0.1331924 0.09266575 0.1267646 -0.09157896 0.082695
-0.15917975 0.21888222 0.02522869 0.022826329 0.1585215 -0.11829069 -0.1910135 -0.14478126
0.07902674 0.12944528 0.08171823 -0.10189432 0.04762838 -0.21500657 -0.0059561427 -0.0061584986
-0.09068671 -0.19728641 -0.11920494 -0.050168976 0.00387021 -0.014401208 0.08628719 -0.14601505
0.05161544 -0.21768792 0.09447991 -0.1306877 0.044882853 -0.012028757 -0.031027375 0.17081314
0.0990668 -0.20411552 0.1877844 0.03169143 0.08399424 0.00038456774 0.21289256 0.117723115
-0.028740704 -0.21216738 0.11760851 -0.20856225 0.11639753 0.04363042 0.08511011 0.07212006
-0.15433511 -0.08262114 -0.05644014 -0.20622943 0.14516133 -0.10003138 -0.10525233 -0.06544154
0.116454005 -0.001422893 0.10015085 0.12110871 0.0026523762 0.17018545 0.10161738 0.12707679

layers.6.bias f4 [64]
00000000: ff28 c5bc cb68 66ba 588e 363b 1be3 77b9
00000010: 730f efbc 542b 943b 981e 0dbc df69 c9ba
00000020: 6695 e0bb 2db2 e1ba 69db d0bb 36b5 883b
00000030: a5b6 183b 614e 20bb 3026 c0ba 2c16 64b8
00000040: fb56 96bb f55b 2c3c b3cc d83a 4c74 e4bc
00000050: 7b8f da3b eafe 8ebb f055 4fbb a22b 1abd
00000060: 9635 83bb a23e 8d3c 7c2e a1ba 5807 a03b
00000070: 3aaf 79bb 0284 f4b9 ad37 b1b9 bfef 8f3a
00000080: 916c 1fbd 4804 393b 9b35 093b de2c 513c
00000090: 1060 2fbb 627d f93c 85a3 02bc b857 af39
000000a0: 7fc4 4d3c 77d4 b33b 06fb 35bb 659c 093b
000000b0: ee53 393b 3702 9db9 6977 963b f75b 6ebd
000000c0: ca4b ac3c 4d94 9fbc c98a a1bb 0ba5 af3a
000000d0: c486 14bb 1c5e 93bb 49ee f1bb 39d1 bbba
000000e0: 240e 49bb d31f baba ba8d e83b f570 d2bc
000000f0: 6d6c d239 3b4f 5bbb 58fc f3bc 5357 87bc
-0.0240674 -0.0008789419 0.002785584 -0.00023640359 -0.029182171 0.0045217667 -0.008613251 -0.0015366635
-0.006853747 -0.0017219238 -0.006373812 0.0041719927 0.0023302224 -0.002446078 -0.0014659818 -5.4380085e-05
-0.0045880056 0.010519971 0.0016540497 -0.027887486 0.0066699362 -0.004363884 -0.0031636916 -0.037639268
-0.0040041907 0.01724178 -0.0012297179 0.004883688 -0.0038098828 -0.0004663766 -0.00033801552 0.0010981484
-0.038921896 0.0028231312 0.0020936492 0.012767045 -0.0026760139 0.030455295 -0.007973556 0.00033443957
0.012559055 0.0054879743 -0.002776803 0.002099776 0.0028278786 -0.00029947024 0.0045918715 -0.058193173
0.021032233 -0.019479895 -0.0049298746 0.0013400627 -0.0022663334 -0.0044973027 -0.007383142 -0.0014329321
-0.0030678594 -0.0014200158 0.0070969732 -0.025688628 0.00040135105 -0.0033463973 -0.029783413 -0.016521132

layers.8.weight f4 [64, 64]
00000000: e152 0abe 8c09 14be cb93 b33c 36ea 49be
00000010: 6c20 a0ba c007 93bd fdfa 94bd 25f0 4bbe
00000020: 4806 07be 9860 013e bd96 e9bd 2d39 e83d
00000030: bce8 203e 5281 523c ca8c f23d c13e 1ebe
00000040: c87c 23be 6756 2a3e 63ca f83d 2051 883c
00000050: 6fa4 0abe 0398 a0bd d35c 373e 7ef0 773e
00000060: 7a6d 37be 6110 b83d f7cb 1cbe 9c8f 10bd
00000070: a0f1 8abc 44fd 34be 5abe 4e3c 973c 5ebd
00000080: f0a0 3d3e 4446 d0bd aa32 2dbe 69f2 f93c
00000090: a1a0 6a3e 9170 443e 95eb c73d 486c 5dbe
000000a0: 7e18 ef3d 4f78 2abd 4a0c 35be 142e a6bd
000000b0: 01cc 53be 511e c1bd 65d6 b93d f1d2 4a3e
000000c0: e02d 49be ffb4 ab3d 486d 4c3d f187 0dbe
000000d0: ee89 6bbd 06c2 16be e1aa 0fbe be22 3e3e
000000e0: 9646 4d3e e2b0 bc3d b791 29bd 146e d6bd
000000f0: 9cf6 983d 24a5 49be ae88 0bbe 1aff aa3d
00000100: 71fb 1b3e e4a9 74bc 7066 d8bd 04e1 d93d
00000110: 5f6a 203e e442 65be 4354 12bd 9973 65be
00000120: 98c8 54bc 9582 1e3e 2548 3abe 2360 13be
00000130: ee8c 38bd ee12 8d3d e2fc 613e ffa7 9f3d
00000140: 0f58 273e 9de4 4b3e 7e9b 093e 7556 0bbe
00000150: a018 10be 5817 0c3e a75d 44bd c3cb 27be
00000160: e53a 523d b6bb 2ebe 5b71 113d 503f 5b3e
00000170: 3b22 4d3e aa7e d83c 7591 ea3c f617 713d
00000180: 1f9e 98bd b712 febd 8e15 5b3e d53b 52be
00000190: db44 4c3d c1b0 b0bd 1fa2 bb3d 16b6 01be
000001a0: cb84 d63d 04a6 02be 49db eabd 949b 463e
000001b0: 7cdf 633c 92ad 423e 4bdd 11be 19e8 1a3e
000001c0: 5749 953c 8a23 323e 1856 68bd f76e b9bb
000001d0: 0eff a13c 4495 0bbe e898 063d d411 06be
000001e0: fb25 ea3d 66de 4d3e 9bd5 3bbd d922 3bbd
000001f0: 7f80 b63d b67d 66ba fc4d adbb e06f 84bd
00000200: 8ddc 1b3e 9226 56bd c441 5f3e 7873 0a3e
00000210: 1220 063e 5e56 473d 78ad a3bd 2ba9 0abe
00000220: 7334 423e cffa e9bd 2d52 9c3b 80dd 31be
00000230: 0f9f 55be 4ede feba 531d ddbd 4b34 10be
00000240: 7664 28be 5bc3 543e f48c 9d3b 1147 523d
00000250: 407d 2cbe 5263 d5bd 7489 263e dbb4 0d3e
00000260: e3da b13b e58c 3ebe df86 5c3e 48f7 08be
00000270: c3dc f5bd 164e 083e 046e 623d f2f6 333b
00000280: 56fb 023e 5cd2 9e3d e2fe 543e 0da0 443e
00000290: 21dd 303d 04b1 2d3e 534f 62be e59b 13be
000002a0: f5aa 1cbe 63ff 36bd 2374 513e 7f82 f03c
000002b0: 56e3 e6bb a66f 57bc 2478 bcbd 00fe abbd
000002c0: c9bf 5f3e 481d 13be 0aed 833d 66b9 a83c
000002d0: 51bb 523e 530f d5bd 4b0c 83bd 836e 07be
000002e0: fcab 0abd fef7 26be 0c31 10be 1725 4ebb
000002f0: 8aa6 a23c ea12 c53d abb6 4b3d 6995 e5bd
00000300: b560 63be 1507 59be 9887 2f3c 68d6 0f3d
00000310: a959 253e facc 533e 394c 543e 74e3 383e
00000320: 0e1a 393e 6000 8d3c d8e2 c83d c893 a1bc
00000330: e97f 34be af76 853d 9485 583e 14e8 bbbd
00000340: 08be 223e dcd8 02be 0600 13be 7800 223e
00000350: 071a 4abe 8cc3 8d3d a2c6 e43d 4720 0d3e
00000360: 2c5b 95bd 1a05 32be 76e6 5c3e d4bb b3bc
00000370: 17ae c83d aa23 bbbc a98a 13be ae99 4fbe
00000380: ebd3 3a3e 521e 6abe 92f2 17be d110 1c3e
00000390: 7c06 293d 0fe5 ccbc ca61 1cbe 0a08 63be
000003a0: aece 47bd 57d4 d93d dc7b ae3d dcb4 b83d
000003b0: 6142 313e 6245 063d 0da8 38bd 48ab 16be
000003c0: b64d 1eba aa04 bb3d 798c 603d 988a 313e
000003d0: 6f59 383e ac08 b53d 61ad 43be 32df c8bd
000003e0: 1c2d ca3d 2a9c 263e 4dbf a3bc ef34 e9bd
000003f0: 4409 aa3d 0408 273b b592 d4bd 2dc7 493e
-0.13508178 -0.14456767 0.02192106 -0.1971825 -0.0012216694 -0.071792126 -0.07274435 -0.19915827
-0.1318599 0.12634504 -0.11405704 0.113390304 0.15713781 0.012848215 0.1184326 -0.15453626
-0.15965569 0.16634522 0.12147977 0.016640246 -0.13539289 -0.07841494 0.17906503 0.24212834
-0.17912856 0.08987499 -0.15312181 -0.035293207 -0.016960919 -0.17674738 0.012618626 -0.054257
0.18518424 -0.10169652 -0.16913858 0.030511098 0.22912838 0.19183566 0.097617306 -0.21623337
0.116745934 -0.04161864 -0.17680469 -0.081142575 -0.2068329 -0.094296105 0.09074096 0.1980703
-0.19646406 0.08384132 0.049908906 -0.13821389 -0.057504587 -0.14722452 -0.14030029 0.1856794
0.20046458 0.09213425 -0.04139873 -0.104702145 0.07468912 -0.19691902 -0.13626358 0.08349438
0.15232636 -0.014933083 -0.105664134 0.106386214 0.15665577 -0.22388798 -0.03572489 -0.22407378
-0.012987278 0.154795 -0.18191583 -0.14392142 -0.045056276 0.06888376 0.22069123 0.077957146
0.16342185 0.19911428 0.13438222 -0.136072 -0.14071894 0.1368078 -0.047940876 -0.16386323
0.051325697 -0.17063794 0.035508495 0.2141087 0.20032589 0.026427586 0.028633812 0.05886074
-0.07452034 -0.12405913 0.21394941 -0.20530637 0.049870353 -0.08627463 0.091617815 -0.12667117
0.10474547 -0.12758642 -0.114676066 0.19395286 0.013908263 0.19011524 -0.14244573 0.151276
0.018223448 0.1739637 -0.05672273 -0.00565898 0.01977494 -0.13631159 0.032860667 -0.13092738
0.114330254 0.2010437 -0.045858007 -0.04568753 0.089112274 -0.0008792536 -0.0052888375 -0.06466651
0.15220852 -0.052282877 0.21802431 0.1352061 0.13098171 0.04866635 -0.07992071 -0.13541095
0.1896532 -0.11424791 0.0047705383 -0.17369652 -0.20861457 -0.0019444914 -0.10796609 -0.14082448
-0.16444573 0.20777647 0.0048080627 0.051337305 -0.16844654 -0.104193345 0.16263372 0.13838522
0.0054277047 -0.18608434 0.21535824 -0.1337558 -0.120049976 0.13311037 0.0552807 0.0027460423
0.1279119 0.077549666 0.20800355 0.1920168 0.043179635 0.16962057 -0.22100572 -0.14414938
-0.1529959 -0.04467715 0.20454459 0.0293591 -0.0070461435 -0.013149178 -0.092026025 -0.08398056
0.21850504 -0.14366639 0.06441696 0.020596217 0.20579268 -0.104033135 -0.06398829 -0.1322575
-0.033855423 -0.16305539 -0.1408121 -0.0031455213 0.019854803 0.09622748 0.049734753 -0.11210138
-0.2220486 -0.21194108 0.01071348 0.035116583 0.16147484 0.20683661 0.20732202 0.18055516
0.18076345 0.017212093 0.09808892 -0.019723788 -0.17626919 0.06516778 0.21144706 -0.09175125
0.15892804 -0.12778038 -0.14355478 0.15820491 -0.19736491 0.06922063 0.11170699 0.13781844
-0.0729278 -0.17384759 0.21572289 -0.02194015 0.0979883 -0.022844154 -0.14408363 -0.20273468
0.18244903 -0.22863129 -0.14838627 0.1524079 0.04126595 -0.025011567 -0.15271679 -0.22171035
-0.04878109 0.10636204 0.08519718 0.09018871 0.17310478 0.032781012 -0.04508214 -0.14713776
-0.00060388015 0.09131749 0.054821465 0.17338026 0.18002866 0.08839545 -0.19109108 -0.09808196
0.09871885 0.1627051 -0.01998868 -0.113870494 0.083025485 0.0025486955 -0.10379545 0.19704886

layers.8.bias f4 [64]
00000000: 4fd7 06ba 5d88 91ba 1d70 64ba dd79 9dbb
00000010: a5df 263b 4115 143b 4e0d 16bc b6c4 f73a
00000020: f0b3 91ba 54e4 08ba 5d27 08bc 5ab2 5ebb
00000030: f3b1 42ba 6055 1abb 22da 9c3d c4b5 173c
00000040: 1d4f 81bb b92a 6cbd 7153 5a3b 0edd ce3b
00000050: 7b9b bbbb 14ed 84bc 1445 763b b845 1b3b
00000060: 1681 c3ba 5621 683b 5b31 a3bb 4a88 46ba
00000070: 90dd 29bb 999d 4e3b f9a6 87bb dc5a 69bc
00000080: 7c71 b03b cac8 49bc f63d 353a 0cb5 60bc
00000090: 310a 44bb 095c cfba ff11 003a 1428 4dbc
000000a0: e402 ff39 985e 80bb a581 6dbc ca7b 9039
000000b0: a18a 04bb f9b6 e73a f1a6 63ba 99ec 0839
000000c0: 161f ee3b c2da bcbb e6e2 11bc 8813 c93a
000000d0: e42e 45ba 1bed 44ba 4f45 b2b9 77f2 ec3b
000000e0: 2458 dfbb fce4 b1ba 644c ddba de3f d6bb
000000f0: 08bc a2bb e8f8 3cbc d531 0ebc 12b7 4c3a
-0.0005143778 -0.0011103261 -0.0008714216 -0.004805787 0.0025462892 0.0022595676 -0.0091584455 0.0018903229
-0.0011116248 -0.0005222012 -0.008310166 -0.0033980818 -0.0007427029 -0.0023549423 0.07658793 0.009259645
-0.0039461986 -0.05765793 0.0033313895 0.006312973 -0.005725322 -0.016226329 0.0037577795 0.0023692679
-0.001491579 0.003542026 -0.004980249 -0.0007573409 -0.0025919415 0.003152704 -0.0041397777 -0.014242854
0.005384622 -0.012315938 0.0006913835 -0.01371504 -0.00299133 -0.0015820275 0.0004885494 -0.012521762
0.00048639544 -0.0039175265 -0.014496242 0.0002755805 -0.002022423 0.0017678431 -0.0008684239 0.0001305811
0.0072668893 -0.0057633827 -0.008904194 0.0015340904 -0.0007521941 -0.0007512138 -0.00034002445 0.0072310525
-0.006815927 -0.0013572271 -0.0016883728 -0.0065383753 -0.0049662627 -0.011533953 -0.008678873 0.0007809262

layers.10.weight f4 [64, 64]
00000000: b6f5 e33d 3aab ff3d 0511 1b3e fdd5 943d
00000010: e9ac 673e 6df2 2f3d d0f6 463e b2aa 253d
00000020: fb17 743d 7aa0 05be 1ba7 8dbc ec27 553d
00000030: 030e a5bd 3d35 c43d 1856 773d 186c c9bd
00000040: 5f15 07be 41ca da3d e4a8 17be dfd1 8b3d
00000050: 2d6c fabd ca94 46be 668e fb3b 1bd6 a1bd
00000060: d4a2 c13d 2375 04bd 9f95 2fbe 5f99 063c
00000070: 4886 0bbe 7b6f 293d c267 253e 2fd3 d7bd
00000080: 9284 e6bd c236 4ebd d7f3 37bd b8ba 963c
00000090: 0f0c a83c e6d9 6d3d f7c2 acbd c12f cebd
000000a0: 60aa 353e 6272 ff3d a581 db3d 202c 3cbe
000000b0: d345 193e df34 563e b0da c6bd ff6d 47be
000000c0: 5115 b83d 4701 c4bd 4b48 ad3d 477f 8abd
000000d0: bfad 5c3e 77b5 54bd 2d92 753b dd58 26bd
000000e0: 9c11 e4bd 6454 843d 2731 103e c2b3 41be
000000f0: 7470 a13b 9b60 0d3e 4e62 a13d ce3c 54be
00000100: f10f 9fbc 2ed8 bb3d 1ceb 6c3d f25e 61be
00000110: 6a96 23bd 7677 0ebe 9a1a c7bd 43ab 73ba
00000120: 21c4 4a3e 60c6 033e 56b4 dbbd ea25 ea3d
00000130: 5dbf fbbd 7b85 693d 2004 37be 6ba8 d03c
00000140: 6e87 b6bd 37cf 563e b4d6 26be 9ce2 e1bd
00000150: 0079 f63d 4772 9cbd 9e0c 6d3d a0df 643e
00000160: f13e 47be 8c05 52be 7d10 03bb 4251 1d3c
00000170: 2c11 133e 743c b63d 8d21 21be 3707 3c3e
00000180: e064 87bd 2252 093e a4d6 0bbe e2a6 5b3d
00000190: 7ce7 0d3e 7503 0e3e e48b 23be 2687 01be
000001a0: 54ce 523c 2789 423d 1ccb 203e 074b 993c
000001b0: 2965 623e c3e7 debd caa1 cb3d d336 f73d
000001c0: 4299 303e 8503 01be 2bf8 9a3c 0f4a a73d
000001d0: 2171 adbd cf2a fa3c 8b36 123e 7cd4 1c3d
000001e0: 7ce3 83bd 10ab 30be 2805 25be 0064 acbd
000001f0: c382 0dbe 57e6 eb3d 8a67 903c 61f8 6e3d
00000200: 2325 36be 5707 b03d 65df 3a3c 3156 31be
00000210: 5077 2abe 118c 8a3d abff 4d3d 932f 19be
00000220: 2e78 edbc 4244 2a3c f38e 293e 8643 e0bd
00000230: 6a87 3cbe 1f5b a63d 1b80 e1bd 7b32 92bd
00000240: e086 adbc e4ce 03be dcb9 27be 1ead f3bd
00000250: d69d 4e3e ee88 723d 09b9 b5bd 4b20 483e
00000260: f904 f4bd 2093 11be 66ae 293e 9f32 41be
00000270: b475 25be 05af 0e3e 863c ffbd 383f 0f3e
00000280: d215 383e 829b 1bbe c2fe 7cbd f9c3 433e
00000290: 0e68 15be 7155 1bbe be0b 203e de1d 12be
000002a0: b3f9 043c 2c30 ccbd 6279 30be 88ee 27be
000002b0: b960 ed3d 73ca be3d 9e9f 3bbd aa80 f9bd
000002c0: 0d80 a63c 1d90 61bc 5148 fb3d 7981 b6bd
000002d0: 1269 81bd d842 4d3e 7b10 a9bd 7ed7 15be
000002e0: b01b b63d 85c8 823d 3e1e c5bb 8ba2 cebd
000002f0: 63fc 12be f6d9 d43c 10f1 c03d 7cff 67be
00000300: 46ea d73d a112 60bc f0be ce3d 7a25 253e
00000310: 2a25 2e3e fbc7 493e 4c70 6dbc 4049 013e
00000320: c43a 053e a6fb 833d 1198 19be 8c7a abbc
00000330: 93d0 44be 1dd5 243d fa85 ab3d 410a c2bd
00000340: 368f 853d 1f3b 0c3e 92f9 62be 93e5 3e3e
00000350: c44a 52be 0e32 16bd 41d1 01be 761f 00be
00000360: 5ace 3f3d 60fa b93c 2afc e9bd 1e15 48bd
00000370: ea46 bc3d c2f2 193e e49e 8cbd 260e 013e
00000380: 1588 26be 6983 3fbe ecba 563e ac13 35be
00000390: 17c2 203e 833f 5d3e cfad bd3d 4280 afbd
000003a0: 6523 6bbd 27a2 08be 89d5 3abd 7850 0d3e
000003b0: 93da f3bd ba05 a7bd ab07 333d ad4c f53d
000003c0: 6a98 cebb 9319 21bd 891f 5cbe da4b 5cbd
000003d0: f1ca 9b3d cba2 6a3d 5e93 4bbd 87a5 a4bd
000003e0: 10bb 8bbc 67af 02bd 4339 d23d 1f97 eebd
000003f0: d4c3 153d 3007 473e 508d f73c 6c32 89bd
0.1113085 0.12483831 0.15143211 0.072673775 0.22624554 0.042955805 0.19430089 0.04044599
0.059593182 -0.13049498 -0.017291596 0.052040026 -0.08059313 0.09580467 0.06038484 -0.0983507
-0.13191746 0.10683108 -0.1481052 0.06827139 -0.12227664 -0.19392696 0.0076768873 -0.079021655
0.09454885 -0.032338273 -0.1714692 0.008215277 -0.13625443 0.04136608 0.16152862 -0.10538327
-0.112557545 -0.05034519 -0.04491028 0.018399581 0.020513562 0.058069132 -0.08435624 -0.10067702
0.17740774 0.12472989 0.10718087 -0.18376207 0.14968042 0.20918606 -0.0970968 -0.19475554
0.08988441 -0.09570556 0.084610544 -0.067625575 0.21550654 -0.05193087 0.003747116 -0.04061209
-0.11136171 0.06461409 0.1408125 -0.18916228 0.0049267355 0.13806383 0.07880078 -0.2072632
-0.019416781 0.091720924 0.057841405 -0.22008875 -0.039938368 -0.13912758 -0.09721871 -0.00092952343
0.1980138 0.12868643 -0.10727756 0.11433013 -0.12292359 0.057012063 -0.17872667 0.025470933
-0.0891255 0.20977484 -0.1629284 -0.110295504 0.12034798 -0.07638984 0.05787336 0.22350931
-0.19457604 -0.20509928 -0.0019998841 0.009601893 0.1436202 0.08898249 -0.15735455 0.18362127
-0.06611037 0.13410237 -0.13656098 0.05362595 0.13857836 0.13868506 -0.15971333 -0.12649211
0.012866575 0.04749408 0.1570248 0.018712534 0.22108902 -0.10884049 0.09942968 0.12071004
0.17245963 -0.12598999 0.018917164 0.081684224 -0.08468843 0.03053799 0.14278619 0.03828858
-0.064398736 -0.17252755 -0.16115248 -0.08417511 -0.13819413 0.11518543 0.017627496 0.05834234
-0.17787604 0.0859515 0.0114058005 -0.17318036 -0.16647077 0.06764997 0.050292652 -0.14959554
-0.02898797 0.0103922505 0.16558437 -0.10950379 -0.18411031 0.08122849 -0.11010762 -0.07138535
-0.021182477 -0.12871891 -0.16379493 -0.11898254 0.20177397 0.059212618 -0.08873183 0.19543569
-0.11915011 -0.1421628 0.16570434 -0.18866967 -0.16158181 0.13933952 -0.12462716 0.1398896
0.17977074 -0.1519604 -0.061766393 0.19117726 -0.14590475 -0.15169312 0.1562948 -0.14269206
0.008116174 -0.099701256 -0.17233804 -0.16399586 0.11590714 0.09315958 -0.04580652 -0.12182744
0.020324731 -0.013767269 0.12269653 -0.08911414 -0.06318869 0.2004503 -0.082550965 -0.14632985
0.08892 0.06385902 -0.006015568 -0.10089596 -0.1435409 0.025982838 0.09420979 -0.22656053
0.10542731 -0.0136763165 0.10095012 0.16127577 0.17006364 0.19705193 -0.014492106 0.12625599
0.13010699 0.064444825 -0.14999415 -0.020932458 -0.1922019 0.040242303 0.083751634 -0.09474612
0.06521456 0.13694428 -0.22165516 0.18642263 -0.20536333 -0.03666883 -0.1267748 -0.12512001
0.04682765 0.022702396 -0.114250496 -0.048848264 0.09193213 0.15034011 -0.068662435 0.12603053
-0.16262849 -0.18702473 0.20969743 -0.17683285 0.1569904 0.21606259 0.09261667 -0.08569385
-0.0574068 -0.13343106 -0.0456138 0.13800228 -0.11906924 -0.08155389 0.043708485 0.11977515
-0.0063047903 -0.03933103 -0.21496405 -0.053783275 0.076070674 0.057284158 -0.049701087 -0.08039384
-0.017056972 -0.031905558 0.10264828 -0.11649918 0.03656371 0.19436336 0.03021875 -0.0669907

layers.10.bias f4 [64]
00000000: bf43 61ba 7a39 ebb9 3650 733b b566 cc37
00000010: 7616 99bc 40d8 023b 5058 9cbb 10d6 b7bb
00000020: a74e 71bb d1ff 4d3a b384 38bb 2085 36bb
00000030: d94b a43a 7d11 91bb 0dad 9c3a 9ad9 01bb
00000040: df2a 733b 666d 7fba 3d59 c5bb 7a06 023c
00000050: 158b ae3b 0321 b0b9 c74c f8b9 e0c7 133b
00000060: 27d5 7cbb b10a 2f3b 0323 203c 2128 093a
00000070: 605b 01bb d06a aa3a e112 a23b e2fa da3a
00000080: 8b31 9dbb 4a63 baba 87b5 f63a 39b7 0f3c
00000090: 9858 9c3b 0063 8abb efbc 823d 7c4c 21bc
000000a0: 4ea8 a03b d9b8 a3b9 fa6e deba a656 8f3b
000000b0: 9636 cb3a 2049 caba fd59 703b d163 62b9
000000c0: 72d2 92bb 0e63 603b cb80 8739 6c79 593a
000000d0: cc25 a5ba 2acd 993a cb64 f8b9 f5f1 fcba
000000e0: d683 213b c3c2 993a 9c9e f7ba 841f 85b7
000000f0: 70b0 e63a 856a ddba f336 11ba 5e50 fa37
-0.0008593164 -0.00044865516 0.0037126667 2.4366522e-05 -0.018687468 0.001996532 -0.00477127 -0.005610235
-0.0036820562 0.0007858249 -0.0028155267 -0.0027850345 0.0012534811 -0.0044271336 0.0011953429 -0.0019813539
0.003710441 -0.00097437797 -0.006022601 0.007936114 0.0053266385 -0.00033593932 -0.0004735945 0.0022549555
-0.0038579197 0.0026709253 0.009773972 0.0005232115 -0.0019738302 0.0013001803 0.004946098 0.0016706849
-0.0047971657 -0.0014220264 0.001882241 0.008771711 0.0047713034 -0.0042232275 0.063836925 -0.009844895
0.004902876 -0.00031227505 -0.001697033 0.004374343 0.0015503939 -0.001543317 0.003667473 -0.00021590224
-0.0044806534 0.0034238729 0.00025845165 0.00082959863 -0.0012599765 0.0011734117 -0.00047377343 -0.0019298183
0.002464523 0.0011731017 -0.0018891874 -1.5869511e-05 0.001760019 -0.0016892707 -0.0005539499 2.9839746e-05
