data/results/state_net_24000.pth (torch, 90299 bytes, 14 tensors)

layers.0.weight f4 [64, 6]
000000 44 96 d1 bd a6 b2 74 3e 68 e1 06 3e 79 3a 6a 3e
       -0.10233739 0.23896274 0.13171923 0.22873868
000010 d9 8d d9 bc 86 7c 41 3e 4c c8 68 3d 2c 1d 3f bd
       -0.026556896 0.18895158 0.056831643 -0.04665868
000020 89 9e 62 bd 17 8b be 3d f5 af 85 3e 4e 96 8f 3e
       -0.055326972 0.09303873 0.26110807 0.2804436
000030 39 59 95 be 06 af f9 bd 68 72 5c 3e 8c 04 dc bd
       -0.29169634 -0.12191586 0.21528018 -0.10743055
000040 69 7d 9e bd 0e 24 37 3d df b5 6d be cf 42 ae be
       -0.07738764 0.04471212 -0.2321391 -0.34035346
000050 bd 61 81 3e 3c 1f 5d be 57 8c 78 be f8 f9 54 3e
       0.2526988 -0.21593946 -0.24272285 0.2079848
000060 dc 67 3d bd f4 18 24 3e 1f 7a 04 bd a9 10 85 3a
       -0.046241626 0.16025144 -0.032343026 0.001015206
000070 ac f7 70 bd 1f cf fd 3d 5e 98 d4 3d b1 25 b8 bd
       -0.05882995 0.12393021 0.10380624 -0.08991564
000080 fb ea 55 3e 61 52 3f be 57 15 a4 bd f2 4f 6b bd
       0.20890419 -0.18683769 -0.08011883 -0.05744929
000090 ab 5e 1c 3e c7 c0 5c bd 85 1b 92 3b 70 5d 8b be
       0.15270488 -0.053894784 0.004458847 -0.27219725
0000a0 d4 d8 17 3e 13 e2 55 3e 05 f3 4b be e3 83 98 be
       0.14828807 0.20887022 -0.19916923 -0.29788122
0000b0 90 b9 ee 3c 59 3a 88 3e be ef a5 3d 19 0b 57 3e
       0.029141217 0.26607016 0.08102368 0.21000327
0000c0 f3 e7 7d be e4 2a 82 3e 27 42 84 3e 68 87 74 be
       -0.24795513 0.25423348 0.2583172 -0.23879778
0000d0 c4 52 8e 3d 10 7c 5e bd 64 13 e3 3e 7c 4d 13 be
       0.0694938 -0.054317534 0.4435073 -0.14385027
0000e0 e6 b7 a7 be 1b 5c 90 be b1 43 82 3e 07 f2 12 3e
       -0.3275749 -0.2819527 0.2544227 0.14350139
0000f0 95 8c 94 be 22 04 84 be a0 03 29 3e 6c 38 1e be
       -0.29013506 -0.25784403 0.16505289 -0.1545121
000100 f2 30 4b be 88 ab 05 be 30 8a db bd 80 26 68 be
       -0.1984289 -0.13053715 -0.107197165 -0.22670937
000110 ff 78 06 be 92 ce 08 3d af 99 6a 3d 65 ba 97 3e
       -0.13132094 0.033400126 0.05727547 0.29634395
000120 ed 98 9d be 8a 2b d7 bc 9b f5 c7 bd a6 67 32 be
       -0.30780736 -0.026265878 -0.097636424 -0.17422351
000130 0d ec 02 3e be 20 0d be 86 9a e9 bd cc bc 80 be
       0.12785359 -0.13782021 -0.11406426 -0.2514404
000140 c0 1f ee bd 71 15 8f 3c c0 32 2d be a3 77 4b bd
       -0.116271496 0.017466279 -0.16913891 -0.04967464
000150 2f 56 25 be 79 a0 10 3d 10 ad 07 3e d9 02 32 be
       -0.16146158 0.03530929 0.13249612 -0.17383899
000160 d3 78 03 be e2 07 8a bd e4 92 1e be 19 5a 29 be
       -0.1283906 -0.06739785 -0.15485722 -0.16538276
000170 4d 7d 27 3e ec a2 85 bd 0c 99 ed 3d e2 f9 4d 3b
       0.16356392 -0.065252155 0.11601457 0.003142946
000180 ff b2 be 3c b7 2b 74 be 2c d4 1b 3d da 53 84 3e
       0.023278711 -0.23844801 0.03804414 0.25845224
000190 76 cf 89 3e 75 78 78 3e e6 d1 da bd f1 a7 dc bc
       0.26916093 0.242647 -0.10684566 -0.02693555
0001a0 1e a2 8f 3e 5a ff c0 bd b2 d9 be 3d 49 2e 9e 3b
       0.28053373 -0.094237044 0.09318866 0.004827295
0001b0 ce 18 3c 3e 64 69 18 be 5f 6b 1c 3d 8d ef 85 be
       0.18368837 -0.14883953 0.038188335 -0.26159325
0001c0 c1 a6 7e bd e3 7a 23 3e 73 b9 a0 3c 66 22 8b 3e
       -0.062170748 0.15964846 0.01961968 0.2717468
0001d0 92 83 73 be aa 4a c8 3d ae 00 cc bc dc bc e2 3e
       -0.23780659 0.09779866 -0.024902668 0.44284713
0001e0 63 65 8e 3e b0 e6 91 3e 48 a8 48 be 7a 1f 98 3e
       0.27811727 0.28496313 -0.19595444 0.29711515
0001f0 99 3d 3d be 1b 5a 3c be 2d 72 45 3e e1 8d f6 3a
       -0.18480529 -0.18393748 0.19281836 0.0018810594
000200 1e ef 18 3e 91 90 8b 3e eb 35 58 bc 2b 2d 7d 3d
       0.14934966 0.27258733 -0.013196449 0.061810654
000210 06 49 cd bc 48 fa 58 3e 0f 48 0e 3e a2 a6 02 3d
       -0.025059234 0.21189225 0.13894676 0.031897195
000220 5a cc 68 be e5 22 43 3e 04 cb 32 3e f1 14 0b 3d
       -0.22734204 0.1905628 0.17460257 0.03395552
000230 65 97 02 3e e2 b1 b3 3d 5c 98 0b be cc 2f 1b be
       0.12753065 0.08774163 -0.13632339 -0.15154952
000240 c0 11 7b bd d1 26 8f be 00 6b a0 bb c2 24 89 bd
       -0.061296225 -0.27959302 -0.004895568 -0.06696464
000250 08 08 7d be 09 a3 7d 3d 9f 18 92 3d 8f 53 2f 3e
       -0.24710095 0.06192306 0.07133602 0.17121719
000260 f6 48 64 bd 3e d4 9d bd 64 cd 77 bd 8f 09 85 be
       -0.055733643 -0.077064976 -0.06049861 -0.25983855
000270 93 56 47 3b b7 74 3e 3e 0f 38 4f 3c a3 57 fb 3c
       0.0030416592 0.1859921 0.012647643 0.030681437
000280 ab 0a 86 3e 42 60 9d 3e ab 4f 87 3e 7b a3 66 3e
       0.26180014 0.307375 0.2642797 0.225233
000290 69 a9 2a 3e 88 40 0c bc 36 17 95 be e9 8d ae 3c
       0.16666187 -0.008560307 -0.2911927 0.021307902
0002a0 94 5a 21 3e 03 73 c7 bd 5c 90 1b 3e 18 8a 54 be
       0.15757209 -0.097387336 0.15191787 -0.20755804
0002b0 cf 37 a0 3b 22 88 a5 3e cc 09 9d be 63 2d ad bd
       0.0048894654 0.32330424 -0.30671537 -0.084559225
0002c0 64 66 0e 3e 0f 38 6c be 9a 03 d5 bd 24 2c b6 bd
       0.13906246 -0.2306826 -0.104010776 -0.08895138
0002d0 85 aa 5c 3e f9 ac b9 39 bc 95 8d 3b 27 3e 6b 3e
       0.21549423 0.00035414824 0.0043208282 0.22972928
0002e0 11 65 89 3d a0 e0 d0 bd 15 a3 3d 3e ed bf b2 bd
       0.0670873 -0.10199094 0.18519242 -0.08728013
0002f0 b6 09 8b 3e 12 fe bf bd 59 de 89 3e 6c 7b 05 be
       0.27155846 -0.09374632 0.2692745 -0.13035363
000300 31 6a 23 3e 59 d6 92 3e a6 d0 c5 bd a7 3f ed bc
       0.15958478 0.2867916 -0.09658937 -0.028961016
000310 5c d7 19 be 8b 04 35 3e 31 05 b9 bd 92 58 a2 3e
       -0.1502356 0.17677514 -0.09034193 0.317082
000320 42 2c 33 be 71 e6 d0 bd 3a a2 3c bd b6 ba c4 3e
       -0.17497352 -0.10200203 -0.04605315 0.384237
000330 98 f3 13 3e 88 28 5d bd c9 30 17 3e bf d4 83 be
       0.14448392 -0.05399373 0.14764704 -0.2574825
000340 ca c7 a6 bc dc e5 a3 3e e8 37 91 bd da 3f 34 be
       -0.020358939 0.32011306 -0.070907414 -0.17602482
000350 69 06 14 be 3d 1b 76 3e 2e 9e 37 3d fb 3a 6e 3d
       -0.1445557 0.24033828 0.044828586 0.058161717
000360 9b d9 0d be 1d 30 56 3e 9d 54 0f 3c e4 5d 98 3e
       -0.13852541 0.20916791 0.008748201 0.29759133
000370 cd f7 3e 3e 98 e9 96 be 31 94 82 3e b7 71 35 be
       0.18649216 -0.29475093 0.25503686 -0.1771916
000380 db 1f ce bd 1e 3e 26 3d b0 24 76 be b9 54 81 bc
       -0.1006467 0.040586583 -0.24037433 -0.01578747
000390 c3 ff 28 be 51 08 1b bd f0 82 c7 bc cc 42 3a bd
       -0.16503815 -0.037849728 -0.024354428 -0.04547386
0003a0 18 c6 e7 3d c6 f7 fd bd 51 c9 f1 3c 35 e4 9a bc
       0.1131708 -0.12400775 0.02951494 -0.018907646
0003b0 5c 94 c2 bd cd 90 90 be 8f cb 22 3e d5 9a 83 be
       -0.095009536 -0.28235474 0.15897964 -0.25704065
0003c0 5b 82 31 3d bf 23 96 3e f9 55 8e 3e 38 cc 32 be
       0.043337207 0.29324147 0.27799967 -0.17460716
0003d0 7c a5 7e 3e 26 b5 46 be fe 87 3b be ce 3f 17 3d
       0.24867815 -0.1940504 -0.18313596 0.036926083
0003e0 fd 7c d7 bd e2 0d 3e be f4 d2 b4 3d f3 a7 88 3e
       -0.105218865 -0.18559983 0.088292986 0.26690635
0003f0 23 3e 3a 3e 75 b9 d5 3d 93 f4 29 3e 41 18 7b 3e
       0.18187766 0.10435764 0.16597204 0.24520971

layers.0.bias f4 [64]
000000 dc b7 a4 3c f3 83 88 bc e2 18 1e bb 8d f3 84 3d
       0.020107202 -0.01666448 -0.0024123718 0.06491766
000010 cc df fc bb e8 56 4d 3d 55 c6 bd bb fb fc 30 3c
       -0.0077171084 0.05013171 -0.0057914653 0.010802503
000020 29 9e 16 bb 59 39 bc bc 32 bb b4 3b 3d a5 8e 3b
       -0.0022982454 -0.022976564 0.0055154795 0.004353194
000030 63 99 9a bc e1 c4 2f 3c 3b 19 dd 3c db 40 07 3c
       -0.018871969 0.010728092 0.02698957 0.008255209
000040 e2 b7 53 3c e1 17 0f 3c d4 5a 33 3b 42 d4 20 3b
       0.012922259 0.0087337205 0.002736737 0.0024540578
000050 ba cc 5d bb fe b5 d2 bc 5e 34 c0 b9 00 24 67 bc
       -0.003384395 -0.025721546 -0.0003666011 -0.014107704
000060 c3 e2 b6 b9 66 4e b3 bc 56 8e a6 bc 6b e8 8d 3c
       -0.00034882696 -0.02188797 -0.020331543 0.01732274
000070 d5 2c 10 bc 56 2c 87 3c ba 50 2f bc 09 2f 4a 3c
       -0.008799751 0.016500633 -0.010700399 0.012340316
000080 9b df 50 3b 8f d0 43 bc a5 3e c6 bb 5b 8d 09 bc
       0.003187156 -0.01195158 -0.0060499483 -0.008395518
000090 df af be bc e9 c8 2b 3b 55 94 f0 bb f7 db ec 3b
       -0.023277221 0.002621228 -0.0073419013 0.0072283703
0000a0 67 0b de 3b 28 5c 3a bc ef b2 df b7 e5 00 10 bb
       0.0067762616 -0.011374511 -2.6666994e-05 -0.002197319
0000b0 b7 aa ed bb da f2 86 b9 fb eb 0c 3c 41 36 f1 3a
       -0.007253017 -0.0002573941 0.008601184 0.001840301
0000c0 de 23 a8 3b 30 ad 2b bc f9 15 ea bb de 73 44 bd
       0.005131229 -0.010478303 -0.0071437326 -0.047962062
0000d0 69 d7 42 bb bd cf 13 3b 45 7c 9e 3c b1 9d 02 bd
       -0.0029730445 0.0022554242 0.019346366 -0.031888667
0000e0 5c f2 16 3b 5f f5 c2 3c b8 f0 33 3d c3 46 84 bd
       0.002303264 0.023798643 0.04393074 -0.06458809
0000f0 d3 fa a1 3c 97 b7 72 3c bb 8d 72 3c 66 19 f7 bc
       0.019772923 0.014814279 0.014804299 -0.030163478

layers.2.weight f4 [64, 64]
000000 d8 a1 af 3d bb 2d c0 bd 45 39 10 be e2 b2 e7 3d
       0.08575791 -0.093837224 -0.14084347 0.11313416
000010 f6 f5 95 3d 20 3d 46 3e 66 2c 88 3b 0f 92 ea 3d
       0.07322304 0.19359255 0.0041556833 0.1145364
000020 8b 11 29 3e ea 77 41 3c ba a8 f7 bd 5e b0 4d be
       0.16510598 0.011808375 -0.12092729 -0.2008681
000030 3e 40 1a 3e f2 04 7e be bc 4d e1 3d c1 bc a2 bd
       0.15063569 -0.24806574 0.11001155 -0.07946158
000040 51 a2 04 bd 6b 3a 0b 3e 72 76 53 be b9 e2 16 3e
       -0.03238136 0.13596503 -0.20650652 0.14734925
000050 a0 9b 58 bb de 20 fa 3d 70 8f 8e 3d 44 b4 e8 3d
       -0.0033051744 0.122133 0.06960952 0.11362508
000060 ae 73 8d bd a4 4c a3 bd 8c 47 cc 3d ae aa 41 be
       -0.0690683 -0.079736024 0.09974584 -0.18912765
000070 3a d4 15 be 08 bb 80 3c e7 8d 31 3e 28 cc 80 3d
       -0.1463174 0.015714183 0.17339288 0.0628894
000080 b4 0a a4 bd 60 36 00 3e 53 a2 e8 3d 71 bc 6e 3d
       -0.08009854 0.12520742 0.11359086 0.05828518
000090 07 c3 4b 3e 3a 42 1c 3e 4b 3f a1 3d d0 52 40 be
       0.19898616 0.15259638 0.078734 -0.1878159
0000a0 ee 26 05 3e 3b b9 f7 3d e1 84 07 be 83 ed ed 3d
       0.13003132 0.12095877 -0.13234283 0.116175674
0000b0 31 f4 5d 3e 8b d4 7f 3d 11 1b 0f 3e 6b 7b f7 3d
       0.21675183 0.062458556 0.13975169 0.12084087
0000c0 3f 09 1b bd 72 54 53 be f0 0e 92 bd ed 80 01 3e
       -0.037850615 -0.20637682 -0.07131755 0.12646838
0000d0 af 08 17 be fd 98 4f 3e 8f 39 da 3c f8 cb bd bd
       -0.14749406 0.20273204 0.026638774 -0.092674196
0000e0 63 b3 33 3e aa fc 1c be 77 70 40 ba 4a 3b 51 be
       0.175489 -0.15330759 -0.00073409773 -0.20432773
0000f0 02 56 02 3e 91 9a e7 3c de 74 02 3e 6a 1e f4 bd
       0.12728122 0.028271945 0.12739894 -0.119198635
000100 45 41 24 3e b6 5c 5e be ca e9 3d 3e 2e 81 d2 3d
       0.16040523 -0.21715054 0.18546215 0.10278545
000110 6d f7 7c 3d 03 97 24 be 3e 44 da bd d2 1c 1c bd
       0.0617594 -0.16073231 -0.106575474 -0.038113423
000120 dc 90 00 3e 15 4b 38 3e f0 ea 50 3e 10 ff 41 3d
       0.1255526 0.17997392 0.20402122 0.047362387
000130 71 58 5b bd e3 8e 45 be 6a 80 ad 3b 0d 96 48 3d
       -0.05355114 -0.19292788 0.005294849 0.048971225
000140 ee ac bb bd 84 18 c6 3d fc 97 14 be 96 81 12 3d
       -0.09163843 0.09672645 -0.14511102 0.035768114
000150 53 79 94 bc 95 26 27 be ed 4b 42 be 4b ca 33 be
       -0.018124258 -0.16323312 -0.18974276 -0.17557637
000160 50 87 57 3e 93 00 9b bd 78 c9 58 3d c4 bd 86 bd
       0.21047711 -0.07568469 0.05292651 -0.06579164
000170 08 35 38 3d ac bb 32 be 70 68 9c 3d 7b e5 33 3e
       0.04497245 -0.17454404 0.07637107 0.17568009
000180 23 97 10 3c cc ad 6a 3c c9 e5 31 be ae bb 0f be
       0.008825096 0.014323663 -0.17372812 -0.14036438
000190 55 18 33 be 72 21 4b 3e 43 77 47 bc 8c de 9f 3d
       -0.1748975 0.19836977 -0.01217443 0.07806119
0001a0 70 ce ae bc 5c fe d7 3d 77 1f 23 3e 0c 46 29 be
       -0.021338671 0.10546562 0.15929972 -0.16530627
0001b0 20 c0 17 be 5c 91 86 bd d9 df 78 3c bb 28 16 bd
       -0.14819384 -0.06570694 0.015190088 -0.036659937
0001c0 d2 91 a2 3d d5 f5 be 3d cd 5d 4a 3d 97 2f 41 be
       0.07937969 0.093242325 0.04940586 -0.1886581
0001d0 c6 d1 01 be 6c 13 ed 3d e5 89 ae bd 71 a7 2b be
       -0.12677678 0.1157597 -0.08522395 -0.16763093
0001e0 15 5a 41 bd 25 5b 1d 3e 8a ac 6a 3d 4f 0c b2 bd
       -0.04720505 0.153668 0.057293452 -0.08693754
0001f0 42 5a 48 3e 98 be 27 bd 3f 70 37 3e cd 05 53 3e
       0.1956568 -0.04095325 0.17913912 0.20607682
000200 4b 43 48 be 21 5d 00 bd ef 63 20 3e 11 13 64 be
       -0.1955692 -0.031338815 0.15663122 -0.22272898
000210 88 5d fe 3d 72 b9 31 3e a0 59 6d 3e dd 1c a4 bd
       0.124201834 0.17355898 0.2317872 -0.08013318
000220 ef 42 4c 3e c9 7a e4 3d b8 63 23 3e 93 79 af 3d
       0.19947408 0.11156232 0.15956008 0.0856811
000230 39 43 c3 3c 3d fa 6b be 2d b2 0e be 84 ea 85 3e
       0.023835765 -0.23044677 -0.13935156 0.26155484
000240 9d 27 c5 3d 2f a2 28 bd d4 13 53 3e b5 fe 48 be
       0.09626696 -0.041170295 0.20613033 -0.19628413
000250 de fc 02 bc 11 54 3b 3e f1 1d c7 bd 01 2a 4b 3d
       -0.007994859 0.18293788 -0.09722508 0.049600605
000260 fc 91 c1 3d f9 b8 47 bd 2e fc 98 3d 05 f1 bd 3d
       0.094516724 -0.048760388 0.074699745 0.092744865
000270 23 cf 8b bd eb b7 fd bd c8 fe 9a 3d 9a 62 1a be
       -0.068266176 -0.12388595 0.07568127 -0.15076676
000280 75 68 67 be 21 dd a5 bc 5d 11 e4 bd b4 23 83 3d
       -0.22598441 -0.020247044 -0.11136124 0.06403294
000290 49 bf 6d 3d 22 58 61 be 0f 11 d9 bd c4 a9 95 3e
       0.058043752 -0.22006276 -0.10598957 0.29231083
0002a0 2c eb 0a 3c 70 f1 eb 3c 8f bf f4 bd 34 a8 99 3d
       0.008478921 0.02880165 -0.119505994 0.07502785
0002b0 1c 1e d9 3d d5 0e 82 3d 6e 6d d7 bd 8a 70 8a 3d
       0.10601446 0.06350485 -0.10518919 0.067597464
0002c0 56 b2 ea 3d e0 23 59 3e 35 c8 5c be 70 bd cc 3d
       0.11459796 0.21205091 -0.21560748 0.0999707
0002d0 59 af c0 bd 12 de 87 bd f9 1e 62 be 86 4a 43 3c
       -0.09408445 -0.066341534 -0.22082128 0.011919623
0002e0 79 e6 58 be d5 78 7f bd a5 75 3d bc 78 4a a0 3d
       -0.21181668 -0.062371094 -0.011563693 0.07826704
0002f0 4d 8d ba 3d 66 1a fe 3d 91 54 7a be 6b a8 b5 bd
       0.09108982 0.12407379 -0.24446322 -0.08870014
000300 48 d9 3c 3d ba 73 1f be 85 1c d6 bd d2 86 98 bd
       0.046105653 -0.1557149 -0.104546584 -0.0744759
000310 19 d6 de 3d 1f 93 e2 3d 29 a0 95 bd ec 2f eb bd
       0.1088068 0.11063217 -0.07305939 -0.1148375
000320 12 d7 5f 3d f7 18 9a 3d 25 e2 4e 3e 2a bb 19 3e
       0.054648466 0.07524293 0.20203455 0.15012804
000330 28 b9 68 bd 3e eb 81 bc 50 b3 fc 3d 1a a0 db 3d
       -0.056817204 -0.015859243 0.12338889 0.10723896
000340 69 5c d4 3d 09 aa 5f 3e 63 53 a9 3d 31 5f ad bc
       0.10369188 0.21842207 0.08267858 -0.021163555
000350 f8 71 8f be 72 14 e2 bd a9 3d e1 3d 67 76 4c 3e
       -0.2801664 -0.11039056 0.10998089 0.19967042
000360 97 f6 a3 3d 12 05 21 be e8 d4 33 be 1b fa 5b 3e
       0.08006018 -0.1572459 -0.17561686 0.21482126
000370 6d 40 71 bd cf de 3c bd c5 47 87 bd 8b 16 03 3e
       -0.05889933 -0.046110924 -0.06605486 0.12801568
000380 7b 1d 3a 3e 96 42 92 3d 1c 8a 18 3e 8f 13 35 3e
       0.18175308 0.071416065 0.14896435 0.17683242
000390 20 f5 61 be 28 0f b2 bd 49 8d e7 bd 9c 10 cc 3d
       -0.22066164 -0.08694297 -0.11306245 0.099641055
0003a0 18 76 26 3e 38 9c 04 3d 4e e3 13 3e 8e 62 63 be
       0.16255987 0.032375544 0.14442179 -0.22205564
0003b0 2d 0a 35 bd f0 3c cd 3c 3e 27 e5 bc 02 eb 28 3e
       -0.044199158 0.025053471 -0.027972814 0.16495898
0003c0 e8 78 d1 bd fb 23 3d 3e ca ef 8b bd 30 b9 1f 3c
       -0.10228139 0.18470757 -0.068328455 0.009748742
0003d0 29 2d 08 3d 0c 35 3f 3e ab 42 6c bd 2a 9f 3d bd
       0.033246193 0.1867258 -0.057680767 -0.04629437
0003e0 f9 8f 16 3e ad 47 5b 3e 0f cd e3 bd e0 98 88 3d
       0.14703359 0.21414061 -0.11123096 0.066697836
0003f0 94 05 05 3c 54 4f 49 be 10 10 43 be f4 79 70 bd
       0.008119006 -0.19659168 -0.19049096 -0.058710054

layers.2.bias f4 [64]
000000 65 dd 2f bb 52 cc 84 3a 5e 77 82 bc e2 ee c6 3b
       -0.0026834842 0.0010131693 -0.01592606 0.0060709575
000010 11 5b ea 3a 10 c6 cd bb 19 60 f4 bb 7b c3 a1 bc
       0.0017879923 -0.0062797144 -0.007457745 -0.019746533
000020 65 4b 25 3c a3 5a 94 3b c9 b8 4a 3b 58 1c bd 3b
       0.010088776 0.0045274063 0.0030932894 0.005771201
000030 5b f8 78 3b 06 25 0a bc 24 67 04 3c c1 75 85 3c
       0.0037989828 -0.008431679 0.008081231 0.016291501
000040 f2 8e 11 3c 67 62 3d bb 6d 66 50 3d fc 78 e2 b7
       0.0088841785 -0.0028897764 0.05087893 -2.6997637e-05
000050 54 f5 b2 3c 9a 35 0d 3a 89 70 e6 3c 9e 5e 15 3d
       0.021845497 0.00053867104 0.028129833 0.036467187
000060 ac dc 69 3c 14 5a 13 bc cf 51 79 bc be c9 10 bc
       0.014273804 -0.008993644 -0.015217259 -0.008837162
000070 18 29 9b bb ca aa eb bb bb fc 93 3c 63 eb b1 3b
       -0.0047351234 -0.0071919905 0.018064847 0.0054296716
000080 40 dd 23 bc ff b2 02 3d 0c ea 98 3c be 05 c0 3c
       -0.010001481 0.031908985 0.01866629 0.023440238
000090 8a 7d 77 3d 88 0c f3 39 48 87 d2 ba 1c 8b a0 bc
       0.060422458 0.00046357908 -0.0016062045 -0.019597583
0000a0 ec da 5c bc e7 97 2a bc 4f 6d 96 bc 03 8d 85 3c
       -0.013479929 -0.010412193 -0.01836267 0.016302591
0000b0 f2 ff a6 bb 96 b7 86 bb 7c eb 75 38 2b 3b 44 3c
       -0.005096429 -0.0041112406 5.8631864e-05 0.011976997
0000c0 ff 8e 87 bc d3 1f b0 3c 94 db 8e ba c7 ca 40 bc
       -0.016547678 0.02149955 -0.001089918 -0.011767096
0000d0 eb a9 07 bc db be 86 bc c0 be 72 3c c5 d5 68 3c
       -0.008280258 -0.016448429 0.014815986 0.014211123
0000e0 b9 65 27 bd 37 ff d8 3c ec 1e ad bb 8d 8b b4 bc
       -0.040868495 0.026488883 -0.005283227 -0.0220392
0000f0 63 88 bd 3b ed b1 28 3c 8b ba 15 bd 5a 03 d4 3b
       0.005784081 0.010296327 -0.036554854 0.006470126

layers.4.weight f4 [64, 64]
000000 a5 29 83 3e c2 f9 42 3d 0f 03 db 3d 64 0f a7 3d
       0.2561771 0.04760147 0.10693943 0.081572324
000010 cc 03 90 bd a6 50 93 3d 6a 26 9a be 65 19 f1 3d
       -0.07031974 0.07193117 -0.30107433 0.11772422
000020 6a 16 28 3e f5 55 9c 3e f3 eb ec 3c e2 a0 97 be
       0.164148 0.3053433 0.028921103 -0.2961493
000030 8e de fc 3d 05 20 4c 3e 86 dd a1 3e 35 81 ce be
       0.123471364 0.1993409 0.3161432 -0.40332952
000040 a4 e9 42 bd 9c c1 79 3d 9d 25 39 3d 80 5f 32 3e
       -0.0475861 0.060975656 0.045201886 0.17419243
000050 16 02 97 be 41 38 f1 3d ed 5b 17 bd 6f 82 58 3d
       -0.2949378 0.11778308 -0.0369529 0.052858766
000060 34 e2 32 be 8e 5d 41 be cb 58 fe 3d 14 4c 62 bd
       -0.17469102 -0.18883345 0.1241928 -0.055248335
000070 fe 72 fa bb 7d 3a 82 3e a1 d1 68 3e 97 28 07 be
       -0.0076431027 0.25435248 0.22736217 -0.13199078
000080 82 c7 16 bd 6a dd 2a be cf c9 6d be 89 23 59 be
       -0.03681136 -0.16686025 -0.23221515 -0.21204962
000090 56 10 17 be d5 fc b3 bd 45 bf 4e be e1 9e b4 bd
       -0.14752325 -0.08788458 -0.20190151 -0.08819366
0000a0 86 e3 2c 3e a0 f3 c1 bc 91 b0 6d 3d f5 2a 3c be
       0.16883668 -0.02367574 0.058029715 -0.18375762
0000b0 2b 4e 9e bd de 54 d4 3c 2b ba 28 3e 6c ef 26 3e
       -0.07729753 0.025919374 0.16477267 0.1630227
0000c0 40 9b 48 3e 70 f2 91 3d 84 54 00 3e 66 be cc 3d
       0.19590473 0.071263194 0.1253224 0.09997253
0000d0 d1 f9 b0 3e 83 8e c3 3d 15 a8 25 be 4e 88 2f 3c
       0.34565595 0.09548666 -0.161774 0.01071365
0000e0 c7 1a 7e 3d 3a e3 d2 3d 0c ea a4 3d 26 40 ea 3d
       0.062037256 0.10297246 0.080524534 0.114380166
0000f0 35 58 af bd 37 52 38 3e e8 26 9d 3e b5 61 6d 3e
       -0.08561746 0.18000112 0.30693746 0.23181804
000100 5c 0f 44 be 1c e4 d2 3d 7f 8f 23 3e a6 54 df bd
       -0.19146484 0.10297415 0.15972708 -0.10904817
000110 be 7c 42 be 74 50 dd 3d b5 f5 ab 3b b4 33 3f 3e
       -0.18992898 0.10806361 0.0052477964 0.18672067
000120 7a ba db 3d b9 3e 09 3e f7 ee 2a be cc ba cb bd
       0.10728927 0.13402833 -0.1669272 -0.09947738
000130 90 a2 51 be 3b 07 0a 3d b0 06 13 3e 5f 2a 08 be
       -0.20472169 0.0336983 0.1435802 -0.13297413
000140 bb c6 12 3e 51 a3 49 be af 1b 17 3e b3 6c 32 be
       0.14333622 -0.19691207 0.14756654 -0.17424278
000150 7f be 29 be 91 66 dd bd ff 64 85 3d 8c ae 55 be
       -0.16576575 -0.108105786 0.06513404 -0.20867366
000160 94 17 77 3d 8d 11 68 be 72 83 d0 bc c2 95 4e bd
       0.06032522 -0.22662945 -0.025453303 -0.05043579
000170 8d e4 0c bd 8e 67 1e be 3c 70 57 3e 1a 58 50 3e
       -0.03439765 -0.1546919 0.21038908 0.20346108
000180 62 d7 60 be b6 24 d4 bc 7d ce 3d be 5e 08 46 be
       -0.21957162 -0.025896411 -0.185358 -0.1933913
000190 1d cb 9f bd 26 7a 09 3e 92 8e 45 be 50 16 55 3e
       -0.07802413 0.13425502 -0.19292668 0.20809293
0001a0 5d e1 4d 3e d9 db 9c 3d 39 6f 38 3e e5 c7 34 3d
       0.201055 0.0765912 0.18011178 0.044135947
0001b0 39 3f fe 3d f4 f1 bf 3d b6 33 3f be dc 9b 55 3d
       0.124144025 0.09372321 -0.1867207 0.052150592
0001c0 64 fc 86 3c c3 d8 51 be 5e 96 1e 3e 24 63 ba bd
       0.016477771 -0.20492844 0.15487048 -0.09100941
0001d0 30 cf 8c 3d 3e 71 a3 bd cf 82 0e 3e 54 7b 1b 3c
       0.068754554 -0.079805836 0.13917087 0.009489853
0001e0 2f 8c 87 bd dc 57 bd bd 56 74 91 3d 27 2b 46 be
       -0.06618535 -0.092452735 0.071022674 -0.19352399
0001f0 af bd f7 3d 6e e3 2f be af f9 10 be 5f 3a 03 3d
       0.12096726 -0.17176601 -0.14157747 0.03203809
000200 d7 ec ef bd 64 56 8b 3d 07 34 68 be 4b 31 96 bd
       -0.117150955 0.06803587 -0.22676097 -0.07333621
000210 04 96 e5 3d ac ae b8 3d 71 d2 87 3c 02 05 1f 3d
       0.11210254 0.09017691 0.016579838 0.038823135
000220 8d 6d fe bd f3 89 f7 bd 57 71 21 3e e1 51 e4 bd
       -0.12423239 -0.120868586 0.15765892 -0.1114843
000230 56 a3 37 be b2 83 0a bd 6c 9c de bd d6 40 10 3e
       -0.17933401 -0.033817 -0.10869679 0.14087233
000240 07 2f c0 bd 2a ce 3a be 4f 76 25 3d a8 3b 44 3e
       -0.0938397 -0.18242708 0.04039603 0.19163382
000250 f3 aa be bc b0 62 b1 3d e8 da 23 3d 41 8e 9a 3b
       -0.023274874 0.08661401 0.040003687 0.004716665
000260 f2 f8 83 bd 54 c6 c5 bd 31 ab 8f be d1 e5 4a 3e
       -0.06443967 -0.09656969 -0.28060296 0.1981423
000270 8d c6 3c be 87 f5 6f be f7 de 08 be 7f df 97 3d
       -0.18435116 -0.23433505 -0.13366304 0.07415675
000280 3b a9 76 bd 42 bb eb bc c8 69 fd 3d ac 9d 19 be
       -0.060219985 -0.028775815 0.12373692 -0.15001553
000290 71 75 2f be e2 66 e0 3d 4f c4 84 bd 70 5f 03 be
       -0.17134644 0.10957123 -0.064827554 -0.12829375
0002a0 a1 18 a6 bd d7 56 16 be 76 f3 b3 3c a9 48 8b bd
       -0.08110166 -0.14681564 0.021966677 -0.06800968
0002b0 ab 49 7d 3d 90 09 83 bd 16 0a 11 3e b6 f3 1c 3e
       0.061837833 -0.06398308 0.14164004 0.15327343
0002c0 5e d5 b4 bc 7a 0c b4 3d 32 67 70 be e4 0e 82 be
       -0.022074398 0.08791442 -0.23476866 -0.25401986
0002d0 7e 63 64 be cb dd cc bc 52 17 71 be fa 4d ec 3d
       -0.22303578 -0.025008103 -0.23544052 0.1153831
0002e0 1b 4e 59 3e e4 9e 37 be 29 d2 a1 bd bc a2 cc bd
       0.21221201 -0.17931706 -0.07901413 -0.099919766
0002f0 74 2f 73 3e 00 98 eb 3d c4 a6 95 3c 3e 77 6e 3e
       0.2374857 0.11503601 0.018267997 0.23287675
000300 f1 b5 3b 3e 6f 91 c3 3d 23 24 1b be 9f 15 89 bd
       0.18331124 0.09549224 -0.15150504 -0.06693577
000310 16 1d 3e bd 62 77 fe bc 97 af f1 3d e9 c1 03 3e
       -0.046414457 -0.031062786 0.11801069 0.1286694
000320 a9 b4 0f be 0e be 45 be f4 d0 49 be 83 a1 79 3d
       -0.1403376 -0.19310781 -0.19708616 0.060945045
000330 7c a3 19 be fd 00 dc 3d a2 ea 40 3d d1 31 d1 3d
       -0.1500377 0.10742376 0.047098763 0.1021458
000340 e4 df 87 bd 41 16 f0 3d 65 3b 0a 3e ee 99 65 3d
       -0.066345006 0.117229946 0.1349922 0.056055002
000350 44 ea d6 3c c9 ec d8 3d 1c 5e 2c 3c 7f 2f 84 3d
       0.026234753 0.10592038 0.010520484 0.06454372
000360 51 31 0a 3e b8 4e 47 3e de e4 60 bd 48 6b 0d 3e
       0.13495375 0.19463623 -0.054905765 0.13810456
000370 a5 d7 2e 3e a7 c1 46 be 28 44 09 bc 9b ed 4b be
       0.1707445 -0.1940981 -0.008378066 -0.19914858
000380 d8 d5 1b be 3c 84 24 3e d6 0c 1a be 47 0a 3e 3e
       -0.15218294 0.16066068 -0.15043959 0.18558608
000390 a6 5c 3d 3e af 48 21 be 36 3f 2e be c3 3b ab bc
       0.18492374 -0.15750383 -0.170163 -0.02090252
0003a0 d5 86 53 be 66 e7 f5 3d 64 69 6b bd 4e 93 19 3d
       -0.20656903 0.120070264 -0.057473555 0.037493996
0003b0 27 5d d5 3c ed 66 06 bd 70 fe 05 be c2 a9 4e 3d
       0.026045395 -0.032813 -0.13085341 0.050454862
0003c0 ac 7a a9 3d 82 c3 85 3b 9d fe 4f bd 4a 7a 94 bd
       0.08275351 0.0040821442 -0.050779928 -0.07249887
0003d0 c7 6a 0c be 25 fc 67 3d 0f fc 94 3d c3 ae 9e bd
       -0.13712607 0.05663695 0.07274639 -0.07748177
0003e0 d2 1e c8 bd 99 0d 38 3e 2e 17 1a 3e 19 d1 52 be
       -0.097715035 0.17973937 0.15047905 -0.20587577
0003f0 72 77 dc bd fb 72 7e bc 04 ac b6 bd 4c a2 28 3c
       -0.1076497 -0.015530343 -0.08919528 0.010292601

layers.4.bias f4 [64]
000000 2b da c3 bc 6e 41 45 bb d2 b1 f1 3c bd 18 0c bc
       -0.023907742 -0.0030098814 0.029503737 -0.00855082
000010 d2 c4 44 bc 2e 87 0d 3a 4a 42 d0 bb 96 9f 1f 3d
       -0.012009816 0.00053988665 -0.0063555585 0.038970552
000020 46 f1 cb 3a b1 65 8b 3b 2e 65 5b bc fb ec 30 3c
       0.0015559576 0.004254066 -0.013390822 0.010798688
000030 6f c0 ca 3b 80 38 0d 3c a2 d9 81 bb 56 f8 63 bc
       0.0061874907 0.008619428 -0.0039627114 -0.013914188
000040 7c 3d 05 3c cc eb ca 3c ad 8d 8a 3c 86 24 2d 3b
       0.008132335 0.02477064 0.01691326 0.0026419475
000050 e3 53 b8 3c e2 8e ff bb bc bc 23 3b ca 4b 09 3c
       0.022500938 -0.0077990154 0.002498432 0.008379886
000060 ba 14 af bb c7 f7 62 3b 0f 58 40 bc fa 4f 2a 3c
       -0.005343047 0.003463255 -0.011739745 0.010395044
000070 8f 3e 3f 3c f2 c9 84 3c 8e e5 b5 3b 02 b1 44 bb
       0.01167263 0.016209576 0.0055510467 -0.0030012731
000080 c9 2a 18 bb 70 48 26 3b 3c 97 9f ba 65 c5 8b bb
       -0.0023218861 0.0025372766 -0.0012175809 -0.0042654746
000090 28 17 29 bb e3 fe 2a bc 3c ee 7e 3c 7d 9a 8f 3a
       -0.0025801156 -0.010436746 0.015559729 0.0010956075
0000a0 ea 01 02 3d 60 1d 55 3c 62 30 e7 bc 2a 68 50 3b
       0.031740107 0.013007492 -0.028221313 0.0031800368
0000b0 87 a6 8c ba 63 2d 20 3b 01 ec db ba 8f 3d 49 bc
       -0.0010730781 0.0024441115 -0.0016778709 -0.012282743
0000c0 85 48 aa bc 33 37 ca 3b a2 3e 07 3d bd 75 3e bd
       -0.020786533 0.006171131 0.033018716 -0.046499003
0000d0 f4 f8 03 3d 40 b8 46 bc a6 69 a6 b9 cb 32 03 3c
       0.032219842 -0.01212889 -0.00031740702 0.008007715
0000e0 36 72 d6 bb f7 a4 79 bc fd 70 bc 3b 9e 75 c6 ba
       -0.0065443767 -0.015237085 0.005750774 -0.0015141254
0000f0 73 50 3e 3a ac cb 8c bc 88 e4 df 3b 40 b9 3b 3b
       0.00072599127 -0.017186962 0.006832663 0.0028644353

layers.6.weight f4 [64, 64]
000000 4d 82 d7 bb 50 01 d6 bd 36 7b 90 be 13 28 68 bd
       -0.0065768124 -0.10449469 -0.28219002 -0.056678843
000010 62 40 07 3e 4e a3 25 be 87 dd 97 bd 63 58 70 bd
       0.13208154 -0.16175577 -0.074153 -0.058678042
000020 81 ab 49 be 4b a3 38 3d c3 c8 25 3d f5 75 17 3d
       -0.1969433 0.045077603 0.040474664 0.036977727
000030 f2 b0 2b 3e 79 af 19 3e 55 f3 0b 3e a1 6a 8d bb
       0.16766718 0.15008344 0.13667043 -0.0043156897
000040 ed ab 07 3e 04 73 f3 3c 51 ef 5a be c1 1f aa 3d
       0.13249178 0.02971793 -0.21380354 0.08306838
000050 1a 89 25 3e 12 78 b1 3d b5 5a 44 3e c5 fb 9f bd
       0.16165581 0.0866548 0.19175227 -0.07811693
000060 cb c1 2e 3e 9f ad 55 bd f0 59 50 bc a7 71 9b bd
       0.17066114 -0.05216753 -0.012716755 -0.07590037
000070 9d e8 8e 3c 2b 03 a7 bb 79 9b 01 3e 6c 79 c6 3d
       0.017444903 -0.005096813 0.12656964 0.09691128
000080 2c d3 89 be 1e ad 58 3e 2f ab 8d be 11 1e 0e be
       -0.26918924 0.21159789 -0.27669665 -0.13878657
000090 d5 c0 a1 3d ac 87 78 3e c7 7a 95 3c f1 4c 13 be
       0.07898108 0.24270505 0.018247021 -0.1438482
0000a0 b0 53 4c be 08 e4 67 3e 8e 7f 3e 3e d1 bb 4a 3c
       -0.19953799 0.22645581 0.18603346 0.0123738805
0000b0 3b 11 24 be 1d 09 cf bd 55 6b 30 3e 94 28 e0 3d
       -0.16022198 -0.1010916 0.17228444 0.1094524
0000c0 08 b3 27 be 35 48 06 3e 94 e5 47 be 78 ae f6 bb
       -0.16376889 0.13113482 -0.19521171 -0.0075281225
0000d0 d2 07 eb bd ed 92 4d be 0d 46 34 3d b3 d8 77 be
       -0.11476101 -0.20075579 0.044012118 -0.24203758
0000e0 76 1c 11 be 20 ee 42 be 94 63 4a be 9e 7e 92 3d
       -0.14171013 -0.1903615 -0.19764549 0.071530566
0000f0 60 fe 83 3d b6 c8 b0 3d 21 98 71 be d5 a9 b8 bd
       0.064450026 0.086320326 -0.23593189 -0.09016768
000100 40 6a 6d be 7c 4b 3c be c6 d6 f2 bd 03 b2 b7 3d
       -0.23185062 -0.1838817 -0.11857371 0.089695
000110 56 ef 41 3e 1c 96 77 3d 93 eb 49 be 54 94 27 3e
       0.18938956 0.06044589 -0.1971877 0.16365176
000120 f4 bd 59 3e 1d 34 61 3e cc c0 49 be cc 45 e9 bd
       0.21263868 0.21992536 -0.19702452 -0.11390266
000130 79 d1 b7 bd bc e0 3e 3e 24 f6 54 3e 01 e4 12 3d
       -0.089755006 0.18640417 0.2079702 0.035861973
000140 1a f7 21 3e b7 5e 3c 3d fd 76 9b bd 47 d1 51 3d
       0.15816918 0.045988765 -0.075910546 0.051224973
000150 7a 28 06 be 19 01 5b 3d 60 cb 08 3e 38 1d 32 3e
       -0.13101378 0.053467844 0.13358831 0.17393959
000160 e2 ac 4a be 88 5e b7 3c 2b 3d 93 bc db 50 ca 3d
       -0.19792512 0.022383943 -0.017973503 0.09878703
000170 10 db 40 3e 53 bd cb 3b 5a b7 a6 3c c9 05 61 be
       0.18833566 0.0062176376 0.0203511 -0.21974863
000180 93 9c 36 3d 99 6d e3 bd b0 ac 0f 3e 2f ac 8d bc
       0.044582915 -0.111048885 0.14030719 -0.017294018
000190 fb 11 68 3c 3d d5 79 bd a5 b4 e5 3d 37 3d 0c be
       0.014164443 -0.060994375 0.11216096 -0.13695227
0001a0 d8 35 01 3e 5e c1 7e 3d 5b 0b d5 bd 38 4a 24 3e
       0.12618196 0.062196128 -0.104025565 0.16043937
0001b0 6f c0 03 3d 9d a4 6d bd 59 4f 85 3c 04 ea ad bd
       0.03216594 -0.058018316 0.016273187 -0.084919006
0001c0 bc 32 fb bd 85 4a 2d 3e 03 38 3d 3e 1c 23 f3 bd
       -0.12265536 0.16922958 0.18478398 -0.11871931
0001d0 5c 86 db 3d 72 fa 2e be 4c 71 ed bd b7 22 62 be
       0.107189864 -0.17087725 -0.11593875 -0.22083555
0001e0 d4 2f 06 3e fb 73 fc bd 87 02 70 bd d6 6a 7b 3d
       0.13104182 -0.12326809 -0.05859616 0.061381184
0001f0 ee 5a ba bd d6 56 1c be b2 c5 21 3e f4 b4 1b bd
       -0.09099375 -0.152675 0.15798071 -0.038014367
000200 c5 22 23 be 16 3b 9d 3c 3d dd 79 3d 1a 3f ec bd
       -0.15931232 0.019193213 0.061002005 -0.11535473
000210 22 19 ea bd 39 81 cf bd 5a 0f 25 3c 06 b6 ae bb
       -0.11430575 -0.10132069 0.010074461 -0.0053317575
000220 57 43 2a be 3a ea 1f 3e 0a 4a a7 3d b4 2c 3a 3e
       -0.1662725 0.15616694 0.08168419 0.18181115
000230 ee e8 61 be c6 6f 43 3d 85 a1 26 3e 6d c1 42 be
       -0.22061512 0.047714017 0.16272552 -0.19019099
000240 36 49 39 3e e2 31 15 be a0 dc 09 3e 42 1c 34 bd
       0.18094334 -0.1456981 0.13463068 -0.04397226
000250 70 8b 78 3d 85 a2 1e be e7 5a 94 bc c1 69 b9 bc
       0.060679853 -0.15491684 -0.018109752 -0.022633435
000260 51 ec 2c 3e 07 55 32 be 83 30 e3 3d 6f b2 26 be
       0.16887023 -0.17415248 0.11093237 -0.16279005
000270 a6 6b 30 bd 1f 9f 20 be 2f 9a 21 3e eb 7a 80 3b
       -0.04307141 -0.156857 0.15781473 0.003920903
000280 eb 99 b2 3d 8f 0c ac 3d 2e aa 82 3b b3 44 58 3d
       0.08720764 0.08400833 0.003987572 0.05279989
000290 be 3f 02 be b4 9f d8 bd 83 c6 a4 bd 31 73 0e be
       -0.12719628 -0.10577336 -0.080456756 -0.1391113
0002a0 27 60 09 3e dd 00 47 be 3e 23 cd 3c 4a 06 e4 3c
       0.13415585 -0.19433923 0.025041219 0.02783503
0002b0 f9 ec 61 bd ee 1a e0 bc 6b ca 58 3d 38 f0 a7 bd
       -0.055157635 -0.027356591 0.052927416 -0.08200115
0002c0 37 a7 26 be a1 7e 16 3e 48 6b ee bc c9 8a 1e be
       -0.16274725 0.14696743 -0.02910389 -0.1548263
0002d0 f3 3d 2d be 0e 9e 0d 3e 02 78 4b be d4 f1 c4 3c
       -0.16918163 0.13829824 -0.19869998 0.024041094
0002e0 f1 21 4a 3e 0c 42 21 be 11 1c 3e 3e 74 cc 15 3e
       0.1973951 -0.15747851 0.18565394 0.14628774
0002f0 12 b7 be 3d 76 01 02 3e 2d a6 ba bd 18 fa aa 3d
       0.09312262 0.1269587 -0.09113727 0.08348483
000300 8b 51 29 be 85 92 5c 3e ef b2 a8 3c ab d0 bf 3c
       -0.16535012 0.21540268 0.020593135 0.02341493
000310 f6 b3 24 3e 66 a3 f1 bd 8b 43 44 be 83 48 14 be
       0.16084275 -0.11798744 -0.1916639 -0.14480786
000320 c7 81 a5 3d ee 49 04 3e b0 e1 a5 3d 5d e1 d1 bd
       0.08081394 0.12918827 0.08099687 -0.10248063
000330 a6 7c 4c 3d 22 c3 5a be 82 98 ba bb 54 93 aa ba
       0.04992356 -0.213635 -0.00569445 -0.0013013878
000340 90 18 be bd 45 81 4a be 2a 0f f8 bd b2 18 57 bd
       -0.09282029 -0.19775875 -0.12112267 -0.052513786
000350 c0 df 70 3b be 2d 8a bc bb 31 ba 3d 72 e3 1e be
       0.003675446 -0.016867515 0.090915166 -0.15516451
000360 96 d0 55 3d f6 b2 59 be 14 a4 c2 3d b2 b8 06 be
       0.052200876 -0.21259674 0.09503952 -0.13156393
000370 62 aa 3b 3d d4 de 43 bc b7 cf f8 bc 4c 43 2f 3e
       0.045816787 -0.011954982 -0.030372484 0.17115515
000380 33 7f ca 3d c3 a3 54 be 2c ee 45 3e fe 62 f8 3c
       0.098875426 -0.20765595 0.19329137 0.03032064
000390 d5 7c ae 3d e0 a7 09 3b 56 68 61 3e ce 8c ea 3d
       0.085199036 0.0021004602 0.22012457 0.114526376
0003a0 c6 4e fa bc 96 bf 57 be 57 9f f1 3d 9c f2 56 be
       -0.03055514 -0.21069178 0.1179797 -0.20990986
0003b0 34 77 ed 3d 98 6c 25 3d 7d 28 ab 3d 17 b2 8f 3d
       0.11595002 0.040386766 0.08357332 0.0701639
0003c0 cb 66 1d be 69 13 a8 bd a0 68 68 bd 80 d4 57 be
       -0.15371244 -0.08206827 -0.056740403 -0.21077156
0003d0 e7 e3 14 3e c7 44 ce bd b5 c4 da bd 15 3d 93 bd
       0.14540063 -0.10071712 -0.1068205 -0.07189385
0003e0 a1 47 ef 3d a2 51 c7 ba 3d 46 d3 3d f5 76 00 3e
       0.11683584 -0.0015206824 0.10316131 0.12545379
0003f0 f8 9f a6 bb f1 6d 2d 3e 89 12 cd 3d 14 4c 03 3e
       -0.0050849877 0.1693647 0.10013301 0.1282199

layers.6.bias f4 [64]
000000 30 f4 bb bc b1 97 c0 ba e0 23 38 3b 6a 2c f4 39
       -0.022943586 -0.0014693645 0.0028097555 0.00046572398
000010 4f b2 11 bd 24 c2 8c 3b 19 39 33 bc 05 b8 17 bb
       -0.03557044 0.0042956043 -0.010938906 -0.0023150456
000020 bb d2 29 bc a5 f0 dc ba e0 64 f1 bb ea 0e 28 3c
       -0.010365183 -0.0016856386 -0.0073667616 0.010257462
000030 00 67 9f 3b 9b f5 92 ba d7 15 88 3b 25 aa 11 3b
       0.0048645735 -0.0011212112 0.004152994 0.0022226658
000040 60 be 07 bc 29 c1 3c 3c 6d 10 d8 b9 fa 26 e5 bc
       -0.008285135 0.011520662 -0.0004121097 -0.027972687
000050 dc 9c bc 3b 16 73 82 bc 8d 03 10 bb 46 ee 20 bd
       0.005756004 -0.015924018 -0.0021974773 -0.039289735
000060 4a c9 a7 bb 8f 79 85 3c 35 17 f3 b6 c4 44 d7 3b
       -0.005120431 0.016293315 -7.244666e-06 0.006569477
000070 ea ac 2c bc 11 2b 10 38 30 c5 cf b8 41 40 a7 3b
       -0.010539273 3.4372384e-05 -9.907258e-05 0.005104095
000080 de 28 31 bd b9 52 85 3b 1c ac 44 3a 8b 26 68 3c
       -0.043251865 0.004068699 0.0007502453 0.014169346
000090 b2 bd 3c bb f1 88 23 3d bb 5f 6b bc 97 71 3c 3a
       -0.002879959 0.03992552 -0.014366086 0.0007188557
0000a0 73 96 3f 3c 7d 45 d1 3b 31 61 16 bb 79 b6 53 3b
       0.011693585 0.0063864575 -0.0022946114 0.0032304807
0000b0 06 90 cb 3b 16 27 47 3a 7e f1 9d 3b f3 85 c0 bd
       0.0062122373 0.0007597072 0.004820048 -0.09400549
0000c0 e0 9f 75 3c 88 4c bd bc d6 c0 15 bc e8 0a 23 ba
       0.01499173 -0.023107782 -0.009140214 -0.00062195817
0000d0 2c c5 04 bb 7e e1 93 bb 8c 3d c3 bb b4 a7 d7 ba
       -0.0020259125 -0.0045129647 -0.0059582647 -0.0016453178
0000e0 ff ff 5b bb 08 a9 4a bc 5d b4 0c 3c 74 ba 3d bd
       -0.0033569334 -0.012369402 0.008587924 -0.046320394
0000f0 92 9d 57 bb 17 55 77 bb 47 c7 04 bd 34 c0 65 bc
       -0.0032900316 -0.0037739926 -0.03241661 -0.014022876

layers.8.weight f4 [64, 64]
000000 db d1 0a be 31 f4 14 be 1a 8f bf 3c 2a 19 47 be
       -0.13556616 -0.14546277 0.023383666 -0.19443193
000010 8f c9 84 3b 02 51 94 bd 67 c2 94 bd 6d f4 49 be
       0.004052348 -0.072420135 -0.07263642 -0.19722147
000020 72 37 08 be 92 92 00 3e 17 47 e4 bd 4d b1 e5 3d
       -0.133024 0.12555912 -0.11146372 0.11215458
000030 2e 9a 20 3e 3b e9 69 3c d7 b6 f6 3d 27 4b 22 be
       0.15683815 0.014276798 0.12046593 -0.15848981
000040 71 5a 24 be 61 89 2a 3e d3 db 00 3e 3d 94 5f 3c
       -0.16050126 0.16653968 0.12583856 0.013646183
000050 59 8e 0b be 37 de 9b bd 2e 02 37 3e 6a da 7a 3e
       -0.1362852 -0.076107435 0.17871925 0.24497381
000060 f3 f2 35 be 77 da c1 3d 51 87 1e be 42 78 0d bd
       -0.17768459 0.09465497 -0.15481307 -0.034538515
000070 3b ff 85 bc 8d 8a 29 be d3 d9 5a 3c 94 3c 2c bd
       -0.016357055 -0.16556759 0.013357597 -0.04204996
000080 65 87 3c 3e 38 e3 d7 bd 12 1f 2f be 5b a0 04 3d
       0.18411024 -0.105413854 -0.17101696 0.03237949
000090 0e e5 6a 3e 3e a2 43 3e cb 54 cf 3d ee 2d 62 be
       0.2293894 0.19104859 0.10123595 -0.22087833
0000a0 1f ae f0 3d f7 57 1e bd 22 3c 36 be 14 fb aa bd
       0.11751961 -0.03865811 -0.17796376 -0.083486706
0000b0 c9 78 50 be 26 60 bb bd e0 de ba 3d 6d 12 4d 3e
       -0.20358576 -0.09149198 0.09124541 0.2002656
0000c0 b7 8c 4b be 4f 20 aa 3d c5 e7 52 3d 39 16 15 be
       -0.19877897 0.083069436 0.051490564 -0.14559259
0000d0 5b 52 81 bd 2c c4 15 be a5 65 10 be b4 ad 43 3e
       -0.06314536 -0.14625615 -0.14101274 0.19109231
0000e0 e4 13 4e 3e de 06 be 3d be 7f 36 bd 7f bc d1 bd
       0.20124775 0.092786536 -0.04455542 -0.10241031
0000f0 fb 3a 9a 3d ce d7 47 be ec 97 0b be 1f 5a a9 3d
       0.07530781 -0.19515917 -0.13632172 0.08269142
000100 7c 5f 1c 3e c6 64 91 bc eb 87 d6 bd 02 29 e1 3d
       0.152708 -0.017748248 -0.10475143 0.1099415
000110 30 68 1b 3e 5b 36 63 be 04 c4 11 bd ce 1a 62 be
       0.15176463 -0.22188704 -0.035587326 -0.22080538
000120 22 56 9d bc 43 9b 1b 3e ea dd 37 be 48 4d 17 be
       -0.01920611 0.15195946 -0.17955747 -0.14775574
000130 c2 d3 3d bd 71 2f 8c 3d 6a 4e 68 3e b7 c7 98 3d
       -0.046344526 0.06844986 0.22686163 0.074599676
000140 a8 35 30 3e 48 b8 4c 3e eb ec 10 3e 9e 2f 07 be
       0.17207968 0.19992173 0.14152877 -0.13201758
000150 e9 96 13 be 38 56 0e 3e 5e ea 49 bd 6d 78 22 be
       -0.14413036 0.13900077 -0.049295776 -0.15866251
000160 c7 b5 54 3d f4 61 2d be 80 69 07 3d 16 f6 5a 3e
       0.05193117 -0.16931897 0.033059597 0.21382937
000170 74 07 54 3e 27 2d 21 3d 35 88 05 3d 19 b4 c8 3d
       0.20705968 0.0393497 0.0326006 0.09799976
000180 95 e9 9e bd f4 47 05 be 49 ef 57 3e 0a 96 4e be
       -0.07759396 -0.13015729 0.21087374 -0.20174423
000190 af 8d 4e 3d bd c0 b3 bd c2 b5 b6 3d 1f ca 26 be
       0.05042809 -0.08776996 0.08921386 -0.1628804
0001a0 cb fc dc 3d da d4 fd bd 71 3f e9 bd 53 d5 43 3e
       0.10790404 -0.12394114 -0.113890536 0.19124345
0001b0 b3 db 98 3c 65 6c 46 3e 4b 2f 12 be ca b7 21 3e
       0.018659448 0.19377287 -0.14275853 0.15792766
0001c0 ea 2a 88 3c 90 5f 32 3e 90 d2 59 bd d5 0a cb bc
       0.016622026 0.17419267 -0.053179324 -0.024785439
0001d0 e2 27 63 3c 27 bd 0a be 47 3b 00 3d dd 35 02 be
       0.013864489 -0.13548718 0.03130653 -0.1271586
0001e0 a4 32 eb 3d c8 24 4d 3e ac 2b 42 bd 09 c7 2b bd
       0.11484268 0.20033562 -0.04740493 -0.04193786
0001f0 a3 b3 b1 3d b2 e6 5b 3b 2d 33 9b bb 60 e3 87 bd
       0.08676841 0.0033554253 -0.0047363252 -0.06635165
000200 e7 38 23 3e 9c af 1b bd f9 ff 5a 3e 09 1e 14 3e
       0.15939675 -0.03800927 0.21386708 0.14464583
000210 7f de d4 3d 3f 99 36 3d d3 e7 9c bd 76 cb 01 be
       0.10394 0.04457974 -0.076614045 -0.1267527
000220 21 f9 3d 3e d3 01 03 be c3 c1 01 3c 34 b0 37 be
       0.18552066 -0.12793665 0.007919732 -0.1793831
000230 4e 77 5c be f4 dc 75 3a e4 4b c6 bd 34 70 17 be
       -0.21529886 0.0009378933 -0.09682444 -0.14788896
000240 8f 37 2d be a3 28 68 3e e1 03 15 3b d9 f4 89 3d
       -0.16915725 0.22671752 0.0022737908 0.06736154
000250 4f 3f 33 be f6 7c fb bd 5a 71 28 3e b7 53 11 3e
       -0.17504619 -0.12279694 0.1644949 0.14192091
000260 83 dc 4a 3b 69 e2 48 be 8f df 5c 3e 2f 8f 08 be
       0.003095419 -0.19617619 0.21569656 -0.1333587
000270 66 17 13 be 13 1e df 3d ea 01 82 3d a0 82 02 3c
       -0.14364395 0.10894408 0.06348021 0.007965714
000280 13 61 02 3e 09 4a 92 3d 1f 94 59 3e 57 5f 3f 3e
       0.12732343 0.07143027 0.2124791 0.18688713
000290 c2 1d 34 3d 16 05 2c 3e 84 22 5f be 0d 5d 49 be
       0.04397369 0.16798815 -0.2179051 -0.19664402
0002a0 8e 03 0f be 50 39 35 bd ec 23 55 3e 2f 4e 9d 3c
       -0.139662 -0.04424411 0.20814484 0.01920232
0002b0 4a a5 9c 3b 10 22 1e bc dc 2f c5 bd 9a 06 ac bd
       0.004780446 -0.009651676 -0.09628269 -0.08399697
0002c0 50 a7 5d 3e 7e f7 10 be f5 09 8d 3d 60 13 46 3b
       0.21645856 -0.14156911 0.06886665 0.003022395
0002d0 5c 8c 47 3e a7 91 de bd 12 40 97 bd 71 71 02 be
       0.19487137 -0.10867625 -0.07385267 -0.12738587
0002e0 44 1b 04 bd 52 5b 27 be 93 d9 12 be f8 62 75 bb
       -0.032252565 -0.1634343 -0.1434081 -0.0037443023
0002f0 ba f7 22 bc 1c f6 c8 3d dd 4a 69 3d e1 8d 0b be
       -0.009946758 0.09812567 0.05695616 -0.13628341
000300 db c5 5d be 04 68 5b be 35 6b 5d 3c f6 10 26 3d
       -0.21657507 -0.21426398 0.01351433 0.04054352
000310 15 40 2e 3e c1 55 53 3e 7b 31 58 3e ce 1b 39 3e
       0.17016633 0.20638181 0.21112625 0.18077013
000320 c3 22 33 3e a2 7e 94 3c 3d 69 c7 3d da 60 ca bc
       0.1749373 0.01812679 0.097368695 -0.024704386
000330 32 62 38 be 62 73 8d 3d 93 95 5f 3e 1a 7c c9 bd
       -0.18006209 0.06906773 0.21834402 -0.098381236
000340 78 2c 24 3e 05 5a 02 be 98 95 11 be 85 ea 28 3e
       0.16032588 -0.12729652 -0.14217222 0.16495712
000350 ac 6f 48 be 5e af 8a 3d 66 0c e8 3d bf a2 11 3e
       -0.1957385 0.0677173 0.1133049 0.14222239
000360 07 7f 9b bd 24 14 33 be 4a 7d 5e 3e fb ea ca bc
       -0.07592588 -0.17488152 0.21727481 -0.02477025
000370 94 a2 cd 3d 0b 27 82 bc f0 06 0f be 9b 4c 44 be
       0.10040775 -0.015887758 -0.1396749 -0.19169848
000380 e8 68 37 3e a7 8f 6f be f6 25 16 be 51 f2 18 3e
       0.17911112 -0.23394643 -0.14662918 0.14936186
000390 92 81 35 3d 74 25 ef bc ae a5 17 be 2c 1b 81 be
       0.04431302 -0.029192664 -0.14809296 -0.25216043
0003a0 62 a2 2a bd bb 1a d9 3d 4a 0c b3 3d 53 9d a8 3d
       -0.041658767 0.106008016 0.08742578 0.08233132
0003b0 b5 8f 38 3e 7b 7c 14 3d 93 1b 49 bd 71 f3 11 be
       0.1802357 0.036251526 -0.049098562 -0.14253022
0003c0 5b cb e8 39 7e 6a bf 3d 28 b8 78 3d 89 01 28 3e
       0.00044402 0.09346484 0.0607225 0.16406836
0003d0 21 b3 2c 3e 3e da af 3d d2 f2 41 be 73 78 b4 bd
       0.16865207 0.08586548 -0.18940285 -0.08812036
0003e0 26 97 d1 3d 2b 7f 22 3e a2 19 c4 bc d0 d2 dd bd
       0.102339074 0.15868823 -0.023938004 -0.10831225
0003f0 5f fd a6 3d d8 ad fb 3b 6f ed cc bd 70 15 4b 3e
       0.081537955 0.007680636 -0.10006224 0.19832397

layers.8.bias f4 [64]
000000 82 76 ba ba f1 85 97 bb cf f0 35 3b cd ab e6 bb
       -0.0014225992 -0.0046241214 0.0027761941 -0.007039523
000010 d9 07 2c 3b 61 a9 30 3b 76 2c 1f bc de 9f b0 b8
       0.0026249795 0.0026956426 -0.00971519 -8.4221116e-05
000020 01 8a 0d ba 01 81 53 ba 4a c7 3e bc 52 b7 f2 bb
       -0.00053992873 -0.00080682343 -0.011644194 -0.0074071074
000030 d4 e9 bb bb 00 24 25 bb 27 87 8c 3d 72 0b 48 3c
       -0.0057346616 -0.002519846 0.06861716 0.01220976
000040 9c 0a 79 bb cc d9 7b bd 4f da 99 3b e0 da 00 3c
       -0.0038000708 -0.061487004 0.004695214 0.007864684
000050 1c fb 03 bc 21 b6 ce bc 0e b7 6e 3b 0b 3d 02 3b
       -0.008055475 -0.02523333 0.0036425027 0.001987281
000060 58 ff cd b9 86 f9 67 3c 9a b8 84 bb d8 8f f5 b9
       -0.00039290893 0.014158612 -0.0040503265 -0.00046837213
000070 4d c1 28 bb 8b 18 e4 ba 6c b4 99 bb 6b 47 0f bc
       -0.0025749982 -0.0017402334 -0.0046906974 -0.008745055
000080 8d 42 10 3c 55 b6 d3 bc b7 dc d6 3a 02 c8 89 bc
       0.008804929 -0.025843779 0.0016392682 -0.016819004
000090 95 7c 73 bb 9b e5 01 bb b2 6c 93 3b 24 12 02 bc
       -0.0037153114 -0.0019820693 0.0044990415 -0.007938895
0000a0 75 c0 cb 3a 9a 46 9b bb 9e 02 52 bc 75 c6 9a 3a
       0.0015545028 -0.004738641 -0.012818007 0.0011808412
0000b0 f0 6f 11 ba 62 28 25 3b 15 cb a0 ba 1f d2 0d 3b
       -0.0005547991 0.0025201072 -0.0012267554 0.0021640135
0000c0 08 bd dc 3c 27 bd bb bb 6a b7 02 bc 5d 84 f0 3a
       0.026945606 -0.005729336 -0.0079783 0.0018349994
0000d0 6f b3 45 bb 5f 13 21 bb 74 98 5e ba d7 ce f4 3b
       -0.0030166765 -0.0024578196 -0.0008491345 0.0074709463
0000e0 cb c1 09 bc fc 13 54 bb 0f 0e 8b ba 08 da 01 bc
       -0.00840802 -0.0032360544 -0.0010609048 -0.007925518
0000f0 12 aa eb bb af a9 9e bc 67 0f 94 bc 27 f1 18 3b
       -0.007191905 -0.01936802 -0.01807375 0.0023337097
