data/results/state_net_16000.pth (torch, 90299 bytes, 14 tensors)

layers.0.weight f4 [64, 6]
-0.10262814 0.23655318 0.13186492 0.2289812 -0.02536912 0.19047567 0.05453459 -0.044777483
-0.05394661 0.09419107 0.26218218 0.28030667 -0.28619465 -0.115160964 0.20636739 -0.10494881
-0.07897487 0.046189096 -0.2334215 -0.33359942 0.24456526 -0.22312707 -0.24438521 0.20921491
-0.046109077 0.15963134 -0.032308523 0.00081255654 -0.058390178 0.12255192 0.101794854 -0.0916436
0.2050988 -0.1859523 -0.0816709 -0.055079192 0.15205494 -0.073137894 0.0068305684 -0.27115434
0.14714642 0.20845821 -0.20052513 -0.29440597 0.02903235 0.26500693 0.08110063 0.21265508
-0.24791756 0.25280946 0.25818342 -0.23842852 0.069574006 -0.0543076 0.438724 -0.14831468
-0.31985757 -0.27909768 0.2524384 0.14263098 -0.28949293 -0.25721914 0.1611903 -0.15530911
-0.19975303 -0.12923339 -0.11179237 -0.22410953 -0.13069338 0.036142483 0.058078937 0.29764107
-0.30628043 -0.027246911 -0.09737403 -0.17419092 0.1269261 -0.14108835 -0.11414291 -0.248108
-0.116719775 0.015995383 -0.16922584 -0.05002866 -0.16072565 0.03112807 0.12423649 -0.17378016
-0.13161582 -0.06730345 -0.15326463 -0.16463144 0.16282617 -0.065859504 0.115089305 0.004195154
0.023491561 -0.236583 0.03830279 0.2580376 0.2691367 0.24316871 -0.1058844 -0.030912954
0.27997494 -0.09411689 0.09198882 0.005236781 0.18266556 -0.1477221 0.03936948 -0.26108086
-0.062230024 0.16023207 0.013222766 0.2932886 -0.22212721 0.10311592 -0.018794004 0.42715266
0.2769042 0.28344116 -0.19638298 0.29723912 -0.18408808 -0.18305157 0.19240683 -0.0005882175
0.1491489 0.27225238 -0.013075282 0.06067325 -0.023334045 0.21562777 0.13879234 0.030720906
-0.2256625 0.18864484 0.174591 0.03440926 0.12664866 0.087740995 -0.1362693 -0.15126267
-0.06169225 -0.27835035 -0.006427135 -0.067241065 -0.24695304 0.06166322 0.07309455 0.16597317
-0.05177753 -0.076330885 -0.056185137 -0.2595638 0.004251025 0.18467584 0.014849022 0.030919656
0.2623103 0.30677524 0.26422107 0.22711873 0.16525587 -0.009788867 -0.2898072 0.021805858
0.15571734 -0.08903835 0.15127477 -0.20802207 0.003643102 0.32475227 -0.30399454 -0.08182447
0.13442911 -0.23525451 -0.105646014 -0.08944489 0.21332538 -0.01112465 0.0068822564 0.23436883
0.07083552 -0.10358949 0.18766314 -0.09225078 0.2728543 -0.09485778 0.26887527 -0.12909447
0.15829659 0.2853241 -0.09549265 -0.028919568 -0.14925037 0.17713861 -0.09242539 0.30795676
-0.17189036 -0.10216599 -0.04656639 0.37958106 0.14579955 -0.054629948 0.14990106 -0.2581983
-0.020075785 0.31968957 -0.07124486 -0.17420384 -0.14503063 0.23996525 0.044211414 0.057352543
-0.13759361 0.20583941 0.008520421 0.29979157 0.18714236 -0.29740486 0.25358003 -0.17801628
-0.10101064 0.0410935 -0.23970456 -0.01465098 -0.16414805 -0.037465937 -0.024633612 -0.045283113
0.11237965 -0.124744006 0.029545126 -0.020302122 -0.094911106 -0.28187737 0.15831356 -0.25596204
0.045136206 0.28113 0.2797512 -0.17371306 0.24767467 -0.18956243 -0.18135463 0.034839164
-0.10357395 -0.18449517 0.08882635 0.26528725 0.18151917 0.105136536 0.16717017 0.2452507
00000000: b42e d2bd ff3a 723e 9907 073e 0c7a 6a3e
00000010: e7d2 cfbc 0e0c 433e aa5f 5f3d 9868 37bd
00000020: 1ff7 5cbd 3fe7 c03d be3c 863e 5b84 8f3e
00000030: 1b88 92be 83d9 ebbd f951 533e 67ef d6bd
00000040: 94bd a1bd c730 3d3d 0c06 6fbe 8bcd aabe
00000050: 516f 7a3e 6c7b 64be 1e40 7abe 6f3c 563e
00000060: dfdc 3cbd 6676 233e f155 04bd bf01 553a
00000070: 8a2a 6fbd 80fc fa3d d279 d03d a4af bbbd
00000080: 6b05 523e 486a 3ebe 1343 a7bd b89a 61bd
00000090: 4ab4 1b3e 52c9 95bd f6d2 df3b bed4 8abe
000000a0: 8dad 163e 1276 553e 7656 4dbe 61bc 96be
000000b0: 40d5 ed3c fdae 873e 1618 a63d 41c2 593e
000000c0: 1ade 7dbe 3e70 813e 9e30 843e 9b26 74be
000000d0: d17c 8e3d a571 5ebd 6fa0 e03e cedf 17be
000000e0: 5fc4 a3be e4e5 8ebe 9b3f 813e db0d 123e
000000f0: 6b38 94be 3ab2 83be 120f 253e 5a09 1fbe
00000100: 0f8c 4cbe c255 04be 66f3 e4bd f87c 65be
00000110: 7cd4 05be 240a 143d 2ee4 6d3d 6964 983e
00000120: cad0 9cbe ea34 dfbc 096c c7bd 1b5f 32be
00000130: eaf8 013e 7779 10be c2c3 e9bd 0610 7ebe
00000140: c70a efbd c008 833c 8a49 2dbe daea 4cbd
00000150: 4495 24be 4b00 ff3c b36f fe3d 6df3 31be
00000160: 4cc6 06be 64d6 89bd 67f1 1cbe 2595 28be
00000170: e7bb 263e 59e1 86bd f1b3 eb3d 8177 893b
00000180: 6071 c03c d042 72be 63e3 1c3d 811d 843e
00000190: 49cc 893e 3801 793e ecd9 d8bd 2a3d fdbc
000001a0: e058 8f3e 5bc0 c0bd a264 bc3d 4e99 ab3b
000001b0: ae0c 3b3e 7644 17be e441 213d 64ac 85be
000001c0: e9e4 7ebd e013 243e 4da4 583c ec29 963e
000001d0: 5175 63be 712e d33d e2f5 99bc c1b3 da3e
000001e0: 63c6 8d3e 331f 913e 9f18 49be ba2f 983e
000001f0: 9681 3cbe df71 3bbe 4c06 453e 9c32 1aba
00000200: 7dba 183e aa64 8b3e b539 56bc 8484 783d
00000210: 0a27 bfbc 87cd 5c3e 941f 0e3e 69aa fb3c
00000220: 1214 67be 1d2c 413e fcc7 323e b9f0 0c3d
00000230: 30b0 013e 8db1 b33d 2e8a 0bbe 9ae4 1abe
00000240: 03b1 7cbd f083 8ebe b79a d2bb afb5 89bd
00000250: 42e1 7cbe 9392 7c3d 98b2 953d dff4 293e
00000260: ad14 54bd 5e53 9cbd 6322 66bd 8ce5 84be
00000270: 2f4c 8b3b aa1b 3d3e 5049 733c 384b fd3c
00000280: 894d 863e a511 9d3e fc47 873e d091 683e
00000290: d638 293e 7c61 20bc 9c61 94be 33a2 b23c
000002a0: 5e74 1f3e bd59 b6bd c6e7 1a3e bd03 55be
000002b0: 1cc1 6e3b ee45 a63e 2ca5 9bbe 9693 a7bd
000002c0: c9a7 093e 8fe6 70be f05c d8bd e22e b7bd
000002d0: f871 5a3e 2a44 36bc 8d84 e13b 62fe 6f3e
000002e0: 3712 913d ba26 d4bd c42a 403e faed bcbd
000002f0: 8fb3 8b3e cc44 c2bd 05aa 893e 5731 04be
00000300: 8018 223e 0016 923e a791 c3bd bbe8 ecbc
00000310: 17d5 18be d363 353e 8649 bdbd 82ac 9d3e
00000320: 0704 30be 673c d1bd 66bc 3ebd 7358 c23e
00000330: 7a4c 153e a7c3 5fbd aa7f 193e 9132 84be
00000340: f975 a4bc 5aae a33e d3e8 91bd 7e62 32be
00000350: e982 14be 73b9 753e 0717 353d 80ea 6a3d
00000360: 57e5 0cbe 91c7 523e 3c99 0b3c 487e 993e
00000370: 3fa2 3f3e 7345 98be 3ed5 813e e649 36be
00000380: abde cebd a851 283d 1d75 75be aa0a 70bc
00000390: 6d16 28be e275 19bd 6ecc c9bc c97a 39bd
000003a0: 4d27 e63d c979 ffbd 9f08 f23c a350 a6bc
000003b0: c160 c2bd 3b52 90be f31c 223e 750d 83be
000003c0: bee0 383d 45f0 8f3e 8d3b 8f3e d6e1 31be
000003d0: 6e9e 7d3e a71c 42be 07b5 39be 83b3 0e3d
000003e0: 941e d4bd 4dec 3cbe 97ea b53d bbd3 873e
000003f0: 29e0 393e d351 d73d a82e 2b3e 0023 7b3e

layers.0.bias f4 [64]
0.019000057 -0.016769895 0.001341037 0.06821034 -0.0067859427 0.04810207 -0.006963939 0.010425396
-0.001736012 -0.0235126 0.0065529165 0.004360071 -0.01801152 0.010914404 0.024393791 0.008246196
0.011645667 0.007382351 0.0017325057 0.005021414 -0.003772247 -0.0256501 0.00053350755 -0.013218548
-0.00014232092 -0.022746462 -0.020638715 0.015123254 -0.008710768 0.016219942 -0.013795129 0.009097164
0.0035145541 -0.010488188 -0.0073974286 -0.0069175838 -0.02406613 0.0025314353 -0.006567252 0.006860161
0.0063920617 -0.011021775 0.0004299256 -0.0015727952 -0.0062178276 -0.00039236175 0.007714408 0.0010275783
0.006158813 -0.009050037 -0.007001234 -0.046357192 -0.0029290733 0.0029309418 0.0172255 -0.033215526
0.0031771343 0.023123255 0.040555738 -0.06714731 0.019229507 0.01468302 0.0144550055 -0.029795118
00000000: 02a6 9b3c 0561 89bc bcc5 af3a ddb1 8b3d
00000010: 9d5c debb ad06 453d c131 e4bb 48cf 2a3c
00000020: e68a e3ba 7f9d c0bc d9b9 d63b edde 8e3b
00000030: e58c 93bc 54d2 323c 7dd5 c73c 0e1b 073c
00000040: 78cd 3e3c a6e7 f13b 3f15 e33a ac8a a43b
00000050: cd37 77bb 2920 d2bc 16db 0b3a 9c92 58bc
00000060: fb3b 15b9 ca56 babc 8612 a9bc 86c7 773c
00000070: 9cb7 0ebc afdf 843c f704 62bc 450c 153c
00000080: 6f54 663b a6d6 2bbc 2166 f2bb e6ac e2bb
00000090: 5526 c5bc 70e6 253b 1a32 d7bb 34cb e03b
000000a0: 8074 d13b ad94 34bc a367 e139 4026 ceba
000000b0: ebbe cbbb e7b5 cdb9 25c9 fc3b ceaf 863a
000000c0: decf c93b 9b46 14bc 9c6a e5bb 0ae1 3dbd
000000d0: b2f5 3fbb 0b15 403b 7e1c 8d3c 010d 08bd
000000e0: 7837 503b fb6c bd3c c61d 263d 8784 89bd
000000f0: 3387 9d3c 0d91 703c b0d4 6c3c e414 f4bc

layers.2.weight f4 [64, 64]
0.08461423 -0.09311985 -0.14176668 0.11265844 0.070449136 0.19314122 0.0034184433 0.11648621
0.16200303 0.009003423 -0.12125866 -0.19931805 0.15056887 -0.24641049 0.108703196 -0.07868885
-0.031106284 0.13473177 -0.2067549 0.14601581 -0.004184458 0.12336502 0.068496846 0.113325424
-0.068699844 -0.08142242 0.09940342 -0.18994963 -0.14652114 0.014382808 0.17546003 0.0634095
-0.081929006 0.12206718 0.11319073 0.059958268 0.19926143 0.15356036 0.07909075 -0.1893967
0.12708 0.11981836 -0.13240995 0.116271004 0.21722896 0.06298428 0.14082463 0.1215859
-0.036168773 -0.20434305 -0.07194465 0.12528138 -0.14952658 0.20125927 0.026984563 -0.090800874
0.17426994 -0.1568751 -0.0011662485 -0.20496297 0.12580189 0.02808081 0.12759912 -0.11760272
0.16306204 -0.21629173 0.18604685 0.102412425 0.062243007 -0.16132943 -0.10754358 -0.03707196
0.1255809 0.17311002 0.20350452 0.048028328 -0.05346512 -0.19317988 0.0047279894 0.050426673
-0.09067077 0.09699504 -0.14591014 0.036252487 -0.01902985 -0.16193122 -0.18960279 -0.17602988
0.2094831 -0.077443115 0.054078758 -0.06605013 0.04472519 -0.1752253 0.07724923 0.17569995
0.0083956 0.014300483 -0.17398158 -0.13975956 -0.17427196 0.19703609 -0.011903199 0.075641386
-0.021594718 0.1058128 0.15970597 -0.1653912 -0.14803796 -0.06374999 0.0133313285 -0.038385663
0.08069164 0.09482104 0.05037379 -0.1873095 -0.12736787 0.11531253 -0.08729828 -0.16686025
-0.047965337 0.15903735 0.05697636 -0.08732568 0.19553657 -0.041260615 0.17756641 0.20685968
-0.19583702 -0.030790813 0.15287288 -0.22267516 0.12289851 0.17233716 0.2295735 -0.077627316
0.19297242 0.109606706 0.1594148 0.08888895 0.021842465 -0.22802263 -0.1419425 0.2591646
0.09738233 -0.045307364 0.20589909 -0.19495183 0.00056119845 0.18568829 -0.097349614 0.051602755
0.09982999 -0.051717013 0.07242122 0.093072325 -0.068601854 -0.12740175 0.0794595 -0.15219098
-0.22610843 -0.02182767 -0.111866474 0.06661633 0.057903405 -0.20893985 -0.10746655 0.28807005
0.003173253 0.01929818 -0.11834308 0.07553539 0.10410937 0.06459966 -0.10308944 0.07013218
0.11655557 0.21340561 -0.2161401 0.097317986 -0.095032044 -0.06977636 -0.21310791 0.017174179
-0.21180934 -0.0778281 -0.013441829 0.07826393 0.08931097 0.124989726 -0.24110815 -0.087243035
0.04428637 -0.15605883 -0.1061182 -0.0743571 0.10941503 0.11113627 -0.07140256 -0.11598179
0.05488896 0.0812858 0.20094691 0.14974406 -0.056856014 -0.016103901 0.1235723 0.105411425
0.10276753 0.21781081 0.08376167 -0.021210477 -0.2801907 -0.111109585 0.11003364 0.19955187
0.08006781 -0.1552844 -0.17552395 0.21518816 -0.058155052 -0.0465198 -0.066638865 0.12845974
0.18245128 0.07283623 0.14985764 0.17616685 -0.22179721 -0.08643112 -0.11333991 0.10132989
0.16259837 0.034315914 0.14417571 -0.2212271 -0.044277065 0.023825774 -0.026266225 0.16609989
-0.10466521 0.18336664 -0.06910605 0.008924825 0.034350816 0.18693425 -0.057315897 -0.04705565
0.14735928 0.20849945 -0.110460095 0.06703474 0.0085943295 -0.19642507 -0.18910602 -0.059311137
00000000: 3a4a ad3d 9fb5 bebd 492b 11be 78b9 e63d
00000010: a347 903d d0c6 453e f607 603b 5290 ee3d
00000020: 1fe4 253e 1883 133c 7656 f8bd 081a 4cbe
00000030: ba2e 1a3e 0853 7cbe c89f de3d 9f27 a1bd
00000040: 9bd2 febc 20f7 093e 8eb7 53be 2b85 153e
00000050: c71d 89bb cda6 fc3d 1348 8c3d 2917 e83d
00000060: 81b2 8cbd ccc0 a6bd 0594 cb3d 2882 42be
00000070: a309 16be dea5 6b3c cbab 333e d7dc 813d
00000080: 65ca a7bd 5cfe f93d 8bd0 e73d cd96 753d
00000090: 300b 4c3e ed3e 1d3e 55fa a13d 35f1 41be
000000a0: 4221 023e 5463 f53d 7996 07be 7e1f ee3d
000000b0: 4571 5e3e e7fd 803d 5534 103e 0702 f93d
000000c0: b525 14bd 4e3f 51be b757 93bd c349 003e
000000d0: 7f1d 19be e916 4e3e bb0e dd3c cff5 b9bd
000000e0: d273 323e dea3 20be cedc 98ba d0e1 51be
000000f0: 36d2 003e ba09 e63c 58a9 023e b2d9 f0bd
00000100: bcf9 263e 947b 5dbe 1183 3e3e 9bbd d13d
00000110: 86f2 7e3d 8b33 25be cf3f dcbd c4d8 17bd
00000120: 4898 003e c143 313e 7d63 503e 5ab9 443d
00000130: 3efe 5abd f2d0 45be 40ed 9a3b 338c 4e3d
00000140: 99b1 b9bd 56a5 c63d 7869 15be 7d7d 143d
00000150: 7de4 9bbc 4cd1 25be 3c27 42be 2d41 34be
00000160: bd82 563e 7f9a 9ebd b081 5d3d 4a45 87bd
00000170: c331 373d 436e 33be d834 9e3d b0ea 333e
00000180: b38d 093c 934c 6a3c 3a28 32be 211d 0fbe
00000190: 5974 32be d4c3 493e a305 43bc dfe9 9a3d
000001a0: 68e7 b0bc 62b4 d83d f689 233e 505c 29be
000001b0: 4397 17be 5b8f 82bd a56b 5a3c 493a 1dbd
000001c0: a941 a53d 8931 c23d bf54 4e3d 10ce 3fbe
000001d0: b96c 02be fa28 ec3d 71c9 b2bd 6add 2abe
000001e0: 4d77 44bd b0da 223e 0b60 693d ced7 b2bd
000001f0: bd3a 483e e400 29bd f8d3 353e 06d3 533e
00000200: 8089 48be 043d fcbc b58a 1c3e f504 64be
00000210: 37b2 fb3d 2779 303e 5115 6b3e 12fb 9ebd
00000220: 909a 453e 7b79 e03d a23d 233e 690b b63d
00000230: f8ee b23c c47e 69be 6059 11be 39b1 843e
00000240: 6370 c73d 3794 39bd 36d7 523e 74a1 47be
00000250: 641d 133a 1225 3e3e 3c5f c7bd 695d 533d
00000260: aa73 cc3d 38d5 53bd 9451 943d b49c be3d
00000270: 217f 8cbd 9b75 02be aabb a23d f4d7 1bbe
00000280: f888 67be f1cf b2bc 401a e5bd 246e 883d
00000290: 1f2c 6d3d 54f4 55be 6c17 dcbd eb7d 933e
000002a0: 5af6 4f3b 3717 9e3c db5d f2bd 4cb2 9a3d
000002b0: 4b37 d53d d44c 843d 8e20 d3bd 76a1 8f3d
000002c0: b0b4 ee3d 0087 5a3e d553 5dbe a74e c73d
000002d0: 29a0 c2bd e9e6 8ebd f638 5abe ddb0 8c3c
000002e0: 8ce4 58be 5764 9fbd 1e3b 5cbc d748 a03d
000002f0: abe8 b63d 9dfa ff3d 0ee5 76be 7aac b2bd
00000300: a065 353d e3cd 1fbe 8054 d9bd 8948 98bd
00000310: fd14 e03d 6a9b e33d 813b 92bd dc87 edbd
00000320: 3fd3 603d 2b79 a63d 07c5 4d3e 8256 193e
00000330: dae1 68bd 54ec 83bc 7913 fd3d f2e1 d73d
00000340: c877 d23d cc09 5f3e 3d8b ab3d 98c1 adbc
00000350: 2875 8fbe 6c8d e3bd 5159 e13d 5357 4c3e
00000360: 98fa a33d e002 1fbe 8dbc 33be 495a 5c3e
00000370: fe33 6ebd 8c8b 3ebd f579 88bd f38a 033e
00000380: 82d4 3a3e 292b 953d 4874 193e 1565 343e
00000390: cf1e 63be cd02 b1bd c11e e8bd 0c86 cf3d
000003a0: 3080 263e d88e 0c3d cca2 133e 5b89 62be
000003b0: de5b 35bd 452e c33c 442c d7bc 1716 2a3e
000003c0: b75a d6bd 77c4 3b3e 7987 8dbd 6e39 123c
000003d0: 71b3 0c3d b16b 3f3e 13c4 6abd 6dbd 40bd
000003e0: 5ae5 163e e180 553e e738 e2bd 8249 893d
000003f0: 3bcf 0c3c a723 49be 02a5 41be 3cf0 72bd

layers.2.bias f4 [64]
-0.0031615887 0.000640315 -0.01687529 0.006372586 0.005723871 -0.0056628115 -0.00722884 -0.0195427
0.0065664225 0.0037967751 0.0031555127 0.00543283 0.0028530965 -0.009668103 0.0055309865 0.015996968
0.008542958 -0.00328608 0.045330904 0.00029364525 0.021457875 -0.0026611257 0.024603657 0.036658544
0.014592662 -0.008604411 -0.015889753 -0.008412208 -0.0062210136 -0.0073620295 0.017449511 0.0051310454
-0.009567106 0.0330068 0.017962692 0.021744348 0.060442906 0.0010195439 -0.0013837797 -0.01978133
-0.013499708 -0.009208244 -0.018030278 0.016068298 -0.005441608 -0.0030510915 -2.2119702e-05 0.011520927
-0.015696745 0.020535935 -0.002138056 -0.011299923 -0.009595624 -0.014902868 0.0102920635 0.0120872045
-0.038664773 0.026528154 -0.0041015283 -0.020972133 0.0055182907 0.009347834 -0.03203046 0.006527896
00000000: a832 4fbb d0da 273a 0c3e 8abc 20d1 d03b
00000010: 4f8f bb3b 1b8f b9bb e8df ecbb 0318 a0bc
00000020: 252b d73b 51d3 783b b8cc 4e3b e205 b23b
00000030: 04fb 3a3b f766 1ebc 473d b53b 130c 833c
00000040: c3f7 0b3c 465b 57bb e6ac 393d 66f4 9939
00000050: 6dc8 af3c 4866 2ebb 9c8d c93c 4527 163d
00000060: 1016 6f3c 84f9 0cbc 3a2b 82bc 5cd3 09bc
00000070: a5d9 cbbb 2e3d f1bb 47f2 8e3c 5422 a83b
00000080: 5abf 1cbc 2332 073d 7f26 933c 3421 b23c
00000090: fb92 773d 37a2 853a f15f b5ba 750c a2bc
000000a0: e12d 5dbc 2dde 16bc 3cb4 93bc aaa1 833c
000000b0: 844f b2bb d2f4 47bb b38d b9b7 45c2 3c3c
000000c0: 7696 80bc fa3a a83c a11e 0cbb 5023 39bc
000000d0: f736 1dbc 292b 74bc 0ba0 283c 6909 463c
000000e0: f45e 1ebd 9251 d93c 1d66 86bb c0cd abbc
000000f0: c7d2 b43b a827 193c 5f32 03bd f6e7 d53b

layers.4.weight f4 [64, 64]
0.24695711 0.046240088 0.111233816 0.079395436 -0.07149574 0.06045081 -0.26294443 0.11806084
0.15870397 0.28236702 0.03680768 -0.28598365 0.11976004 0.19572257 0.28504613 -0.37209678
-0.0529535 0.060257662 0.042724535 0.16814502 -0.283478 0.120489195 -0.03928221 0.036589757
-0.17305979 -0.1850069 0.12410338 -0.048333988 -0.011816909 0.24877228 0.22272563 -0.13411182
-0.03519863 -0.13838863 -0.21605922 -0.21532598 -0.15184169 -0.09244042 -0.18948147 -0.083170354
0.18244897 -0.022148363 0.07006021 -0.18583637 -0.07139382 0.029259242 0.16207302 0.16133459
0.19213268 0.07063814 0.120667085 0.10301238 0.33450755 0.10238693 -0.1641024 0.036562823
0.07376029 0.1094342 0.07773254 0.11288858 -0.07368344 0.1757198 0.29054645 0.23077436
-0.19097587 0.10272917 0.16063596 -0.10912705 -0.19042885 0.10861812 0.0051909895 0.18789417
0.107331485 0.13461968 -0.16704036 -0.09933489 -0.20493752 0.033902414 0.14416076 -0.13990512
0.14178252 -0.1962451 0.14748342 -0.17445317 -0.16835938 -0.10819903 0.064873435 -0.20848683
0.06060956 -0.22617345 -0.02374967 -0.05099878 -0.033770174 -0.15433934 0.21014798 0.20330186
-0.21907169 -0.026666986 -0.1854675 -0.19343613 -0.07845424 0.13408655 -0.19326787 0.20644656
0.20200798 0.07700299 0.18004979 0.043758977 0.123626456 0.09579478 -0.18574007 0.051613916
0.016110498 -0.20513023 0.15495527 -0.090670235 0.07068889 -0.079979844 0.13881345 0.009981178
-0.06680864 -0.09209029 0.06960772 -0.192468 0.12043003 -0.1723766 -0.14162719 0.031833388
-0.110929 0.06634071 -0.22541055 -0.07417298 0.11074324 0.093126446 0.012357963 0.03978306
-0.12345586 -0.11842497 0.15673366 -0.11286637 -0.17994922 -0.02877044 -0.10601837 0.1340182
-0.093878284 -0.17995104 0.040015746 0.19189681 -0.03336149 0.08664313 0.03929752 0.008546729
-0.0630799 -0.095762715 -0.27832875 0.19710931 -0.18224879 -0.23265103 -0.13413471 0.0734594
-0.05865783 -0.03270115 0.12273495 -0.15048134 -0.1721604 0.10921927 -0.06641998 -0.13259433
-0.081874065 -0.14557458 0.02058161 -0.068609715 0.060995977 -0.06215158 0.14482212 0.1510277
-0.02207284 0.08770129 -0.2350777 -0.2533523 -0.218022 -0.025550826 -0.23629941 0.11357285
0.20867391 -0.18252274 -0.082499154 -0.094829224 0.23614524 0.11420687 0.018507604 0.23208831
0.18403713 0.09476118 -0.15067227 -0.067170694 -0.0467916 -0.030348923 0.11609962 0.13030817
-0.13962859 -0.193363 -0.19592331 0.060084403 -0.1504949 0.10945174 0.048809707 0.09234152
-0.06738844 0.117992826 0.13483159 0.055914294 0.025282945 0.10582886 0.010502103 0.06238734
0.13503802 0.19471575 -0.053295042 0.13690619 0.1715085 -0.19401212 -0.008522689 -0.1989674
-0.15159072 0.15964428 -0.15208264 0.18548189 0.18399577 -0.1578876 -0.17086476 -0.02144158
-0.2041361 0.12016374 -0.056064148 0.037198424 0.025110332 -0.031838663 -0.12793171 0.049427457
0.083254255 0.003936874 -0.050795242 -0.072766714 -0.13419642 0.056830656 0.07191598 -0.07634639
-0.096493565 0.17861882 0.1496963 -0.2043355 -0.10838339 -0.016066542 -0.08930502 0.010169368
00000000: 53e2 7c3e 3f66 3d3d 8ece e33d 139a a23d
00000010: 5c6c 92bd 459b 773d a7a0 86be e2c9 f13d
00000020: 4b83 223e 6992 903e a6c3 163d 736c 92be
00000030: c044 f53d 7f6b 483e 91f1 913e 7883 bebe
00000040: c5e5 58bd bdd0 763d ecff 2e3d 352e 2c3e
00000050: 0724 91be 0ac3 f63d 62e6 20bd 24df 153d
00000060: 9636 31be 7372 3dbe ea29 fe3d dcf9 45bd
00000070: b59b 41bc 29be 7e3e 3012 643e 9c54 09be
00000080: 702c 10bd c0b5 0dbe a13e 5dbe 6a7e 5cbe
00000090: 637c 1bbe 6751 bdbd 6e07 42be 3855 aabd
000000a0: e7d3 3a3e 7c70 b5bc ba7b 8f3d e44b 3ebe
000000b0: ec36 92bd 14b1 ef3c 78f6 253e e534 253e
000000c0: 6ebe 443e bbaa 903d 4e20 f73d 28f8 d23d
000000d0: 9344 ab3e 3db0 d13d 760a 28be e6c2 153d
000000e0: a30f 973d 0a1f e03d 3d32 9f3d 2132 e73d
000000f0: 58e7 96bd e4ef 333e 81c2 943e 1d50 6c3e
00000100: 2e8f 43be ac63 d23d c17d 243e 017e dfbd
00000110: c8ff 42be 2d73 de3d 2d19 aa3b 5467 403e
00000120: 9cd0 db3d bed9 093e a10c 2bbe 1770 cbbd
00000130: 24db 51be 42dd 0a3d e19e 133e 4a43 0fbe
00000140: 702f 113e 7af4 48be e505 173e daa3 32be
00000150: 6766 2cbe 7497 ddbd 5ddc 843d 927d 55be
00000160: bb41 783d 039a 67be ab8e c2bc 19e4 50bd
00000170: 9852 0abd 220b 1ebe 0831 573e 5d2e 503e
00000180: 5454 60be b974 dabc 31eb 3dbe 1f14 46be
00000190: 9eac a0bd fc4d 093e 03e8 45be ba66 533e
000001a0: 2edb 4e3e beb3 9d3d f95e 383e 9d3c 333d
000001b0: de2f fd3d 0e30 c43d a532 3ebe 1d69 533d
000001c0: 2afa 833c a90d 52be 98ac 1e3e 51b1 b9bd
000001d0: 56c5 903d 79cc a3bd 1d25 0e3e 1888 233c
000001e0: f8d2 88bd d599 bcbd 7e8e 8e3d 5516 45be
000001f0: 05a4 f63d 7e83 30be b806 11be ba63 023d
00000200: be2e e3bd a3dd 873d 06d2 66be 01e8 97bd
00000210: 5acd e23d 14b9 be3d 0e79 4a3c 90f3 223d
00000220: 6dd6 fcbd ca88 f2bd ca7e 203e 7c26 e7bd
00000230: 9c44 38be fcaf ebbc 2920 d9bd 113c 093e
00000240: 4243 c0bd 1645 38be 8de7 233d 9980 443e
00000250: 0fa6 08bd f471 b13d 70f6 203d 9407 0c3c
00000260: 0930 81bd 3e1f c4bd 1b81 8ebe 06d7 493e
00000270: 6d9f 3abe 123c 6ebe 9c5a 09be e271 963d
00000280: 3143 70bd a4f1 05bd 765c fb3d c817 1abe
00000290: d14a 30be 5aae df3d 3307 88bd cfc6 07be
000002a0: 97ad a7bd 8111 15be c49a a83c 4083 8cbd
000002b0: ebd6 793d a892 7ebd 404c 143e 01a7 1a3e
000002c0: 1ad2 b4bc bc9c b33d 35b8 70be 65b7 81be
000002d0: 2941 5fbe f74f d1bc 79f8 71be e298 e83d
000002e0: 9dae 553e 3ee7 3abe 51f5 a8bd d335 c2bd
000002f0: 0fd0 713e 4be5 e93d 429d 973c 8fa8 6d3e
00000300: 3b74 3c3e 2612 c23d d549 1abe ca90 89bd
00000310: 8ca8 3fbd 4e9e f8bc a3c5 ed3d 816f 053e
00000320: ccfa 0ebe f300 46be 1fa0 48be 101b 763d
00000330: 561b 1abe 3c28 e03d b0ec 473d 8d1d bd3d
00000340: f302 8abd 39a6 f13d 4b11 0a3e 6306 653d
00000350: 2e1e cf3c cdbc d83d 0311 2c3c de89 7f3d
00000360: 6847 0a3e 9163 473e e74b 5abd 2331 0c3e
00000370: ed9f 2f3e 1dab 46be c0a2 0bbc 1cbe 4bbe
00000380: 993a 1bbe ca79 233e 8dbb 1bbe f7ee 3d3e
00000390: 6369 3c3e 49ad 21be 2cf7 2ebe 41a6 afbc
000003a0: 0e09 51be 6818 f63d 85a3 65bd 605d 183d
000003b0: 2fb4 cd3c 4269 02bd 8800 03be 7274 4a3d
000003c0: 3581 aa3d e500 813b ac0e 50bd b706 95bd
000003d0: c96a 09be 43c7 683d af48 933d 7f5b 9cbd
000003e0: 6b9e c5bd dae7 363e fd49 193e 533d 51be
000003f0: 1cf8 ddbd fb9d 83bc 8de5 b6bd 6c9d 263c

layers.4.bias f4 [64]
-0.026668562 -0.0033061008 0.02937845 -0.008752457 -0.012381122 0.0003474583 -0.006373898 0.036925405
0.00254811 0.0026468076 -0.010480828 0.011653612 0.005950313 0.009089493 -0.0026431018 -0.013603636
0.007344671 0.02536207 0.017672414 0.0015562684 0.022017376 -0.007822522 0.002606554 0.0076071317
-0.0058734627 0.0036675325 -0.0076670498 0.00869217 0.0079543935 0.01425663 0.0036408019 -0.002667841
-0.0028422573 0.0034271083 -0.0016750708 -0.0045763752 -0.0029715314 -0.010366308 0.01760878 0.0005973823
0.0294279 0.012459306 -0.022426512 0.0031937335 -0.0010203337 0.0007785556 -0.0026365665 -0.010462007
-0.02049787 0.007114431 0.031238068 -0.042358886 0.028964614 -0.008360456 -0.0003607129 0.007568561
-0.004711256 -0.015559426 0.0056875874 -0.0025738701 0.00047288212 -0.016387012 0.0066979984 0.0025245603
00000000: 0778 dabc 2bab 58bb 13ab f03c 7766 0fbc
00000010: 31da 4abc 102b b639 22dc d0bb 183f 173d
00000020: 31fe 263b 1076 2d3b c7b7 2bbc cbee 3e3c
00000030: d8fa c23b 19ec 143c e437 2dbb c9e1 5ebc
00000040: 91ab f03b 1ec4 cf3c bdc5 903c b4fb cb3a
00000050: c95d b43c 092a 00bc b8d2 2a3b 3f45 f93b
00000060: 2d76 c0bb fc5a 703b e03b fbbb 9a69 0e3c
00000070: 2553 023c a494 693c 859a 6e3b f2d6 2ebb
00000080: 2a45 3abb 5699 603b 0d8e dbba 6bf5 95bb
00000090: 06be 42bb 72d7 29bc 4a40 903c a699 1c3a
000000a0: c812 f13c 1e22 4c3c ceb7 b7bc f54d 513b
000000b0: b8bc 85ba fb17 4c3a 3fca 2cbb d668 2bbc
000000c0: 26eb a7bc 2c20 e93b fae6 ff3c 8380 2dbd
000000d0: 3347 ed3c 4bfa 08bc 111e bdb9 b101 f83b
000000e0: e160 9abb f6ec 7ebc f15e ba3b 60ae 28bb
000000f0: 2aed f739 0e3e 86bc e27a db3b 1873 253b

layers.6.weight f4 [64, 64]
-0.0065751816 -0.0993631 -0.28556752 -0.068559885 0.12648511 -0.1620939 -0.07371411 -0.058309287
-0.19193096 0.046521164 0.04039104 0.043238465 0.16310002 0.145171 0.13658617 -0.006320086
0.13175462 0.029283324 -0.21576183 0.08970633 0.15930165 0.08368441 0.18829599 -0.07122899
0.17209336 -0.0611713 -0.013099833 -0.076431945 0.014067043 -0.0073018065 0.1257174 0.09687603
-0.2673524 0.2041798 -0.27588996 -0.13594621 0.07731167 0.24035026 0.011639868 -0.13249266
-0.19973616 0.2254991 0.1851844 0.014980052 -0.15829688 -0.10105932 0.17150804 0.11411205
-0.16360827 0.12665147 -0.19529115 -0.001107579 -0.117267385 -0.20101434 0.043936826 -0.23954628
-0.14237362 -0.18890938 -0.19727953 0.08881952 0.07009577 0.08758615 -0.23330916 -0.096737556
-0.23196986 -0.18362486 -0.11673282 0.089458235 0.1864995 0.05968046 -0.19821358 0.16427861
0.21278678 0.2190081 -0.1969535 -0.11339426 -0.09018597 0.1868512 0.2077319 0.03440816
0.1595574 0.045433775 -0.07455234 0.05341579 -0.13112767 0.054042198 0.13111149 0.17754486
-0.19775409 0.014718007 -0.018286284 0.09898197 0.18780929 0.006213951 0.021021586 -0.21959929
0.04445884 -0.10991317 0.14070533 -0.01702901 0.013493587 -0.061520703 0.111585 -0.13641272
0.12649335 0.060451727 -0.10464423 0.1619181 0.032449227 -0.05671631 0.0170115 -0.08506462
-0.12200973 0.16793336 0.184548 -0.11797016 0.10495486 -0.16730218 -0.1144713 -0.21775
0.13123396 -0.12356696 -0.057661667 0.0643981 -0.09279555 -0.15233247 0.15892504 -0.03748059
-0.15889017 0.018819569 0.0609179 -0.11354567 -0.11314995 -0.10089539 0.010992768 -0.0051542837
-0.16733602 0.15640728 0.0820628 0.18142965 -0.21975243 0.047861725 0.16310385 -0.19001192
0.18080577 -0.14546804 0.1346779 -0.04446446 0.061130136 -0.15495865 -0.014110355 -0.022883898
0.16829135 -0.16708843 0.11127835 -0.16271499 -0.04229078 -0.15652238 0.15779391 0.0037653802
0.08687801 0.084421255 0.0027875963 0.051507 -0.12639004 -0.10537623 -0.080139756 -0.1406964
0.1346281 -0.19458887 0.025475277 0.02584925 -0.055556536 -0.027101973 0.052918732 -0.082635485
-0.16247457 0.14871387 -0.029139489 -0.15568063 -0.16767727 0.13609229 -0.19972166 0.023393933
0.19726282 -0.15765639 0.1850596 0.14231437 0.09602909 0.12685001 -0.091491655 0.083078265
-0.1635478 0.21613272 0.02137897 0.023008952 0.1601295 -0.117747806 -0.19119357 -0.1447135
0.079960324 0.1296094 0.08112373 -0.10192081 0.049335487 -0.21384569 -0.005768432 -0.0033842658
-0.092310324 -0.19736591 -0.12045467 -0.051715072 0.0043653217 -0.016615426 0.09050755 -0.15287954
0.051836845 -0.21189485 0.094770156 -0.13106874 0.045572463 -0.01169621 -0.030783596 0.1711259
0.099190004 -0.20780973 0.19200909 0.030693814 0.08482679 0.0014916565 0.21837045 0.11532944
-0.029771727 -0.2109332 0.11776683 -0.20990688 0.11608046 0.04125845 0.084377326 0.070481785
-0.15394896 -0.082401454 -0.05649793 -0.20990318 0.14567451 -0.1005046 -0.106739946 -0.07141632
0.11663667 -0.0015495872 0.10227208 0.123238504 -0.001087958 0.1693134 0.10069578 0.12807149
00000000: 9f74 d7bb e27e cbbd e835 92be 2069 8cbd
00000010: 5085 013e f1fb 25be 6cf7 96bd b8d5 6ebd
00000020: 8d89 44be fa8c 3e3d 1371 253d d11a 313d
00000030: b103 273e b5a7 143e 3fdd 0b3e b918 cfbb
00000040: afea 063e 95e3 ef3c abf0 5cbe f4b7 b73d
00000050: f91f 233e bb62 ab3d aad0 403e 81e0 91bd
00000060: 3e39 303e c28e 7abd afa0 56bc 5a88 9cbd
00000070: 7479 663c fe43 efbb 10bc 003e f166 c63d
00000080: 6ae2 88be 8214 513e 7341 8dbe 7c35 0bbe
00000090: 9555 9e3d 611e 763e 25b5 3e3c 28ac 07be
000000a0: a387 4cbe 3ce9 663e fba0 3d3e e46e 753c
000000b0: 9418 22be 30f8 cebd ce9f 2f3e 94b3 e93d
000000c0: ed88 27be ecb0 013e 67fa 47be 2f2c 91ba
000000d0: e229 f0bd b4d6 4dbe 1af7 333d 9f4b 75be
000000e0: 64ca 11be 7671 41be a503 4abe 02e7 b53d
000000f0: 5f8e 8f3d 5e60 b33d 99e8 6ebe 571e c6bd
00000100: 8289 6dbe 2808 3cbe 9e11 efbd e135 b73d
00000110: baf9 3e3e 7f73 743d 80f8 4abe a738 283e
00000120: c7e4 593e a943 603e 2eae 49be 403b e8bd
00000130: 6cb3 b8bd ec55 3f3e acb7 543e 92ef 0c3d
00000140: 0463 233e c418 3a3d e6ae 98bd 84ca 5a3d
00000150: 5546 06be 5a5b 5d3d 1742 063e 52ce 353e
00000160: 0c80 4abe cc23 713c 1ecd 95bc 0fb7 ca3d
00000170: 1451 403e 669e cb3b 7635 ac3c a3de 60be
00000180: 791a 363d 281a e1bd 0f15 103e 6c80 8bbc
00000190: 3514 5d3c 22fd 7bbd ad86 e43d c7af 0bbe
000001a0: 7987 013e 3b9c 773d b74f d6bd dccd 253e
000001b0: 7be9 043d 5d4f 68bd b45b 8b3c 5c36 aebd
000001c0: 3de0 f9bd b9f6 2b3e 27fa 3c3e 579a f1bd
000001d0: 93f2 d63d 4351 2bbe ee6f eabd dbf9 5ebe
000001e0: 3262 063e ad10 fdbd a42e 6cbd 27e3 833d
000001f0: 980b bebd 0bfd 1bbe 3fbd 223e 3f85 19bd
00000200: 1bb4 22be 7f2b 9a3c 0c85 793d a28a e8bd
00000210: 29bb e7bd 3ea2 cebd 031b 343c 44e5 a8bb
00000220: 225a 2bbe 3b29 203e 8b10 a83d b2c8 393e
00000230: c806 61be a80a 443d b204 273e 7c92 42be
00000240: 2625 393e 93f5 14be 01e9 093e 5e20 36bd
00000250: 9863 7a3d 7bad 1ebe 1e2f 67bc 0377 bbbc
00000260: 9154 2c3e 3b19 2bbe e7e5 e33d c29e 26be
00000270: 1939 2dbd 6747 20be ba94 213e 99c4 763b
00000280: 19ed b13d 0de5 ac3d 1bb0 363b 01f9 523d
00000290: 646c 01be 7ecf d7bd 5020 a4bd b812 10be
000002a0: f3db 093e 4e42 47be 87b1 d03c cec1 d33c
000002b0: 408f 63bd f504 debc 50c1 583d cb3c a9bd
000002c0: bc5f 26be 7348 183e f0b5 eebc be6a 1fbe
000002d0: 97b3 2bbe c75b 0b3e d683 4cbe a2a4 bf3c
000002e0: 44ff 493e ad70 21be 4480 3d3e dcba 113e
000002f0: e6aa c43d f8e4 013e fa5f bbbd f024 aa3d
00000300: 1379 27be e551 5d3e f322 af3c 457d bc3c
00000310: fdf8 233e c325 f1bd 3fc8 43be c72f 14be
00000320: 3dc2 a33d 54b8 043e 3324 a63d dcbb d0bd
00000330: 0214 4a3d 5dfa 5abe 1d05 bdbb 8fca 5dbb
00000340: 320d bdbd 4a1a 4abe f0b0 f6bd 2fd3 53bd
00000350: f90a 8f3b 131d 88bc 065c b93d 748c 1cbe
00000360: df52 543d f7fa 58be db16 c23d e236 06be
00000370: 31aa 3a3d 76a1 3fbc e12d fcbc a13b 2f3e
00000380: 2124 cb3d 13cc 54be 089e 443e 9871 fb3c
00000390: abb9 ad3d b083 c33a 819c 5f3e d731 ec3d
000003a0: d6e3 f3bc dffe 57be bc2f f13d d4f1 56be
000003b0: 98bb ed3d 9ffe 283d 05ce ac3d c158 903d
000003c0: cca4 1dbe 18c2 a8bd 606a 67bd dcf0 56be
000003d0: b32b 153e 5bd5 cdbd 799a dabd b842 92bd
000003e0: 35df ee3d 851b cbba 0674 d13d 7864 fc3d
000003f0: d099 8eba 7e60 2d3e 9739 ce3d 2c25 033e

layers.6.bias f4 [64]
-0.023927238 -0.0009667902 0.002624683 0.0001910563 -0.033289023 0.00493174 -0.009879108 -0.0023191245
-0.009144409 -0.002419729 -0.006683265 0.008749477 0.0040547433 -0.0019234588 3.0895557e-05 0.0010073379
-0.0072932304 0.010204463 0.0006483592 -0.0268893 0.0062690815 -0.0142612895 -0.002661558 -0.039562613
-0.0038492812 0.016163109 -5.667868e-05 0.006400256 -0.008034294 -0.00011265503 -0.000361794 0.004139043
-0.04353762 0.0040908474 0.0023019838 0.014461021 -0.002982931 0.037199922 -0.0123930555 0.0007621214
0.011322439 0.0057387534 -0.0020633964 0.0020533316 0.005286599 0.0009801084 0.0044780993 -0.08744778
0.016350457 -0.02148157 -0.0078001595 -0.0005812803 -0.0022660834 -0.0049523395 -0.0066055744 -0.0016138181
-0.003351525 -0.010983447 0.008526299 -0.039344024 -0.0022975001 -0.0034895272 -0.031341124 -0.015718406
00000000: 0e03 c4bc 3170 7dba e002 2c3b 4956 4839
00000010: 125a 08bd 6f9a a13b fbdb 21bc 74fc 17bb
00000020: 6ed2 15bc 5194 1ebb 4aff dabb f759 0f3c
00000030: a7dd 843b 911c fcba da95 0138 a708 843a
00000040: 0dfc eebb 9f30 273c a6f6 293a f346 dcbc
00000050: de6c cd3b 2fa8 69bc 896d 2ebb 680c 22bd
00000060: 3944 7cbb 7f68 843c 45ba 6db8 3db9 d13b
00000070: 45a2 03bc 3541 ecb8 2baf bdb9 cfa0 873b
00000080: 8154 32bd 840c 863b e1dc 163b ebed 6c3c
00000090: 477d 43bb f25e 183d 3e0c 4bbc 1ac9 473a
000000a0: c081 393c 270c bc3b 0c3a 07bb 3091 063b
000000b0: 353b ad3b fb76 803a 05bd 923b d217 b3bd
000000c0: 65f1 853c 1efa afbc 7b98 ffbb 1061 18ba
000000d0: 9282 14bb 3c47 a2bb 9373 d8bb c086 d3ba
000000e0: 42a5 5bbb eaf3 33bc e4b1 0b3c 3327 21bd
000000f0: a891 16bb 8db0 64bb 8d5f 00bd e3c3 80bc

layers.8.weight f4 [64, 64]
-0.13545354 -0.1455662 0.023596255 -0.19496833 0.0072897417 -0.072273254 -0.07372563 -0.19762363
-0.132066 0.12641835 -0.112103924 0.11224773 0.1570642 0.013775772 0.120321155 -0.15646628
-0.16068257 0.16657446 0.12410124 0.01379418 -0.13659129 -0.07691452 0.1787257 0.24338627
-0.17954478 0.09489298 -0.15443462 -0.03514189 -0.01599815 -0.16666323 0.013618013 -0.04180733
0.18493149 -0.10461266 -0.17029272 0.03189601 0.2294424 0.1912135 0.10006464 -0.22026332
0.116798624 -0.039549652 -0.17769375 -0.08249562 -0.20604707 -0.092694834 0.09107293 0.19942659
-0.19822885 0.08305641 0.051021382 -0.14262013 -0.062895074 -0.1464288 -0.14053333 0.19080204
0.20138864 0.09243588 -0.04398248 -0.10361661 0.075615205 -0.19509302 -0.1363482 0.083424546
0.15351202 -0.016398355 -0.10574124 0.10863554 0.15441078 -0.22207057 -0.03597939 -0.22120199
-0.017980848 0.15198107 -0.17964226 -0.14645287 -0.04651214 0.06798296 0.22552173 0.074847855
0.17149012 0.20051797 0.13938463 -0.13140358 -0.14406009 0.13766141 -0.048553795 -0.15955412
0.051962692 -0.16936648 0.032626104 0.2146192 0.20519736 0.038341805 0.032225646 0.09528893
-0.0768106 -0.12823178 0.21104945 -0.20322728 0.050582282 -0.08660343 0.08999935 -0.16304861
0.10734743 -0.1241084 -0.11422824 0.19249181 0.018319875 0.19193625 -0.1422554 0.1556978
0.016388884 0.17400168 -0.053996913 -0.022829898 0.014775849 -0.13594702 0.031108303 -0.12798867
0.114333324 0.20071864 -0.046627507 -0.043679252 0.08644273 0.002246064 -0.005324814 -0.06662416
0.15879513 -0.03995771 0.21513379 0.13946256 0.10464837 0.047841877 -0.07585015 -0.12744303
0.18305777 -0.12743351 0.0066733304 -0.1777606 -0.21341756 -0.000328754 -0.09987644 -0.1480104
-0.16795225 0.2199679 0.0018449755 0.06307687 -0.17083669 -0.12185607 0.16690429 0.14182162
0.005433801 -0.19521554 0.21523292 -0.13247429 -0.1426148 0.10885084 0.061840616 0.005388991
0.1264669 0.07519166 0.20910342 0.1839188 0.04505519 0.16863541 -0.21813929 -0.19779155
-0.14363399 -0.043669358 0.20984668 0.022685919 5.705865e-05 -0.013101239 -0.09572437 -0.08188521
0.21673517 -0.1403779 0.06762757 0.0034933137 0.19860174 -0.10912273 -0.07272324 -0.1291437
-0.03505663 -0.16228272 -0.14226924 -0.0035521677 -0.005551588 0.09828653 0.053680502 -0.13311572
-0.21844347 -0.21360518 0.014250363 0.038622767 0.16861728 0.20737283 0.20952033 0.18138316
0.17611814 0.018512648 0.09804412 -0.023275003 -0.1787573 0.068787344 0.21688451 -0.09681322
0.15985945 -0.12724118 -0.14384398 0.16591193 -0.19709416 0.06752591 0.11281174 0.14133556
-0.07504319 -0.17543097 0.2163443 -0.02362045 0.10082881 -0.019648314 -0.14069304 -0.19407433
0.17995784 -0.23287335 -0.14792994 0.14963202 0.043910205 -0.027686127 -0.149638 -0.25268686
-0.043636862 0.106293 0.086995654 0.082592465 0.17718919 0.034884203 -0.0475757 -0.14324737
-0.00078344066 0.092990234 0.058926262 0.16577221 0.17120686 0.08692183 -0.19064815 -0.09072192
0.10092465 0.1601262 -0.023425527 -0.109877005 0.08120509 0.0067682597 -0.10129272 0.19789128
00000000: 55b4 0abe 4e0f 15be ef4c c13c c7a5 47be
00000010: c9de ee3b 0004 94bd 77fd 96bd d95d 4abe
00000020: 4f3c 07be d073 013e be96 e5bd 23e2 e53d
00000030: 70d5 203e c7b3 613c f06a f63d b238 20be
00000040: f989 24be 7f92 2a3e ca28 fe3d fc00 623c
00000050: 96de 0bbe 5c85 9dbd df03 373e 403a 793e
00000060: 96da 37be 4057 c23d 1c24 1ebe f1f0 0fbd
00000070: 8d0e 83bc c4a9 2abe 161e 5f3c 2a3e 2bbd
00000080: ae5e 3d3e 2a3f d6bd 3761 2ebe 64a5 023d
00000090: f3f2 6a3e 79cd 433e b1ee cc3d b58c 61be
000000a0: 1e34 ef3d d1fe 21bd 5af5 35be 77f3 a8bd
000000b0: 01fe 52be cad6 bdbd 7284 ba3d 7c36 4c3e
000000c0: 81fc 4abe 7b19 aa3d ccfb 503d 030b 12be
000000d0: 22cf 80bd 6ef1 15be f8e7 0fbe 9c61 433e
000000e0: d338 4e3e 064f bd3d f926 34bd f234 d4bd
000000f0: 25dc 9a3d 77c6 47be dd9e 0bbe 7dda aa3d
00000100: 4132 1d3e d855 86bc dd8e d8bd 4f7c de3d
00000110: dc1d 1e3e 7866 63be 205f 13bd c682 62be
00000120: 924c 93bc eda0 1b3e 24f4 37be bef7 15be
00000130: 8483 3ebd a63a 8b3d 2bef 663e d549 993d
00000140: 1b9b 2f3e 9554 4d3e d8ba 0e3e a98e 06be
00000150: 7d84 13be 1df7 0c3e 58e0 46bd 2862 23be
00000160: d5d6 543d 686e 2dbe f3a2 053d 23c5 5b3e
00000170: 421f 523e 4c0c 1d3d 0aff 033d d826 c33d
00000180: e04e 9dbd 314f 03be 591d 583e d01a 50be
00000190: 5e2f 4f3d 245d b1bd 9451 b83d 37f6 26be
000001a0: f8d8 db3d 8b2c febd 7ff0 e9bd 931c 453e
000001b0: 9013 963c f08a 443e 66ab 11be 3e6f 1f3e
000001c0: fb41 863c 7f2d 323e de2b 5dbd c405 bbbc
000001d0: 6716 723c b235 0bbe d7d6 fe3c 760f 03be
000001e0: 9727 ea3d 3089 4d3e 7cfc 3ebd 04e9 32bd
000001f0: e308 b13d b332 133b c77b aebb 3f72 88bd
00000200: 319b 223e b2aa 23bd 084c 5c3e 46cf 0e3e
00000210: e251 d63d d8f5 433d 5357 9bbd 6d80 02be
00000220: 7f73 3b3e ee7d 02be f4ab da3b e006 36be
00000230: 228a 5abe 9d5c acb9 058c ccbd 0a90 17be
00000240: adfb 2bbe 443f 613e 1bd3 f13a 722e 813d
00000250: d0ef 2ebe ad8f f9bd f5e8 2a3e b039 113e
00000260: 070e b23b 95e6 47be 0566 5c3e 57a7 07be
00000270: 9d09 12be 30ed de3d 964c 7d3d 2296 b03b
00000280: 8a80 013e 16fe 993d 351f 563e 3655 3c3e
00000290: ca8b 383d c3ae 2c3e e85f 5fbe de89 4abe
000002a0: ca14 13be a4de 32bd 0ce2 563e d2d7 b93c
000002b0: 4252 6f38 94a6 56bc 230b c4bd 6fb3 a7bd
000002c0: d3ef 5d3e 39bf 0fbe 5380 8a3d 14f0 643b
000002d0: 415e 4b3e bd7b dfbd ecef 94bd 3f3e 04be
000002e0: 8a97 0fbd 712d 26be 07af 11be 7ccb 68bb
000002f0: 18ea b5bb 734a c93d 16e0 5b3d 7d4f 08be
00000300: a5af 5fbe 51bb 5abe 5b7a 693c e832 1e3d
00000310: 02aa 2c3e 8b59 543e 7f8c 563e 82bc 393e
00000320: 5058 343e d6a7 973c 5bcb c83d 38ab bebc
00000330: 270c 37be 61e0 8c3d f916 5e3e 0246 c6bd
00000340: 32b2 233e 834b 02be d64b 13be d1e4 293e
00000350: 0dd3 49be 064b 8a3d d709 e73d 45ba 103e
00000360: 3eb0 99bd 2da4 33be 5c89 5d3e ad7f c1bc
00000370: 567f ce3d 80f5 a0bc d611 10be 6cbb 46be
00000380: de46 383e 5a76 6ebe f27a 17be 2339 193e
00000390: 30db 333d 04ce e2bc b43a 19be 2c60 81be
000003a0: 91bc 32bd 25b0 d93d c72a b23d 3d26 a93d
000003b0: 1571 353e bde2 0e3d bdde 42bd 70af 12be
000003c0: d05f 4dba aa71 be3d aa5c 713d 31c0 293e
000003d0: da50 2f3e 1304 b23d 4539 43be 6acc b9bd
000003e0: 95b1 ce3d 1ff8 233e e4e6 bfbc 3207 e1bd
000003f0: db4e a63d 47c8 dd3b 8f72 cfbd 03a4 4a3e

layers.8.bias f4 [64]
-0.0016114701 -0.0035835572 0.0009121537 -0.006814507 0.0027820326 0.003066474 -0.011232538 0.00055487634
-0.00050252373 -0.0003967386 -0.010955346 -0.0058701327 -0.0035960036 -0.002860439 0.065606475 0.011923751
-0.0036095679 -0.05953083 0.0041597714 0.007553076 -0.00760862 -0.023981562 0.0031738116 0.002350909
-0.001073282 0.012640053 -0.0046314495 -0.00066901563 -0.0023186358 -0.0016627803 -0.0042246273 -0.011323402
0.0068825567 -0.02103902 0.0014405457 -0.01673081 -0.0033689348 -0.0015130175 0.002547322 -0.009571291
0.0014115415 -0.0045053954 -0.013193821 0.001033709 -0.0018783557 0.0023305125 -0.0010670795 0.0014622121
0.023917306 -0.0053988085 -0.009051584 0.0013697449 -0.0025409968 -0.0018131086 -0.00065063086 0.007207326
-0.007955815 -0.003560712 -0.0012547482 -0.007325535 -0.0066456287 -0.016738521 -0.018810295 0.0022563157
00000000: f737 d3ba 1dda 6abb 991d 6f3a 3a4c dfbb
00000010: c352 363b e6f6 483b ae08 38bc 1f75 113a
00000020: ccbb 03ba 5a01 d0b9 0d7e 33bc 3e5a c0bb
00000030: eeaa 6bbb 3476 3bbb b05c 863d d65b 433c
00000040: 808e 6cbb 99d6 73bd b14e 883b cb7f f73b
00000050: bb51 f9bb fb74 c4bc b9ff 4f3b b511 1a3b
00000060: 5ead 8cba 3a18 4f3c 6ac3 97bb e160 2fba
00000070: 41f4 17bb a6f1 d9ba be6e 8abb ca85 39bc
00000080: 1287 e13b 065a acbc b1d0 bc3a 0d0f 89bc
00000090: 59c9 5cbb 7150 c6ba f9f0 263b e7d0 1cbc
000000a0: 7903 b93a ffa1 93bb e52a 58bc 857d 873a
000000b0: 2933 f6ba 83bb 183b 3fdd 8bba b2a7 bf3a
000000c0: 3aee c33c 7de8 b0bb 184d 14bc 0389 b33a
000000d0: da86 26bb d4a5 edba 198f 2aba 6f2b ec3b
000000e0: 1b59 02bc d65a 69bb 5d76 a4ba 0b0b f0bb
000000f0: 93c3 d9bb 391f 89bc 0c18 9abc b2de 133b

layers.10.weight f4 [64, 64]
0.113363706 0.1254748 0.1488759 0.07017652 0.22621849 0.043425176 0.19615318 0.03969316
0.05830462 -0.13343897 -0.007506228 0.051801164 -0.08005643 0.09329801 0.05969322 -0.099045
-0.13084462 0.10290067 -0.1417418 0.06965605 -0.11908934 -0.19390053 0.009123956 -0.08148694
0.087543584 -0.036228783 -0.17268392 0.0074897557 -0.136548 0.043375228 0.16205987 -0.10594899
-0.111255065 -0.051060725 -0.04511373 0.01857106 0.028605139 0.05516086 -0.094760925 -0.09878881
0.17545626 0.121636204 0.12920018 -0.19017866 0.15073532 0.20915452 -0.09795527 -0.19118486
0.09306532 -0.095575415 0.085622504 -0.06692201 0.21557131 -0.04676913 0.0028220527 -0.03927896
-0.11166272 0.06931866 0.13638905 -0.1875939 0.0034442334 0.14000167 0.09607954 -0.20922725
-0.020035475 0.090684794 0.056404687 -0.21779108 -0.04152148 -0.13745579 -0.09734202 -0.00067151134
0.19929524 0.13294722 -0.09703235 0.113526806 -0.12397159 0.060288448 -0.17823368 0.026653375
-0.087348215 0.21119155 -0.16565545 -0.11179366 0.120319225 -0.07540999 0.056683533 0.22752303
-0.19441292 -0.21294396 -0.0014816762 0.009277294 0.144905 0.09042622 -0.15812662 0.18469433
-0.06684264 0.13381203 -0.13674575 0.05263136 0.13780868 0.13969003 -0.16179304 -0.122929595
0.010913822 0.045875728 0.15259829 0.020848963 0.22527793 -0.110152066 0.100255 0.116322055
0.17219318 -0.12711878 0.021504525 0.08218751 -0.08500617 0.027875714 0.14540878 0.03629315
-0.0652604 -0.17051236 -0.1576322 -0.07926008 -0.13675965 0.11519822 0.022645319 0.06210965
-0.17544687 0.08655875 0.009560005 -0.17685698 -0.16485515 0.07030889 0.05618735 -0.14991844
-0.031234577 0.0047499267 0.1788144 -0.110288575 -0.18436743 0.07863205 -0.11270928 -0.06996515
-0.024144908 -0.124197975 -0.16180778 -0.11702072 0.22878373 0.06098696 -0.086470775 0.19062084
-0.12868005 -0.15151769 0.18380338 -0.1969152 -0.16205095 0.13453186 -0.12575658 0.13792685
0.1838267 -0.15133691 -0.064285256 0.19206268 -0.13825601 -0.1532999 0.14667292 -0.11450723
0.0012410352 -0.122326545 -0.18472174 -0.17367074 0.119890265 0.094549336 -0.04802984 -0.11723174
0.022926414 -0.009395475 0.12428563 -0.090067185 -0.062024523 0.22670919 -0.0879097 -0.14389087
0.08660079 0.06566149 -0.011774631 -0.09976143 -0.14497064 0.029449644 0.082663774 -0.24018049
0.103293106 -0.0146371415 0.10361988 0.16465731 0.16741575 0.19710138 -0.016675921 0.1262935
0.13204494 0.06620013 -0.1551091 -0.020522205 -0.19297104 0.043731708 0.08458677 -0.09474413
0.06819269 0.14358556 -0.22506039 0.18424955 -0.21490194 -0.037523314 -0.1277315 -0.12537144
0.06667587 0.028593596 -0.11813461 -0.04833558 0.09184749 0.15423217 -0.068454884 0.12855804
-0.16314852 -0.18611555 0.21001777 -0.17690486 0.1524935 0.21840897 0.101987585 -0.09028274
-0.050779153 -0.12917753 -0.053858384 0.14133011 -0.12166667 -0.08300417 0.04590293 0.11403706
-0.0072658723 -0.042780817 -0.21388644 -0.052573785 0.07594561 0.04992148 -0.047293697 -0.08371576
-0.017058976 -0.035620116 0.108035505 -0.11177582 0.038805436 0.19297546 0.013249055 -0.05957611
00000000: 3b2b e83d 777c 003e ed72 183e b5b8 8f3d
00000010: d2a5 673e 99de 313d 61dc 483e 4c95 223d
00000020: d3d0 6e3d 3aa4 08be cef6 f5bb 752d 543d
00000030: a0f4 a3bd 0713 bf3d e180 743d 1bd8 cabd
00000040: 22fc 05be 96bd d23d c324 11be d5a7 8e3d
00000050: 1de5 f3bd dc8d 46be a57c 153c a0e2 a6bd
00000060: 0d4a b33d a264 14bd 0ed4 30be a06c f53b
00000070: 3dd3 0bbe 39aa 313d 06f3 253e c9fb d8bd
00000080: b2d9 e3bd 0d25 51bd 2dc9 38bd 5622 983c
00000090: 5355 ea3c 5bf0 613d 0412 c2bd ca51 cabd
000000a0: ceaa 333e 671c f93d 0d4d 043e 32be 42be
000000b0: 5c5a 1a3e 9a2c 563e c69c c8bd f7c5 43be
000000c0: 0899 be3d 0bbd c3bd da5a af3d 680e 89bd
000000d0: babe 5c3e fd90 3fbd 30f2 383b fae2 20bd
000000e0: 6daf e4bd f1f6 8d3d 92a9 0b3e 9e18 40be
000000f0: a6b8 613b 995c 0f3e 5ac5 c43d ab3f 56be
00000100: 7021 a4bc f3b8 b93d 9a08 673d a004 5fbe
00000110: 6d12 2abd 36c1 0cbe 415b c7bd 5d08 30ba
00000120: 0d14 4c3e 5123 083e e6b8 c6bd be80 e83d
00000130: d1e4 fdbd 05f1 763d e482 36be 2e58 da3c
00000140: 9fe3 b2bd 9942 583e 95a1 29be 13f4 e4bd
00000150: ed69 f63d 8e70 9abd fe2c 683d ccfb 683e
00000160: 2e14 47be fb0d 5abe ce34 c2ba cbff 173c
00000170: fa61 143e 6231 b93d f2eb 21be 8320 3d3e
00000180: cbe4 88bd 0506 093e 1407 0cbe fb93 573d
00000190: b81d 0d3e e70a 0f3e 13ad 25be 83c2 fbbd
000001a0: e3cf 323c 30e8 3b3d ba42 1c3e 72cb aa3c
000001b0: 42af 663e 6897 e1bd 7e52 cd3d 423a ee3d
000001c0: 6953 303e 6d2b 02be 422a b03c ed51 a83d
000001d0: b717 aebd 9c5b e43c 0ae6 143e 20a8 143d
000001e0: 3fa7 85bd cb9a 2ebe 566a 21be 1c53 a2bd
000001f0: b90a 0cbe 0bed eb3d ad82 b93c b066 7e3d
00000200: 58a8 33be b745 b13d 91a1 1c3c ff19 35be
00000210: cacf 28be 1bfe 8f3d b524 663d 3884 19be
00000220: a8df ffbc 46a5 9b3b 1f1b 373e fade e1bd
00000230: d1ca 3cbe d709 a13d 1fd4 e6bd e349 8fbd
00000240: 8bcb c5bc 825b febd f0b0 25be 8fa8 efbd
00000250: 4846 6a3e 76cd 793d 9717 b1bd 1c32 433e
00000260: b4c4 03be 7427 1bbe f436 3c3e 23a4 49be
00000270: aff0 25be b8c2 093e 55c6 00be b23c 0d3e
00000280: 113d 3c3e 10f8 1abe fda7 83bd 14ac 443e
00000290: fc92 0dbe a6fa 1cbe 6d31 163e c482 eabd
000002a0: 3baa a23a 5786 fabd b227 3dbe bed6 31be
000002b0: 0789 f53d 15a3 c13d f0ba 44bd 3217 f0bd
000002c0: 2dd0 bb3c 7aef 19bc 7789 fe3d 2575 b8bd
000002d0: 6d0d 7ebd 7426 683e 000a b4bd 2158 13be
000002e0: c15b b13d 8879 863d 62ea 40bc b84f ccbd
000002f0: 2f73 14be 6140 f13c a04b a93d e0f1 75be
00000300: 568b d33d 9fd0 6fbc a936 d43d ed9b 283e
00000310: 096f 2b3e f2d4 493e f19b 88bc 1553 013e
00000320: ca36 073e ef93 873d ebd4 1ebe 2f1e a8bc
00000330: 339a 45be 0520 333d d43b ad3d 3609 c2bd
00000340: 9ca8 8b3d 1808 133e 3b76 66be eaab 3c3e
00000350: 410f 5cbe 0cb2 19bd 0ccc 02be 5f61 00be
00000360: 5c8d 883d 1e3d ea3c 8ff0 f1bd 87fb 45bd
00000370: 891a bc3d 0aef 1d3e 1332 8cbd b8a4 033e
00000380: 6810 27be 1395 3ebe e60e 573e 8c26 35be
00000390: 4227 1c3e 9aa6 5f3e dede d03d 28e6 b8bd
000003a0: cdfd 4fbd 1d47 04be 9c9a 5cbd d7b8 103e
000003b0: 602c f9bd 17fe a9bd b604 3c3d 438c e93d
000003c0: 8e16 eebb f03a 2fbd 0c05 5bbe 9c57 57bd
000003d0: 5f89 9b3d 777a 4c3d 09b7 41bd 2b73 abbd
000003e0: 44bf 8bbc 66e6 11bd b841 dd3d b9ea e4bd
000003f0: 73f2 1e3d 5c9b 453e 9012 593c 1406 74bd

layers.10.bias f4 [64]
-0.002049023 -5.326205e-05 0.0031629258 0.0015080266 -0.02496184 0.0029770664 -0.0065767053 -0.007622901
-0.0069276043 0.00094837137 -0.0056542493 -0.0040094326 0.0032867347 -0.0045647235 0.0016550041 -0.0033752827
0.005571513 -0.0005791423 -0.0070764604 0.009444037 0.013963082 -0.00046296857 -0.0012289829 0.0008311059
-0.001957733 0.0033489787 0.011673918 0.00046338994 -0.0024157348 0.0014508646 0.004977281 0.0019486946
-0.00087988906 -0.0021263554 0.0023218482 0.010551438 0.004377907 -0.003596976 0.10862703 -0.020313688
0.0063126595 0.00024342616 -0.0031060812 0.003981208 0.0026090713 -0.0013055733 0.0061682677 -0.00028971827
-0.005056939 0.0030838933 -0.00040952218 0.0012880522 -0.0008988513 0.0017394674 -4.1082676e-06 -0.0028503623
-0.00097046903 0.002933426 -0.003064116 0.006785565 0.0011943593 -0.0017652948 -0.0005342755 -5.531593e-05
00000000: e748 06bb b165 5fb8 1749 4f3b faa8 c53a
00000010: c67c ccbc e31a 433b 6781 d7bb 87c9 f9bb
00000020: f500 e3bb 209c 783a 4847 b9bb 8f61 83bb
00000030: 4266 573b ad93 95bb b9ec d83a d933 5dbb
00000040: 3d91 b63b 95d1 17ba a7e1 e7bb 2abb 1a3c
00000050: 69c5 643c 97ba f2b9 d315 a1ba 93de 593a
00000060: 4f4d 00bb 8a7a 5b3b f643 3f3c 25f3 f239
00000070: 4e51 1ebb f02a be3a 7618 a33b 576b ff3a
00000080: 5ba8 66ba 535a 0bbb 262a 183b f0df 2c3c
00000090: 8c74 8f3b 3ebb 6bbb d977 de3d e468 a6bc
000000a0: 6dda ce3b 3640 7f39 658f 4bbb cb74 823b
000000b0: f4fc 2a3b c51f abba 2e1f ca3b 54e5 97b9
000000c0: aeb4 a5bb 251b 4a3b 23b5 d6b9 dcd3 a83a
000000d0: e4a0 6bba d7fe e33a c0d9 89b6 25cd 3abb
000000e0: 1367 7eba b93e 403b 56cf 48bb 7259 de3b
000000f0: 0c8c 9c3a 7761 e7ba 9f0e 0cba 0703 68b8

layers.12.weight f4 [2, 64]
0.3366529 -0.1533133 0.09440504 -0.15298212 -0.2125749 0.29256383 -0.23726805 0.011527097
0.12670092 0.17481253 0.10089409 0.21723965 -0.24042979 -0.22574368 -0.13093093 0.24292453
-0.28352955 -0.2715461 0.18120104 -0.28939402 0.012208231 -0.21672015 0.17010117 -0.30372825
0.2132667 -0.13066657 0.10712517 0.27703393 -0.26359951 0.28179887 0.22924642 0.27149642
0.009833286 -0.081595466 -0.25350428 -0.033858825 -0.1699306 -0.251148 0.00981877 -0.03668392
-0.0707416 -0.29725763 -0.21783589 0.021491185 -0.2127037 0.22115162 0.021878831 -0.1941814
0.20823157 -0.1981753 0.1637895 -0.14743203 -0.23826085 -0.27976373 -0.048184086 -0.050304417
-0.06559639 -0.25162083 0.2930777 -0.040526588 0.11981023 -0.21031815 0.112274416 0.30614433
-0.058497425 -0.06650013 -0.17408699 0.1538844 0.31641778 0.20446934 -0.35958844 -0.12648085
-0.16285136 0.12509835 -0.20710452 -0.29691663 0.09610694 -0.15067782 0.110671654 -0.22362687
0.29121098 -0.093794316 -0.20447725 0.24191898 0.30065924 -0.015152748 -0.078687705 -0.22626272
-0.26444095 0.080917396 -0.2832806 0.2773638 -0.16310728 0.34663993 0.20125999 -0.24208182
-0.29903173 0.04911485 0.20306346 0.13399337 -0.2892466 -0.30178043 0.15881707 -0.33303475
0.15798907 0.042412713 -0.23152916 0.12634517 0.14647868 -0.18136843 0.09335305 -0.24525775
-0.22086108 -0.06350191 -0.022629963 0.16370583 0.13478503 0.10058673 -0.030713134 -0.129296
-0.2961407 0.2555549 -0.056578394 -0.32212847 -0.23545368 -0.30157912 0.016750805 -0.14368767
00000000: c55d ac3e 29fe 1cbe 6e57 c13d 58a7 1cbe
00000010: 3cad 59be edca 953e 65f6 72be 26dc 3c3c
00000020: e3bd 013e 0e02 333e 90a1 ce3d 1274 5e3e
00000030: 3a33 76be 5a29 67be c212 06be 35c1 783e
00000040: c92a 91be 1708 8bbe c48c 393e 742b 94be
00000050: 0805 483c e3eb 5dbe 002f 2e3e 4582 9bbe
00000060: 9662 5a3e 75cd 05be 7164 db3d 64d7 8d3e
00000070: 84f6 86be f147 903e 93bf 6a3e 9401 8b3e
00000080: ca1b 213c 861b a7bd 50cb 81be 8daf 0abd
00000090: 4a02 2ebe 7896 80be e8de 203c e141 16bd
000000a0: f9e0 90bd 2732 98be 5f10 5fbe 480e b03c
000000b0: 00cf 59be 9275 623e 3c3b b33c 7dd7 46be
000000c0: a83a 553e 77ee 4abe 6fb8 273e 6cf8 16be
000000d0: a7fa 73be 313d 8fbe ad5c 45bd 010c 4ebd
000000e0: 6657 86bd 72d4 80be 480e 963e 35ff 25bd
000000f0: 115f f53d a45d 57be 21f0 e53d f3be 9c3e
00000100: ff9a 6fbd 3831 88bd dc43 32be df93 1d3e
00000110: 8301 a23e 6960 513e fa1b b8be 3284 01be
00000120: 82c2 26be c819 003e 3513 54be 7505 98be
00000130: b7d3 c43d 494b 1abe d2a7 e23d 71fe 64be
00000140: 9b19 953e 3c17 c0bd 7c62 51be 9cb9 773e
00000150: 02f0 993e 3b43 78bc 0527 a1bd 6ab1 67be
00000160: ce64 87be 05b8 a53d 280a 91be a102 8e3e
00000170: 9805 27be ca7a b13e 1917 4e3e 4ce4 77be
00000180: b01a 99be a72c 493d deef 4f3e 8f35 093e
00000190: 2118 94be f782 9abe f1a0 223e 8883 aabe
000001a0: e3c7 213e f4b8 2d3d fb15 6dbe a160 013e
000001b0: 82fe 153e a5b8 39be e22f bf3d d924 7bbe
000001c0: 6829 62be 4a0d 82bd 7962 b9bc 80a2 273e
000001d0: 1605 0a3e 6a00 ce3d 1c9a fbbc 2c66 04be
000001e0: c19f 97be 18d8 823e bfbe 67bd 06ee a4be
000001f0: c51a 71be 9468 9abe fc38 893c dc22 13be

layers.12.bias f4 [2]
-5.2210773e-05 0.015227036
00000000: e4fc 5ab8 d17a 793c
