data/results/state_net_28000.pth (torch, 90299 bytes, 14 tensors)

layers.0.weight f4 [64, 6]
000000 ec 05 d1 bd c0 b6 73 3e 50 ef 06 3e 51 52 6a 3e
       -0.10206208 0.23800182 0.13177228 0.22882964
000010 2b 5a de bc 1c cc 43 3e be 45 6c 3d 51 37 42 bd
       -0.027142605 0.1912083 0.0576837 -0.047416035
000020 81 fe 64 bd 19 dc be 3d d7 8f 85 3e b9 9d 8f 3e
       -0.055906776 0.09319324 0.26086304 0.2805002
000030 f0 cf 96 be 1c 31 fe bd b1 42 5f 3e 5e c0 e0 bd
       -0.2945552 -0.124117106 0.21802785 -0.10974191
000040 f5 39 a1 bd 56 68 32 3d ed cf 6c be 4a 02 b0 be
       -0.078723826 0.043556534 -0.23126192 -0.34376746
000050 9d 3e 83 3e 37 cd 59 be 73 ed 77 be 27 9f 54 3e
       0.25633708 -0.2126969 -0.24211673 0.20763837
000060 0e f3 3d bd 67 89 24 3e 0d f6 03 bd 9e 20 90 3a
       -0.046374373 0.1606804 -0.032217074 0.0010996049
000070 82 d4 71 bd 34 a9 ff 3d bd cd d6 3d 71 d6 b7 bd
       -0.059040554 0.12483445 0.1048846 -0.08976448
000080 d3 d9 57 3e 3e 36 40 be 7c e1 a2 bd 62 d2 6f bd
       0.21079187 -0.18770692 -0.07953164 -0.058550246
000090 0c 51 1c 3e df d6 39 bd a7 73 69 3b 1d a5 8b be
       0.15265292 -0.045370933 0.0035621913 -0.2727441
0000a0 de 67 18 3e 5f 08 53 3e 92 50 4b be 36 72 99 be
       0.14883372 0.20608662 -0.19854954 -0.2996995
0000b0 28 5b f0 3c 93 90 88 3e b8 27 a6 3d 2a ba 55 3e
       0.029340342 0.266728 0.081130445 0.20871797
0000c0 14 f2 7d be ef 95 82 3e c5 37 84 3e 3d 18 75 be
       -0.24799377 0.25505015 0.258238 -0.23935027
0000d0 3b 5f 8e 3d 9a fa 5f bd 74 21 e4 3e 7f f3 11 be
       0.069517575 -0.05468235 0.44556773 -0.14253043
0000e0 66 ea a8 be 49 ab 90 be d7 15 83 3e 6a f6 12 3e
       -0.32991332 -0.2825568 0.256026 0.14351812
0000f0 73 be 94 be f7 34 84 be ce 82 2a 3e 2a 17 1f be
       -0.2905155 -0.2582166 0.1665146 -0.1553618
000100 6b 05 4b be 9d 6d 06 be 92 58 d8 bd 63 10 69 be
       -0.19826286 -0.13127752 -0.105637684 -0.22760157
000110 26 ed 06 be cf 4a 05 3d 1f c8 69 3d 71 43 97 3e
       -0.13176402 0.032542046 0.057075616 0.2954364
000120 9c f1 9d be 6f 7e d1 bc b5 8d c8 bd 1e 85 32 be
       -0.30848396 -0.025572984 -0.097926535 -0.17433593
000130 c1 63 03 3e 69 97 0c be 3b 32 e9 bd c1 6c 81 be
       0.12831022 -0.13729633 -0.11386534 -0.25278285
000140 3b 53 ed bd 42 af 94 3c 2e 3d 2d be 92 b2 4a bd
       -0.115881406 0.018149976 -0.1691787 -0.049486704
000150 f8 8c 25 be a2 90 15 3d 92 11 0a 3e 99 7b 33 be
       -0.16167057 0.036514886 0.13483265 -0.17527618
000160 98 ea 02 be 33 1e 8a bd d7 9f 1f be e1 db 29 be
       -0.12784803 -0.06744041 -0.15588318 -0.16587783
000170 93 57 27 3e 6c 4b 85 bd 9e be ed 3d af f8 4f 3b
       0.16342 -0.06508526 0.11608623 0.003173392
000180 20 95 bd 3c b1 12 75 be 1b 7f 1b 3d 0e 6a 84 3e
       0.023142397 -0.23932911 0.037963014 0.25862163
000190 bc d2 89 3e 49 8c 78 3e 15 a7 db bd 34 7b d3 bc
       0.2691859 0.24272265 -0.10725228 -0.025815584
0001a0 93 9f 8f 3e e5 c0 c1 bd 1b a0 bf 3d 25 7e 98 3b
       0.28051433 -0.0946062 0.093567096 0.0046537095
0001b0 21 a7 3c 3e 5c 4d 19 be 62 e5 1a 3d 89 1f 86 be
       0.1842313 -0.14970917 0.037816413 -0.26195934
0001c0 c7 aa 7d bd 5b e7 22 3e ce d5 cb 3c a9 f8 88 3e
       -0.061930444 0.15908568 0.024882223 0.26752213
0001d0 25 79 77 be b2 e6 c1 3d 80 22 e8 bc cf 79 e5 3e
       -0.24167307 0.0946783 -0.028336763 0.44819495
0001e0 68 d5 8e 3e 84 10 92 3e 00 de 47 be ea 2a 98 3e
       0.2789719 0.28528225 -0.1951828 0.2972024
0001f0 5b 66 3d be 72 d5 3c be 2a 43 45 3e e2 e6 31 3b
       -0.18496077 -0.18440798 0.19263902 0.0027145674
000200 43 eb 18 3e 45 bc 8b 3e 15 a9 59 bc 92 fc 7e 3d
       0.14933495 0.27292076 -0.013284941 0.06225259
000210 1a 28 d3 bc d6 b2 57 3e 71 3e 0e 3e 60 ad 05 3d
       -0.025775958 0.21064314 0.13891007 0.032636046
000220 44 ad 69 be c5 dc 44 3e e0 e6 32 3e f1 1e 0a 3d
       -0.22820002 0.19224842 0.17470884 0.033720914
000230 1e 06 03 3e 13 b6 b3 3d 1b 9a 0b be 9c 45 1b be
       0.12795302 0.08774962 -0.13633005 -0.15163273
000240 7f c2 7a bd 10 6e 8f be e9 32 90 bb df 0f 89 bd
       -0.061220642 -0.2801366 -0.0044006 -0.0669248
000250 e9 2b 7d be 13 9e 7e 3d c4 49 93 3d 1d 03 33 3e
       -0.24723782 0.06216247 0.07191804 0.17481656
000260 08 bc 64 bd 3b d6 9d bd c0 f3 79 bd 0a 77 85 be
       -0.055843383 -0.07706877 -0.061023474 -0.26067382
000270 45 ff 1e 3b 6c 7a 3f 3e 9b 81 40 3c 2a 40 fa 3c
       0.002426104 0.18699044 0.01174965 0.030548174
000280 f5 e4 85 3e 02 9e 9d 3e e7 90 87 3e e4 39 66 3e
       0.26151243 0.30784613 0.2647774 0.22483021
000290 c9 a1 2b 3e 02 92 03 bc 77 6f 95 be d5 86 b0 3c
       0.16760935 -0.008030416 -0.29186603 0.021548668
0002a0 36 09 22 3e 85 78 cf bd e3 bb 1b 3e 3f 05 54 be
       0.15823826 -0.10130409 0.15208392 -0.20705126
0002b0 46 6c b5 3b 7a ac a5 3e 10 84 9d be 81 d2 ae bd
       0.005536589 0.32358152 -0.30764818 -0.08536244
0002c0 fc da 0f 3e 51 cf 6a be 3b a0 d3 bd ae 64 b5 bd
       0.1404838 -0.22930647 -0.10333296 -0.08857094
0002d0 3e c4 5e 3e 00 87 ce 3b 9a 0b 84 3b 52 d1 68 3e
       0.21754548 0.0063027143 0.0040297033 0.227361
0002e0 e6 88 86 3d 82 e1 d1 bd ed ba 3c 3e 95 95 af bd
       0.0656908 -0.1024809 0.18430682 -0.085734524
0002f0 ad b9 8a 3e 6a 88 be bd 8e fa 89 3e 42 9c 05 be
       0.27094784 -0.09303363 0.2694897 -0.13047889
000300 6f e4 23 3e 36 5c 93 3e ea 8b c6 bd 57 d9 ef bc
       0.16005109 0.2878129 -0.09694655 -0.02927844
000310 63 31 1a be c2 f5 34 3e c3 26 b6 bd ca 2b a4 3e
       -0.15057902 0.17671874 -0.08894112 0.32064658
000320 6c 04 34 be 4e 55 cf bd 71 59 38 bd 65 8f c6 3e
       -0.17579812 -0.101236925 -0.045007173 0.38781276
000330 b9 76 13 3e 29 73 5b bd cc 48 16 3e b8 bd 83 be
       0.14400758 -0.053576622 0.14676207 -0.2573068
000340 8c 70 a6 bc 5d 42 a4 3e db 5e 91 bd f8 20 35 be
       -0.020317338 0.3208188 -0.0709817 -0.17688358
000350 92 fb 13 be e1 55 76 3e d3 82 38 3d 80 14 6f 3d
       -0.14451435 0.24056198 0.04504664 0.05836916
000360 53 70 0e be 7f 6f 57 3e 3e 99 0f 3c 29 fa 97 3e
       -0.13910036 0.21038626 0.008764563 0.29683045
000370 73 8a 3e 3e 86 60 96 be 6c 05 83 3e 6a fb 34 be
       0.18607502 -0.29370517 0.25590074 -0.17674032
000380 ab 70 cd bd 2e 9a 25 3d 38 59 76 be 22 f2 84 bc
       -0.10031255 0.04043024 -0.24057472 -0.01622874
000390 2b 3b 29 be 4a 61 1b bd 6f 70 c7 bc 76 38 3b bd
       -0.16526477 -0.03793458 -0.024345605 -0.045708142
0003a0 47 6c e8 3d ac 91 fe bd 14 db f1 3c 61 cb 98 bc
       0.11348777 -0.124301285 0.02952341 -0.018651666
0003b0 cf c2 c2 bd e5 b0 90 be 84 25 23 3e e7 f4 83 be
       -0.09509813 -0.2825996 0.1593228 -0.25772783
0003c0 e8 92 2e 3d 9b 56 98 3e 6f f0 8d 3e 1b 5e 33 be
       0.04262057 0.29753575 0.277225 -0.17516367
0003d0 fd fa 7e 3e 28 0b 48 be 0f 5a 3c be 4b 38 1b 3d
       0.24900432 -0.19535506 -0.1839373 0.037895482
0003e0 4b d3 d8 bd 5e e6 3e be 17 2b b4 3d 49 27 89 3e
       -0.10587176 -0.18642566 0.08797281 0.26787785
0003f0 f7 89 3a 3e 20 3d d5 3d 70 a6 29 3e a6 04 7b 3e
       0.18216692 0.10412049 0.16567397 0.24513492

layers.0.bias f4 [64]
000000 33 4b a9 3c d5 93 8b bc 9d ce 4c bb 88 d9 82 3d
       0.02066574 -0.017038265 -0.003125108 0.06389147
000010 5d b4 01 bc 0f fb 50 3d 2a 9c b1 bb be ae 30 3c
       -0.007916537 0.051020678 -0.0054202275 0.010783849
000020 f1 32 23 bb b7 87 c0 bc 0d a5 b4 3b 8e ed 87 3b
       -0.002490219 -0.023502214 0.0055128396 0.004148192
000030 f1 36 9e bc 07 36 2d 3c 69 6b ea 3c d4 de 09 3c
       -0.019313307 0.010571963 0.02861567 0.008414943
000040 24 e8 58 3c c9 22 1b 3c 94 e1 3a 3b 7a 66 fd 3a
       0.01323894 0.009468743 0.0028515803 0.0019332909
000050 f6 ca 5d bb 85 23 d3 bc 77 d6 bd b9 4f b4 6b bc
       -0.0033842898 -0.025773773 -0.00036208678 -0.014386251
000060 d5 9f c7 b9 f8 77 b2 bc 0b 4a a6 bc 2e f9 96 3c
       -0.00038075322 -0.021785721 -0.020298978 0.018429365
000070 ce f8 13 bc 42 eb 86 3c 73 a2 21 bc e9 86 60 3c
       -0.009031488 0.016469602 -0.009865391 0.01370404
000080 ff 1b 51 3b c4 46 59 bc 54 06 b9 bb ae c2 12 bc
       0.0031907556 -0.013261501 -0.0056465063 -0.008957548
000090 82 30 bd bc db 1b 2f 3b 65 96 fe bb eb 33 f0 3b
       -0.02309442 0.0026719484 -0.0077693933 0.007330408
0000a0 de b1 e9 3b ea f4 3a bc e9 1b 28 b9 70 de 3b bb
       0.007131799 -0.011410931 -0.00016032126 -0.0028666519
0000b0 5c 28 f6 bb 04 cd 76 b9 12 bb 0e 3c be d6 03 3b
       -0.0075121354 -0.00023536762 0.008711593 0.002011701
0000c0 4c b7 a6 3b 09 b4 2a bc 3d 6d e6 bb ec c3 45 bd
       0.0050877687 -0.0104189 -0.007032065 -0.04828255
0000d0 b4 ce 47 bb 39 36 0b 3b 58 cc a2 3c f8 f8 00 bd
       -0.0030488195 0.0021242036 0.01987283 -0.031487435
0000e0 3f b9 09 3b 82 53 cb 3c c9 8d 3a 3d eb be 81 bd
       0.0021014956 0.024820093 0.045545373 -0.06335243
0000f0 9b 61 a7 3c 87 c4 75 3c bd f7 6e 3c 16 57 fa bc
       0.020432284 0.015000469 0.014585433 -0.030559104

layers.2.weight f4 [64, 64]
000000 6e 09 b0 3d 0b f8 c0 bd 16 11 10 be 85 f3 e7 3d
       0.085955486 -0.094223104 -0.14069018 0.113257445
000010 0b 38 98 3d 12 6e 46 3e ff 67 9b 3b 20 0f e8 3d
       0.07432564 0.19377926 0.004742622 0.1133101
000020 ef cf 2a 3e 20 36 64 3c 6a ae f7 bd f3 8a 4e be
       0.16680883 0.01392892 -0.12093814 -0.20170192
000030 93 6d 1a 3e 38 d5 7e be 33 a9 e2 3d a4 b8 a3 bd
       0.15080862 -0.24886024 0.110674284 -0.07994202
000040 57 da 07 bd 38 bd 0b 3e 8d 45 53 be 73 de 17 3e
       -0.03316721 0.136464 -0.20632 0.14830951
000050 fa 40 31 bb 3a c2 f8 3d 40 4e 8f 3d f2 cb e8 3d
       -0.0027046786 0.12146421 0.06997347 0.113670245
000060 2a 02 8e bd 15 f9 a0 bd 7d ce cc 3d 7a 4f 41 be
       -0.069340065 -0.078600086 0.10000322 -0.18877974
000070 d5 d4 15 be ef a0 85 3c c8 ab 30 3e 77 8b 80 3d
       -0.1463197 0.01631209 0.1725303 0.06276601
000080 5f 14 a2 bd fc a0 01 3e 32 f2 e8 3d 19 d1 6a 3d
       -0.07914042 0.12659067 0.1137432 0.057328317
000090 12 7d 4b 3e c3 a6 1b 3e 17 10 a1 3d cc d2 3e be
       0.1987193 0.15200333 0.07864397 -0.186351
0000a0 17 74 06 3e 12 31 f9 3d 00 c5 07 be 31 31 ee 3d
       0.13130222 0.121675625 -0.13258743 0.11630476
0000b0 3f e0 5d 3e 33 f8 7d 3d 3d a4 0e 3e 07 b1 f6 3d
       0.21667574 0.06200428 0.1392984 0.12045484
0000c0 dd bc 1f bd 70 9a 54 be 63 93 91 bd 0d 5e 02 3e
       -0.038998473 -0.20762038 -0.0710819 0.1273119
0000d0 67 c5 15 be 2e 67 50 3e 3a d0 d8 3c 0a 7c bf bd
       -0.14626084 0.2035186 0.026466478 -0.093498304
0000e0 93 57 34 3e fe 6a 1c be 60 ef 1c ba a6 e3 50 be
       0.17611532 -0.1527519 -0.00059865974 -0.20399341
0000f0 c0 11 03 3e a6 2e e7 3c 9b 7b 02 3e 58 b4 f5 bd
       0.1279974 0.028220486 0.12742464 -0.119972885
000100 f4 04 23 3e a1 e0 5e be 01 b2 3d 3e 3b ff d2 3d
       0.15919858 -0.21765377 0.18524934 0.103025876
000110 e4 fd 7b 3d dd 3b 24 be 00 64 d9 bd d2 28 1e bd
       0.061521426 -0.16038461 -0.106147766 -0.038613148
000120 db 91 00 3e 71 da 3b 3e 30 43 51 3e 0e 9f 40 3d
       0.1255564 0.18345048 0.20435786 0.047026686
000130 13 b9 5b bd 30 7c 45 be 11 f9 b7 3b 33 37 46 3d
       -0.053643297 -0.19285655 0.005614408 0.048392486
000140 37 c0 bc bd 1e 02 c6 3d 38 2a 14 be 32 de 10 3d
       -0.092163496 0.096683726 -0.1446923 0.035368152
000150 c1 89 8f bc b2 b1 27 be ca 54 42 be 53 82 33 be
       -0.01752174 -0.16376379 -0.18977657 -0.17530183
000160 47 1c 58 3e 68 23 99 bd 36 e1 55 3d 85 6a 86 bd
       0.21104537 -0.07477456 0.05221673 -0.06563286
000170 dd c5 38 3d ab 57 32 be 15 93 9b 3d 1c 04 34 3e
       0.045110572 -0.17416255 0.07596413 0.17579693
000180 8e b5 13 3c 80 6c 69 3c bb c0 31 be 43 0e 10 be
       0.009015454 0.01424706 -0.17358677 -0.1406794
000190 95 76 33 be 66 d9 4b 3e 42 49 4a bc fb 1b a2 3d
       -0.17525704 0.1990715 -0.012346568 0.07915493
0001a0 6f e2 ad bc ff 7c d7 3d fe f9 22 3e 9b 52 29 be
       -0.021226136 0.10521888 0.15915677 -0.16535418
0001b0 36 df 17 be a2 9a 88 bd 0a aa 83 3c ab aa 12 bd
       -0.14831242 -0.06670119 0.016072292 -0.035807293
0001c0 85 6f a1 3d 91 75 bd 3d 33 dc 48 3d 38 00 42 be
       0.07882599 0.0925094 0.049038123 -0.18945396
0001d0 7b 8d 01 be 56 a3 ed 3d 01 0c ac bd 25 f7 2b be
       -0.12651627 0.116034195 -0.08400727 -0.16793497
0001e0 3a a2 3f bd 94 18 1b 3e db 77 6b 3d 33 8f b1 bd
       -0.04678557 0.15146095 0.05748735 -0.08669891
0001f0 90 70 48 3e 43 ed 26 bd 15 36 38 3e 9c 9f 52 3e
       0.19574189 -0.040753614 0.1798938 0.20568699
000200 6a 5f 48 be bc e0 03 bd 0e 37 24 3e 2e 50 63 be
       -0.19567648 -0.032196745 0.16036627 -0.22198555
000210 c5 73 ff 3d f2 5a 32 3e f0 f1 6d 3e 78 d2 a5 bd
       0.12473253 0.17417505 0.23236823 -0.08096784
000220 10 85 4f 3e 3d bd e2 3d 7a bc 24 3e db 5a ad 3d
       0.20265603 0.110712506 0.16087523 0.08464595
000230 f8 8e cd 3c 6b 51 6c be e4 de 0c be 01 b5 86 3e
       0.025092587 -0.23077933 -0.13756901 0.2630997
000240 bd 9c c3 3d 7d 63 21 bd 6c 20 53 3e 91 07 4a be
       0.0955138 -0.03940152 0.20617837 -0.19729449
000250 a7 2c 60 bc 40 bc 39 3e 95 f3 c6 bd 79 5c 46 3d
       -0.013682521 0.18138218 -0.09714428 0.048428033
000260 3e 2b c1 3d bc 93 42 bd da 7b 99 3d d7 3d bd 3d
       0.09432076 -0.04750417 0.07494326 0.09240311
000270 8f f8 8b bd 78 96 f8 bd 7d 7e 96 3d 4a 5d 1a be
       -0.06834518 -0.12138075 0.073483445 -0.1507465
000280 b2 a4 67 be 27 76 a1 bc ac fe e3 bd 26 f1 80 3d
       -0.2262142 -0.01970966 -0.11132559 0.062959954
000290 0d e4 6c 3d c6 36 66 be 5d 33 d7 bd 0c 98 96 3e
       0.057834674 -0.22481832 -0.10507844 0.29412878
0002a0 ae 11 23 3c 86 9a 01 3d d0 52 f6 bd 08 a5 98 3d
       0.009952946 0.031641506 -0.12027514 0.07453352
0002b0 31 25 db 3d 48 32 80 3d 2a 9f d8 bd db 6c 89 3d
       0.10700453 0.062595904 -0.10577233 0.06710216
0002c0 f6 24 e9 3d cb e2 58 3e 17 39 5d be b8 b0 cd 3d
       0.11384003 0.21180265 -0.2160381 0.10043472
0002d0 46 17 c1 bd 10 25 83 bd 95 f4 65 be 97 90 17 3c
       -0.09428267 -0.064035535 -0.22456582 0.0092507815
0002e0 17 79 58 be e0 a0 71 bd c9 e1 2e bc 5f 99 9f 3d
       -0.21139942 -0.058991313 -0.010673949 0.07792925
0002f0 19 39 bc 3d bd 47 fd 3d 9b 9e 7b be 6a 9f b7 bd
       0.09190578 0.123671986 -0.24572222 -0.08965953
000300 23 49 3d 3d 70 7c 1f be 6d 2c d4 bd ea 02 98 bd
       0.046212327 -0.15574813 -0.10360036 -0.07422431
000310 0b a1 de 3d 75 3b e2 3d 24 8f 96 bd 97 63 ea bd
       0.1087056 0.11046497 -0.07351521 -0.114447765
000320 6f 01 5f 3d fe e3 97 3d b9 0d 50 3e 37 31 1a 3e
       0.054444727 0.07416533 0.20317735 0.15057836
000330 ae 09 68 bd e8 0b 7c bc 17 e8 fc 3d 81 c3 dc 3d
       -0.056649856 -0.015383698 0.12348955 0.10779477
000340 62 92 d4 3d 23 a5 5f 3e 92 d9 a8 3d a1 2a a9 bc
       0.10379483 0.21840338 0.08244623 -0.02065021
000350 c6 28 90 be b9 4f e3 bd 41 28 e1 3d c7 39 4c 3e
       -0.28156108 -0.1109919 0.10994006 0.19943915
000360 ae 73 a5 3d 09 00 22 be a9 4f 34 be b8 c7 5b 3e
       0.08078705 -0.15820326 -0.17608513 0.21462905
000370 26 39 72 bd 45 d9 39 bd ee 35 88 bd 04 4e 02 3e
       -0.059136532 -0.04537322 -0.06650911 0.12725073
000380 57 ed 39 3e d6 0a 92 3d 18 45 18 3e 1b 56 35 3e
       0.18156944 0.07130973 0.14870107 0.17708628
000390 a4 ce 61 be 85 06 b2 bd a9 51 e7 bd bd a7 cb 3d
       -0.22051483 -0.0869265 -0.11294872 0.09944103
0003a0 f5 f1 25 3e c8 51 06 3d 96 bd 13 3e 2c 95 63 be
       0.1620558 0.032792836 0.1442779 -0.22224873
0003b0 74 f0 34 bd f4 2b cb 3c 45 5c e5 bc c0 3c 29 3e
       -0.044174626 0.024801232 -0.0279981 0.1652708
0003c0 3c da d0 bd b0 66 3d 3e 33 ac 8c bd 54 76 1d 3c
       -0.10197875 0.18496203 -0.06868782 0.009610731
0003d0 83 87 06 3d b0 3d 3f 3e f7 d2 6c bd 96 0e 42 bd
       0.032844078 0.18675876 -0.05781838 -0.04737719
0003e0 e8 a1 16 3e 46 a2 5b 3e 23 7a e4 bd d0 0f 88 3d
       0.147102 0.21448621 -0.11156108 0.06643641
0003f0 f7 cc 02 3c 9d 79 49 be 2b 20 43 be 7c af 70 bd
       0.007983438 -0.19675298 -0.1905524 -0.058761105

layers.2.bias f4 [64]
000000 0b 6a 20 bb 23 ce a7 3a a8 b9 7b bc 86 c1 cd 3b
       -0.002447727 0.0012802522 -0.015364088 0.0062791733
000010 56 16 2c 3a b4 d2 d5 bb 09 67 f5 bb d2 6a a2 bc
       0.00065646076 -0.006525362 -0.0074890894 -0.019826327
000020 00 36 42 3c 8f 86 9a 3b e2 07 50 3b 17 a4 bc 3b
       0.011853695 0.0047157477 0.003174298 0.0057568657
000030 6e 44 89 3b c8 e4 f8 bb fc 2a 08 3c 78 f6 83 3c
       0.0041890657 -0.007595632 0.0083110295 0.016108736
000040 a7 a9 12 3c 7d 1c 37 bb c3 25 5c 3d 22 04 84 b9
       0.008951581 -0.0027940564 0.05374695 -0.0002518008
000050 8e 05 b2 3c 2c 46 a7 3a e6 61 f9 3c 1b a0 15 3d
       0.021731164 0.0012762002 0.03044219 0.03652964
000060 01 69 6c 3c 46 ca 17 bc 58 a3 74 bc 36 c6 13 bc
       0.014429332 -0.009264534 -0.014931522 -0.009019425
000070 63 f8 8d bb 4d c3 e5 bb bd fb 95 3c 9e 2e ba 3b
       -0.0043325885 -0.007011807 0.018308515 0.0056818267
000080 b6 e3 27 bc 74 c9 02 3d a1 63 9b 3c 29 50 c5 3c
       -0.010247162 0.031930402 0.018968405 0.024086075
000090 e8 38 78 3d 5c fe cb 39 ea fa e9 ba 57 91 a1 bc
       0.060601145 0.0003890869 -0.0017851267 -0.019722624
0000a0 62 bf 5c bc c6 70 34 bc 5b 0c 97 bc aa 34 86 3c
       -0.013473364 -0.011013215 -0.018438509 0.016382534
0000b0 d2 f3 a1 bb 57 17 7a bb 66 68 81 38 2c 28 48 3c
       -0.0049423957 -0.0038160884 6.170645e-05 0.012216609
0000c0 3d 65 89 bc 6c ae b2 3c 32 aa 16 ba 50 cc 44 bc
       -0.016771907 0.021811686 -0.0005747407 -0.0120116025
0000d0 dd f2 01 bc 73 af 8a bc c4 5d 85 3c e1 8e 8c 3c
       -0.007931438 -0.016929364 0.016280062 0.017157974
0000e0 95 27 2b bd 5e 2f d8 3c d8 5d bd bb 65 fe b3 bc
       -0.041785795 0.026389774 -0.0057790093 -0.02197189
0000f0 3f 73 bd 3b 5a 8d 2d 3c fd 34 1c bd e9 be d4 3b
       0.0057815607 0.010592783 -0.03813647 0.006492485

layers.4.weight f4 [64, 64]
000000 ab 69 84 3e f0 77 44 3d a9 e6 d7 3d 4a 59 a8 3d
       0.25861868 0.047965944 0.10542042 0.082201555
000010 e4 44 8f bd 6b 14 98 3d 15 8c 9e be 57 16 f1 3d
       -0.06995562 0.074257694 -0.3096625 0.11771839
000020 d5 d2 29 3e 09 9f 9e 3e 61 e4 e7 3c 60 46 99 be
       0.16584332 0.3098071 0.028307142 -0.29936504
000030 8f a1 fe 3d a8 22 4d 3e 71 7d a5 3e d9 07 d3 be
       0.124331586 0.20032752 0.32322267 -0.41216925
000040 c4 83 3f bd 5a 00 79 3d 64 5d 3b 3d 88 1a 34 3e
       -0.04675652 0.06079135 0.04574336 0.17588246
000050 7a b8 98 be d9 d4 ef 3d 0d 5a 13 bd 34 c1 60 3d
       -0.29828244 0.11710519 -0.03597455 0.054871753
000060 47 91 34 be ff c8 42 be 36 e8 fe 3d ad 4b 68 bd
       -0.17633544 -0.19021986 0.124466345 -0.056712795
000070 95 30 e4 bb e3 dc 82 3e 40 f4 69 3e 0f 71 06 be
       -0.0069637992 0.25559148 0.2284708 -0.13129066
000080 e5 5b 19 bd 38 d8 2e be a9 50 72 be 79 67 58 be
       -0.037441153 -0.17074668 -0.23663582 -0.21133222
000090 34 20 16 be d6 ae b1 bd e6 1c 52 be 86 03 b7 bd
       -0.14660722 -0.086759254 -0.20518836 -0.08936219
0000a0 97 01 2b 3e 83 f5 c8 bc a4 17 63 3d ee ab 3b be
       0.16699825 -0.024531132 0.055442467 -0.18327305
0000b0 c3 3c a0 bd 7f a2 c2 3c f9 0f 2a 3e 90 7b 27 3e
       -0.078240894 0.023759125 0.16607656 0.16355729
0000c0 75 43 4a 3e ed 3e 92 3d 84 83 01 3e d8 de c9 3d
       0.19752295 0.071409084 0.12647825 0.09856957
0000d0 10 25 b3 3e 5e 1f c1 3d eb 24 25 be 5c 69 bb 3b
       0.34989214 0.09429811 -0.16127364 0.005719347
0000e0 5d 80 7b 3d a8 dd ce 3d ae 18 a9 3d cc f6 ea 3d
       0.061401714 0.10100871 0.082566604 0.11472854
0000f0 7d 8e b5 bd f5 bf 39 3e 09 63 9f 3e 8b e7 6d 3e
       -0.08865068 0.18139632 0.31130245 0.23232858
000100 a5 b6 44 be e5 3d d3 3d 14 3a 23 3e dd 25 df bd
       -0.19210298 0.1031454 0.15940124 -0.10895894
000110 47 5a 42 be 06 bd dc 3d 30 54 aa 3b 44 d3 3e 3e
       -0.1897975 0.10778241 0.005198024 0.18635279
000120 cf cf db 3d 51 fe 08 3e d6 dc 2a be 4e d0 cb bd
       0.10732996 0.13378264 -0.16685805 -0.0995184
000130 2e 7c 51 be 4b 90 09 3d b6 01 13 3e 02 b6 05 be
       -0.20457527 0.033584874 0.14356121 -0.13057712
000140 5f 8a 13 3e 4e f4 49 be 78 29 17 3e 3e 52 32 be
       0.14408253 -0.19722101 0.14761913 -0.17414185
000150 c7 7c 28 be 65 78 dd bd ba bb 85 3d 48 35 55 be
       -0.16453849 -0.10813979 0.065299466 -0.20821106
000160 0f dc 75 3d 7c 46 68 be ff e7 d3 bc 28 52 4e bd
       0.060024317 -0.22683138 -0.02586746 -0.05037132
000170 f3 4e 0d bd f4 66 1e be 79 9b 57 3e 5a 7e 50 3e
       -0.03449912 -0.15468961 0.21055402 0.203607
000180 8a 22 61 be d0 ea d4 bc 8f c7 3d be 37 f1 45 be
       -0.21985832 -0.025990874 -0.18533157 -0.19330297
000190 cf 4a 9f bd 80 99 09 3e cf 6b 45 be 97 d4 55 3e
       -0.077779405 0.13437462 -0.19279407 0.20881878
0001a0 d7 90 4d 3e 1c 75 9c 3d fa 7b 38 3e 00 ae 35 3d
       0.20074783 0.07639524 0.18016043 0.044355392
0001b0 5f 5f fe 3d 29 d9 be 3d 39 a4 3f be 21 65 56 3d
       0.12420534 0.09318764 -0.1871499 0.052342538
0001c0 4d 52 88 3c be b5 51 be ee ac 1e 3e b0 ba ba bd
       0.016640807 -0.20479485 0.15495655 -0.09117639
0001d0 9f ad 8b 3d 44 7d a3 bd ed cf 0e 3e 2d 45 1a 3c
       0.06820225 -0.07982877 0.13946505 0.009415907
0001e0 4b b0 87 bd b3 9e bd bd c9 52 92 3d ba 9e 46 be
       -0.06625422 -0.09258785 0.07144696 -0.19396487
0001f0 d1 f8 f7 3d a4 a0 2f be fa f8 10 be 86 84 03 3d
       0.12108005 -0.17151123 -0.14157477 0.032108806
000200 b6 36 f5 bd 10 44 8c 3d 64 a3 68 be 28 a4 95 bd
       -0.11973326 0.068489194 -0.22718579 -0.07306701
000210 32 46 e6 3d eb aa b6 3d f5 2d 90 3c e0 6a 1f 3d
       0.112438574 0.08919319 0.017600039 0.038920283
000220 5f 76 fe bd cd cf f9 bd 49 be 22 3e 93 d2 e3 bd
       -0.12424921 -0.12197838 0.158929 -0.11124148
000230 5f 84 37 be 9a 80 0f bd d2 e7 e0 bd 55 38 11 3e
       -0.1792159 -0.035034753 -0.10981716 0.14181645
000240 6c 87 c3 bd fc a9 3b be db 18 26 3d f1 28 44 3e
       -0.09547314 -0.18326563 0.040551048 0.19156243
000250 0a 1c aa bc 36 6e b1 3d 6b 42 25 3d c5 9d 2c 3b
       -0.020765323 0.08663599 0.040346544 0.0026339155
000260 6e 29 85 bd 95 8a c6 bd 20 c2 8f be 40 05 4b 3e
       -0.06502043 -0.09694401 -0.28077793 0.19826221
000270 bd 42 3d be 4c 71 70 be 74 bc 08 be e0 6c 98 3d
       -0.1848249 -0.2348072 -0.13353139 0.07442641
000280 85 86 78 bd 35 32 df bc c6 d2 fd 3d d1 96 19 be
       -0.060675163 -0.02724562 0.123937175 -0.14998938
000290 67 80 2f be 15 7c e0 3d da ce 83 bd 2e 3d 02 be
       -0.17138825 0.10961167 -0.06435938 -0.1271865
0002a0 d5 42 a4 bd 2c e7 16 be 9e d2 bb 3c 95 dd 8a bd
       -0.0802056 -0.14736623 0.022927579 -0.06780545
0002b0 20 cf 7d 3d 5c bd 83 bd df f8 10 3e 88 74 1d 3e
       0.061965108 -0.06432602 0.14157437 0.15376484
0002c0 e1 4c b3 bc 48 64 b4 3d cd 56 70 be 77 44 82 be
       -0.021887245 0.0880819 -0.23470612 -0.2544286
0002d0 ee 69 65 be ae d0 c9 bc e3 fc 70 be 1b d8 ed 3d
       -0.2240369 -0.024635639 -0.23533969 0.116134845
0002e0 00 36 5b 3e 93 d8 36 be 2c d4 9f bd dc 26 cf bd
       0.21407318 -0.17856054 -0.078041404 -0.10114834
0002f0 c4 a7 73 3e 12 22 ec 3d 66 a8 95 3c fc e5 6e 3e
       0.23794466 0.11529936 0.018268775 0.2332992
000300 73 41 3b 3e 54 62 c4 3d 72 8a 1b be 2f ce 88 bd
       0.18286686 0.09589067 -0.15189531 -0.066799514
000310 67 72 3d bd 54 73 00 bd b5 1d f3 3d 04 d3 02 3e
       -0.04625168 -0.031359985 0.118709005 0.12775809
000320 25 f5 0f be 2b 5d 45 be 00 9c 4a be cd fb 7a 3d
       -0.14058359 -0.19273822 -0.19786072 0.061275292
000330 5b 58 19 be 0a ca d9 3d 66 92 3e 3d 96 f2 db 3d
       -0.14975111 0.10634239 0.046526335 0.10739629
000340 47 92 86 bd ab 5a ef 3d b0 56 0a 3e da 0f 66 3d
       -0.06570869 0.116872154 0.13509631 0.05616746
000350 8a da db 3c f1 f3 d8 3d e8 09 2d 3c 4c f1 88 3d
       0.026837606 0.10593403 0.010561444 0.06686649
000360 3c 32 0a 3e 15 37 47 3e d0 9e 63 bd 2d df 0d 3e
       0.13495725 0.19454606 -0.055571377 0.13854666
000370 4f 80 2e 3e 4f bc 46 be be 93 06 bc cf e9 4b be
       0.17041133 -0.19407772 -0.008213935 -0.1991341
000380 f3 2c 1c be ad e5 24 3e 48 64 19 be f4 26 3e 3e
       -0.15251522 0.1610324 -0.1497966 0.18569547
000390 a4 e8 3d 3e 1e 08 21 be cf 04 2e be 66 06 a9 bc
       0.18545777 -0.15725753 -0.16994022 -0.020632934
0003a0 e2 2c 55 be df ce f5 3d 15 d3 6e bd 4c 59 1a 3d
       -0.20817903 0.12002348 -0.058306772 0.037682816
0003b0 63 8f d7 3c e5 15 08 bd 6a a8 07 be 1b c4 50 3d
       0.02631349 -0.033224005 -0.13247839 0.05096827
0003c0 14 1e a9 3d 38 39 89 3b a3 58 4f bd dd 4a 94 bd
       0.0825769 0.004187729 -0.05062164 -0.072408415
0003d0 33 15 0e be a5 f4 66 3d 31 f9 95 3d 60 22 a0 bd
       -0.13875274 0.056385655 0.0732292 -0.078190565
0003e0 95 33 cb bd 2f b9 38 3e bf 64 1a 3e 5b a1 53 be
       -0.09921948 0.18039392 0.15077494 -0.20667021
0003f0 c6 26 dc bd 39 e4 79 bc a0 61 b6 bd 43 f5 28 3c
       -0.10749583 -0.015252166 -0.08905339 0.010312381

layers.4.bias f4 [64]
000000 6a 0c bc bc 3a 86 3a bb e5 cf f1 3c 5e f3 09 bc
       -0.022955138 -0.0028461353 0.029518077 -0.00841984
000010 93 2c 44 bc 9b 87 05 3a 8a 98 d3 bb bd f7 22 3d
       -0.011973518 0.0005093754 -0.006457393 0.039787043
000020 78 c2 a1 3a 3d 24 a6 3b 27 ea 73 bc a8 39 2d 3c
       0.0012341281 0.005070238 -0.014887369 0.010572828
000030 5e 17 c9 3b 49 be 09 3c a3 45 88 bb 7d d4 66 bc
       0.006136819 0.008407184 -0.004158692 -0.014088747
000040 ad 62 09 3c 66 00 c9 3c 9b a9 86 3c 02 d8 44 3b
       0.008385343 0.024536323 0.016438296 0.0030035977
000050 dc 1b bc 3c 2d 33 fb bb 6e d2 21 3b f5 e6 0d 3c
       0.022962503 -0.0076660127 0.0024692076 0.0086610215
000060 44 0e ac bb be ed 55 3b a5 9c 63 bc 2e a2 39 3c
       -0.005250724 0.0032642926 -0.013892327 0.011330171
000070 68 b6 5c 3c 0f a0 88 3c b0 82 d0 3b 32 33 40 bb
       0.013471223 0.016677884 0.0063632354 -0.002932739
000080 cf 12 0f bb 32 7b 1a 3b 79 56 78 ba 66 46 7d bb
       -0.002183128 0.0023571965 -0.00094733346 -0.0038646697
000090 0a 99 1a bb 3e 1a 2d bc f9 e6 6e 3c 4c 5f a4 3a
       -0.0023589754 -0.010565339 0.014581435 0.0012540608
0000a0 f7 33 03 3d 1a 68 5a 3c 03 af fb bc c3 c8 4d 3b
       0.03203198 0.013330484 -0.0307231 0.003140018
0000b0 96 db 89 ba 45 11 30 3b 64 f4 b0 ba 57 c5 56 bc
       -0.0010517712 0.0026865762 -0.0013500568 -0.013108573
0000c0 41 ed ac bc 66 75 b6 3b 06 a7 0a 3d 4d d2 43 bd
       -0.021109225 0.005568194 0.033850692 -0.04780798
0000d0 20 be 07 3d 1b 9b 54 bc 0f f2 a5 b9 d0 26 03 3c
       0.0331403 -0.012976433 -0.000316516 0.008004859
0000e0 ce b6 ed bb 16 a1 7c bc 46 26 c1 3b 9c 57 8a ba
       -0.007254458 -0.015419265 0.005894455 -0.0010554674
0000f0 7f 42 69 3a 9f fd 94 bc 1d d9 e0 3b d6 cf 50 3b
       0.00088981533 -0.018187342 0.0068618194 0.003186216

layers.6.weight f4 [64, 64]
000000 d1 f8 d5 bb e9 8b d9 bd 53 8c 8f be 1b b4 55 bd
       -0.0065299054 -0.10622389 -0.28036746 -0.052173715
000010 2c 30 0b 3e 3c 75 25 be 60 89 97 bd d0 cb 74 bd
       0.13592595 -0.16158003 -0.07399249 -0.059764683
000020 bd 1b 4b be 14 46 36 3d ab 11 26 3d 48 fd 0d 3d
       -0.198348 0.044500425 0.040544193 0.034665376
000030 39 4d 2d 3e 46 53 1b 3e 4a 13 0c 3e 1f e8 31 bb
       0.1692399 0.15168485 0.13679233 -0.0027146412
000040 cc 25 07 3e d8 5e f4 3c cd 93 5a be ac 7f 9f 3d
       0.13198012 0.029830381 -0.21345444 0.07788023
000050 c3 5b 26 3e 8a 15 b3 3d 80 2f 46 3e 8d f4 a5 bd
       0.16245942 0.087443426 0.19354057 -0.08103285
000060 86 48 2e 3e 2a a4 40 bd 36 ea 4b bc b5 e8 9b bd
       0.17019853 -0.04703156 -0.012445977 -0.07612745
000070 e2 94 9f 3c a3 02 94 bb 37 ea 01 3e df 64 c6 3d
       0.019480173 -0.004516916 0.12687002 0.096872084
000080 0e 3c 8a be 47 20 5b 3e f3 0b 8e be 3b fe 0e be
       -0.26998943 0.21399032 -0.27743492 -0.13964169
000090 ad 26 a4 3d 72 d2 79 3e 04 22 a5 3c c0 ec 1b be
       0.08015189 0.24396685 0.020157821 -0.15227032
0000a0 c5 61 4c be 07 4a 68 3e 96 0f 3f 3e 4e f2 34 3c
       -0.19959171 0.22684489 0.1865829 0.011044098
0000b0 81 c6 24 be c6 dd d0 bd 88 63 30 3e ed d9 dc 3d
       -0.16091348 -0.1019855 0.17225468 0.107837535
0000c0 b7 cd 27 be d4 69 08 3e ed d5 47 be 91 e9 21 bc
       -0.16387068 0.1332162 -0.195152 -0.009882347
0000d0 a7 e9 e8 bd 0e ae 4e be 0a ae 33 3d 53 3e 79 be
       -0.11372691 -0.20183584 0.04386715 -0.24340181
0000e0 55 07 11 be 03 54 43 be 25 bf 4a be 9f 3d 8a 3d
       -0.14162953 -0.19075017 -0.19799478 0.067500345
0000f0 c1 dc 81 3d b7 92 af 3d 28 e1 72 be 93 ca b2 bd
       0.063409336 0.085729055 -0.23718703 -0.08730044
000100 19 15 6d be e9 3d 3c be 8c 75 f5 bd cd ef b6 3d
       -0.2315258 -0.18382992 -0.11985311 0.08932457
000110 2f 37 43 3e a1 83 78 3d c8 bc 49 be 1a 59 27 3e
       0.1906402 0.060672406 -0.1970092 0.16342583
000120 24 eb 59 3e 96 be 61 3e d4 e1 49 be cb 48 e9 bd
       0.21281105 0.22045359 -0.19715053 -0.11390837
000130 5c ec b7 bd 4e 66 3e 3e b2 15 55 3e 43 44 17 3d
       -0.08980629 0.18593714 0.20809057 0.036930334
000140 c7 0d 21 3e b7 21 3d 3d a0 59 9d bd 14 d9 4d 3d
       0.15727912 0.04617473 -0.0768311 0.05025585
000150 0f 45 06 be 99 3c 5a 3d db 55 09 3e b5 c7 2f 3e
       -0.13112281 0.053280447 0.13411658 0.17166026
000160 0f 8e 4a be 22 4d c5 3c de 94 92 bc 3a 85 c9 3d
       -0.19780754 0.024084631 -0.017893251 0.09839864
000170 96 dc 40 3e e7 a5 c8 3b 91 f6 a4 3c 0b 0f 61 be
       0.18834147 0.0061232927 0.020137103 -0.21978395
000180 b0 8d 37 3d f9 47 e5 bd 65 16 10 3e be 13 8d bc
       0.044812858 -0.11195368 0.14071043 -0.017221328
000190 d5 da 6b 3c 3e 3c 79 bd 9f ed e6 3d 59 f3 0b be
       0.014395435 -0.060848467 0.112757914 -0.13667049
0001a0 e5 e9 00 3e d4 5c 81 3d fc a5 d4 bd 3c f7 23 3e
       0.12589224 0.06316534 -0.103832215 0.16012281
0001b0 e9 e3 03 3d fa a0 70 bd 65 bb 81 3c 51 ef ac bd
       0.032199774 -0.05874727 0.015836427 -0.084440835
0001c0 ca e4 fb bd 86 37 2d 3e b7 50 3d 3e d4 fd f2 bd
       -0.122994974 0.16915712 0.18487822 -0.1186482
0001d0 8b ab dc 3d 70 90 30 be 5a 6f ef bd ab cf 63 be
       0.10774907 -0.17242599 -0.116911605 -0.22247188
0001e0 95 11 06 3e 4d c7 fb bd fe 33 72 bd 2b fc 79 3d
       0.13092645 -0.12293873 -0.059131615 0.0610315
0001f0 9b 04 ba bd a6 6a 1c be f4 49 21 3e a9 19 1e bd
       -0.0908291 -0.15275058 0.15750867 -0.03859869
000200 46 0f 23 be 9d 01 9c 3c f8 3f 7a 3d 4d cb ed bd
       -0.15923795 0.019043738 0.06109616 -0.11611042
000210 19 59 eb bd a9 16 d0 bd 09 a5 1d 3c f6 18 b5 bb
       -0.114916034 -0.10160572 0.009621867 -0.005526657
000220 57 ea 29 be 2f be 1f 3e c2 0c a7 3d 49 45 3a 3e
       -0.165933 0.15599893 0.0815673 0.18190493
000230 d5 5f 62 be f6 03 44 3d 2a 89 26 3e 1c 60 43 be
       -0.2210687 0.04785534 0.16263261 -0.19079632
000240 08 7c 39 3e 07 69 15 be 94 a8 09 3e d2 ff 32 bd
       0.1811372 -0.14590846 0.13443214 -0.043701
000250 07 2e 78 3d fc ff 1d be 6c 04 a7 bc df 28 ba bc
       0.06059077 -0.15429682 -0.02038785 -0.022724567
000260 c0 3c 2d 3e 04 a7 34 be 80 de e2 3d f3 c6 26 be
       0.16917706 -0.17641836 0.11077595 -0.1628683
000270 06 82 31 bd 8b bb 20 be 02 ba 21 3e 88 c2 81 3b
       -0.04333689 -0.15696542 0.15793613 0.0039599575
000280 cc 0f b2 3d 3b a2 ab 3d f6 b8 98 3b 45 9e 5a 3d
       0.08694419 0.083805524 0.004660721 0.053373594
000290 5a 8e 02 be f2 a3 d8 bd 8a b9 a4 bd 55 b2 0d be
       -0.12749615 -0.10578145 -0.08043201 -0.1383756
0002a0 fb 04 09 3e 5b 0e 47 be ea 16 cc 3c aa 53 ed 3c
       0.13380806 -0.1943907 0.02491327 0.028970558
0002b0 b0 ef 61 bd a0 2b e1 bc 9e d2 58 3d 9f 94 a7 bd
       -0.055160224 -0.027486622 0.052935235 -0.08182644
0002c0 42 96 26 be ea c2 15 3e 58 48 ef bc f7 1d 1e be
       -0.16268256 0.14625135 -0.0292093 -0.15441118
0002d0 fd 2b 2e be 57 a6 0e 3e d1 4c 4a be 8a f0 c8 3c
       -0.17008968 0.13930641 -0.19755866 0.02452876
0002e0 a1 5d 4a 3e 70 33 21 be d0 1e 3e 3e 7b 94 17 3e
       0.19762279 -0.15742278 0.18566442 0.14802735
0002f0 df b8 ba 3d d1 fd 01 3e 9a 5b ba bd ab 7d ab 3d
       0.091172926 0.1269448 -0.09099503 0.08373579
000300 26 f4 29 be f7 21 5c 3e 1a e4 a7 3c 3d ae c0 3c
       -0.16597041 0.21497332 0.02049451 0.023520583
000310 cf 30 25 3e ef 17 f2 bd 26 67 44 be e8 82 14 be
       0.161319 -0.11820971 -0.19179973 -0.14503062
000320 e4 8b a6 3d 8e e1 03 3e d4 e3 a5 3d d7 4f d2 bd
       0.08132151 0.12879011 0.081000954 -0.102691345
000330 28 cf 4c 3d d5 c5 5a be 9a 9b b6 bb d4 d3 0a ba
       0.050002247 -0.2136453 -0.0055727484 -0.0005295847
000340 62 9f be bd f7 d0 4a be 42 95 f9 bd fe 50 59 bd
       -0.093077436 -0.19806276 -0.12186672 -0.053055756
000350 21 a9 56 3b b4 1e 89 bc 1d d1 b9 3d 38 3c 20 be
       0.0032754617 -0.016738273 0.09073088 -0.15647972
000360 1a dd 56 3d f5 20 5a be f6 05 c3 3d 11 2a 07 be
       0.052456953 -0.21301635 0.09522621 -0.13199641
000370 fc fe 3c 3d b0 5f 48 bc 1f bc f6 bc 63 39 2f 3e
       0.04614161 -0.012229845 -0.030119 0.17111735
000380 57 84 c9 3d 9e ab 54 be e4 ae 46 3e e5 38 f7 3c
       0.09839695 -0.20768592 0.19402653 0.030178497
000390 29 2d af 3d 4c 77 28 3b 92 29 62 3e 0f ee e9 3d
       0.085535355 0.0025705872 0.2208617 0.11422359
0003a0 85 8a fe bc a9 d9 57 be 5c 06 f2 3d b6 db 56 be
       -0.03107191 -0.21079125 0.11817619 -0.2098225
0003b0 ab 49 ed 3d 18 01 23 3d d5 d6 a9 3d 47 57 8f 3d
       0.11586317 0.039795965 0.08292929 0.06999069
0003c0 8d 23 1d be 47 b8 a7 bd 74 4f 69 bd 15 1d 58 be
       -0.15345593 -0.08189445 -0.056960538 -0.21104844
0003d0 e1 98 14 3e 8b 8c cf bd 5c de d9 bd a0 58 93 bd
       0.14511444 -0.10134228 -0.10638115 -0.07194638
0003e0 31 8a ef 3d 4a a8 be ba 03 56 d3 3d d9 dc 01 3e
       0.1169628 -0.0014546004 0.1031914 0.12681903
0003f0 34 e2 ec bb a1 78 2d 3e 98 81 cc 3d 7a 33 03 3e
       -0.007229114 0.16940548 0.099856555 0.12812606

layers.6.bias f4 [64]
000000 df f6 ba bc 20 c6 f0 ba f5 3b 40 3b 1e 07 10 3a
       -0.022822795 -0.0018369593 0.0029332612 0.00054942246
000010 8b 2c 14 bd 81 a5 81 3b e3 ae 39 bc bc 70 15 bb
       -0.036175292 0.003956497 -0.0113332 -0.002280279
000020 a6 29 2f bc 8f c0 9f ba 7f dd f7 bb dd 30 2d 3c
       -0.010691082 -0.0012188124 -0.007564246 0.010570732
000030 3f 78 a3 3b 13 63 0b ba 57 d0 d7 3b 57 d5 36 3b
       0.0049886997 -0.00053171924 0.0065861153 0.0027898157
000040 13 48 0e bc 25 39 47 3c 2c 12 1d ba a6 d0 ea bc
       -0.008684176 0.01215962 -0.00059917825 -0.028663944
000050 ed 27 b4 3b 4d 4b 82 bc 88 c5 f4 ba 7a 03 21 bd
       0.0054979236 -0.015905047 -0.0018674592 -0.039309956
000060 d5 51 cd bb a3 24 86 3c c5 be 2e b9 44 f0 d7 3b
       -0.0062658587 0.016374892 -0.00016665 0.006589921
000070 6c 3a 3d bc 4c 71 ce 38 52 ef 19 39 1c 5e bc 3b
       -0.011549573 9.843949e-05 0.00014680371 0.0057485234
000080 18 a8 31 bd 44 5e 81 3b 9c 0f 08 39 08 52 64 3c
       -0.043373197 0.003948005 0.00012975786 0.013935573
000090 fc 6a 33 bb 93 07 29 3d 11 c7 77 bc 7c f8 1b 3a
       -0.0027377 0.04126699 -0.015123145 0.0005949808
0000a0 b8 43 46 3c 2b 53 d8 3b 54 17 1c bb 02 e1 5e 3b
       0.012101106 0.0066017113 -0.0023817616 0.0034008627
0000b0 d8 59 cc 3b 4a 84 0b 3a 37 0f a5 3b 05 dd c6 bd
       0.006236296 0.0005322142 0.005037214 -0.09710125
0000c0 d0 30 67 3c 4a c4 c6 bc db c0 19 bc 63 77 89 b9
       0.014110759 -0.02426352 -0.009384359 -0.00026219626
0000d0 4b c6 02 bb 28 36 87 bb 9a 07 c0 bb c5 a8 db ba
       -0.0019954618 -0.004126329 -0.005860281 -0.0016758671
0000e0 bf 34 53 bb 34 5b 47 bc 4e b5 0b 3c 38 df 4b bd
       -0.0032227484 -0.012167741 0.008527113 -0.049773425
0000f0 1a aa 67 bb 3c b7 83 bb da 9e 07 bd c7 2f 59 bc
       -0.0035349191 -0.004019646 -0.033110477 -0.01325602

layers.8.weight f4 [64, 64]
000000 97 e3 0a be b2 ea 14 be 1f ec bf 3c 0b f3 46 be
       -0.13563381 -0.14542654 0.023428021 -0.19428651
000010 ba 8e f6 3a 70 43 94 bd 89 b5 93 bd a1 b8 49 be
       0.0018810846 -0.07239425 -0.072123595 -0.19699337
000020 ee d5 08 be e6 47 00 3e 87 b5 e3 bd 1a a0 e5 3d
       -0.13362858 0.12527427 -0.11118608 0.112121776
000030 ab a3 20 3e 5d 26 6e 3c 18 1d f7 3d e0 8f 23 be
       0.15687434 0.014535514 0.12066096 -0.15972853
000040 1d 62 24 be 93 69 2a 3e 45 bf 01 3e ff 46 5d 3c
       -0.16053052 0.16641836 0.1267062 0.013505696
000050 b8 73 0b be 9b 23 9b bd 01 06 37 3e 47 83 7b 3e
       -0.13618362 -0.075751506 0.17873384 0.24561797
000060 e5 dc 34 be df 1e c1 3d 55 a4 1e be 36 de 0b bd
       -0.1766239 0.09429716 -0.15492375 -0.034147464
000070 9d bb 85 bc 40 0d 29 be 10 de 59 3c 8b 83 2d bd
       -0.016324813 -0.1650896 0.013297573 -0.042361777
000080 f1 f2 3b 3e 55 9f d8 bd c7 83 2f be 74 cf 04 3d
       0.18354394 -0.10577265 -0.17140113 0.032424405
000090 f1 e2 6a 3e 5c 84 43 3e 0f 96 d0 3d 87 7a 62 be
       0.22938134 0.1909346 0.101848714 -0.22117053
0000a0 94 41 f1 3d 7a 44 1d bd 3f 50 36 be 88 1a ac bd
       0.11780086 -0.038395382 -0.17804049 -0.08403498
0000b0 92 08 50 be 73 67 ba bd f8 0d bb 3d 79 8d 4d 3e
       -0.2031577 -0.091017626 0.09133524 0.20073499
0000c0 b9 d4 4b be 08 57 aa 3d a7 04 54 3d 28 55 16 be
       -0.19905366 0.08317381 0.05176225 -0.14680922
0000d0 ff 87 81 bd 65 aa 15 be ed a4 10 be 5e b1 43 3e
       -0.06324767 -0.14615782 -0.14125414 0.19110629
0000e0 e0 f5 4d 3e bd 5c be 3d 2f 35 38 bd 0c 07 d0 bd
       0.20113325 0.09295032 -0.044972595 -0.10157594
0000f0 dc 12 9a 3d ab da 47 be 99 88 0b be aa 76 a8 3d
       0.075231284 -0.19517009 -0.13626327 0.082257584
000100 42 05 1c 3e 7a 94 95 bc 2e 3d d5 bd c8 df e1 3d
       0.1523638 -0.018259276 -0.1041206 0.11029011
000110 66 3b 19 3e ab fc 62 be 7b 11 0f bd 3c 0d 62 be
       0.14964065 -0.22166698 -0.03492878 -0.22075361
000120 56 c5 a0 bc 1c 72 1b 3e 98 ea 37 be d6 cb 17 be
       -0.019625347 0.15180248 -0.17960584 -0.14823851
000130 c7 44 3c bd 52 9e 8c 3d ce d4 68 3e 1c 50 99 3d
       -0.04596403 0.06866135 0.22737429 0.07485983
000140 78 75 30 3e eb 6a 4c 3e 37 08 12 3e bc cc 07 be
       0.17232311 0.19962661 0.14260946 -0.13261694
000150 80 4f 13 be 57 00 0f 3e 0d 94 4a bd 93 6c 22 be
       -0.14385796 0.13964973 -0.0494576 -0.1586173
000160 25 07 56 3d f6 ad 2d be 2c 1c 08 3d bd 04 5b 3e
       0.052252907 -0.16960892 0.03322999 0.21388526
000170 32 cd 54 3e 5a 3a 22 3d 76 57 06 3d ad e4 c9 3d
       0.20781401 0.03960643 0.032798253 0.098580696
000180 e5 0f 9f bd fc f5 05 be b8 f8 57 3e b8 51 4e be
       -0.077667035 -0.13082117 0.21090972 -0.2014836
000190 85 e4 4d 3d 0e 2c b5 bd 2d 6f b6 3d d8 96 26 be
       0.05026676 -0.088462934 0.08907924 -0.1626848
0001a0 44 02 dd 3d 69 36 fe bd 5f c2 e8 bd 6d 44 43 3e
       0.10791448 -0.12412722 -0.11365198 0.19069071
0001b0 59 42 97 3c 19 29 47 3e 28 80 12 be 4e ce 22 3e
       0.018464254 0.19449271 -0.143067 0.15899011
0001c0 a9 06 89 3c 68 b0 32 3e 83 10 59 bd 32 38 cd bc
       0.016726809 0.17450106 -0.052994262 -0.02505121
0001d0 a3 16 5f 3c ed 91 0a be 10 b6 00 3d e8 fd 01 be
       0.013616237 -0.13532229 0.03142363 -0.12694514
0001e0 0a 46 eb 3d 57 06 4d 3e b3 49 43 bd 1b 4d 28 bd
       0.11487968 0.2002195 -0.047677707 -0.04108916
0001f0 51 81 b2 3d a5 1c 70 3b ae 5f 8f bb 0b a8 87 bd
       0.087160714 0.0036638167 -0.0043754196 -0.066238485
000200 3c 29 24 3e 07 d5 1a bd 8f 36 5a 3e 7d 32 16 3e
       0.16031355 -0.037800815 0.21309875 0.14667697
000210 6e 94 d3 3d 03 19 31 3d 54 31 9e bd 2c 0e 02 be
       0.10331045 0.043236744 -0.07724252 -0.12700719
000220 72 90 3e 3e d6 37 03 be ce 3e fa 3b 1d 49 38 be
       0.18609789 -0.12814268 0.0076368814 -0.1799664
000230 77 01 5d be 5f e5 93 3a 56 f0 c3 bd 0f 80 16 be
       -0.2158259 0.0011283568 -0.09567325 -0.14697288
000240 fd 9f 2d be 84 66 6b 3e 2a ff 4a 3b e0 f6 8c 3d
       -0.16955562 0.22988325 0.0030974844 0.06883025
000250 d3 a7 33 be 53 69 fb bd 18 c0 27 3e 8c 62 10 3e
       -0.17544489 -0.122759484 0.16381872 0.14100093
000260 02 60 f1 3a d7 a1 48 be fe ac 5c 3e 88 87 08 be
       0.0018415453 -0.19592987 0.21550366 -0.13332951
000270 96 7f 13 be b7 a9 df 3d f2 51 82 3d e5 2c 17 3c
       -0.14404139 0.109210424 0.06363286 0.009227012
000280 14 27 04 3e 5e 7e 90 3d c2 bf 5b 3e af 7e 40 3e
       0.12905532 0.07055353 0.21459869 0.18798326
000290 93 e1 2a 3d 06 93 2b 3e 53 bb 5f be b9 b7 48 be
       0.04171903 0.16755304 -0.21848802 -0.19601335
0002a0 8f 8d 0d be c4 41 37 bd 40 cc 54 3e 8e b9 95 3c
       -0.13823532 -0.044740453 0.2078104 0.018276956
0002b0 a5 7e e0 3b a1 c6 09 bc e5 05 c7 bd 8a ae ae bd
       0.0068510347 -0.008409173 -0.09717921 -0.085293844
0002c0 13 d4 5e 3e f3 fe 11 be e6 c1 8d 3d 2c 0c 20 3b
       0.21760587 -0.14257412 0.06921749 0.0024421318
0002d0 bc 57 46 3e 08 2d de bd 22 34 97 bd 76 9f 01 be
       0.19369406 -0.10848433 -0.073829904 -0.12658486
0002e0 2b af 00 bd 53 1f 28 be 0e 35 13 be db 57 70 bb
       -0.031417053 -0.16418199 -0.14375708 -0.003667346
0002f0 24 18 35 bc 35 60 c7 3d 5f 2e 6e 3d f3 81 0b be
       -0.011053119 0.09735147 0.05814969 -0.1362379
000300 d5 97 5c be f6 fc 5b be 67 9d 58 3c 12 19 2a 3d
       -0.21542294 -0.21483216 0.013221121 0.041527815
000310 47 71 2e 3e 21 1e 53 3e e3 3c 59 3e 60 b9 38 3e
       0.170354 0.20616962 0.21214633 0.18039465
000320 b8 50 32 3e 34 6f 94 3c d2 5e c6 3d bd c4 d0 bc
       0.17413604 0.018119432 0.09686054 -0.025484437
000330 55 fc 38 be a2 01 8e 3d 79 8d 60 3e a1 ca ca bd
       -0.18065007 0.06933905 0.21928968 -0.0990193
000340 33 f9 23 3e 9e a5 02 be 98 cc 10 be 55 15 28 3e
       0.1601303 -0.1275849 -0.14140546 0.16414388
000350 03 56 47 be 14 b8 8b 3d 34 d7 e8 3d bf 26 12 3e
       -0.19466405 0.068222195 0.11369172 0.14272593
000360 f4 8c 9c bd ee 93 32 be 1d 02 5f 3e c1 2e cf bc
       -0.07644072 -0.17439243 0.2177815 -0.025290849
000370 4e 9f ce 3d 2d 18 64 bc ca 93 0e be 93 a2 43 be
       0.10088979 -0.01392178 -0.13923565 -0.19104986
000380 f1 4a 37 3e 47 3e 70 be 75 2e 15 be 3c 6f 18 3e
       0.17899682 -0.23461257 -0.14568503 0.14886183
000390 84 bf 35 3d 6f a9 f6 bc 5b e4 16 be 67 c5 80 be
       0.044372097 -0.03011009 -0.14735548 -0.25150606
0003a0 b1 6f 27 bd 86 0b d8 3d 3e db b3 3d b2 3b a8 3d
       -0.040878 0.10549073 0.087820515 0.08214511
0003b0 c9 fb 39 3e c3 c4 17 3d 43 07 4d bd 26 91 11 be
       0.18162455 0.03705288 -0.050055753 -0.14215526
0003c0 6a 3a ba 3a a3 39 c0 3d 04 99 7c 3d 9b 59 27 3e
       0.0014208083 0.09385993 0.061669365 0.16342776
0003d0 5f 17 2b 3e 6e e0 ae 3d a7 13 41 be 4f 0e b1 bd
       0.16708134 0.085389 -0.18855153 -0.08645307
0003e0 4a 12 d3 3d 36 a6 21 3e 41 35 cc bc d1 c8 da bd
       0.10306223 0.1578606 -0.024927737 -0.10682834
0003f0 67 47 a8 3d d5 db 06 3c 40 41 cb bd ea c0 4b 3e
       0.08216744 0.008231123 -0.09924555 0.1989781

layers.8.bias f4 [64]
000000 64 7f a3 ba c0 84 a2 bb e7 eb 65 3b 32 b9 ee bb
       -0.0012473878 -0.0049596727 0.0035083236 -0.0072852606
000010 a4 ea 21 3b 89 91 20 3b 67 a1 1a bc ef a6 39 37
       0.0024706507 0.0024500808 -0.009437895 1.10657265e-05
000020 e2 05 26 ba c3 82 a2 ba f9 9a 40 bc 7f d9 05 bc
       -0.0006333274 -0.0012398589 -0.011755698 -0.008169531
000030 a6 1d db bb 35 fc 0f bb 20 c3 8f 3d 9a bc 46 3c
       -0.006686884 -0.0021970395 0.07019639 0.012129927
000040 64 7e 72 bb 59 08 81 bd c2 77 a5 3b c3 5e 00 3c
       -0.0037001604 -0.0630042 0.0050496766 0.007835093
000050 ff 56 05 bc 6c 15 d5 bc a7 73 69 3b 5a 93 e9 3a
       -0.008138417 -0.026011191 0.0035621913 0.0017820403
000060 10 83 17 b9 4f 29 6d 3c 21 bd 77 bb 1d fc da b9
       -0.00014449307 0.014475181 -0.0037801939 -0.0004176804
000070 97 06 3c bb 50 db f2 ba 7e 63 a7 bb be 84 03 bc
       -0.0028690451 -0.0018528495 -0.005108296 -0.008027254
000080 88 7b 1d 3c 5d c8 e7 bc 70 dd cc 3a aa 04 8c bc
       0.009611972 -0.028293783 0.0015629958 -0.017092068
000090 9f b1 7c bb 90 73 1b bb fe 18 ab 3b 0a 74 f5 bb
       -0.003855802 -0.0023720004 0.005221485 -0.0074906396
0000a0 02 bf ca 3a d9 2b 99 bb 3a 09 4e bc e9 c8 90 3a
       0.0015468302 -0.0046744165 -0.012575442 0.0011046204
0000b0 05 27 45 b9 d9 d8 2c 3b 03 36 b7 ba 21 23 1d 3b
       -0.0001880192 0.0026374368 -0.0013977889 0.0023977237
0000c0 be c8 f1 3c 94 21 c3 bb 6d 4c fc bb 4e a0 0d 3b
       0.029514667 -0.0059549306 -0.0076995404 0.0021610442
0000d0 39 f6 48 bb 56 d8 2e bb e2 46 86 ba 90 9f fd 3b
       -0.0030664338 -0.002667924 -0.0010244513 0.0077399686
0000e0 53 43 09 bc c0 8a 3e bb c2 3e 8e ba c0 ba 08 bc
       -0.008377868 -0.00290744 -0.0010852444 -0.008345306
0000f0 c0 35 f0 bb ad 12 ad bc 4b b7 8a bc 44 79 0c 3b
       -0.0073306262 -0.02112707 -0.016933104 0.0021434585
